experiments/exp_batch_20250114_143214/exp_h25_lr0.1_run1/model/weights.npz (npz, 160046 bytes, 4 tensors)

W1 f8 [784, 25]
000000 05 d7 43 21 9e ba 50 bf 55 c3 0d 9a 7a 6b 79 bf
       -0.0010210556256970438 -0.006206015504049163
000010 d1 ce 14 da d6 15 84 bf f8 30 67 76 b0 0e 70 bf
       -0.009807280092537425 -0.003920258814513959
000020 fb 2d e7 5a 4a da 7a 3f 2e 85 f8 0a 6e 69 8e bf
       0.006555834245272059 -0.014849528989602758
000030 95 b9 af c1 72 00 49 3f dc 84 d9 39 69 8a 77 bf
       0.0007629928908253087 -0.005747233427969092
000040 dc 0b 14 3c 99 d7 77 3f f2 8a da bb 8e b0 4b 3f
       0.005820845196697424 0.0008450219099425933
000050 75 f2 ea c3 c8 a5 79 bf 97 5f 42 d8 97 28 76 3f
       -0.0062616197962453895 0.005409806388477898
000060 23 94 b2 69 96 08 67 3f f7 61 23 ae 46 5c 72 bf
       0.00281171205058907 -0.004482532591474789
000070 a9 b0 b4 ab 5d b6 8e bf 1e 1f cc 94 e8 32 6e 3f
       -0.01499627285246448 0.003686384449227988
000080 fe aa 0c 17 15 7f 68 bf ed 7d 1e e5 05 02 87 bf
       -0.0029902851023470003 -0.011234327368412312
000090 e3 5c fb e0 90 86 8b 3f b8 d9 83 c3 f3 60 88 bf
       0.0134402578982375 -0.011903671650071654
0000a0 c5 ec 5a cb ef bb 27 3f b8 7d 98 8e 21 3b 62 3f
       0.00018107702424239293 0.0022254615221439476
0000b0 f6 df be df 86 00 5c bf 00 46 3b 2b 23 70 80 bf
       -0.0017091099862067672 -0.008026385075399212
0000c0 be 4a 40 ef 37 77 76 bf 38 2b 4a 90 86 d7 73 3f
       -0.005484789366181074 0.00484421314161914
0000d0 7c 4a 5c 42 8e 4c 82 bf d6 27 a6 7d 0b 7b 4f 3f
       -0.00893508090988359 0.0009607130153181885
0000e0 3b 7b c6 f9 8e 68 61 bf b8 69 b8 a0 15 d2 6a 3f
       -0.0021250526899189415 0.00327400421316534
0000f0 bf 2c b5 2c c9 45 87 3f 33 50 ce 47 75 33 81 3f
       0.011363574673529773 0.008398929838030344
000100 da 1f fa 82 f8 e0 92 bf eb 42 8c e1 0e 89 90 bf
       -0.0184363202993437 -0.016147835270262794
000110 b5 53 53 6b 1e 39 7f 3f 88 e8 b2 5c 8f 75 91 bf
       0.00762283213153563 -0.017050018341912693
000120 ce f3 56 22 83 fa 6b 3f 33 c5 92 12 ed 76 40 bf
       0.003415351983419224 -0.0005024583416767592
000130 2c 7b a3 40 c0 9b 7a 3f 2e b3 af 15 14 46 75 bf
       0.006496191965395675 -0.005193785148532011
000140 64 d5 a0 8e b7 62 4c 3f cc 25 f3 01 8c 96 87 bf
       0.0008662601733308403 -0.011517614182951962
000150 7a 60 96 44 b8 2a 81 3f ec ab 40 c1 8f 24 49 bf
       0.0083822627955643 -0.0007672979286373872
000160 3e 33 5a 86 b8 3d 81 3f 2c f6 ae cd 21 7b 91 bf
       0.00841850433359925 -0.017071273974343423
000170 43 f7 d8 38 11 e8 72 3f 29 85 34 e5 7c 7e 77 3f
       0.004615847848581658 0.005735862610238209
000180 7a 60 1b 92 4c 23 7e 3f 75 95 6e fd 44 2e 91 3f
       0.00735788259927272 0.01677806660486199
000190 ed f4 8d 03 38 91 6d 3f 92 92 3b 84 d1 c9 8b bf
       0.003609284784430336 -0.013568531845018304
0001a0 1f f9 26 36 0d c9 83 3f 40 6c 08 b3 93 84 86 3f
       0.009660819258780649 0.010995057965422217
0001b0 64 e5 69 c1 2a fb 8b bf 59 42 b5 47 81 09 84 3f
       -0.013662656810299274 0.00978375434957106
0001c0 ec fc d5 dc af 07 77 bf 3d e1 f6 fd cb a2 82 3f
       -0.005622565234602233 0.009099572837712894
0001d0 3d 98 7c 2d 63 93 80 3f 6e e7 21 20 71 48 94 bf
       0.008093619180339679 -0.019807593904693936
0001e0 ef 2a c0 53 d3 7d 73 3f c8 bc 9e aa 0e 02 71 bf
       0.00475866841953619 -0.004152352610545758
0001f0 f9 1f e2 43 d1 de 81 3f 2c ea 91 9d 07 c6 47 3f
       0.008725771793493197 0.0007255112824531887
000200 df b0 dd 0a d8 9c 34 bf 05 13 26 9c 4f 2c 86 3f
       -0.0003145244071365415 0.010826703980237004
000210 5a f0 4e d0 1a 49 4f 3f 2c 2f 12 c2 89 0d 7d bf
       0.0009547596861163674 -0.007092989079989381
000220 67 09 ff 62 16 b3 84 bf 2e 88 0b e8 e7 7b 87 3f
       -0.010107207199216274 0.011466800469353524
000230 85 8f ae 50 72 d4 93 3f bf b6 99 0e 35 b2 91 3f
       0.019365106748991962 0.01728136922468226
000240 61 d9 5e 5a 1a bd 78 bf 79 28 8a 3e 3c f6 41 bf
       -0.006039717618412461 -0.000548152366790746
000250 8e d2 91 44 e5 ff 82 bf e3 c9 a0 c8 a8 e7 94 bf
       -0.00927714457996245 -0.020414960141531224
000260 bd 44 d8 d3 2f d8 81 3f ac 1c f8 94 a2 bd 60 bf
       0.008713124897470665 -0.00204355005530806
000270 8e c7 cd 27 f5 80 70 3f 98 1f bf 1f 69 95 82 bf
       0.004029233587845028 -0.0090740406811987
000280 22 c3 7a c6 00 6f 84 bf b0 31 a2 b5 60 57 8b 3f
       -0.009977346474757069 0.013350253623024638
000290 d6 19 fc 9b a7 db 5f bf e0 0f 2c 5e 22 81 7e 3f
       -0.0019444596109124876 0.007447370767071221
0002a0 7d 3b 3a 3e f6 de 60 3f 74 01 b1 91 20 8c 81 bf
       0.0020594415125922403 -0.008568052717351483
0002b0 ad fe 22 62 0f 05 8e bf a1 de a2 49 6d fc 56 bf
       -0.014658088858026852 -0.0014029567014811966
0002c0 b7 6a b3 58 53 e8 8f bf a1 35 73 4a 37 5d 8c bf
       -0.01557984461253646 -0.01384967037156565
0002d0 fc 49 43 c3 f8 1e 8e bf 88 8d 64 b6 d9 b0 41 3f
       -0.014707511385869225 0.0005398810433558257
0002e0 5b 34 79 c7 9f ee 7f bf e8 4c ac 18 35 d9 72 3f
       -0.007795929086182952 0.004601676376086085
0002f0 67 bd 6c 02 29 01 8f bf 4d 0d 24 c2 8b d6 8c 3f
       -0.015138931643007237 0.014081088888366589
000300 ba 1b d9 31 fb dd 89 3f a3 bb d4 74 c7 12 65 3f
       0.01263042684435144 0.0025724311477896707
000310 0d 22 a8 76 ec 72 96 3f 45 52 24 c0 ba 74 5e 3f
       0.021922774069056006 0.0018588851676827483
000320 93 28 83 65 8d 21 97 3f 18 10 94 9e d2 09 59 bf
       0.0225889294822897 -0.0015282208281073347
000330 ae 66 53 e2 6b b5 82 bf f7 79 88 04 bb 26 8d 3f
       -0.009135096401610223 0.014234028888549395
000340 3b df 83 96 b1 30 56 3f 85 aa e5 5f 57 44 5a 3f
       0.0013543829209634168 0.001603207899814636
000350 68 b3 64 c9 52 95 9e bf 7f 65 bf 18 ac e8 6d 3f
       -0.029866498510432576 0.0036509858382315903
000360 bc e6 29 5c 23 a5 96 3f 9a fc ca 91 7c 98 4f 3f
       0.022114326954101968 0.0009642227410821159
000370 a3 e5 ff 88 3b c4 8c 3f cc 38 68 63 27 a4 52 bf
       0.014046158903499533 -0.00113777014269405
000380 89 21 7b a6 fe 61 78 3f a0 a1 9b 35 58 7a 88 3f
       0.00595283005504433 0.011952103744491904
000390 c0 4e 15 89 a2 00 8b bf 4d 8c cb 56 93 f6 7f bf
       -0.01318480473370387 -0.007803512137544888
0003a0 63 26 1c 59 c8 c4 6a 3f aa c9 7c 90 61 35 79 3f
       0.003267661385397956 0.006154423819497637
0003b0 21 51 52 85 ad b3 58 3f 2d 1c 3c 95 48 ff 6d bf
       0.0015076822794855632 -0.0036617677341186567
0003c0 ce 09 4c ef 7b fc 5d 3f cb 75 5c 24 18 32 94 3f
       0.0018302164364177756 0.019722344607648695
0003d0 36 02 45 ce e3 eb 91 bf 55 1f 93 2a d8 05 6a bf
       -0.017501410927481774 -0.003176614951914939
0003e0 cc cc 90 e6 49 d2 7a 3f f2 55 c5 3e 49 41 20 3f
       0.006548203157808529 0.00012401599031856798
0003f0 af 25 a3 ca 13 b4 53 bf dc e0 ab e0 27 bb 82 3f
       -0.0012026017453073792 0.009146033805777547
000400 c6 0b 5e 79 22 13 44 3f 21 4c 1c 46 02 a1 7b 3f
       0.0006126325922511881 0.006745346910764589
000410 56 50 81 35 1b c2 73 bf df 94 b5 8c ba 44 7f bf
       -0.004823786053823017 -0.007633904180100986
000420 56 eb d1 1e 77 55 64 bf e0 fc 3c 29 ed ee 75 3f
       -0.0024821592874650173 0.005354811106200702
000430 30 98 b0 93 33 53 89 3f 73 d1 54 b5 8d 90 81 3f
       0.012365725464473426 0.008576495262425187
000440 65 ab ef 02 9c 19 64 bf 13 eb 50 c7 c6 fc 85 3f
       -0.0024536177729620906 0.010736039121288543
000450 e0 e5 1d 00 db 9d 3c bf b5 52 b2 e6 fa 5f 92 3f
       -0.0004366550129969154 0.01794425995884082
000460 c5 3f 68 b5 15 de 69 bf f8 9f 27 fe c7 26 f1 3e
       -0.0031576560970804934 1.635693468840513e-05
000470 8f 39 50 aa 0e 47 57 3f 06 79 3f 7e 16 ad 70 bf
       0.0014207499709787163 -0.004071319450274174
000480 96 9b 55 92 69 c3 84 bf 98 1b 84 d3 58 3c 88 3f
       -0.010138344553252836 0.011833852724988422
000490 91 59 bc 37 be 66 5e 3f fa bf d6 bf 51 91 5e bf
       0.0018555505366229833 -0.0018657015165040023
0004a0 b3 2d a1 04 53 ab 77 3f a0 f1 47 c6 06 f4 7a 3f
       0.00577862194956984 0.006580378020313665
0004b0 a5 6f a0 3e 47 de 73 bf 6c eb a9 5f 6f a8 98 3f
       -0.0048506529801918595 0.02408002873788055
0004c0 52 4d 75 9d 75 16 82 bf 51 54 8c 13 4c dc 6b 3f
       -0.008831900470488794 0.003400944315567624
0004d0 fc 3c ea 15 86 ab 8c 3f fa 32 65 79 6b 09 89 3f
       0.013999030631821167 0.012224998132887677
0004e0 63 ca ca b8 f0 5c 47 bf 38 39 9f 04 a8 3e 99 3f
       -0.0007129836463575897 0.024653077394583195
0004f0 a5 c8 7d e3 c7 d4 77 3f 26 6e 59 81 04 79 62 bf
       0.005818157973282255 -0.0022549713128634684
000500 4b ab cd 5d 60 76 63 bf 6d 14 99 2e 4d 34 71 3f
       -0.002375782218611821 0.004200269214895786
000510 b7 31 77 46 ae 13 5e bf 98 17 89 da c3 5b 6a bf
       -0.0018357469469832807 -0.003217585112255738
000520 63 c3 74 1c df 14 72 bf b2 b4 b4 56 89 8a 89 bf
       -0.0044144358901555296 -0.012471268614343198
000530 50 52 8e 3a 6b ae 80 3f 12 e0 6e 88 85 7d 66 3f
       0.008145177578435497 0.0027454002442617387
000540 21 1f d6 d0 23 87 64 3f 93 95 2d 3c 21 58 8a bf
       0.0025058459784225305 -0.012863406800259358
000550 25 25 3a 30 c8 b0 49 bf f1 70 da 67 b3 07 88 3f
       -0.0007840135080680362 0.01173343811688496
000560 7e 62 41 70 47 a6 84 3f 88 fe bd 2c 35 a3 81 bf
       0.010082777131331652 -0.008612075260088461
000570 ae 15 5b 54 d0 86 73 bf 48 0d cd 15 bf 88 40 3f
       -0.004767240321318962 0.0005045826943405407
000580 64 47 a0 41 db 75 8d 3f c5 36 c5 46 e2 ab 7e 3f
       0.014384949627160366 0.007488140003557302
000590 4d 08 52 e2 ed 6e 89 3f 0a 1d 67 6b 1e 13 36 bf
       0.012418611974002536 -0.00033683293022730763
0005a0 af 91 38 cc 19 33 93 3f be 64 00 8c ba 8f 82 3f
       0.018749621476801866 0.009063203237064218
0005b0 3c 7b 37 91 ff 86 6d 3f e8 41 ce 8f 97 56 98 3f
       0.0036044112728030025 0.023767822410777045
0005c0 d7 c0 fb b7 59 d6 79 bf 84 45 47 28 32 50 63 3f
       -0.006307936156858505 0.0023575763354776753
0005d0 35 04 05 07 75 41 65 bf 1b e9 4b b7 bf e4 78 bf
       -0.002594688958339942 -0.006077526941903134
0005e0 82 a9 e0 78 0d 66 73 bf d6 34 be 22 b9 80 97 bf
       -0.004735996843047709 -0.02295197748712926
0005f0 c2 96 68 11 8b a0 80 bf 3a eb b6 75 9b c3 81 bf
       -0.008118711918608471 -0.00867387249933459
000600 40 2a ee 7f 4c c2 8a 3f 04 50 16 41 5d 1d 5c bf
       0.01306590810215369 -0.0017159853635790876
000610 8c 2b 4d 77 87 79 86 bf f2 e2 ec f9 fc 8e 7b 3f
       -0.010973985985079947 0.006728161037977231
000620 20 02 f0 d1 a3 20 81 3f d6 a0 80 dc 2c d6 70 3f
       0.008363036960873649 0.00411050342521709
000630 cc a2 52 75 11 0b 8d bf 7c ef 79 89 a7 47 84 3f
       -0.014181267159373866 0.009902295000976606
000640 77 9f 87 23 25 b4 54 bf a3 0b 66 21 4b bd 60 3f
       -0.0012636530574301177 0.0020433871642934905
000650 cd a9 4e c9 ef 32 7a bf 2f 5c df 06 0f 15 80 3f
       -0.006396233239608096 0.007852666280014102
000660 cc 52 8e 90 0d 07 88 3f 7c 82 ff 7f 9e 2e 83 3f
       0.011732202505109333 0.009366262704078247
000670 30 12 60 16 a6 c5 6e bf e1 5e ac 34 26 30 90 3f
       -0.003756355657062359 0.015808674778866275
000680 47 83 6c 3f 3b a8 9b bf 80 16 96 3c 9b 69 87 bf
       -0.02700893950089103 -0.01143189695973068
000690 71 98 59 c1 32 43 69 3f 2a 40 f0 8d 3c 56 67 3f
       0.003083800441163347 0.00284873797455278
0006a0 87 1c 66 55 bb fd 99 3f 84 ce ee d1 66 05 7a 3f
       0.025381972396215004 0.0063528076561173465
0006b0 58 25 ca 94 9c dd 74 3f ad 05 a4 86 35 d6 71 bf
       0.005094157834386458 -0.0043546763283769776
0006c0 c8 1b ca 17 b9 36 85 bf f2 95 be 95 22 6e 8b 3f
       -0.010358282125947485 0.013393659777487497
0006d0 dc df 1f 27 f4 7d 5e bf a9 30 a7 8d dd 0b 83 3f
       -0.0018610843949300382 0.009299975285920263
0006e0 36 b4 a2 d5 43 44 48 bf 1f 0e ac 93 b1 b1 92 3f
       -0.0007405596945965268 0.018255972517193905
0006f0 5f 3b 11 1c c5 99 8a 3f 83 41 7f 79 88 0d 51 bf
       0.012988605422064202 -0.0010408241996523189
000700 37 70 f2 10 3f 5b 89 bf 04 00 e4 72 c2 9f 88 3f
       -0.01238106985538688 0.012023467189010269
000710 a8 d7 2e 6f cf 21 7c bf 2c 11 9e 93 bb 02 8d bf
       -0.006868181505458461 -0.014165368502070473
000720 d7 a0 85 b5 08 8b 90 3f 98 1f 70 98 84 0d 7d 3f
       0.016155372695181604 0.007092969847697271
000730 76 b9 44 15 2a 10 57 3f 72 2b a4 f2 9d 02 68 bf
       0.001407662483937947 -0.002930935375052562
000740 f7 b0 09 52 f2 ff 98 bf 37 80 56 43 d7 79 7a 3f
       -0.02441385865897502 0.006463852759594649
000750 53 09 8f b6 82 a8 5f bf c0 92 64 45 c7 80 5f bf
       -0.0019322659011185752 -0.001922793007517118
000760 e0 58 76 17 70 18 78 bf 4e 05 02 01 da c9 88 3f
       -0.005882680757528486 0.012103751331099002
000770 8e 81 73 1f 97 10 72 bf 17 4d ca 83 d8 61 76 bf
       -0.0044103530155727 -0.005464406739196257
000780 2e 76 f9 c7 05 58 7d 3f f3 d1 bc 4e 2f ac 89 3f
       0.007164023001306625 0.012535447683696943
000790 68 1a 7a 5a 10 8a 63 3f c1 c5 3a 33 ca b0 3c bf
       0.0023851699259609845 -0.0004377835896135184
0007a0 89 92 53 a8 12 84 46 3f d3 e1 1a d1 e9 82 68 bf
       0.0006871310330579121 -0.0029921118483253544
0007b0 08 fa a4 f8 7b 83 80 bf 88 15 0f f4 01 45 5d 3f
       -0.00806328632881749 0.0017864722324117694
0007c0 16 9e dc 51 1c 50 90 3f 49 61 b1 d1 52 8a 88 3f
       0.01593059777874658 0.011982581161803412
0007d0 ee fd 0f 85 73 e3 91 3f e0 4e 1d ec 16 66 94 3f
       0.01746922015808921 0.019920690690311882
0007e0 c0 43 c4 d9 59 1f 8a bf d1 c9 c6 15 60 de 6f 3f
       -0.01275510974713423 0.0038902165090004344
0007f0 fb 4d 2d fe ee 92 7f 3f 1e cd 12 93 15 8b 5e 3f
       0.007708486143048083 0.0018642149628192504

b1 f8 [1, 25]
000000 28 c3 6e 40 96 6f eb 3f a5 58 2d 19 57 50 d0 bf
       0.857371450276422 -0.25490357836441496
000010 2c 75 9a 8e fb 17 d8 bf 12 e4 90 3a a0 ee c2 bf
       -0.37646378446682394 -0.1479072843519878
000020 07 56 52 3b 39 40 d4 bf 73 a9 f6 d4 f1 8c c5 3f
       -0.3164198951065775 0.16836378954515005
000030 3d 3d fa c1 d8 1e bb bf a7 5f 52 97 98 b5 c1 3f
       -0.10593943343905195 0.13835437191732788
000040 eb 75 c4 b9 0b 50 be 3f 36 22 d6 a1 18 c9 7d 3f
       0.1184089020284415 0.007271858424595259
000050 ee 49 11 25 2b 39 c6 3f f2 07 3e a1 d7 fe ba 3f
       0.17361964521349144 0.10545108496265224
000060 18 e7 9b ff 33 7d c9 bf c4 ec fa a4 39 a0 aa bf
       -0.19913339596660573 -0.052003671063596296
000070 a9 4a 75 6d a6 f8 a2 3f e0 98 82 95 18 f4 b8 bf
       0.0370532997718745 -0.09747460985326795
000080 4a 48 8d 09 a9 82 c9 3f a5 3b c6 5f d0 62 ac 3f
       0.19929993597412682 0.05544139069672064
000090 5f 5b 20 84 cb ae d1 bf 5d a3 24 83 42 b1 d2 3f
       -0.27629363921135125 0.29206908041901675
0000a0 c6 3a 60 77 43 f3 bc bf 5d cf f3 04 72 e6 e1 3f
       -0.11308690704775434 0.5593805405355671
0000b0 3b 14 93 4e c1 e0 87 bf f3 3b 22 36 cd 3e d1 3f
       -0.011659155092624931 0.26945810591217806
0000c0 d2 61 d5 0a e1 9a ce bf
       -0.2391015341661516

W2 f8 [25, 10]
000000 f4 44 07 53 a6 53 ee 3f f6 9c 9d cc f1 de f7 bf
       0.9477111455582006 -1.4919298165130477
000010 b2 14 ec f9 99 2c db bf 87 bc e8 d6 8d e7 f4 bf
       -0.4245972576757807 -1.306531753052498
000020 2e d7 83 1b 79 80 e5 3f b2 1e 73 1f 89 90 0a 40
       0.6719327485468278 3.320574041081124
000030 e4 4f 33 ff 00 e7 f2 3f bb 96 df a3 ef 11 d3 3f
       1.181397435070715 0.2979697323156462
000040 3f 82 b8 df c4 3e f1 bf eb 12 6c 0b ce 01 01 c0
       -1.0778244723407082 -2.1258812801701104
000050 77 50 e0 b4 ba b8 db 3f 2a b8 0f 22 6f 29 d0 bf
       0.43314998305982705 -0.2525289375906846
000060 e3 5b f1 72 ce 21 f0 3f 17 4e 7b 84 8d ec e6 3f
       1.0082535257295084 0.7163760745556286
000070 44 d2 c5 dd f8 dd f4 bf 24 70 50 21 bc 63 ee bf
       -1.3041924155233042 -0.949674668375796
000080 41 44 c3 7b e0 a7 00 40 b3 d8 40 d6 2b 57 f3 bf
       2.08197113694817 -1.2087820405263698
000090 a7 2f 50 57 0a e0 a9 bf 98 79 86 8e 9d 2b dd bf
       -0.05053741756282131 -0.45578707617269165
0000a0 8d aa 0f a3 9f bf d3 3f d5 50 f1 f3 d8 73 8c 3f
       0.30857077526040017 0.013892836517847599
0000b0 e3 a6 05 55 7e 03 e7 3f ec 85 84 b3 13 50 92 bf
       0.7191764507853943 -0.01788359435261626
0000c0 84 89 d5 f3 e1 3d f0 3f 52 c3 5c 73 77 3a e7 bf
       1.0151080631991087 -0.7258870366259578
0000d0 a3 7d 9d 76 c6 e0 cd 3f f9 20 38 79 6d 6d 07 c0
       0.233422096173837 -2.928431460404792
0000e0 c8 2f b7 61 fb 09 e7 3f c2 ec 9f ec 4b 2d e4 3f
       0.7199685009486467 0.6305293675972268
0000f0 43 27 b4 2b 60 82 f0 bf cc 17 ec b7 98 62 e7 3f
       -1.0318299967934343 0.7307857124549115
000100 3c 92 e0 fd a8 f3 d1 3f be 3e e8 71 ea a1 dd bf
       0.2804968337316358 -0.4630075561881134
000110 65 75 95 a0 b6 84 00 c0 b3 26 8e 04 11 b2 d9 bf
       -2.0648014588938843 -0.40149331517077796
000120 a6 57 68 d8 65 05 f2 bf 41 07 7e d3 b9 64 f2 3f
       -1.126317830412043 1.1495912801187418
000130 90 28 2f 52 cc 45 e7 3f 5f e9 8e 6b 19 57 01 40
       0.7272702794227985 2.1675289538372193
000140 3e f0 6e 9d d6 3d f8 bf 45 5b 09 98 9c 96 d9 3f
       -1.5150972509136547 0.39981760833091
000150 fb b8 65 e5 d2 ec f9 3f cc b8 19 5f 77 14 e7 3f
       1.620318313678182 0.7212483270102665
000160 3c e7 0d 3f ff 04 c4 3f a2 3b 7e 9c 97 b3 04 c0
       0.15640249804328643 -2.58769151935799
000170 94 d7 c7 5e bd b4 ed bf c6 bf a8 44 48 17 f0 bf
       -0.9283129550155871 -1.0056841547011444
000180 6b e5 0e f7 5c 93 02 40 fa da 07 33 ce 0a eb 3f
       2.3219546605511616 0.8450690266316478
000190 3a 07 23 8e 22 23 e3 bf c9 51 fd ec 5c 89 f3 3f
       -0.598038938151354 1.2210358865169033
0001a0 f6 0a 8f 23 f7 9b ea bf 4d 16 1c 84 d6 d8 eb bf
       -0.8315387434489299 -0.8702194767253758
0001b0 d5 e4 65 47 9a c6 f9 3f a6 fd 53 6b 25 0b e5 bf
       1.6109869755730888 -0.6576106163264981
0001c0 db 95 72 df ac df ed bf 08 55 89 a5 c0 c3 01 40
       -0.9335541118822975 2.22058228803019
0001d0 97 81 98 47 00 fc 00 c0 c8 79 aa 87 75 27 f0 3f
       -2.1230474084297373 1.0096335696649579
0001e0 24 27 28 73 a7 e8 01 c0 2d db ab 46 51 5d f7 3f
       -2.2386006352070513 1.460282589015786
0001f0 eb 1b 3d d9 5e 84 e5 3f 5a 84 da f2 35 af d6 3f
       0.6724085085814954 0.35444401470346565
000200 00 37 c4 88 f6 9f f0 3f a5 3c d6 8f 4d 05 d3 bf
       1.0390534727516183 -0.29719866797035827
000210 b4 24 26 78 e9 c9 f5 3f 09 62 b4 d6 ba 26 dc bf
       1.3617949193306176 -0.4398638817524732
000220 97 4e cf 8c 5e 3c e7 3f 61 a2 03 cc fe 29 05 c0
       0.7261193037215489 -2.645505517826948
000230 f7 45 ba 4a 23 d3 e3 bf 4d 44 43 b7 f5 e4 fd 3f
       -0.6195236644290948 1.868398395414505
000240 61 1e 8d de 65 0b e9 bf 63 82 41 d9 36 07 f6 bf
       -0.7826413485244751 -1.3767612921293668
000250 c3 38 6f 65 42 00 d7 bf 46 9f 63 f1 ea 59 fd 3f
       -0.359390830094423 1.8344525746596942
000260 58 98 27 66 b9 a4 eb 3f c5 f5 2d 39 65 ee c0 3f
       0.863857936402165 0.13227525035828883
000270 13 69 7a e8 d0 f8 f7 bf 08 36 a6 d4 ca 50 ae bf
       -1.4982461053064682 -0.05921014638725458
000280 54 c9 85 72 8a 6d fb 3f 0f 92 51 a5 17 90 fc bf
       1.714243361810607 -1.7851788003691842
000290 a0 b7 e2 9a 28 9d 06 c0 0c 71 c2 f9 8b a3 f2 3f
       -2.826737604183066 1.1649284130317623
0002a0 06 06 c7 95 29 79 d6 3f 3e ba 52 2c de 38 e3 3f
       0.35114516855910016 0.6006918779074295
0002b0 1d 09 87 9e 07 b7 e4 3f 3b c0 46 e7 d3 fe f8 bf
       0.6473425003280543 -1.5622138056023818
0002c0 d0 2a cb 07 19 04 b7 bf e3 66 ec a9 4b 6d fc 3f
       -0.08990627708696342 1.7766834867128913
0002d0 14 44 95 b3 8b 58 00 40 0a 62 a3 1a ad ba f6 bf
       2.043235209458098 -1.420575241141821
0002e0 ce f1 59 af b1 93 ee bf da 10 99 d8 e2 53 f6 bf
       -0.9555290627318358 -1.3954800091606132
0002f0 7c 9a 9c 94 e6 cd ee 3f 67 7f 47 df 93 b9 e7 3f
       0.9626343634198089 0.7414035187648381
000300 e1 c7 af b1 ec e6 fb bf 7d 19 5e 69 40 10 de bf
       -1.7438780728230017 -0.46974191942026505
000310 82 fc 05 26 cb ee f4 3f 72 9f 3d 0f fd 78 ee 3f
       1.3082992062843748 0.9522691056890678
000320 34 94 2f 76 1b f6 ec bf d3 27 c6 9c 16 9e fb 3f
       -0.9050423916165813 1.7260957836137905
000330 5f 1f ef 0a 58 d7 03 40 65 19 fc aa ef 7f fd bf
       2.4801483968948754 -1.843734424504498
000340 d3 67 72 2b 4c 37 f0 bf 8c ca 72 dc 85 b7 c8 3f
       -1.0135003754753498 0.19310067428667244
000350 03 e9 03 e5 e6 91 f6 3f 19 e7 db 3d 6c b8 ce 3f
       1.4106205888661527 0.24000313778361074
000360 e4 a2 c1 fa cd 0a f6 bf 3f b8 4e 18 25 b7 ed bf
       -1.3776378436252168 -0.9286065554385984
000370 9b 76 66 22 7a 6b f0 bf c8 b8 a1 f9 2c 42 f0 3f
       -1.026239523292509 1.0161561728705681
000380 9c 19 e3 b2 32 a4 da bf 5f 19 64 e7 07 ad ba 3f
       -0.4162718531555585 0.10420274161524422
000390 e0 d3 cc 96 77 b7 ea 3f 3a 61 08 bc d5 df f7 bf
       0.8348958916964158 -1.4921471924809127
0003a0 85 ca cf 2f 57 68 da bf e0 69 8b 61 83 21 fb 3f
       -0.41261844319448243 1.6956819353423427
0003b0 a2 27 70 af 8d 70 f0 bf 52 d2 ae 23 66 c1 e7 3f
       -1.0274788716364829 0.7423582741672112
0003c0 76 e1 68 a1 48 ad f3 bf 1e e6 41 7f 3c 63 f9 3f
       -1.2298055939737345 1.5867276164048074
0003d0 c3 26 2b 9d 8a 82 f7 bf 16 19 16 96 54 70 06 40
       -1.4693704738041766 2.804848835515382
0003e0 05 80 0c 2f dc 81 ca 3f aa c9 ee 8e 82 e6 f3 3f
       0.20708801553064418 1.2437768538771743
0003f0 bf e1 24 0a e2 d2 ea bf 2b b1 73 58 5d 7f f0 bf
       -0.838242549717556 -1.0310948805955131
000400 36 f9 7f 8f e8 b7 fc bf 5e ca 06 f1 62 e5 e1 3f
       -1.7948995213951782 0.5592512805508922
000410 1a 10 ae 27 57 b2 ee bf 34 ca bf ba 45 bf d3 bf
       -0.9592700743673988 -0.3085493396494343
000420 09 c9 9c 6c cd ea fe bf 39 0a fa 61 67 20 00 c0
       -1.9323248140977418 -2.0158221868926174
000430 33 f9 f4 5a a1 dd f0 3f 43 a8 4b 15 1e 66 c3 bf
       1.054108958530901 -0.15155387916394333
000440 21 4b 92 13 fc 66 fe 3f 52 80 7c 4c 07 55 c2 3f
       1.9001427425871003 0.14321986422237615
000450 be 49 e7 c8 90 46 f2 3f 5a 89 eb ba 71 92 f1 3f
       1.1422279212753064 1.098252992779257
000460 c6 bc c5 95 8f bd fb 3f af d4 e0 4b 5b da f5 3f
       1.7337795114979584 1.365809723281284
000470 23 7a d3 2a 68 0f fb 3f 95 ac db 75 91 c4 f2 3f
       1.6912614510434956 1.1729902843315234
000480 93 c1 b4 2e d2 5a f8 bf 25 aa 88 d9 c7 44 dc bf
       -1.5221731018501472 -0.4416980385164229
000490 ef a0 31 d1 78 98 f4 bf 0c 92 42 ec 07 7a f4 3f
       -1.287224595225833 1.2797927121074535
0004a0 12 85 31 14 39 90 fe bf a0 f2 2f ac cb a5 00 c0
       -1.9102106846624491 -2.080954880917787
0004b0 03 0a 27 1e c0 7d fc 3f f7 e2 85 1c 37 e8 c7 bf
       1.7807007959205527 -0.1867741479179796
0004c0 33 ff b8 4e 9d 4d c3 3f b4 b7 36 64 c7 11 fb bf
       0.15080610603217223 -1.6918405451392404
0004d0 ba ed 85 dd 5c ba e8 3f 44 42 3b 3e 78 54 f9 bf
       0.7727493597625916 -1.583122485248297
0004e0 ef aa 9c ec eb f7 e4 3f dc 92 8a 6e ae 24 f8 3f
       0.6552638646438406 1.5089554136294998
0004f0 de bb ed 75 4b df f1 bf 18 ee 5b 14 68 89 d4 bf
       -1.1170153242671783 -0.32088663089936764
000500 c8 83 e0 fd 4a 9d f7 3f dd 4b 7e 12 1c 25 f5 3f
       1.4759015957899795 1.3215599748989384
000510 71 0f 00 16 c7 c8 d2 bf 00 24 1f 2c af 69 e9 bf
       -0.2935044970365573 -0.79415091149815
000520 58 02 4b 47 12 12 ff bf 0a e9 07 9b ef a5 e6 3f
       -1.9419119629748334 0.7077558544108637
000530 79 b0 f7 fc d1 c2 01 40 d3 1a 92 59 1f 89 fd bf
       2.220127083119277 -1.8459771632057496
000540 60 35 6a ab 26 1b d6 3f 66 a2 fc 53 d2 fa f3 bf
       0.3454071687673004 -1.248735740731854
000550 70 a4 1c 8b 15 17 f7 bf 56 4b e5 38 f0 7a d3 bf
       -1.4431357797677968 -0.3043785625097163
000560 d3 46 52 03 45 98 cd bf c7 63 fa cc 31 95 f4 bf
       -0.23120939886262323 -1.2864244467693753
000570 d4 da 1f c2 99 1c 00 40 26 b7 4f 26 83 81 f4 3f
       2.0139651456805527 1.2816192146814926
000580 a2 99 e4 9d ee 85 cb 3f ea 60 f2 44 d7 c0 d0 3f
       0.2150247832261814 0.26177007420621
000590 0f 50 a8 dd 8b 64 fb bf a5 6c 28 1d f8 28 f4 3f
       -1.712047448968409 1.2600022448521397
0005a0 aa 54 84 3e 9c f0 e7 3f 36 b7 1e f6 47 c7 fd bf
       0.7481213780435116 -1.86115261211985
0005b0 0f f6 a8 bb 79 fc e0 3f e4 59 6b 49 2b 52 eb 3f
       0.5308197655901398 0.8537804063769809
0005c0 de 4a 19 41 cc e4 ed bf 91 e4 84 70 07 08 f1 3f
       -0.9341794272862349 1.0644602198865736
0005d0 c7 49 38 df 30 ef 00 c0 4c 17 00 2e 85 76 eb 3f
       -2.11679243460205 0.85821780189938
0005e0 25 58 19 d6 c5 68 f1 3f f5 0d 0f 65 21 79 ce bf
       1.0880792964212642 -0.2380716079188542
0005f0 9f 73 d8 4a d1 e2 ec bf d6 da b3 28 aa c3 d5 3f
       -0.9026876890016985 0.3400674245344083
000600 0d 80 7f db ed 04 ed 3f 65 27 80 e0 6e 8b eb 3f
       0.9068517005034679 0.860770643689858
000610 e7 32 a6 1d aa 92 bb 3f 31 87 18 84 2f 01 01 40
       0.10770667289598244 2.1255789108262424
000620 f4 7a c7 41 7d cd 00 c0 1f 15 39 ec 94 b1 ef bf
       -2.1003365649224808 -0.9904274572114992
000630 cf 3f 3a 02 43 40 e8 3f 02 1f 3c f4 a1 74 f1 bf
       0.757844452238709 -1.0909747639106517
000640 cc 01 e9 3f d7 9f de 3f 66 14 76 95 ed 9e e2 3f
       0.47850590935925363 0.5819003981747641
000650 f0 47 79 fd 1c 48 eb bf f8 b9 74 47 8a 31 e6 3f
       -0.8525528860720879 0.6935473819374343
000660 87 3d e6 f6 65 26 06 c0 37 83 48 3a 4d 6e d2 3f
       -2.7687491692556168 0.2879822796985993
000670 fd e5 30 c7 6f 1d fd bf d0 e3 cb 43 e8 7d e9 3f
       -1.8196866780184557 0.7966195415639223
000680 55 22 dd 3b cc d4 f2 3f 3f 46 bc fe 27 b1 f7 3f
       1.1769525850705993 1.4807510328868287
000690 bc ea 7c 1d 99 da 01 c0 9c 3b ac 3d 80 68 e6 3f
       -2.231737356543219 0.700256462530763
0006a0 4c a2 d6 6a a9 cb fd bf 15 3c 46 31 dc e1 f3 3f
       -1.8622221158385797 1.2426416325358833
0006b0 fd 6f 07 12 7b 24 d0 bf 44 55 3f 07 04 90 01 40
       -0.25222660790109314 2.1953201833918303
0006c0 24 3e 6d d3 f9 2f f8 bf 0f 6f c8 f1 bb 6d f8 3f
       -1.5117128619057292 1.526790565933826
0006d0 8e b9 98 b6 d6 ad ee 3f 74 af d4 ff 7e 76 e8 bf
       0.958720547326992 -0.7644648548789363
0006e0 9e e4 81 cb 55 30 f0 3f 3a af 5f 57 08 ac f4 bf
       1.0118005704410176 -1.2920001423871796
0006f0 36 5c 1c 1b cd 0c 05 40 f2 10 ea da 6f d4 00 40
       2.631250583460793 2.103728971737035
000700 ee ed 7b 93 ee 3f e2 bf e1 fc 38 44 64 0e f9 bf
       -0.5703041916416944 -1.5660135903306627
000710 59 aa 74 44 15 45 d6 bf dd d7 c1 59 d3 82 f1 3f
       -0.34796649632577253 1.0944398409023883
000720 2d a1 45 7f 8a 97 fc bf ac db 55 df 55 6a f4 bf
       -1.786997315555776 -1.2759608005560308
000730 92 3f b5 1a e7 e9 ec bf 0e 70 13 5d cd 48 f5 bf
       -0.9035525819435739 -1.330273974969717
000740 7a 0b 29 c6 8c fe ed 3f 24 2f f6 f6 ab 8b e5 3f
       0.9373229856795284 0.6732997725934848
000750 21 15 97 a2 9b 65 e3 3f e3 ca 83 c1 95 88 eb bf
       0.6061533141698058 -0.8604229716860029
000760 54 58 b9 69 45 86 e9 bf ba de 1d f5 3b 8e 03 40
       -0.7976405205652193 2.4444502973309143
000770 ab a2 87 b7 74 16 04 c0 d9 a4 f6 9e e7 1b fb 3f
       -2.510964807345166 1.6943126878270987
000780 23 3c d9 a1 d6 bc e0 bf c0 ad 51 55 11 38 f3 bf
       -0.5230515633683165 -1.201188405301636
000790 5e 06 2c cc 68 41 e6 3f e9 fa 3a 80 f5 1e f5 bf
       0.6954845416768867 -1.3200583466529514
0007a0 d7 90 b5 96 54 24 f8 3f 3c c5 e7 05 13 4f f2 bf
       1.5088697325782527 -1.144305251186167
0007b0 d1 20 f6 f6 07 b7 f3 3f fe f3 77 a2 56 37 fa bf
       1.2321853300982648 -1.6385103556087866
0007c0 80 35 50 01 1c 57 fd 3f 6b 0d a7 54 c8 d8 e0 3f
       1.833766942148344 0.5264627126092994

b2 f8 [1, 10]
000000 5f 15 37 09 53 dd b7 bf cf 24 cb 9e 5f f8 a9 3f
       -0.09322089171390278 0.05072306455037678
000010 09 e9 02 a1 25 b6 c9 3f 44 04 13 95 9e 57 b0 3f
       0.20087118493922443 0.06383696689137347
000020 38 59 f1 69 be 9a b8 bf a7 fd 59 51 a6 be dc 3f
       -0.0961112030648551 0.44913633293614413
000030 90 b8 10 27 07 f7 c3 3f 66 f2 4f 04 2f 98 d1 3f
       0.1559761944531073 0.2749135534393531
000040 5f 22 a8 bf ba 78 e5 bf 93 86 b7 76 e5 72 d5 bf
       -0.670987486199987 -0.3351377162308406
