experiments/exp_h50_lr0.5_run1/model/weights.npz (npz, 319046 bytes, 4 tensors)

W1 f8 [784, 50]
00000000: 87b5 add8 c95c 2dbf 2b4a 9719 b4c5 913f
00000010: ed81 148a 1e00 893f 9c42 3e9b d607 873f
00000020: 7af6 8d9f 6975 75bf 4f5e 2271 099e 70bf
00000030: 3f18 f29d 00fb 853f 3a6d e368 4d96 733f
00000040: d3d7 b4e7 d34f 903f 8cab f4fc 7d64 723f
00000050: 6efb 1ddb 04e4 6b3f e9e6 00b4 6767 723f
00000060: d6d9 fee7 414d 773f cbf5 3c3e c8a1 35bf
00000070: 2900 384e 848d 7bbf 9073 f388 8ad1 843f
00000080: e989 5f0f 14cc 8b3f dd0a f17b 30b1 4cbf
00000090: bb9a 306b e05f 5cbf 48b2 a36c e3cc 833f
000000a0: af68 927e 7f11 923f c4ef 7cf4 dae7 73bf
000000b0: 7b18 c95f 43f0 843f dd0d 19b3 21e2 803f
000000c0: 9770 f96c ed8e 8b3f c69f 171a 1070 83bf
000000d0: adc8 43b5 6f97 803f bf9c 7ee2 3857 853f
000000e0: 8570 536e cc0b 783f a50d 8a5f 11ca 6ebf
000000f0: eda4 cdcc eb0d 903f 819a ef6b 8ac9 783f
00000100: a32e 3d77 4b9e 8c3f 404e 054a e2e8 853f
00000110: 0b80 0c3f b4ec 723f e352 99b3 55a9 8abf
00000120: 9d0a 0af1 5e2e 893f 1e42 1834 a058 833f
00000130: a4d5 ef8b e3f1 783f 6a98 42f8 dd9f 7cbf
00000140: 2f17 7679 c6ec 723f 03c8 18c2 08ad 6a3f
00000150: b074 3d71 0314 64bf aa78 0ae4 6ddd 8f3f
00000160: dab7 d597 fea0 8cbf d8b4 e611 43fa 913f
00000170: 8e88 2fcc 18ee 90bf 9f5a ace4 5f26 85bf
00000180: bd6b 411a 5ed2 50bf ce61 9264 d29e 573f
00000190: 1684 2589 45e6 883f 4e5c 8ddb bdb2 41bf
000001a0: 42a6 41e7 b831 943f 88cb 98fd a971 71bf
000001b0: 5b90 f07d 2dcf 593f c343 f46e e372 68bf
000001c0: edff 24e2 bc9b 5a3f 9ba6 982e 4717 833f
000001d0: 21d9 23fa 8149 883f ff35 fb8b b75d 603f
000001e0: 3dee 354f 51aa 883f fb5c 85d0 0dfc 843f
000001f0: 9912 e9e5 81cf 813f 5f05 d8b1 9c7e 623f
00000200: 2417 6b22 6ce0 823f 1a62 6704 e47b 773f
00000210: 9564 78df 3d72 7c3f b5e2 34a5 e3ef 76bf
00000220: b25f 6a46 a1a1 73bf f773 1ede 02c3 7b3f
00000230: fef6 90ab e1c9 8c3f e871 9a82 1214 68bf
00000240: ff91 6a76 e612 923f eb87 f747 4152 8bbf
00000250: d7c5 e49a 6994 54bf 3add c099 0e53 763f
00000260: 738b 5781 2e34 933f a345 4e85 669c 813f
00000270: 1a3a c730 4b21 7c3f 6a00 8f11 29af 84bf
00000280: 7497 0f61 8237 74bf b3f8 4f0a 84ad 5ebf
00000290: f04e ae25 0564 77bf aa7d 1eb1 fd11 713f
000002a0: 71e5 9e32 fd96 63bf 0976 fb72 8010 7fbf
000002b0: 426b 887b 1ead 94bf 809e 6f18 1a84 823f
000002c0: 1c61 ad13 f218 723f 97c9 e6b7 c16b 843f
000002d0: 61ee 22bc 5cc7 7bbf b567 a7de f703 623f
000002e0: eaa6 3b0d 5de7 81bf 2552 6ab4 bcb7 423f
000002f0: c2dc bd9a 2719 683f f41b 7a4c 37c6 613f
00000300: 9cf1 2acf 0ce6 443f 3aba c78f 58e2 763f
00000310: ed22 17c9 acfc 843f 5265 0ce4 e6d5 863f
00000320: 1d3b d415 d525 653f 6791 6556 9644 7f3f
00000330: 716b b75c 4c1c 723f 52cf 6ae1 d8f8 7c3f
00000340: ca5d 24c4 762e 8c3f 87fb a7cc a6eb 82bf
00000350: ebfd 6d84 f5ec 7f3f 720b 935d aed8 7d3f
00000360: 4dd3 1b9e ada0 41bf c375 714f 96c8 61bf
00000370: 9ff7 1d7c a713 8c3f b3d9 044c 0c4b 52bf
00000380: 4679 0e94 4be2 763f fe23 0348 3d79 90bf
00000390: 553c 7410 2bc6 753f 6614 b07b 7dec 5bbf
000003a0: a1d4 b05e 9ae6 7c3f a37e 99ea 015c 813f
000003b0: bdd7 abe0 1ee7 5c3f 98d6 d5b5 608f 68bf
000003c0: 2bd9 12da 17db 86bf 8261 f446 a062 783f
000003d0: 8fbf 66b7 2530 7fbf 61c2 7e6e 2f8c 8d3f
000003e0: d201 a200 b03f 84bf c4ee 4f49 b33b 82bf
000003f0: d0eb 34d7 77e3 52bf 9158 d574 0c87 5f3f
00000400: 4974 5a1d 1a4a 88bf 8dbe 3a55 6f73 72bf
00000410: 3300 9896 d399 84bf bfdf 42af 98ed 423f
00000420: 3354 6f27 0a4b 6fbf 22fb 034a 96a4 903f
00000430: 875c d2fd 3132 793f fd5d f9ad 5811 813f
00000440: cdf5 0509 debb 683f 0952 d90c 41f8 45bf
00000450: c716 1820 4fc0 7dbf 49d1 5b0c f12f 83bf
00000460: b9a2 e0be 79f2 77bf c798 1ecd 7159 673f
00000470: e3ec d345 b6a1 7cbf daae 71fc 5701 583f
00000480: 9aec 1283 e23e 7d3f f1bc b6cd 8536 5c3f
00000490: 0ca4 c898 f288 3dbf 40c7 e801 6baf 83bf
000004a0: 88bd 75e0 484d 6a3f dbd6 16d0 cc6b 6dbf
000004b0: c57f 620f 3468 883f eb26 e153 fb9e 77bf
000004c0: 1973 e618 08a8 74bf 6d4e 00a6 5007 78bf
000004d0: 124d b274 2073 783f 5bee 945b 7600 803f
000004e0: 5993 c739 d507 81bf e15b 6398 6e96 663f
000004f0: 31d7 a473 49c7 943f 6caf 8b93 ee93 753f
00000500: b829 0ac0 4cc0 543f 791b 4726 7992 8b3f
00000510: feaf 1fc9 3b6f 883f 3985 0202 037e 873f
00000520: d27b 92d3 7d4f 6a3f 89ff 3e14 b16c 793f
00000530: b728 b3ae dfbe 053f 1e48 2a9c 6f45 90bf
00000540: c0f1 c3f7 f35b 833f 763a 3f93 3411 663f
00000550: 9d3a 4462 2112 7c3f 91c6 533b a403 723f
00000560: 670a d932 edf6 7c3f 6edd b83e de68 5ebf
00000570: 4014 9e1b 0c34 893f 9066 385f d0d2 763f
00000580: f655 7c19 49a0 82bf 2df7 e402 fe5d 513f
00000590: 0339 3a35 a4d2 7a3f 99f6 ee7b eee8 6cbf
000005a0: 2f5f 7a6d 3a1c 6a3f e811 fb2c 8414 85bf
000005b0: 9759 2ad2 8539 99bf 9794 5f71 22ce 8dbf
000005c0: fc42 39ad 9b64 813f b065 44d8 2d9b 57bf
000005d0: d7ac dec6 7d30 613f b454 e8ee a78b 843f
000005e0: aac0 578a d316 8e3f 4b83 ae1f 612f 663f
000005f0: d789 9930 977f 8bbf d86e 5e91 f362 693f
00000600: fbf6 dc1a d0f8 8d3f 5ebd 1d5d 8d97 673f
00000610: 60a7 04b9 30ae 51bf aaaf 6066 ec9b 7e3f
00000620: de05 82b9 2cab 913f 5515 0857 53c3 8dbf
00000630: e7ce e300 e68d 71bf 6ff4 f56c 016a 36bf
00000640: b65b a993 ef3a 96bf c5c5 92c9 c0fe 6fbf
00000650: a1eb d1ab b387 8e3f 5a6c c12c 5ee6 7d3f
00000660: 82f8 ce1e bb0b 91bf 491b 604e dab0 543f
00000670: f00a 3131 141f 68bf ade6 782d 5293 7cbf
00000680: b053 5d4a 740c 443f 6f1a 9d83 fd67 5bbf
00000690: 73a1 09ce 8c01 3a3f a7f9 55a2 406b 80bf
000006a0: 1a85 d0de e3ad 873f 3490 69d7 45a3 7fbf
000006b0: df60 c526 3c78 79bf ef52 8b9a 570d 75bf
000006c0: e435 ab5c 8e99 533f daa2 9fcf e287 7ebf
000006d0: e921 1972 3818 3b3f bf77 d7c4 ebf1 97bf
000006e0: 417b 0c06 66ec 96bf 9f9e b77f 4f3a 86bf
000006f0: 2c2d d9bf 8e39 52bf f05a 52dd 404e 89bf
00000700: 2c95 1e86 805a 783f 397d 78dd cb09 8b3f
00000710: 7527 cbd4 f56b 893f dfa5 5181 ba20 813f
00000720: 4bc5 d9dc 451d 77bf 6ee9 1d8a 86d5 6c3f
00000730: 99d1 0f4b b26d 8a3f ff1d 9f0c 8c2a 81bf
00000740: f22e c65c e887 79bf 104d 4e86 29ed 84bf
00000750: d09e 544f 8096 81bf 6964 748b 2efc 783f
00000760: 5485 1271 8578 96bf 36a1 f776 8d79 83bf
00000770: 0c93 0f52 83d7 98bf 58e1 04bd a7c0 8ebf
00000780: 1db6 f1b8 b602 683f 5f93 9da8 a216 6d3f
00000790: 74af d31e 8b7b 9abf 7c16 f479 b981 603f
000007a0: 512c 7d52 cc2c 93bf 3032 a40f 95f9 7a3f
000007b0: 77b3 c7ca c116 85bf 529d 4e96 cbf3 50bf
000007c0: 7249 bd57 7e72 80bf e6a1 72e4 5314 80bf
000007d0: 1a94 ac78 444c 95bf ebf9 36cb 99b9 693f
000007e0: 3fde 3c80 76d2 703f 3405 1816 cff8 76bf
000007f0: e4e7 b1f8 6b47 7cbf 566c c8dc 13e9 6dbf
-0.0002240177530796023 0.01735574155993384 0.012207258786077946 0.011245419132849314 -0.005238926497325042 -0.004056965715924911 0.010732655353660301 0.004782011396140812
0.0159295187160849 0.0044903680239184555 0.003404626354437771 0.004493146028886599 0.005688912817211697 -0.00033007754085531406 -0.006726757830165333 0.010165293030178352
0.01357284233012464 -0.0008756148089406852 -0.001731843146225805 0.009668137314713068 0.017644874668442053 -0.004859786313144047 0.010223890648500813 0.008243811872609303
0.013456206215032558 -0.009491086765549894 0.008101341933500395 0.01042026940542795 0.005870626982155018 -0.0037584628410642523 0.015678104758454593 0.006051579198333657
0.013973798347840577 0.010698097118314043 0.00462026985840681 -0.013018292945312598 0.012295476656850208 0.009446384038740038 0.006090058187500889 -0.006988398618125039
0.004620337763645384 0.0032563372667704384 -0.0024509494050294 0.015559061548000425 -0.01397894764769696 0.01755623623619304 -0.016533267462258076 -0.010327099958471307
-0.0010267180414504772 0.0014416746728668109 0.012157958267097906 -0.0005401064910114468 0.01972092544057192 -0.004258789087134292 0.0015752739198058505 -0.0029844705637817894
0.0016240448536137778 0.009321743115907657 0.011858954855125394 0.001997812738273152 0.012043605069940283 0.010246379781774886 0.008696570233163657 0.002257638973561057
0.009217114258159471 0.005733385746190334 0.0069448868666991586 -0.005599869956591054 -0.004792814236360176 0.006777774049536048 0.01405693344906522 -0.002939258721040828
0.017650223710591103 -0.013340482720142396 -0.0012560874270771594 0.005450303109731986 0.01875374473992104 0.008599091475647585 0.006867688859030463 -0.01009971699556918
-0.004935750287563202 -0.0018724240737806707 -0.005710620981421263 0.004167548164246618 -0.002391333128767208 -0.007584096674432946 -0.020191646852349317 0.009041026945808328
0.004418321240187841 0.009971154618004614 -0.006781923528417972 0.002199157829846999 -0.008742072073306646 0.0005712195787333547 0.002941682198009583 0.002169712071750757
0.0006377756638680679 0.005586954063331146 0.01024756420783165 0.011150173029408936 0.002581516439597377 0.007633769279298575 0.0044215186021244616 0.007073256673425581
0.013760497914104958 -0.009238532181368843 0.007794341136900122 0.0072867213395423226 -0.0005379531614538663 -0.0021708427189383885 0.013709362483264985 -0.00111652565835883
0.005586905696786387 -0.016087491531639124 0.005315941066569148 -0.0017043328687134317 0.007055857665411087 0.008476271602545998 0.0017640878237989842 -0.00299805535058335
-0.011160074560717511 0.005953432161981078 -0.007614276246769593 0.014427538451714019 -0.009887099284470322 -0.008902931856929704 -0.0011528654402599321 0.0019242879528369764
-0.011860088368218185 -0.0045046185438618715 -0.01005902579618132 0.00057764010718752 -0.0038199613877432314 0.016252849834013657 0.006151385573637153 0.008333866891162773
0.00301926962146013 -0.0006704633357892963 -0.0072634783587141654 -0.009368785085350455 -0.005846477097329377 0.002850267665922865 -0.006990158083904438 0.0014651641120292853
0.0071400497556012524 0.0017219835925564276 -0.0004506675984737314 -0.00961192702843372 0.003210680329793273 -0.0035914421320864926 0.011917502135759048 -0.005766851185464476
-0.005043059949824146 -0.005866351159074063 0.005969168453833678 0.007813381833890512 -0.008315721345704285 0.0027572784484663914 0.020291469271987942 0.005268032015674478
0.0012665509713395261 0.013462969284672376 0.011930911135969776 0.011470817087970363 0.0032117326305320737 0.0062071721221740395 4.147644161774224e-05 -0.015889877230229492
0.009452730177593405 0.0026937510356000406 0.006853228002241221 0.004398004083883259 0.007071425015569766 -0.0018560572015199023 0.012306303589648349 0.005572141602465344
-0.009094782915364679 0.0010600071505701511 0.006548539578615345 -0.003529039181983173 0.003187288395405739 -0.010293038008406932 -0.024633494331817465 -0.014553326687698749
0.008492675994746339 -0.0014408061698020051 0.00209831777370582 0.010031997660045235 0.014691975268732744 0.002708139128529662 -0.013426953478476484 0.0030989415344729702
0.014634729213522038 0.002879882908864025 -0.0010791278655894673 0.0074729189273447325 0.017254542181495462 -0.0145327101645402 -0.004285715533331325 -0.0003420117836510699
-0.02170919741396534 -0.003905655420191253 0.014907268219976734 0.007299774046340602 -0.01664631248035465 0.0012628681083712448 -0.0029445070627230827 -0.0069764337600248085
0.0006118362259522805 -0.001672742435816634 0.0003968209039500105 -0.008017067865463924 0.011562137830028397 -0.007724068468267165 -0.0062181806245791 -0.005139677240283843
0.0011962785962852324 -0.007453809719643012 0.00041343095844983843 -0.023383792771589414 -0.022386163825213194 -0.010853406033631883 -0.0011123556172545996 -0.012356287721826814
0.005945684477329832 0.01320227880120105 0.012412949139065191 0.008363205977917452 -0.005643151189006555 0.003519785664079559 0.012904541888908482 -0.008381933341197188
-0.006233127275105709 -0.010217976008596114 -0.008587839528061109 0.006099874320420453 -0.02194412710799061 -0.009509186928838714 -0.024259616740795173 -0.015015898185638463
0.002930981521379618 0.003550832455334093 -0.025861905819439326 0.0020149824700890755 -0.01872557881806031 0.00658567645065182 -0.010297311783654213 -0.0010346878200183274
-0.008030879070848516 -0.007851272019551336 -0.020798749795307804 0.003140259150057325 0.004106963056805634 -0.005608376437068064 -0.006904050601514531 -0.0036511791170262082

b1 f8 [1, 50]
00000000: fa94 4431 a5d8 1a40 5b29 1ce3 93d8 1a40
00000010: 19b9 785d c5d8 1a40 9172 b6b4 aad8 1a40
00000020: c670 39b1 9dd8 1a40 2732 880c 91d8 1a40
00000030: 77dd ea72 9fd8 1a40 207c 8cf1 a9d8 1a40
00000040: d37a 7c03 c2d8 1a40 714e bdbf ffd8 1a40
00000050: 470a c5d7 96d8 1a40 d165 d87a 9cd8 1a40
00000060: 1add 18b2 cbd8 1a40 a758 024b 91d8 1a40
00000070: ed15 d386 ced8 1a40 f274 3174 cbd8 1a40
00000080: e55b c4c7 bdd8 1a40 a619 0126 bed8 1a40
00000090: e6eb 8132 c0d8 1a40 7f0a 71fa d1d8 1a40
000000a0: c473 8b4a a6d8 1a40 8294 a588 abd8 1a40
000000b0: 6b79 5439 e3d8 1a40 a573 0095 bed8 1a40
000000c0: 6485 12a7 bad8 1a40 7f47 c425 f2d8 1a40
000000d0: 756e 263e c5d8 1a40 9e35 3403 c3d8 1a40
000000e0: f00a bf47 9ed8 1a40 9eb7 2c97 07d9 1a40
000000f0: 226e 0d3b cfd8 1a40 be6a 38eb dad8 1a40
00000100: 3e3e 8a8b afd8 1a40 cc31 48a9 94d8 1a40
00000110: bbba 0ad5 b1d8 1a40 cf69 29f2 b9d8 1a40
00000120: 9b90 e333 aad8 1a40 8867 f443 bdd8 1a40
00000130: 3aff e782 a1d8 1a40 fb73 807d abd8 1a40
00000140: 9e42 0e6f bdd8 1a40 2f81 cb4c cfd8 1a40
00000150: 3e5c b062 b0d8 1a40 70e6 4cb3 a1d8 1a40
00000160: 5ac0 54ac e9d8 1a40 e636 ffef ead8 1a40
00000170: 0849 5849 cfd8 1a40 f666 fbe3 cdd8 1a40
00000180: 2563 b1dd b9d8 1a40 d2a7 8257 c4d8 1a40
6.711567659197721 6.7115016447008555 6.711690388196325 6.711588691364015 6.711539048319713 6.711490817845095 6.711545749268558 6.711585783195034
6.711677603218692 6.711913104943606 6.711512919808746 6.711534423311108 6.711714537398871 6.711491748827178 6.7117253366791205 6.711713614958386
6.711661454543877 6.711662858788634 6.711670674495485 6.711738503598666 6.711571850549209 6.711591849428375 6.711804290562536 6.711664512779781
6.711649523263393 6.711861219506203 6.711689921470328 6.71168141370927 6.711541291270564 6.711943018059086 6.711728022284236 6.711772609060686
6.7116071513297 6.711504597693828 6.711615875987884 6.711646827485722 6.711586771740396 6.711659490387213 6.711553616914722 6.711591683354523
6.71166013264215 6.711728286667763 6.711610357298069 6.711554338043797 6.711828892395795 6.711833715393118 6.711728235257631 6.711722910136578
6.711646522476063 6.71168648467024

W2 f8 [50, 10]
00000000: 51f4 09c1 ad74 be3f 94c9 1d26 e9d3 a7bf
00000010: 34eb b63e 3f7b cbbf be65 6fcb e460 a53f
00000020: 3c4a 8508 befc c8bf 3c30 9941 108a bb3f
00000030: 141e 9e1b 16ab a7bf b59b 0b6d 2855 b33f
00000040: 6a55 0d26 7009 c13f b23e 19f3 0096 a93f
00000050: 8ed9 a287 a60e bc3f 2e46 32df c37c a5bf
00000060: c0a6 0ce2 c9db cbbf a2ba a06a 668b 923f
00000070: 7788 f0b9 6188 cabf 0959 a2cc 1d3d b53f
00000080: d389 5bc9 0dda a8bf b314 0dd7 f954 b93f
00000090: 7c1a 6315 bafb c03f ec54 74c5 779a b03f
000000a0: ac05 2042 3ac6 bd3f 8ca8 3bb5 fb23 a1bf
000000b0: f0fe f455 4da1 c8bf e2b7 927c f22f 8f3f
000000c0: 6fc1 75c3 36b1 c8bf 4cba 1f60 4256 b93f
000000d0: c27d 558b c581 acbf 80eb 9996 1896 ad3f
000000e0: d8c8 8804 4092 be3f 5aa2 d5cb cedc b13f
000000f0: 4d1c defc b810 c03f f92c 9fb4 a29c a9bf
00000100: deee 6102 8121 c9bf f293 603b 3b90 983f
00000110: 8ae8 ace8 114a c8bf 49bd 4a08 432a b63f
00000120: 6c4b 0f5b ddb8 99bf 8a8d 8305 90a0 b93f
00000130: 96d4 6918 a389 b93f ba6e dac8 4aed ab3f
00000140: 87cf 8bac 68b7 be3f 1e0a 4f1c 5832 acbf
00000150: b748 374b 903b c9bf b8c9 6484 69a4 7b3f
00000160: 8074 b0db 77c6 cbbf eeee 16be 21db b93f
00000170: 902c 9786 8dbc 72bf eb84 6d45 0451 b83f
00000180: 48e7 da5f 5568 be3f 96a4 d8bb 3445 b03f
00000190: 3896 7a1a 8566 b83f 23dd db3e e053 a7bf
000001a0: 17bf 32ca b609 cbbf 352b 0f86 563d a33f
000001b0: b289 dd17 4f44 ccbf 23d0 ea56 ba80 ba3f
000001c0: fe7b 0585 6a6c 9fbf b004 8802 deab b13f
000001d0: f032 e353 9423 be3f ae62 9706 ec7e ad3f
000001e0: da32 f8b1 7bc9 ba3f 482d 49d9 6680 aabf
000001f0: ae28 40c5 fd6a c9bf 4ed7 986c 35ec 733f
00000200: c688 000d 2428 c9bf 4c2a 94a3 8d08 b23f
00000210: 0ae7 d16e 0863 98bf 3671 7ce1 81c2 b63f
00000220: ee20 ad3d 939e c13f baef d865 e95d b33f
00000230: d34a 667f 80ee bb3f 5883 dcd1 fea6 8fbf
00000240: f9c0 daa4 ef5c c9bf c7cf 1574 42b4 853f
00000250: 573b aa15 d4cc cabf 38ef 2337 c802 ba3f
00000260: 9979 b838 cde1 abbf 2621 f0ca 7f62 b53f
00000270: 65fa 422d 3fcd bb3f 9e0c ab64 67bf af3f
00000280: 5bc6 fa95 609b bf3f 5e6f 03ee dfb3 a3bf
00000290: c19b aded 012f ccbf 0efd 38aa afb9 853f
000002a0: 89d1 29fe 8699 ccbf 5f2b 7ef2 9608 b63f
000002b0: a286 f8d8 d830 a2bf 225f 5874 92e3 b43f
000002c0: d7d8 0933 3522 c23f 8d01 c3a8 15ae a63f
000002d0: dc03 6c0a 50d0 c13f 4832 f11a 253a aebf
000002e0: 2b08 dce3 b065 cbbf e0af 39c5 a0a7 3c3f
000002f0: b042 7dd9 62c2 cabf daf6 23db 3ead b53f
00000300: f0b1 3cfd bff9 7ebf 81a8 9503 cf08 b13f
00000310: 00c9 b10a 1e8c bd3f 8a04 9c0b b172 a73f
00000320: 6cfb dfe8 3bd9 bc3f aaff 6b8b 4441 a3bf
00000330: 0a52 c425 9b09 cabf 66f0 4d53 1abe 983f
00000340: c481 d89c f78f c9bf d284 1e7b a381 b83f
00000350: c351 89cc 426b a9bf 4d4e 0195 849f ae3f
00000360: 787f f231 6f91 bf3f efb9 6e24 b462 b43f
00000370: cb19 ffbd d16b c13f 36e6 65be 7e55 a7bf
00000380: 09ed d202 61e9 cabf c641 ce45 2adb 883f
00000390: 5c78 9d50 0096 c9bf 4c91 3497 aa83 b63f
000003a0: 2752 aa44 e9a5 a8bf ef08 358b c668 b33f
000003b0: 70be d058 d0d7 c03f 79ee bdff bfde b23f
000003c0: fe19 b8ed 25e9 b93f 0bc1 f0b2 991c a2bf
000003d0: 6c7f 9ebc 0ffb c6bf 264f 29f8 cead 933f
000003e0: c2a0 1a28 5ecd c8bf 0b75 78a5 16f1 b93f
000003f0: 964b 201d 6fe8 a2bf cf53 626c ced4 b53f
00000400: bbaf 0765 5d81 c03f 04f6 5c8e d035 ab3f
00000410: 5ac1 e2b0 bb74 bd3f 1af5 93fb 2728 acbf
00000420: 2724 b2b4 b526 cabf 1aa7 cd9c 5d78 953f
00000430: a5b8 0bd3 67f2 c9bf e8ea a950 8e2e b63f
00000440: 1b6f 3701 b129 a3bf 4849 04e8 867d b63f
00000450: 6c78 fd28 22c6 bd3f 726c fff1 d056 b13f
00000460: c916 42d1 667d b53f 55ea eb38 2365 94bf
00000470: 7882 33e4 d11c ccbf 2cb6 ede5 3335 9b3f
00000480: 657a c04d b01c cbbf c64d 29b0 1848 ba3f
00000490: a652 d296 e121 9cbf 230e 211b ec2a b83f
000004a0: 9919 7e26 a96d c03f 874a 90e6 2f10 a73f
000004b0: b6df 40e9 d47c c03f b40a b9f6 747a a1bf
000004c0: bfe7 c9c3 ecc2 cabf d2ee 719f 8116 913f
000004d0: 33c0 d250 2ed7 ccbf 8f48 fea0 9818 b53f
000004e0: ba24 069d 990e 95bf 9a43 9a64 ff80 ac3f
000004f0: da3f 462b b313 be3f b202 c73e 5b18 b03f
00000500: c051 63dd 4927 bc3f a653 1fdb 5928 a3bf
00000510: d2bd 7a2d 3171 cdbf 21d5 56d0 530c a33f
00000520: f841 7b90 a629 cbbf e619 0fd3 62b3 b93f
00000530: b48c 324b 1c12 a1bf 1a08 9481 17a1 b23f
00000540: 4f50 4534 acbc c23f ced8 df31 2b25 a73f
00000550: 9a94 0326 ca31 b93f 7ae6 a118 1552 a9bf
00000560: daa0 4ec5 82f2 c8bf 6e1c 3318 f67a a43f
00000570: 7ad5 2e82 a041 cabf ee51 339c 499b bd3f
00000580: 5901 0a8b caee a9bf deed 01b5 b8ce ac3f
00000590: d9e3 45ff 0f33 c13f f5c3 b197 952c b33f
000005a0: 95cf 8c0e 7c43 bd3f 6c16 fbb3 cafa a2bf
000005b0: c6fc 2838 c2ab cabf 3823 a706 c4f1 923f
000005c0: b760 69eb ef58 cabf f67e abb9 dc62 b53f
000005d0: cec7 fbb8 5af8 abbf 2647 ebb7 bf53 b13f
000005e0: 368d 7d0f 6d9b c33f 4442 b04b dd1e b13f
000005f0: f454 e2ec 9a5e be3f ecd5 fdb9 6be2 91bf
00000600: 8b7a 4487 95a2 cbbf 9a1f 6f90 111a 8e3f
00000610: e54e 0949 aa49 cdbf da6e df7b b9ab bc3f
00000620: 13cf 5604 2196 a1bf 48be ea94 0edd b43f
00000630: 9cbf 051d ecea c03f aedd c111 9625 ae3f
00000640: 5e78 4654 5f5b be3f cce2 6212 b81a aabf
00000650: 5d58 37d3 a97f cabf ad45 a473 2b46 a23f
00000660: 9a8e 1bd4 46c0 cabf 820b 2bed a9f4 b83f
00000670: 3d0c c9ce 963b a7bf 686f edce 657f b63f
00000680: af51 92f6 884d c13f e56d 2465 2279 aa3f
00000690: e262 29b1 64df bf3f a722 8a3d 8c70 a5bf
000006a0: db43 6d1b d73e cabf 704a 35ff e13b 963f
000006b0: 7e45 dac5 4ff3 ccbf e482 0dcf 1b70 b83f
000006c0: 320e 93e2 3483 a2bf cce2 1caf efd0 b73f
000006d0: dc5f 2817 b526 ba3f 2d83 3626 068b b43f
000006e0: a819 13e4 0424 bd3f 0798 bf13 30c4 a5bf
000006f0: e4cf 39cd 1f11 cbbf e879 a6ad b16b a73f
00000700: 4036 a5b0 48db cbbf c403 ddba 2782 b83f
00000710: dc36 d326 7751 9ebf 71c4 c830 5862 b33f
00000720: 90ca 3d93 d858 bd3f 0e01 06d5 dbd9 a53f
00000730: 1b89 c1ff 16c7 bd3f 99dc b877 6e1a acbf
00000740: 661f ee32 3073 cabf bd4c 2a51 d23a 813f
00000750: e880 0aa4 91c7 cabf a22f ffce ba38 c03f
00000760: 2038 8497 8e3f a4bf a208 4d6f 9937 b13f
00000770: a469 fe9a 6bff c03f 0c7d f54e f2fb b03f
00000780: 804d 3d63 7489 c03f eadb 64ff 82e4 a3bf
00000790: 08eb 12c5 40cb ccbf 2dcd ac91 3543 843f
000007a0: 48fa 69fc c6b2 c9bf 863a 2dfd 7246 b23f
000007b0: fce3 807e 35dd a5bf 489e 0076 0c85 b73f
000007c0: d2e1 41d1 de07 c13f ac1e 42b8 ead3 ad3f
000007d0: 1cd0 445f 0147 b83f a671 b640 7eb0 9ebf
000007e0: ccef d7cd 41b9 c8bf 6439 488c 876f 8e3f
000007f0: 7baf c8c8 c723 c9bf 86cc f82e bc67 b93f
0.1189678760801638 -0.04653862562453806 -0.2146987014983438 0.04175486548747241 -0.195213083420258 0.1075754318382573 -0.04622716033105348 0.0755181566452013
0.13310052736293737 0.04997256248009076 0.10959854899815566 -0.0419675073582194 -0.21764491593903834 0.018109894044921256 -0.20728704051095168 0.08296381231261675
-0.04853861887911006 0.09895287990828443 0.1326820949963866 0.06485699244179316 0.11630596269971843 -0.033477655289815805 -0.19242254922027469 0.015228170801801558
-0.19290813964790796 0.09897246214652816 -0.055677579172648275 0.057785766967717755 0.11941909895611802 0.06977550960949355 0.12551033350993848 -0.05002315955024445
-0.19633495918593885 0.023987699030971706 -0.18976043568710949 0.08658236458244518 -0.025119265253873577 0.10010624060264753 0.09975642534284854 0.05454477025815892
0.1199860974555219 -0.05507159562650464 -0.19713023827222795 0.006748592544953906 -0.21699426867499838 0.10099993601664511 -0.00457434924596635 0.09498621649756316
0.11877950277530858 0.06355599962320677 0.0953143300672189 -0.045561797784041035 -0.21123394844971052 0.03757734667268268 -0.22083462395955916 0.10352673170092479
-0.030687012070639945 0.06902873575019686 0.11773039863619394 0.05760896282635507 0.10463688940962915 -0.051760877632285374 -0.19857761508348432 0.004863938034352545
-0.1965375007139924 0.07044301265356373 -0.02381528068915543 0.0889054465773754 0.13765182982957164 0.07565172897824271 0.10910800085393228 -0.015455237178288492
-0.1981486849740646 0.010597724120749675 -0.20937586839542163 0.10160495134544767 -0.05445710484876826 0.08353422836819799 0.10860056738872854 0.062007170713991075
0.12346461927043022 -0.03848171024739487 -0.2201845560586815 0.010608074552804794 -0.22343528185195918 0.08606856746898249 -0.035528923497861756 0.08159747448405288
0.1416689395152335 0.0442969101436602 0.1391696978462552 -0.05903736070522264 -0.21404086233093386 0.00043723750170587654 -0.20905719394297284 0.08467476701840884
-0.0075623988703168304 0.0665406593085738 0.11541927109809436 0.04579690233914231 0.11268972812102412 -0.037607328433295464 -0.20341815322957785 0.024162684759616936
-0.19970603140337861 0.09572812801208677 -0.049646460979292616 0.059810774983500715 0.12331290215888469 0.07963109864679273 0.13610288407489998 -0.045574150793026666
-0.210247160319206 0.012136774306584008 -0.19989017425808953 0.08794656936203643 -0.04814080203246745 0.07581749819385995 0.13158611618699778 0.07371139520358296
0.1012138085717211 -0.03537445363360988 -0.179536788081346 0.019217714211051583 -0.19376732786373024 0.10133496799285895 -0.03692958097976555 0.08527841707321147
0.1289479010878248 0.05314494836646236 0.115062456784249 -0.05499386735935215 -0.2043063289932274 0.02096697110702115 -0.20271013073892621 0.08664788693742376
-0.03742745532846766 0.08785288967582006 0.1163045263360531 0.06773095996997983 0.08394472702829171 -0.019917059277739863 -0.21962951319348512 0.026570139797902723
-0.2118130092284957 0.10266260433973348 -0.027472996550005256 0.09440494215328292 0.12834658031006255 0.04504537286279225 0.1288095606739696 -0.034137396924525915
-0.20907363471979853 0.016687417370561182 -0.22531680056045075 0.08240655832767828 -0.020563507279381034 0.05567167380389222 0.11748809629921145 0.06287164957667349
0.10997449545840876 -0.03741722869714374 -0.23001684876133638 0.037203425581006984 -0.21220857672462023 0.10039346363837573 -0.0333412973207258 0.07277056611567936
0.14638283302577057 0.04520544990366347 0.09841597965312801 -0.0494543640679241 -0.1949008429921893 0.04000062032133021 -0.20512777668561083 0.11565074981201182
-0.050649957153839416 0.05626465997280737 0.13437080349447575 0.07489905312992547 0.1143109832308354 -0.037069639654458836 -0.20836665861313558 0.01850038805585827
-0.20583914751728624 0.08353976757961931 -0.05462916858768062 0.06768415680133141 0.15318072563523238 0.06687720392097513 0.11863106044104993 -0.0174652893324118
-0.21589917282922885 0.014698159427908131 -0.2288105827925541 0.11199530863035126 -0.03434851816146369 0.08149806152027239 0.13216926018821773 0.058880510013234896
0.11858173186780749 -0.05098510002557574 -0.20702097714701298 0.035691602579514516 -0.20899281842058742 0.09748327293622874 -0.04537650369868416 0.08788143445911845
0.13517868079783343 0.05170543179175605 0.12450246167407955 -0.0418742966767856 -0.20504273261261016 0.021712809755010942 -0.22617528115055657 0.09546064190864062
-0.03615727678109372 0.09303186440673555 0.1021531278169045 0.08024633820469936 0.1138308579275874 -0.04251241913861752 -0.21146008988182452 0.04574351544146166
-0.21762951493512794 0.09573601066678267 -0.029607640976613378 0.07571936789533297 0.11463693232307492 0.04267775512107806 0.11631911987345626 -0.05488915645076382
-0.20664026724648038 0.008412974454847672 -0.2092153597814168 0.12673125369326238 -0.03954740142408775 0.06725462882335134 0.1327948099904691 0.06634439876278381
0.12919478269268936 -0.03885278098680785 -0.22495278952359166 0.009893816478870743 -0.2007683498849977 0.07138746911116742 -0.04270331544143599 0.09187391167562808
0.13305268495220318 0.058257422440019496 0.09483345580957842 -0.029970143031833672 -0.19315359641029628 0.014861163109369975 -0.1964044313802978 0.09923912188314618

b2 f8 [1, 10]
00000000: 88d4 ee6c 1ecf bd3f 9f7e 5741 c49d a8bf
00000010: 00a1 dd55 262d cabf 9c1f c3c8 a732 9a3f
00000020: 4892 bd6e a9b8 cbbf 66c4 af08 e835 b73f
00000030: 9910 5700 4252 a3bf 1bbc 8772 e3fd b33f
00000040: fafc 9190 0e9a c03f b896 92ae f1ff b03f
0.11644163283820508 -0.0480786638033781 -0.20450286095297798 0.025583860043098747 -0.21657293231250407 0.09066629612040486 -0.03773695234443259 0.07809278055331996
0.12970144328208005 0.06640539657618205
