experiments/exp_h50_lr0.5_run3/model/weights.npz (npz, 319046 bytes, 4 tensors)

W1 f8 [784, 50]
0	0x3f8ea2f7d9a87186	0.014959274606604078
1	0x3f91d719d7c5e758	0.017422107500784406
2	0xbf7438dadf5c87a0	-0.00493703362534062
3	0x3f81f0ac28ab7fa9	0.008759827605388031
4	0xbf977d62abf268da	-0.022939244980627695
5	0x3f5cb2b4ba96b74c	0.0017515911989493703
6	0xbf90f7ea81007d75	-0.01657072460522842
7	0xbf7eba4dca311160	-0.007501891962480606
8	0xbf6d1792ae1fbfe9	-0.0035512795302494638
9	0xbf593d086c3096fd	-0.001540430283748006
10	0x3f675ffd91a4a0c9	0.0028533890264449174
11	0xbf7b9e6190cf4684	-0.0067428408774091765
12	0xbf8b38b01bc5ee5d	-0.013291717383928143
13	0xbf9692d9d4a1420b	-0.02204456672945025
14	0x3f433ff9adbced29	0.0005874604353048085
15	0xbf910fc2925a416f	-0.016661682303096222
16	0xbf619c8cc530c833	-0.0021498441142506985
17	0xbf92dff104fc88cd	-0.018432393960332406
18	0xbf7a6622cfe27acf	-0.006445060715263919
19	0x3f868a8d3c87b163	0.011006453904848617
20	0xbf814d2123d8b09e	-0.008447894007155118
21	0xbf77b33889e6ee66	-0.00578615270063274
22	0xbf8603c6cca0eeae	-0.01074939071633393
23	0x3f67b9b3529f1654	0.0028961660763993455
24	0x3f86cb684609e816	0.011130156171237398
25	0xbf893d92149c60fa	-0.012324467901223535
26	0xbf65da364899a45f	-0.0026675281740620583
27	0x3f40d9fa6677ae60	0.0005142662675416514
28	0xbf25c11bdbb939b5	-0.0001659723765094608
29	0xbf84238aa1c36c9f	-0.009833415090204687
30	0xbf7ff047dea4f23b	-0.007797508946449978
31	0xbf8432cae040d3c2	-0.009862503975549223
32	0x3f84508a3a0b13ee	0.009919242760028948
33	0x3f804291bb5d6c84	0.007939470796989541
34	0xbf881bfd716b34ca	-0.011772136710897736
35	0xbf839c391249f5c6	-0.009575315352090007
36	0x3f85956e816d048f	0.010538924526942743
37	0xbf87d1b6f0b55c61	-0.011630467625464104
38	0x3f7c24e496d49c4b	0.006871121336451467
39	0xbf79c4aab42dff91	-0.006291071712325806
40	0xbf822cdd6c853633	-0.008874635576513778
41	0xbf764228a55dda10	-0.005434187672895621
42	0xbf8edb02d1104dc8	-0.015066167836301228
43	0xbf47604af26418af	-0.0007133832885137993
44	0x3f8bf9c8d2133efc	0.013660019789682114
45	0xbf6b2d731e34b0e1	-0.003317570533587597
46	0xbf7fbcd0eed55a7f	-0.007748428482350022
47	0x3f5df7a9865a19a8	0.0018290668025727572
48	0xbf505a666035f2fd	-0.0009981155170343807
49	0xbf8eebe799ca0e13	-0.015098389988685878
50	0xbf40a6f9632a718c	-0.0005081861221074998
51	0x3f8c1b106bdc5f3a	0.01372349576153874
52	0xbf51b974e0d5e928	-0.001081813944749552
53	0xbf92992e52147e8a	-0.0181624639127436
54	0x3f7568cdf6a84063	0.005226902527752572
55	0xbf649fdfafeb273c	-0.0025176400079986155
56	0x3f7d7bc4e7fd6789	0.007198113598713259
57	0x3f7c938ab6e095d2	0.006976644375787671
58	0x3f64e7c5457a7840	0.0025519230801611947
59	0xbf854f552b31b41d	-0.010405221348458277
60	0xbf8d1ad05d161525	-0.014211299744384018
61	0x3f6db1937a2e01bc	0.00362471393731331
62	0xbf89a1d31a5308df	-0.012515687218528302
63	0xbf642287f916e06a	-0.002457871982837691
64	0x3f33445f032e2709	0.00029399222983582434
65	0xbf7b08fe8ccf0443	-0.006600374542302725
66	0x3f646b64c5d6945c	0.0024926155299050245
67	0xbf4ada4425f75c48	-0.000819476390399817
68	0x3f998465040a6bba	0.02491910779154314
69	0x3f56e68aeb899a9e	0.001397739090089146
70	0x3f7d0539b44204df	0.007085061461226532
71	0xbf8ef99f9deff5d2	-0.015124556548466925
72	0xbf9500ada90adb64	-0.020510400240449825
73	0x3f5eb6434d160960	0.001874509547946511
74	0x3f69afed6ead8ec3	0.0031356465673740576
75	0xbf85232dc5117120	-0.010321004463712813
76	0x3f80ee68abdee1bf	0.008267228837085193
77	0xbf73b2f9055ca83f	-0.004809353578631158
78	0xbf788a17d8682f87	-0.005991070886476885
79	0xbf73a9699790bc5c	-0.004800236195520471
80	0xbf6cba185ed145d8	-0.00350670585479727
81	0xbf7498487e1db754	-0.005028041052225724
82	0xbf837f0fb22f72eb	-0.009519693970952278
83	0x3f8956947bc789ed	0.012372169520806298
84	0xbf6b9cc5a86be667	-0.003370653200701668
85	0xbf90d959943dd2a5	-0.016454124138777577
86	0xbf8234c3ce6a6a58	-0.008889703499609755
87	0x3f74afe75ad3fe34	0.005050567369152815
88	0xbf84f427a0b4c7bf	-0.010231313316214739
89	0x3f6363aeee53c817	0.002366868650477204
90	0xbf905eb8081c6096	-0.015986323828741954
91	0xbef4b57258aec80b	-1.974942783151277e-05
92	0xbf871aff4ae89bdb	-0.011281961892633354
93	0xbf9055d76c6d8270	-0.015952459328561763
94	0xbf813afc6df110d0	-0.008413288216737064
95	0xbf7ecf9045eaf9bf	-0.007522166792738038
96	0xbf927b90685bb8a2	-0.018049484605335515
97	0xbf85be012eced1ce	-0.010616311303103834
98	0x3f77b6834804b257	0.0057892921616199055
99	0x3f7a9bb530c836b5	0.0064961507564597525
100	0xbf52e2c7907f2e6d	-0.0011527012702456055
101	0x3f89d5d15dd61d21	0.012614856411131971
102	0xbf85761c422fc6d9	-0.010479183931212986
103	0x3f8075bdd151421b	0.008037074041710437
104	0x3f5d9ff9b2dc52fd	0.0018081606353394502
105	0xbf70c609495ce5a0	-0.004095112109831517
106	0x3f948b7e167d5a5c	0.020063371775302805
107	0x3f6aaf1445373b90	0.0032573123841994137
108	0x3f7ed5ed2381f6ae	0.007528234789899875
109	0x3f818e9884d02397	0.008572761109478395
110	0xbf6deabfbb55a1d2	-0.003651976085780919
111	0xbf4abbd262056025	-0.000815847135565488
112	0x3f70242f71608a75	0.003940759013888785
113	0xbf7d18666b99fdf6	-0.007103347854012556
114	0x3f63fcff2cc0664d	0.0024399742014907023
115	0xbf8a923f6199a341	-0.012974257627506371
116	0xbf725bd7f38a4896	-0.004482120094183048
117	0xbee1caba3f6ffafc	-8.483841140714033e-06
118	0x3f470d6134fda2e3	0.0007034992831736721
119	0xbf6592cd74221ca3	-0.0026334774748338493
120	0xbf8823ce99131203	-0.011787046476805512
121	0x3f8cb4234cc03170	0.014015460757968085
122	0x3f7852e8014f5065	0.005938440580354952
123	0xbf7b2d43434dc538	-0.006634962793087333
124	0x3f603c6f727258de	0.0019819428158128613
125	0x3f887236d2207586	0.011936596190987424
126	0x3f917eecb41e0a86	0.01708574151372002
127	0x3f75a7bc73b2f828	0.005286918774059436
128	0xbf712cbee20daa3c	-0.0041930633895881884
129	0xbf859a709be92c32	-0.010548476942082361
130	0xbf74e66b4b97b7a7	-0.00510255729885315
131	0x3f8c5dd7ce8048e5	0.013850866307653262
132	0x3f869062e295faf7	0.011017582454539971
133	0xbf8db9f6c8ecf1de	-0.014514854437600751
134	0xbf8ae1499b721f40	-0.013125014358834286
135	0x3efab8bf2dcecae2	2.548376766115912e-05
136	0x3f72ca2b58ffc9d5	0.004587334944505324
137	0x3f78971756aa31b0	0.006003466764593332
138	0x3f74af85726ecfb1	0.005050202634198018
139	0xbf8f19e880e98f32	-0.015186134752361722
140	0xbf65d67d1f0117f8	-0.0026657527705848914
141	0xbf8548650e9734f8	-0.010391988284846651
142	0xbf81afd6843ab681	-0.008636165533370434
143	0x3f73e26d57448afb	0.004854609597063182
144	0xbf41787174cb4a4d	-0.0005331567750437944
145	0x3f71f8df0d9e255c	0.004387732793369761
146	0xbf7b19ec87a0d7d7	-0.006616519875072022
147	0xbf861597d68037d6	-0.010783373101755627
148	0xbf8d9b7ab4e29b19	-0.014456709523370347
149	0x3f5c757593d49ecb	0.0017369888513005134
150	0x3f693056cede46a8	0.0030748076887413163
151	0x3f7837e689c80fca	0.005912685909155566
152	0xbf7745f03c646148	-0.0056819328513245185
153	0x3f5da919d2cd0912	0.0018103363210718077
154	0xbf650f5f530ea66a	-0.0025708066754830854
155	0xbf520f4ddecb7b43	-0.00110228161354771
156	0xbf7886d833c8834e	-0.005987972774648421
157	0x3f78b28d34a3c5c4	0.006029655060261378
158	0x3f78c534f99fddc1	0.006047446187941786
159	0x3f94492406e45109	0.01981025974335274
160	0x3f9b4cdfa6723027	0.026660437139568807
161	0xbf58d8053db88b5c	-0.001516347044238051
162	0x3f7733f899c1715b	0.005664797874569717
163	0x3f83efbd35d55f25	0.00973460979973557
164	0x3f80f4d1d5325e54	0.008279456442593126
165	0x3f941b25eb932b27	0.01963481188139862
166	0xbf7704d2f497a01b	-0.0056198349425145245
167	0x3f8840357e0636e9	0.01184121886106078
168	0xbf90bba59ede3f3f	-0.016340816327612414
169	0xbf466295746be512	-0.0006831388244271949
170	0x3f7161c221472e91	0.004243620224268733
171	0xbf7604b957f3ced3	-0.00537559890584634
172	0x3f3b123cf802c558	0.0004130743836966064
173	0x3f8adbca9fb01039	0.013114531515391646
174	0x3f7294e32762c834	0.004536521262865679
175	0xbf52dc2402fba305	-0.0011511184383669615
176	0x3f84d3adbae1862e	0.010169369950918297
177	0xbf66e4e03d75dfae	-0.002794683426767328
178	0x3f7b613ea7e27f6f	0.006684536694734663
179	0xbf38bf6fa81a626d	-0.0003776214217423916
180	0x3f8aa1373534d6cc	0.013002806960325762
181	0x3f9945e5a01eaddb	0.024680698297442887
182	0xbf7c6dedcaeca891	-0.006940773847228369
183	0xbf7ce128e1d468ff	-0.00705066651905839
184	0xbf6089186deee5fc	-0.00201849719402669
185	0xbf72bccd791b34fa	-0.004574587468323838
186	0xbf7d2cb451fd3093	-0.007122711540272902
187	0xbf6c78b10d8536ff	-0.003475518995549431
188	0x3f9090e4cfc75dda	0.016177725965318725
189	0xbf72da9f8418de97	-0.004603026494400495
190	0xbf9448696a459a51	-0.019807479010888255
191	0x3f79c558feaa6622	0.006291720996750823
192	0x3f5c564a0c98422a	0.0017295573364927244
193	0xbf668a70c42a029e	-0.00275156044637044
194	0x3f9342f3fb0d34e4	0.01881009311482708
195	0x3f77a1c16e3011af	0.005769496524412095
196	0xbf73f411ac46bdfe	-0.004871434245088844
197	0x3f838bb2317d1b5b	0.009543792853617885
198	0xbf7b17c2ba11df73	-0.006614456798267432
199	0x3f863f4369ef105d	0.0108628527358478
200	0xbf6a63bdda5a19fd	-0.003221388632314913
201	0xbf7874d6f3b6172b	-0.005970801979293043
202	0xbf426574fcd01f2e	-0.0005614110210680806
203	0xbf91b165fab29353	-0.017278283525814796
204	0xbf7d25fc3257328b	-0.007116303580414605
205	0x3f643a5d7382779a	0.002469236871617886
206	0x3f81a4909197e78c	0.008614663546712163
207	0x3f7133d435578537	0.004199818552906457
208	0xbf63ec3a633f324b	-0.002431978262370548
209	0xbf450d3859c6087e	-0.0006424451017184166
210	0x3f4aca968ee78a49	0.0008176074168740412
211	0xbf72f2a10f406565	-0.004625920428247586
212	0xbf6a331bc06271de	-0.00319819851126922
213	0xbf89b5e78fe49686	-0.012553986624492152
214	0xbf57fbce60d49a98	-0.0014638438618221113
215	0xbf88bfdf4cd7dcd2	-0.01208471730477215
216	0xbf5d0ca05ca51b87	-0.0017730299028515266
217	0x3f88efc5de893813	0.012176080564270142
218	0xbfa150bb9391b9dd	-0.03381906677610733
219	0xbf80212363008f89	-0.007875706156546662
220	0xbf84baa8a997ffd8	-0.010121648479071085
221	0xbf97b6ddc090b594	-0.02315851676774157
222	0xbf720c51805d7a8d	-0.004406278958269849
223	0xbf826e814e96b003	-0.008999834261736344
224	0x3f557c99e1786a48	0.0013114454976689439
225	0xbf697e34531889e1	-0.0031119367565832644
226	0xbf78edf74587c356	-0.006086316971491387
227	0x3f744ee134986d9c	0.004958038052360971
228	0xbf6d67f33a94a0b7	-0.0035896063387959825
229	0x3f864e779c672f7a	0.010891851864378788
230	0x3f7010c9b7b81f19	0.003922260245879072
231	0xbf98a40b54bd625a	-0.024063279196840127
232	0xbf817d364a3be5f2	-0.00853960432094689
233	0xbf78f42ba90b5879	-0.006092234180604555
234	0xbf83725e6f2cbc31	-0.009495485084327711
235	0xbf6868a7e4d8389e	-0.0029795912912567576
236	0xbf768f18f461f1f4	-0.005507562140448109
237	0x3f7dfc0657e0c7a3	0.007320427683270045
238	0xbf6c483d97c89350	-0.0034524157511150247
239	0xbf838a5d5b63e9d3	-0.009541253425131046
240	0xbf6572c85cd67738	-0.0026182092030485847
241	0xbf7cbe17fb36737c	-0.007017224957419962
242	0xbf8735f217af937b	-0.01133336195739231
243	0xbf6f4a29dc8a2535	-0.0038195436102951516
244	0xbf56618261e2c2f0	-0.0013660214677139702
245	0x3f85147b3a9ad89f	0.01029297134969581
246	0xbf7a75b45d3bd671	-0.006459908054002748
247	0xbf83e11ce2fe91d1	-0.009706712415046422
248	0xbf74b6b04a3e857f	-0.005057037957074128
249	0x3f8d1460246f97f6	0.014199019538818174
250	0xbf821fde3633aead	-0.00884984591399215
251	0xbf9e9546b5b0e5d4	-0.029866318549670215
252	0xbf8294de79fe3622	-0.009073007677012749
253	0xbf9477adeecefcde	-0.019987790775982776
254	0xbf7dccf9279fb1e1	-0.007275555859433487
255	0x3f69da3840578e1b	0.003155813089266391

b1 f8 [1, 50]
0	0x401ad5293aa8135f	6.708165089138531
1	0x401ad4e47375ad51	6.707902721459804
2	0x401ad508cad0196a	6.708041352225658
3	0x401ad4fb12d7782c	6.707989019776544
4	0x401ad53bc57b8833	6.7082358223579375
5	0x401ad509c040c4f8	6.708045009568416
6	0x401ad4f0fca40044	6.707950541982488
7	0x401ad52b895f1727	6.7081738914764975
8	0x401ad51939bdf186	6.708104040353993
9	0x401ad4f68a239fc8	6.707971723961187
10	0x401ad53126f9764e	6.708195313430748
11	0x401ad5405d0442aa	6.708253339180979
12	0x401ad544e0773d3e	6.708270556714806
13	0x401ad52bf7c91795	6.7081755367743385
14	0x401ad5226a4f173a	6.708139096333804
15	0x401ad557a4bf4711	6.708342146086367
16	0x401ad524f68fc009	6.708148815654575
17	0x401ad5266cf8af09	6.708154394796801
18	0x401ad52a9451232b	6.70817023987983
19	0x401ad52fcc8d4c57	6.708190151333006
20	0x401ad52d1eb1d74e	6.7081799312634995
21	0x401ad518b9bbaf6a	6.708102132873913
22	0x401ad52df43e7ca2	6.708183113397498
23	0x401ad528cd712012	6.708163461713427
24	0x401ad513bb417087	6.708083082074274
25	0x401ad4f4fb04f680	6.70796577661315
26	0x401ad4ec8b7f1a37	6.707933597214427
27	0x401ad51de8432716	6.7081218996989005
28	0x401ad4f1df4afcd2	6.7079539193648134
29	0x401ad5033397663e	6.708020025363622
30	0x401ad55838a1daed	6.708344349745613
31	0x401ad51c0191b408	6.708114647405644
32	0x401ad4eddd5037aa	6.707938631077846
33	0x401ad4ff97b56cc4	6.708006258438392
34	0x401ad5435a58fa2a	6.708264743500459
35	0x401ad533ea080a20	6.70820584940023
36	0x401ad57b1b4cbbc0	6.708477427061496
37	0x401ad5027ebbe9cf	6.708017330378836
38	0x401ad5163f46ae8b	6.708092678727222
39	0x401ad525af55fa75	6.708151569006636
40	0x401ad516f863a09b	6.708095437126896
41	0x401ad5384379d040	6.7082224410151525
42	0x401ad5125f39d450	6.708077896027206
43	0x401ad51592a80ac3	6.708090106493446
44	0x401ad50b975fa417	6.7080520298123
45	0x401ad502f5ba472c	6.708019103521831
46	0x401ad53fa45d51b5	6.708250587650061
47	0x401ad53b59e4d678	6.708234219162129
48	0x401ad53fa1be476d	6.7082505485903825
49	0x401ad538cca31d91	6.70822448487833

W2 f8 [50, 10]
0	0xbfbce4577da8b27b	-0.11285921876760512
1	0x3f9cf3a32060cd11	0.02827315220947663
2	0x3fba011b74905b88	0.10157939525411852
3	0x3fb95f3cb5a4142e	0.09910945353119935
4	0xbfb31c6055e053fa	-0.0746517381342783
5	0xbfb65376aef6d5e2	-0.08721105357729855
6	0x3faee6a7c027aa14	0.0603535100998053
7	0x3f7fd90841b85d50	0.007775337460336942
8	0x3f8f28d817607db8	0.015214622701079303
9	0xbfa95e776971b8fa	-0.04954884683762546
10	0xbfb7c3d2dd7b3e88	-0.09283178241025258
11	0x3fa165b5c310b7c2	0.033979110776598556
12	0x3fbd4748afa1dd4e	0.11436895645043885
13	0x3fb7f55ef312090c	0.09358781275117084
14	0xbfb15350d7fd0fb4	-0.06767754815251587
15	0xbfbcf099db7df97c	-0.11304627999013478
16	0x3fb39d900a92a83a	0.07662296541335048
17	0x3f866180d6a5c478	0.010928160238764514
18	0x3f8494b9a51550d8	0.010049295759622032
19	0xbfa9528b664c712b	-0.04945788978349904
20	0xbfb94facc451f9d1	-0.09887199204420162
21	0x3fafa52193c2a990	0.06180672577586954
22	0x3fbbc672ddb7eb44	0.108496836786725
23	0x3fb082fa3f1884fd	0.06449855842994974
24	0xbfb2727d17909b6a	-0.0720594580203461
25	0xbfb92c235797121b	-0.09832974327498116
26	0x3fb1e8e439f973d1	0.06995989241973112
27	0xbf931bc7cd0e05a2	-0.018660661593008172
28	0x3f9e39bc4ae7731c	0.029517118522437533
29	0xbfa570f8d93227fa	-0.041877533448385365
30	0xbfbf3c8a78fe5866	-0.12201753095573195
31	0x3fa9280a0ec870e3	0.04913360052543838
32	0x3fbb3d95883e78e3	0.10640844894666972
33	0x3fba77f86ba9ebdc	0.10339310291776321
34	0xbfb371805226c894	-0.07595064168597992
35	0xbfbd616f95ffb944	-0.11476800357897782
36	0x3fb13de3daf79f1c	0.06735061736946729
37	0x3f978d80efbfaf64	0.023000731118301046
38	0xbf8b4b2d86516150	-0.01332698408275293
39	0xbfa9d5757b793992	-0.05045668728108689
40	0xbfbc788c76a9fa14	-0.11121442696637757
41	0x3fa32b7e52e74188	0.037441203708684034
42	0x3fbd26db69e9dc6a	0.11387416206149373
43	0x3fb6967fa5798e1f	0.08823392667687145
44	0xbfb3e13a42633fb9	-0.07765545006554832
45	0xbfbcb9dd80b02dc6	-0.11221107856561394
46	0x3faf9dd0dabbde14	0.061750914288435294
47	0x3f8dd642b3af4b60	0.014568825825255594
48	0x3f82749eb671de78	0.009011497442983116
49	0xbfa5288e790a07cc	-0.04132504680184432
50	0xbfbb73573240501b	-0.1072287080463074
51	0x3fab7dd83a0eaa3f	0.05369449337679954
52	0x3fbd31cb1339815d	0.11404103488303492
53	0x3fb8aa701ccc2d10	0.09635067656579488
54	0xbfb396a3816576a6	-0.07651731404390691
55	0xbfb528996754619e	-0.08265074513145129
56	0x3fb50c8e3c324fb8	0.08222283334390468
57	0x3f94fe51e96098b4	0.020501403683873945
58	0x3f9c6bea3e626250	0.02775541311038615
59	0xbfad273a04b4a588	-0.05693990046922709
60	0xbfb85c42294bc2bc	-0.0951577521152655
61	0x3fa93e7711b630b2	0.049304695999212625
62	0x3fbfea47a7c06e84	0.12466857762813716
63	0x3fb5956255649040	0.08431067070756715
64	0xbfb45d44a5c50e0a	-0.07954815909493376
65	0xbfb5409de276fd6a	-0.08301722315717588
66	0x3fa21e6bcf71651e	0.03538834483397067
67	0xbf809e99f8caf0f0	-0.008115008263637397
68	0x3f7c00382aaaefa0	0.006836146737153742
69	0xbfa953c306af51c0	-0.049467176977177285
70	0xbfbb8fe7a3b6d4e3	-0.10766456362655989
71	0x3fae66c46afbeb20	0.05937780195195885
72	0x3fbd9212206147b0	0.11551011362578723
73	0x3fb67b2ca3d9c9ac	0.08781699180852937
74	0xbfb01d94b55f650f	-0.06295136859934679
75	0xbfb6390e9500149d	-0.08680812013342849
76	0x3fae296435018c26	0.05890954157873578
77	0x3f9207e8382ccc3a	0.01760828822007119
78	0x3fa2c46bb92c8556	0.03665482173370076
79	0xbfaafa7cb819b9e7	-0.0526923155529067
80	0xbfc2e18ca7db196a	-0.14750822254263635
81	0x3fa1065697dc1ea8	0.03325148204572531
82	0x3fbe31a3dbdb4f31	0.11794494741053253
83	0x3fbb941375d1bccc	0.10772821070144117
84	0xbfb61f7bde34541e	-0.08641790556824033
85	0xbfb9974e3ca391ab	-0.09996499042933375
86	0x3fb08e9f1b5afb36	0.06467623155456867
87	0x3f6cd99c9c86d2b0	0.003521734124854646
88	0x3f94756b95d9fca0	0.019979172726831806
89	0xbf9f350d93e4ffbc	-0.030475818778768135
90	0xbfb7bba37066efb4	-0.09270688528243803
91	0x3fa797c5665e7cb7	0.04607979654905974
92	0x3fba64b44e1c889a	0.10309912592905093
93	0x3fb363187a8dfcef	0.07573082916313799
94	0xbfb3ffd7130cb3aa	-0.07812256064489867
95	0xbfbf6229577b4fd9	-0.12259157548697831
96	0x3fb2c05ca7b37fbf	0.07324771017329022
97	0x3f9826864b537200	0.02358445963624156
98	0x3fa259b57c79b33a	0.03584067482447613
99	0xbf9a504e2886f602	-0.025696965430816128
100	0xbfbbccf4be31981f	-0.10859613078500317
101	0x3faed09b43e311d6	0.06018529132555599
102	0x3fbac32fcfd13455	0.1045408136717055
103	0x3fb5e7ad7169078d	0.08556636828237014
104	0xbfb53aa59f2f3276	-0.0829261315950108
105	0xbfbb662d88640d3c	-0.10702786044935392
106	0x3fb1b59529c50d54	0.06917698163765823
107	0x3fa02b1ca2da4903	0.03157891738841736
108	0x3f88f04f5a2301d8	0.012177104891066756
109	0xbfb1acb44c0dcd54	-0.06904150826249139
110	0xbfb8ed40e1854554	-0.09737020021318205
111	0x3fa4bba144e63598	0.040494002972177146
112	0x3fbac51db5f05243	0.10457025234092847
113	0x3fbdef50bdf1ea78	0.1169329131825324
114	0xbfb6610fdb7ee20c	-0.0874185477140445
115	0xbfb92a8ae36e29a8	-0.09830539753435252
116	0x3fb2e104158af497	0.07374597097346434
117	0x3f7841e03b9521a0	0.005922199162633396
118	0x3f83a1bacb13b628	0.009585818598192367
119	0xbfa912c39ac63f9d	-0.04897128357254064
120	0xbfb93e0648ca3c6b	-0.09860266949748257
121	0x3f95ac46496670c2	0.02116498778342258
122	0x3fbb0c77df5d2448	0.10565900042742371
123	0x3fb81f2e6adf6ae5	0.09422578915784248
124	0xbfadb49bc8900d96	-0.05801855872416721
125	0xbfbb456ab51197a3	-0.10652796669600532
126	0x3fb04011d07d18bc	0.06347762432150977
127	0x3f890956d38dca68	0.012224844294654605
128	0x3f7a00168e6f4fb0	0.006347740279085842
129	0xbfac4041bdcae8e6	-0.0551777404957237
130	0xbfbecdb6cb02281b	-0.12032644706974376
131	0x3fa653de76708114	0.043608619649832786
132	0x3fb7f76407f5e7cc	0.09361863321637925
133	0x3fb1e77e5355fd2f	0.06993855986182916
134	0xbfba9b198a09330e	-0.10392913455980254
135	0xbfb8d170095dbc7e	-0.0969457648150058
136	0x3fb12a1ac2e1a4c0	0.06704871423575565
137	0x3f86d0b6f84fcc80	0.01114027924811567
138	0x3fa370b8bc3a7076	0.037969372727474957
139	0xbfa3314d89462599	-0.037485526091653294
140	0xbfb953be371bb76c	-0.09893406720558823
141	0x3fb167617ba3a3c3	0.06798371571097932
142	0x3fb972249eba0e30	0.09939793467679503
143	0x3fb91e5c29cf90d4	0.09811950703403066
144	0xbfb4a9bc4466da7b	-0.0807149569508087
145	0xbfbcb556618cfdbe	-0.11214198953256635
146	0x3faebf7f01c0571d	0.060054749454293545
147	0x3f95f4f1a0025832	0.021442199126419044
148	0x3fa05be95121efb8	0.03195122828853364
149	0xbf9de7582c0a6c12	-0.029202821434051236
150	0xbfbce4c29784d614	-0.11286560248557748
151	0x3fa65be2d8bcfdca	0.043669785458856206
152	0x3fba61091c3dae94	0.1030431455562229
153	0x3fbac9b0a7141cf2	0.10464004592005319
154	0xbfb10f32ab3bb27e	-0.06663815193651065
155	0xbfbf9beaa5edb67c	-0.1234728484248197
156	0x3fb4606d051f8588	0.07959634184910247
157	0x3f995bb05f938c56	0.024763828118818353
158	0x3f8bdc46375bd6f8	0.013603733601012177
159	0xbfaf31315461e5ff	-0.06092218546923433
160	0xbfb9a947788454ce	-0.10023924534137338
161	0x3f98e0e6223af7f7	0.024295421447042966
162	0x3fbce18503d2e94c	0.11281615584713228
163	0x3fba791f21da7150	0.10341066910263419
164	0xbfb4203d92cb6adf	-0.07861695131161238
165	0xbfbebc3691ffe6b8	-0.12005940498775203
166	0x3fb5cc7ec01f6550	0.08515159788602955
167	0x3f8b042a0a08218c	0.013191536360879018
168	0x3f9c720ea0c66678	0.02777884346287471
169	0xbfb2697ff0b21e00	-0.07192229868280009
170	0xbfb9ac2f732d2ad0	-0.10028358995365783
171	0x3f936524c5ffb752	0.018940519890683412
172	0x3fb88707ce8d09f3	0.09581040184733762
173	0x3fb7fc19767b2300	0.09369048254587753
174	0xbfac2b00e3731e86	-0.05501559044347197
175	0xbfbe833b103ccce5	-0.11918992182181716
176	0x3fa7ecccc1eee2a6	0.04672851435993168
177	0x3fa3bcd614de9189	0.03855008129838484
178	0x3f9dedc57c615838	0.029227338520591867
179	0xbfb10b39e04547a6	-0.06657754636151356
180	0xbfb9995a9754c8fa	-0.09999624437913104
181	0x3f90bd9c6d46cf70	0.016348308725084804
182	0x3fb9bfb75975f1cc	0.1005816071901286
183	0x3fb76c1359290c52	0.09149285246626107
184	0xbfabf3339f5fa21b	-0.05458985634306065
185	0xbfb79f316a1162a6	-0.0922728427843916
186	0x3fab789ad660902b	0.053654516858188415
187	0x3f74b5c23da3f788	0.005056151154574702
188	0x3fa214d0a5c17fda	0.03531505607020309
189	0xbfaa5074bf96a90c	-0.05139508093573583
190	0xbfbb67491cee9fb4	-0.10704476314879124
191	0x3f8b234af24215e0	0.013250909345752626
192	0x3fb69b91bdb4da75	0.08831129914765674
193	0x3fb56667f64b7d1c	0.08359384310778178
194	0xbfb30858798d1dc1	-0.07434609382209258
195	0xbfbf5d8bb19a3d70	-0.12252114377974066
196	0x3fb24a451116c623	0.07144576708994825
197	0x3fa50322ef1d09b9	0.04103955429902179
198	0x3f9908cd187035b4	0.02444763623866715
199	0xbfa9576722ef2919	-0.049494956030303246
200	0xbfbb8a710cc0aa18	-0.10758120118467962
201	0x3fa4a59a420dec91	0.04032594734504714
202	0x3fb8e48f69bc547e	0.09723755198895564
203	0x3fb2a6089be96ac1	0.0728459721225745
204	0xbfba12a89f1a457d	-0.10184720882741334
205	0xbfb86ec18e6a5721	-0.09544000365198403
206	0x3fb1fef97533eed5	0.07029685126684211
207	0x3fa0ed9cf7075e44	0.0330628444241339
208	0x3f96b4a84da8fbfc	0.02217352842330554
209	0xbfa4424558ebe7a8	-0.0395681067511327
210	0xbfbcdbfba1b3b049	-0.1127316732196856
211	0x3fa5ea85108bab4f	0.0428048689553494
212	0x3fb56b7f483ef9c2	0.08367152704065631
213	0x3fbac4cea3b83aad	0.10456553933202413
214	0xbfaa203ed6b5ab24	-0.051027263364480185
215	0xbfb55d85a9ab4a94	-0.08345828430473495
216	0x3fb047e1d6e796c5	0.06359683510489862
217	0x3f80199ef6600164	0.007861368078011473
218	0x3f8bf07b0c4cacc0	0.013642274201251303
219	0xbfaf120a34002240	-0.06068450817844395
220	0xbfbaf20224a646a4	-0.10525525469554481
221	0x3f9a9b4a846e2697	0.02598301347055684
222	0x3fbd310318bc425d	0.11402911523715305
223	0x3fb4ee3e6b2f314a	0.0817603122406513
224	0xbfb18623e94c84b0	-0.06845306821607511
225	0xbfbd80040d5cf6cc	-0.11523461652992778
226	0x3faf75c82f781309	0.06144548015075741
227	0x3f8b7f58c1e1e710	0.013426488320181146
228	0x3fa6f65732232ffe	0.04484817969350273
229	0xbfa674e3bf276c13	-0.0438605471460606
230	0xbfbbc6dc2a7970bb	-0.10850311314556198
231	0x3fa389feb483fe06	0.03816219285544879
232	0x3fb88364338a80c4	0.0957548738319956
233	0x3fb5a718fea06a5a	0.08458095756979259
234	0xbfb3fa8717aa9bd6	-0.07804149940294222
235	0xbfb7dab29ded3760	-0.09318081241255305
236	0x3fb692c6a7244d77	0.08817712383852504
237	0x3fa084125f3ddde5	0.032257627607517304
238	0x3f33384cc7ef8d00	0.00029327272926434056
239	0xbfa9af00282eb450	-0.0501632737208203
240	0xbfbda5da8d162124	-0.11581197685712091
241	0x3f9aaf75cde081b2	0.02605995244096144
242	0x3fb4761815a7746d	0.07992697266259237
243	0x3fb758bd125bf6e2	0.09119779298995526
244	0xbfb2414d5f2156b7	-0.07130893299594275
245	0xbfb8bea4689a20a6	-0.09665896943818328
246	0x3fb05d3aba00de51	0.06392256775949902
247	0x3f9298b446bc6398	0.018160645310760865
248	0x3f8ad0dc77714110	0.013093683619587654
249	0xbfa3b98f16ca1fca	-0.038525077373435204
250	0xbfbf4ed8e5fcab30	-0.12229686369816473
251	0x3fa768aa5a034242	0.04572040890491681
252	0x3fbb1206007d3731	0.10574376594487657
253	0x3fbed3d38df24ef2	0.12041971412173405
254	0xbfb5c0f18b8c4794	-0.08497533471043389
255	0xbfbe7e02918d9a34	-0.11911026052039447

b2 f8 [1, 10]
0	0xbfbcaa9220dc5fde	-0.11197770406977223
1	0x3fa5faf4fa49e9ba	0.04293027453691729
2	0x3fb9660f6895ffcb	0.09921356490485704
3	0x3fb77fc5cb7cf2aa	0.09179340570421837
4	0xbfb39534a5d5c567	-0.07649544762332071
5	0xbfbb5cb1fddea618	-0.106883167724526
6	0x3fb140dfeba89758	0.06739615920431896
7	0x3f95095afc7cb802	0.02054350057658639
8	0x3f99b7aa51a467a0	0.025114690049214183
9	0xbfaa6ff057aff695	-0.0516352755584936
