experiments/exp_h50_lr0.1_run2/model/weights.npz (npz, 319046 bytes, 4 tensors)

W1 f8 [784, 50]
000000 0d 72 db f1 03 27 85 bf 2f 6d 12 d5 fb c5 75 bf
       -0.010328322237392685 -0.005315765113802314
000010 fd 6b 75 bb 7a e8 6e bf 81 31 36 77 97 97 6a bf
       -0.003772964202352734 -0.00324611266268543
000020 35 54 34 7b f5 50 4b 3f f8 3c 37 cc a4 a2 87 bf
       0.000833625663661969 -0.011540687067194785
000030 9e 10 aa 4f 1d a1 4d bf 7d 03 c9 a1 da 55 82 bf
       -0.0009042161103285545 -0.008952816068928499
000040 ef e8 d6 e8 58 03 6b bf e2 d9 03 1e 57 3a 70 bf
       -0.003297494555878015 -0.0039618876473838955
000050 fc a3 ba f9 58 49 8a 3f 2a 33 f9 72 40 ad 78 bf
       0.012835211869360201 -0.006024600748401091
000060 30 f8 b1 50 89 18 5e 3f a2 a9 30 ed f2 f3 77 bf
       0.0018369046181585628 -0.005847882205709006
000070 94 24 7f d8 0e 60 94 3f e0 31 86 a4 64 b3 80 bf
       0.019897682155520416 -0.00815466525161751
000080 39 34 26 19 3c 7e 53 bf 8c 1d 55 7d d6 83 8f bf
       -0.0011897646805636554 -0.015388179492801489
000090 d5 94 f9 3f 60 1d 90 bf 83 37 81 ef 41 c1 7a 3f
       -0.015737060456008607 0.006531961022188673
0000a0 f1 88 f1 dd 04 bc 59 bf 39 c5 43 ee 8e 8b 71 3f
       -0.0015707061318371263 0.004283483813410976
0000b0 a7 8e a0 34 12 78 8f bf 84 aa 4f 58 4e a8 53 bf
       -0.015365736228040673 -0.0011997952544741406
0000c0 1f ca 2a 8a 39 b3 6e 3f d9 ba 3f ad 07 a8 83 3f
       0.003747570402390168 0.009597835516584595
0000d0 32 6c 37 b3 91 a7 98 bf af ee dc 6d 77 3f 84 3f
       -0.024076725543505435 0.009886677780392842
0000e0 51 89 c1 bd 9e bd 73 3f 70 f0 37 36 39 b0 80 bf
       0.004819507677981187 -0.008148619620435421
0000f0 b0 87 5d f1 4b c9 70 3f 57 5e 7e db 89 96 85 3f
       0.0040982214466981776 0.01054103566256896
000100 15 45 87 04 5c 60 4b bf d9 81 6b ac 3b a9 83 bf
       -0.000835461550247415 -0.009600130271281525
000110 ed 4b 55 86 6e c3 94 3f fd ac 97 f2 66 60 88 3f
       0.02027676291374896 0.011902622488341391
000120 bd 78 a2 61 c9 91 52 3f cd 78 10 e2 43 15 7f 3f
       0.0011333910575000293 0.007588639419763688
000130 c3 55 cf 0b 7c 4f 77 3f 24 f1 9e db 56 34 83 bf
       0.005691036753849801 -0.009377173020646064
000140 d7 1e 62 31 5d c1 92 bf ef 60 7d a9 5a 96 60 bf
       -0.01831575025474205 -0.002024819444994212
000150 a5 c3 cc af 8f 5e 7e 3f 7a b8 6b 23 64 80 75 bf
       0.007414399410479532 -0.005249396481970087
000160 77 4a 8a 85 f4 d3 95 bf 09 27 df 0b 9f bc 95 bf
       -0.02131635727944078 -0.02122734556159059
000170 3f 49 92 6f 8b 48 8d 3f c2 b1 5b c9 a8 08 63 bf
       0.01429852422942146 -0.002323465024224287
000180 b4 12 08 dc 36 6e 78 bf 31 c3 e2 36 38 7f 89 3f
       -0.005964483542361055 0.012449683356267368
000190 fd 80 3d cd 45 f6 93 3f 00 95 87 9c 57 fd 83 bf
       0.01949414315402097 -0.009760555710224939
0001a0 13 ba c8 c1 7d e7 48 bf 5e c4 46 cf 5e b0 61 3f
       -0.0007600177810383489 0.0021592952491223246
0001b0 7c 54 ef d8 54 f4 80 bf ac 16 82 22 e1 74 84 bf
       -0.008278525228812443 -0.00998855482636015
0001c0 ea 4f 94 03 b4 19 66 bf fd 83 06 fc 5c 08 7e 3f
       -0.0026978031061250978 0.007332194538691714
0001d0 a4 cf bf bf a1 c8 93 3f a6 0f d2 d5 bc 28 4d bf
       0.019320037201353238 -0.0008898660704663621
0001e0 03 ae ec 87 bd c1 92 3f b0 c4 dc 96 41 3c 86 bf
       0.018317185803580226 -0.01085711709638057
0001f0 94 de 7c 15 d2 b6 5a bf 03 20 d0 ea e3 b6 87 3f
       -0.0016305018998092101 0.011579304316924782
000200 54 21 e5 c7 7f ae 4e 3f d4 b8 a9 bd df b5 77 3f
       0.0009363292627222832 0.005788682925965644
000210 c8 ec bc 9a 30 14 70 3f 23 60 de 85 c0 a4 89 bf
       0.003925504551996535 -0.012521270833346481
000220 3c 3e a5 47 79 0d 84 bf 7e c6 1c b1 63 ea 86 bf
       -0.009791324137636719 -0.011189249842206591
000230 a8 bf c7 42 50 75 8a 3f d7 26 59 84 1d 50 8a bf
       0.01291907028004842 -0.012848120309303308
000240 53 56 1f 89 6b b2 7b bf f2 ee 2b 48 1e c3 6f 3f
       -0.006761951504775948 0.0038772193378216963
000250 b3 b4 e6 28 10 1f 50 bf 41 c6 ab 14 25 c9 87 3f
       -0.000983968525911022 0.0116141220982825
000260 75 87 73 9d 10 37 81 bf 70 e3 7a 7b 45 87 5b 3f
       -0.008405809216529761 0.0016802004374041023
000270 fe 19 ea 41 f1 ad 76 3f 51 b4 0e 3a 78 68 6c bf
       0.005536978160881832 -0.0034677837542944974
000280 b0 3f 38 eb 23 99 91 bf 8a 66 e9 e2 75 64 91 3f
       -0.017185746413872216 0.016984788870422686
000290 5a d3 81 57 fd ed 8a 3f 4b a4 3d 09 91 72 87 bf
       0.013149241669660295 -0.011448987097269511
0002a0 bd 00 e5 90 ca 93 93 3f ef f1 af 5e eb 7d 82 bf
       0.01911846646658043 -0.00902923472130454
0002b0 76 1d 4c 2e 66 9c 7d 3f 0e 30 22 4f 9f 39 9f bf
       0.00722923197168456 -0.030493249134949045
0002c0 84 6a d5 1b 5c 75 6d 3f ba 0d a4 c1 06 1b 6c bf
       0.00359600057588 -0.0034308559380648836
0002d0 39 a0 7b 14 e3 7e 8d bf 5d d9 07 6b f5 d8 86 bf
       -0.01440217405566112 -0.011156003311935942
0002e0 eb 1e 96 32 63 76 86 bf 96 bb 81 00 8d ba 93 bf
       -0.01096799371840925 -0.019266322284632396
0002f0 0d 76 ff a1 ae 19 97 3f 55 56 34 1b 81 1c 55 bf
       0.0225589071632069 -0.0012885342410461538
000300 bf 97 e8 b9 84 78 71 3f bd 1d da 82 51 10 8d bf
       0.004265325986613832 -0.014191281133448247
000310 10 96 12 8f 7d 18 74 3f 2e 60 d0 61 50 4b 6d 3f
       0.0049061684268614375 0.003575951572667455
000320 34 fc 9a a3 58 a8 85 bf ca 2c 8c bd 90 a6 66 bf
       -0.010575001232949167 -0.002764971443303209
000330 8e a7 d8 eb 12 49 62 3f 30 02 0b cf 76 4b 93 3f
       0.002232109981169245 0.01884256018343161
000340 03 59 d5 d0 26 82 73 bf d0 14 41 37 e8 01 6d 3f
       -0.004762794136089934 0.0035409484353602153
000350 fb 4d 7f 22 a1 71 6d bf 92 32 c2 e7 75 9a 75 3f
       -0.003594221798246753 0.005274258201222752
000360 06 ba f2 bf 7d 6d 7a 3f 72 79 35 e6 ef 1c 91 3f
       0.0064520752049888105 0.01671194880088351
000370 6f cf b6 c6 07 20 2e 3f eb 28 0d ec b1 02 8b 3f
       0.00022983641552587082 0.013188734070031368
000380 e9 2f 0a 0a 71 5d 91 bf fa 5e 8f b8 77 db 84 bf
       -0.01695801376131093 -0.010184226341081171
000390 63 48 26 23 b2 1d 67 bf 6c 06 61 4f ab 7c 88 bf
       -0.0028217772716710317 -0.011956537589983905
0003a0 22 6f f1 4d 97 f0 45 3f 05 09 d6 71 37 c4 67 3f
       0.0006695498267492476 0.002901180544257478
0003b0 9d 80 d9 e3 58 73 2e 3f 5f ed 03 3f 62 8e 97 3f
       0.00023231945117441625 0.023004088493491334
0003c0 1a 30 3b 25 e9 8c 8d 3f 99 91 93 8c 92 86 7f bf
       0.014428922127443445 -0.007696697671438457
0003d0 ce 9c 88 87 06 d4 7b 3f 90 41 4d 36 7b a4 74 3f
       0.006794000154093994 0.005039674088792259
0003e0 c8 4f 56 b6 9b 6f 87 bf 7d 60 9e 29 e8 a4 8d bf
       -0.011443344594944352 -0.014474691171742155
0003f0 7a 1c c0 1d 8c e2 82 3f 4b 3f 5b 2a 58 f3 6c bf
       0.009221167238150797 -0.003534004400400114
000400 77 86 2e 3c cb 5d 8b 3f 14 35 15 7c 1f 67 90 3f
       0.013362491392231874 0.016018382976928328
000410 c2 b9 7f 6f ad bf 95 bf 92 8c a8 10 cb 98 90 bf
       -0.021239004068712715 -0.016207859889743555
000420 b9 43 d5 dc c8 ba 83 bf 2f 52 02 13 49 d3 a0 3f
       -0.009633607138910582 0.03286198002857465
000430 f3 44 16 a3 b8 b1 64 3f a5 20 7c 19 4b ee 8f bf
       0.0025261503403234352 -0.01559122725986157
000440 54 77 ce 19 ef 46 8c 3f b1 17 7a f6 c0 1b 8d bf
       0.013807170844127782 -0.014213092347983155
000450 59 20 1f c2 71 cf 85 bf b9 22 85 9c 49 00 85 bf
       -0.010649574982281406 -0.010254454697716896
000460 38 f2 9f 4e 24 7e 9c bf 4e 3d 4c bc 8b fa 90 3f
       -0.027824942873836828 0.016580756538187295
000470 e6 70 17 57 01 6f 80 3f 62 0e 3e cf be 61 86 bf
       0.008024225683520968 -0.010928621959244104
000480 46 d1 c0 fb a1 e6 96 3f 96 35 58 be c8 e8 76 3f
       0.022364169112010467 0.005593094019343955
000490 f2 49 b8 68 58 7c 88 bf 5a ef 37 ac d9 16 74 3f
       -0.011955919929310863 0.004904604229064658
0004a0 21 65 2f 16 5f 36 8c bf c7 9c 11 25 da 42 95 3f
       -0.013775580277001044 0.02076283313035956
0004b0 8b 00 8b 83 b7 d3 71 bf 7b 98 2e 55 31 dd 61 bf
       -0.004352299548088588 -0.0021806682138559275
0004c0 b2 6c 4f 0e b1 84 90 3f 72 c2 0e cf d0 07 82 bf
       0.016131178377560125 -0.008803969687364719
0004d0 46 f0 67 a7 49 b0 82 bf 0b e6 3e 67 64 4a 54 3f
       -0.009125304623914709 0.0012384396077166372
0004e0 5d 5e 66 75 d5 fb 64 bf 21 95 7d fb 14 68 3f bf
       -0.0025614899743223022 -0.00047922622933634264
0004f0 3c 71 51 d7 63 71 88 bf 1a 9f 2d 00 1b dd 7a 3f
       -0.011935024269569376 0.006558518859357121
000500 ee fd 04 49 ed 16 8a 3f 14 14 77 0d ae 37 5b bf
       0.012739042082670484 -0.0016612243397144998
000510 cf a1 63 cc 16 6b 68 bf 3a c2 ce 45 e6 29 82 bf
       -0.0029807515412480843 -0.008868979459152649
000520 62 16 71 1b 8f 58 41 bf e9 5a 01 a9 a6 bf 87 3f
       -0.0005293558850858022 0.011596014053947683
000530 90 da 58 bf f3 90 66 bf 3e a4 f1 45 13 a2 72 bf
       -0.002754665440785793 -0.004549098287591367
000540 f1 38 de 6b 94 1e 80 bf c9 38 9b e6 99 6e 73 3f
       -0.007870826284286344 0.0047441493749841935
000550 74 0a 74 99 76 66 6d 3f ce 81 f9 32 3c 8f 77 bf
       0.003588897361283922 -0.005751834061442597
000560 64 31 91 a5 25 a0 6d bf 03 64 70 fb 72 dc 72 3f
       -0.003616403130342659 0.004604767941622792
000570 d6 6c e8 22 bf 7f 83 3f 8b 11 d0 cd 97 af 83 bf
       0.009521001103215115 -0.00961226078835222
000580 e0 3f 03 45 f0 80 8a 3f e6 2b b1 be 89 84 68 bf
       0.01294124327287699 -0.00299288657473572
000590 ee 18 0a 9b 5e 7f 6e 3f 44 06 4c c0 63 cf 7c 3f
       0.0037228439107962396 0.007033719685524856
0005a0 92 1e ed 81 8a 06 8e bf 47 a7 56 58 a1 8c 7c bf
       -0.014660913553270736 -0.0069700529615291445
0005b0 a4 52 0b 14 99 6e 76 bf c7 6d 7e 9d 35 12 66 bf
       -0.005476568185902284 -0.002694229809959234
0005c0 80 7d 58 39 7c 25 78 3f af 4b a2 c2 a4 46 73 bf
       0.005895123720193296 -0.0047060428570543785
0005d0 3e 2a 04 84 90 49 5f 3f 60 4d 32 d5 be cc 79 3f
       0.0019096289907475496 0.006298776093120878
0005e0 69 7b c6 e8 f2 65 83 3f 1a 0e 99 a1 7f ff 70 3f
       0.009471795777071983 0.0041499124141100244
0005f0 73 74 7a 1b 56 0d 84 3f f8 3d a8 92 3f ab 74 bf
       0.009791062081882828 -0.005046127635537349
000600 2c bd 94 25 32 6c 6a bf 19 ba bb 6e 18 e3 7b bf
       -0.003225419943781246 -0.006808371963173098
000610 f9 d5 54 3b e3 7e 51 bf 37 c2 55 ae 98 ad 74 3f
       -0.0010678500232875739 0.005048366937771712
000620 06 2f cf d0 ae f0 6f 3f 02 e7 eb 4a 5e fd 70 bf
       0.0038989462250124144 -0.004147880869590061
000630 33 1d 1f 95 7a 7a 92 bf 9a 96 47 12 60 7b 5c 3f
       -0.018045344688087894 0.0017383993336976046
000640 5e f0 5c e4 97 d8 73 3f f5 2d 8c 6f eb c5 47 3f
       0.004845231369298457 0.0007254981602228804
000650 e2 54 61 dc ea fe 72 bf 7c bf a6 d7 99 85 61 3f
       -0.004637639451251037 0.002138901208318998
000660 ae 8a 42 79 48 82 7a bf 4f a9 d0 36 1a ef 15 3f
       -0.006471903896598503 8.367154596614533e-05
000670 0d d4 f6 d9 76 c3 4e 3f 57 1b 1e ae e5 45 89 3f
       0.000938828499718826 0.012340349556110004
000680 55 39 b2 08 4e 39 87 3f d8 bb d9 1f 90 bb 87 3f
       0.011339769020449234 0.011588216754914102
000690 08 95 7e cb 09 10 1f 3f 19 67 7a 14 06 d0 8a bf
       0.00011849460395170844 -0.01309208631510077
0006a0 81 62 99 da ce 2a 93 bf 21 d0 0c 79 c4 bb 59 bf
       -0.018717987148507923 -0.0015706461601441362
0006b0 95 76 0c 32 f6 36 8b 3f be 80 3d 3d 90 dc 74 bf
       0.013288424875607144 -0.0050931581825752175
0006c0 9f f2 f5 03 c6 24 61 3f 99 5f 91 cf e1 77 73 3f
       0.0020927302827529882 0.004753000329479473
0006d0 a8 49 0e df 0b ad 64 3f 06 6d f6 4a 49 ce 8a 3f
       0.0025239211904104115 0.013088772392441782
0006e0 8e fc 52 0b 5b 33 63 bf e5 f7 78 ca fc 89 43 bf
       -0.0023438242156710925 -0.0005962833719832498
0006f0 53 bc cc 6f 1c e2 73 bf 5d ab b6 77 dd 03 91 bf
       -0.004854308205536634 -0.016616306716666574
000700 44 43 66 3b 6f a1 54 3f 10 f7 1f 8c c6 fd c5 3e
       0.0012591921091351247 2.621568541804206e-06
000710 34 6f ce 0d be 39 6b 3f 96 85 a4 37 94 8c 64 bf
       0.003323432158550599 -0.002508439528484184
000720 07 1a c3 b2 ab ae 5d 3f 9e 96 06 50 eb 68 76 bf
       0.0018116642705067203 -0.005471152486654111
000730 70 cf 10 b1 84 2e 96 bf f3 48 80 eb 55 71 66 3f
       -0.02166182833407454 0.002739589512210755
000740 cf 3b 97 5a d9 42 8e 3f b7 93 fc 16 f2 cb 71 3f
       0.014775941922293171 0.004344888365982172
000750 60 4b 13 89 db 0b 7f 3f 5e 9a ca 78 55 b5 93 bf
       0.00757966762576498 -0.0192464213347655
000760 f7 30 39 e6 9b ea 6c bf 1d fc 74 6e 97 c8 7d 3f
       -0.003529839030113387 0.00727137711447681
000770 01 b7 8b be 01 1d 89 bf eb d4 91 23 2d 32 87 bf
       -0.012262357356543687 -0.011326172492980699
000780 7e 0c 76 ea 8d e7 8b bf 0b 34 5e 55 b1 ad 7d bf
       -0.013625248639760775 -0.007245724400388741
000790 e1 ed 4a 59 a0 1f 93 bf 4f 10 37 8b 65 45 5f bf
       -0.018675332498544143 -0.0019086352957496005
0007a0 19 df 8c 55 9e e9 8d 3f 5d a4 b5 7b 57 07 84 bf
       0.014605748163020448 -0.009779628241363076
0007b0 95 e6 cc e7 2e 15 62 3f ae c8 24 6f d2 1d 7b 3f
       0.0022073665735689676 0.0066202373584919715
0007c0 d6 44 e0 22 5f f6 91 3f 1c df 8e ee c6 87 3a 3f
       0.01754139566771048 0.00040482146010444183
0007d0 fd 3f 8e 02 52 7c 51 3f c2 65 3f 6c f0 4e 90 bf
       0.0010672379378071633 -0.015926128966247573
0007e0 2b 0d 59 2f 61 60 7f bf b5 21 36 b7 e3 f8 82 bf
       -0.007660274151535955 -0.009263781574888033
0007f0 be 9a 92 a4 00 76 70 bf 71 b9 74 19 ef ce 69 bf
       -0.004018785964183534 -0.0031504316244969567

b1 f8 [1, 50]
000000 35 57 87 32 c3 c4 d8 3f 2d 16 fd 51 a6 cb d8 3f
       0.38700942930641996 0.3874297905607332
000010 35 62 55 57 ed bb d8 3f e8 d3 2c cf 96 c1 d8 3f
       0.38647016075768487 0.3868157408899706
000020 f5 e6 0c 1b 08 c9 d8 3f 2a ac be ed 7e c5 d8 3f
       0.38726999894753017 0.38705418793932955
000030 59 d0 bf 0a f4 c0 d8 3f 87 61 db 6c c1 cb d8 3f
       0.3867769341443413 0.38743625288545797
000040 36 f2 46 93 0a c0 d8 3f 57 4c 1a ff b4 cd d8 3f
       0.38672127134831 0.3875553599584171
000050 ac 37 aa 08 40 c6 d8 3f 33 ea 0c b3 8f cb d8 3f
       0.38710022779639064 0.3874243973292863
000060 04 f5 3e d4 27 ba d8 3f 3a 1d 04 39 57 c0 d8 3f
       0.38636203505650735 0.38673954551673584
000070 62 32 b3 9a 18 c5 d8 3f 71 62 13 f3 e8 c5 d8 3f
       0.3870297919027391 0.38707946527350773
000080 24 4c af 7c 5c cc d8 3f 77 81 f4 b1 41 d0 d8 3f
       0.3874732225060049 0.38771097544124394
000090 4c 4d 96 5a 27 c8 d8 3f e3 f6 43 e0 82 c6 d8 3f
       0.38721641394041195 0.38711616421629297
0000a0 4c 51 34 2a 15 b9 d8 3f ef 51 a8 12 2b c7 d8 3f
       0.38629655000228946 0.3871562654688025
0000b0 58 41 a8 8c 86 bd d8 3f 39 3b bf 95 66 c4 d8 3f
       0.3865677236181191 0.38698734878282753
0000c0 dc 93 de 4c a7 d1 d8 3f 2a 8f b4 2d 29 c4 d8 3f
       0.38779623514920813 0.3869727083531297
0000d0 f7 7e 2d 95 3d be d8 3f 2a 6f 86 05 c0 ca d8 3f
       0.38661136215340214 0.38737488307536927
0000e0 f3 47 9f f6 0f c2 d8 3f bc df 68 c2 f4 c6 d8 3f
       0.38684462627600097 0.3871433161289095
0000f0 87 05 5f c6 d3 c6 d8 3f df 0d e0 81 02 b4 d8 3f
       0.38713545200524674 0.3859869259178747
000100 b9 b8 8b ae 7a b7 d8 3f fe 88 23 3a 02 af d8 3f
       0.3861986832188325 0.38568168332689357
000110 62 56 d2 42 9d c5 d8 3f 54 80 18 7b ea c7 d8 3f
       0.387061419730662 0.3872019006830716
000120 d0 e9 32 8a 71 c2 d8 3f 8c bb d1 ad 13 cd d8 3f
       0.3868678903196754 0.3875168988660611
000130 72 1d f8 96 e6 cd d8 3f a5 3a 6e ff 9b c7 d8 3f
       0.38756718390546674 0.3871831888617783
000140 57 40 88 33 8b c8 d8 3f 46 0e f2 5d c7 c6 d8 3f
       0.38724021942562586 0.38713249372833436
000150 a2 60 e4 b1 b6 cf d8 3f d2 4d 4e 66 c2 c5 d8 3f
       0.3876778352000746 0.38707027426536655
000160 c9 3a a7 4f 06 cb d8 3f 0a c2 24 65 fb bc d8 3f
       0.38739164141308585 0.3865345466356592
000170 de 5e 9e d3 78 c6 d8 3f 88 c5 11 30 ed cd d8 3f
       0.3871137682522042 0.3875687570026334
000180 1e b4 ec dd ff c6 d8 3f 6f 3f 04 df 2b c3 d8 3f
       0.3871459643585825 0.38691231516803887

W2 f8 [50, 10]
000000 22 02 b9 c4 54 a8 a5 bf b5 90 b4 d5 63 fb ab 3f
       -0.04229988957786569 0.054652328335835255
000010 2e 55 3f 9d 12 ee 80 bf da 63 9e 5e e6 45 a7 bf
       -0.0082665876615616 -0.045455168771873125
000020 3f 72 41 4e 8e ab 91 3f 3d 8c af 9e c6 00 88 3f
       0.017255996252389712 0.011720229833320878
000030 7a 6b f7 ab 48 18 74 3f 47 18 e4 4d 5c 48 75 3f
       0.004905971406936932 0.005195961535951871
000040 d5 8f 2b 9c 0a e1 84 3f 0a e2 9f c1 74 d6 7f bf
       0.010194857493338741 -0.0077728806299934925
000050 83 4d 79 e4 54 43 21 bf ee f9 3d 0e 4f b2 9f 3f
       -0.00013170634541613207 0.030953631634014593
000060 aa ab 7f de 75 a3 91 bf e0 a5 ed 68 b3 bf 9b bf
       -0.017225114541286203 -0.027098468093219696
000070 5e 83 ad d1 ad 55 83 3f 2f bc 33 62 fa 0b 8d 3f
       0.009440763436659057 0.014183002588167152
000080 af c6 1e 09 f3 42 88 3f 0b 8e da fa 86 f5 57 bf
       0.01184644576628399 -0.0014623468554554344
000090 f2 32 b7 e8 01 16 a3 3f e6 d5 60 7a 6d 5b 5f 3f
       0.037277278573673814 0.0019138878938184055
0000a0 93 a5 c6 bc 83 24 9d 3f 2d d0 10 3a c9 d3 ae 3f
       0.028459604641886193 0.060209549272628095
0000b0 ba af dc e8 f2 a4 9b 3f 8b 05 8b 20 20 7e a9 bf
       0.026996417486927028 -0.04979038617376393
0000c0 e7 dd ff 06 4e 72 9e bf da e5 cd b5 94 ec 95 3f
       -0.02973291318627771 0.021410297008946567
0000d0 31 4d f4 8b 97 2c 8e bf 3d 1a 44 50 50 97 a4 3f
       -0.014733489950720187 0.04021693210420494
0000e0 18 b6 97 e6 7c 30 a3 bf 50 9c 50 4f f9 42 65 bf
       -0.03747930826999041 -0.002595412190675307
0000f0 51 5d 78 92 e9 1b 9c bf 80 0a 77 15 b0 9a 81 3f
       -0.027450227322416258 0.00859582486635202
000100 15 98 59 a7 4d 4f 98 bf bb 22 c8 7e a9 1e a6 3f
       -0.023740018214447007 0.043202683187762735
000110 11 9a 93 e9 0e bb 8c bf ce 2b 01 ec c3 4b 98 3f
       -0.014028660300437175 0.02372652175862893
000120 58 a5 56 b3 b1 d9 b1 3f eb c6 f1 e7 3e 46 a7 bf
       0.06972799900417692 -0.04545780736306234
000130 b0 2f 25 05 38 11 94 3f 06 5f 02 ed 97 fe 97 bf
       0.019596934618035966 -0.023432134476563803
000140 fe dc bf 15 cb d6 9b bf a9 8c 59 68 09 d8 a6 bf
       -0.027186558916551633 -0.044616979587567336
000150 5a 18 0d 45 c6 b2 a9 bf 18 6e 8c f1 57 53 8f 3f
       -0.05019206612500744 0.015295683917023559
000160 fa 9a 8a 4a 05 59 a0 bf 3e 42 4c 65 c5 70 b2 3f
       -0.03192917380265743 0.0720332500752727
000170 b6 10 35 37 66 1b 84 3f 84 49 be 60 da b2 94 3f
       0.009817884979050322 0.02021352019762325
000180 a5 67 9d c0 ba 0e 89 3f 63 e1 e2 a1 be 2a 9c bf
       0.012235125544680711 -0.027506807928803122
000190 73 bd b3 ce fe 1b 9a 3f e2 7b 38 43 48 df b8 bf
       0.025497418752761413 -0.09715701714638628
0001a0 00 9e 43 c1 0a 1f 62 3f 40 ce c3 ac f2 d2 ac 3f
       0.0022120676095374048 0.056296905126057784
0001b0 05 f5 e2 9c 1f 5d 91 bf a5 e4 35 54 43 85 95 3f
       -0.01695680041369931 0.02101617051582551
0001c0 4e 3e ff 38 11 09 73 bf 81 e9 6a bc 7d 72 95 3f
       -0.004647319103198889 0.020944561600779735
0001d0 1b b7 63 9a db 28 a0 bf a3 27 c4 00 52 de 93 3f
       -0.031561720463157715 0.01940277223278709
0001e0 70 cf d7 85 61 38 a9 3f 3b 29 52 ec 19 74 ae bf
       0.04925827750039857 -0.059479532335063166
0001f0 20 8f d3 d2 b7 5b a6 bf 00 6a 53 84 6f 5b d0 3e
       -0.043668503270764214 3.899853316025829e-06
000200 bd 82 55 60 7d ac 8d 3f df 54 18 29 0e f9 a0 3f
       0.01448915434110753 0.03315014125488757
000210 3b d1 d1 15 58 7d 8b bf e9 5c 39 27 c3 e9 b0 3f
       -0.013422668615227997 0.06606692988986008
000220 a2 7e 76 83 10 e9 92 bf 6e c9 2c 66 d2 0f a7 bf
       -0.018467195533615872 -0.04504258630039969
000230 49 04 4e dc f3 fc 88 bf f7 52 96 9e b1 2c 97 bf
       -0.01220121875826598 -0.022631430916208974
000240 26 49 1a 1f bd 68 6e 3f fa f9 fc db d2 fb a7 bf
       0.0037120527056881012 -0.046843137125041026
000250 42 98 6c 0e 07 1f 86 bf 15 46 76 bd ce d1 a5 bf
       -0.010801367881480787 -0.04261632979172362
000260 43 c1 ce ea 9e 72 45 3f 72 6a 19 b6 ba bc a0 3f
       0.0006545330012297862 0.03268989060298545
000270 65 87 f1 45 48 51 a2 3f b9 75 ea 40 39 ea ab 3f
       0.03577638486673499 0.05452135960988919
000280 34 e4 73 5b cb 42 a4 3f 85 69 d2 2e a7 fc 90 3f
       0.039572100557002804 0.016588794930251467
000290 40 7c cd f5 4e c3 1b 3f 12 74 1b 3c d9 dd 92 3f
       0.00010590714869128468 0.018424410146384025
0002a0 8b df a3 7d 28 90 a3 3f 01 ee 3b 68 c1 87 8d bf
       0.038209214531831646 -0.01441908931109648
0002b0 39 2f a8 da 27 ee b6 bf 62 57 22 19 38 c5 9f 3f
       -0.08957146728806444 0.03102576878935482
0002c0 a1 34 35 75 e2 7d a2 bf c9 81 1c 46 bd c4 61 bf
       -0.03611667328605362 -0.002169007945568267
0002d0 85 e3 7c b4 45 db 87 3f 47 bf 9e f2 8f c2 a1 bf
       0.011648697443534814 -0.03468751751586168
0002e0 06 6b d4 28 08 2d aa bf 04 b3 ff 57 44 1c 65 3f
       -0.051124815925694775 0.0025769553030755583
0002f0 2d ec 21 e4 e2 3d 9c 3f 0c c3 a2 2e b3 ee 9a bf
       0.02757982747469272 -0.026301192971632623
000300 29 ad bd 05 a3 0a ae bf 08 5b 65 66 45 16 a5 3f
       -0.05867490239219315 0.041185539960386264
000310 50 b8 21 d9 24 da 9b 3f 17 1e 21 e9 e8 cf b2 3f
       0.02719934058443868 0.07348495189318559
000320 c1 89 d2 0b 66 fd 98 bf 63 c7 c7 dd 9d c2 97 bf
       -0.02440413901479999 -0.0232033411611562
000330 c0 a3 0f 25 63 43 57 3f 38 66 fe 30 a2 86 98 bf
       0.0014198749743121603 -0.02395108627351858
000340 c6 7e c7 5b d3 cf a2 bf 32 47 63 b6 aa 07 ac bf
       -0.03674183364250676 -0.05474599338925969
000350 34 47 17 17 1e 5e 9a 3f 3e 48 fd 57 18 d0 ad 3f
       0.025749654921873602 0.05822826456154971
000360 a6 6c aa 54 13 95 88 3f eb d4 89 13 18 2c b1 3f
       0.012003088971417174 0.06707907177936405
000370 cf ba 09 b3 ab 6f 97 bf 34 db 60 0b 06 8e a7 bf
       -0.02288692741643211 -0.046005429161985495
000380 e8 df 4d ff 32 d1 99 bf bc 31 81 47 bc 64 91 3f
       -0.025212094147235492 0.016985837806986245
000390 2b 8d d9 93 32 1e 75 bf 9d 75 65 7a 24 be 8b 3f
       -0.005155751770505017 0.013546261773337781
0003a0 54 f1 c2 ab 5d dc a7 3f c8 a5 f3 19 77 46 93 bf
       0.04660313340852676 -0.018823491057366387
0003b0 44 1f bf 00 e7 6b a8 3f 5b 2d 4c 43 70 43 70 bf
       0.04769822963822759 -0.0039705643910211376
0003c0 1d fc 2d 88 73 78 a9 3f aa 28 6d 40 82 ce a2 3f
       0.04974709546421983 0.03673178707556819
0003d0 92 9c 63 94 51 1d a7 bf e2 30 50 47 e0 32 9d 3f
       -0.045145558704285396 0.028514389374365907
0003e0 b2 3c 96 82 c9 47 ab bf 23 c0 b8 5b 03 b6 8c 3f
       -0.05328206748083043 0.014019037472365941
0003f0 cc 2f 63 b9 a9 7d 97 bf 9f fc f0 a1 34 d8 87 bf
       -0.0229403037454146 -0.011642848197992271
000400 26 97 1d 3a 38 a6 b2 3f 13 3a e8 97 b7 02 ad bf
       0.07284881037557209 -0.05666135529837759
000410 5d 99 12 e4 00 bd 96 3f 0b 92 1c ac a9 ed 9d 3f
       0.022205366058778753 0.029226924066408737
000420 9c df 61 93 59 f6 73 bf 83 1e 1f 24 16 53 b4 bf
       -0.004873609452367502 -0.07939279920457847
000430 c0 91 46 4e b5 f0 58 3f a4 95 f3 c0 24 2a 7a 3f
       0.001522233063135578 0.006387847489553709
000440 f3 c4 d6 57 df 40 91 3f 79 50 86 95 34 f8 9c 3f
       0.01684903119684562 0.028290578485738103
000450 e0 dd 7e 72 fc 91 a7 bf 4c e2 f7 7d 53 98 9a 3f
       -0.04603566072131193 0.025971703113073993
000460 55 2f f5 89 d3 0d 8f 3f 8c 9d f9 65 6b 7d 67 3f
       0.015163090369831581 0.0028674218772725742
000470 0c a5 43 15 41 80 74 3f 53 8a 8d 7c 4c e8 76 bf
       0.005005125265804777 -0.005592631125952058
000480 4d eb a7 62 4a 71 b1 bf 79 ba 77 8d b9 83 a2 bf
       -0.06813492687790053 -0.03616123058224203
000490 5e e8 56 d1 cc a1 a5 3f ac a2 75 e9 37 55 90 bf
       0.04225006156362164 -0.01595008242057598
0004a0 aa c1 56 59 22 59 8c 3f 43 cb f7 93 d7 bc aa 3f
       0.01384188494816459 0.052222000896924324
0004b0 81 62 a8 e4 7a 55 a4 3f 5b 6f 1f 2e 16 32 7f 3f
       0.03971466103775346 0.007616125718381851
0004c0 44 e2 1e da 47 7b 9c bf ff d8 bb 76 21 2e 9f bf
       -0.027814028442408892 -0.030449412223753743
0004d0 27 32 98 e3 dc fc ac bf 11 28 3f 9a 6a ea 92 3f
       -0.056616690428289033 0.018472352661582706
0004e0 86 95 4d 6d b8 73 95 3f 57 b0 24 6f 33 de a0 3f
       0.02094925086148216 0.03294525844316414
0004f0 26 ec 90 0a 36 4a 9b bf cc 49 46 22 57 37 82 3f
       -0.026650280375388878 0.008894615872837706
000500 72 a0 c6 f2 b1 8a a7 bf 40 86 11 42 2d 8b 8b bf
       -0.04598003471920799 -0.013449052408932904
000510 3d a2 c1 4b e1 94 99 bf 9c 00 25 6d 8f e2 9b 3f
       -0.0249819948661829 0.027231446301130377
000520 8e 49 a1 1a 63 a2 a9 3f 8c 4a 3d 02 79 75 95 bf
       0.05006704044412223 -0.020955935250933908
000530 4e d1 3b 65 79 5a 91 bf e2 95 7b f7 d2 e5 87 3f
       -0.016946694186985405 0.011668823411535582
000540 27 ba f5 43 a6 6a 68 bf ef 0b df 4b 05 55 92 3f
       -0.0029805419323374496 0.01790245318967359
000550 d0 ba 27 60 8d 31 99 bf 3e 9f 1f 20 09 87 a8 bf
       -0.0246030893267129 -0.04790524022229058
000560 3c 07 5b 7f e4 99 8f 3f 8b 79 8d 81 54 b1 a3 3f
       0.015430245529731594 0.03846229630902361
000570 c1 d8 2b 82 31 c7 9a 3f 8c 78 22 52 64 6e 90 3f
       0.026150487489723376 0.016046111596204102
000580 76 99 20 a1 f7 62 81 bf ba af 88 15 58 52 93 3f
       -0.008489546398845898 0.018868805231406084
000590 1c 3d 36 e5 80 d6 63 bf a9 57 70 b1 43 0c 98 3f
       -0.0024216191756704208 0.02348428507328718
0005a0 64 4a d8 e5 14 6f a9 3f a0 e6 38 54 ed 24 a1 bf
       0.049675610596882774 -0.03348485615829344
0005b0 66 ae f4 15 c5 cd 93 bf af 9e d8 a1 95 45 ac bf
       -0.019339637246203266 -0.05521838761006614
0005c0 b3 ec 64 34 91 8b 9c 3f 63 90 49 75 01 f5 7c bf
       0.02787615663804095 -0.007069593139565541
0005d0 52 e1 1e 2f e5 0a 60 bf e4 04 de a5 35 d1 91 3f
       -0.00195832026016888 0.01739963364480425
0005e0 3c 50 c2 2c e0 17 60 3f 13 03 e7 a6 ea 48 79 3f
       0.001964509812816954 0.00617305432246053
0005f0 58 2d 4e eb 96 61 80 bf 12 f2 7f e8 02 90 b5 bf
       -0.007998637252760218 -0.08422868896736471
000600 c8 d3 e1 83 cf 4f 72 3f fa 49 1d 3c a9 2f 98 bf
       0.004470644575225564 -0.02361931256684533
000610 88 5a 1d a2 7c 2d a3 bf 34 ae 7b 40 03 56 af 3f
       -0.03745641211451295 0.06120309984347863
000620 60 90 cd 89 cc 93 88 3f a2 58 46 17 86 a8 a4 bf
       0.0120006541780599 -0.04034823450199211
000630 10 f3 fe 81 aa f8 6f 3f 55 88 d9 97 55 0f b3 3f
       0.003902752898254376 0.0744527335860153
000640 75 48 e6 e6 c8 91 70 bf a6 1d f9 db 4a 2d 9b 3f
       -0.004045281193969176 0.026539964367001588
000650 8a d0 d7 b2 05 d7 ac bf bc c3 c6 b8 3c e9 a1 bf
       -0.056327989655899094 -0.0349825835759314
000660 89 e4 e7 e4 1d ea b4 bf c0 9d be d4 00 1b ad 3f
       -0.08169733847161544 0.056846643419074194
000670 4b 81 f7 eb c7 68 93 bf 94 bb 91 9f b6 fa b0 3f
       -0.018954395081779023 0.0663255824635896
000680 d5 5b d2 82 4c 50 ab 3f fb da 35 53 9d 7a 9e bf
       0.05334700676865337 -0.02976461239219484
000690 d0 f1 d3 1e 73 2e a5 bf c9 39 4d 6c 1e c6 82 3f
       -0.041370008004352976 0.00916694419870802
0006a0 b8 0c 3e b1 88 e0 5e bf ed 6a 20 91 50 11 83 3f
       -0.0018845877538929256 0.009310368946946446
0006b0 e6 05 98 3f 67 25 87 bf 0e 79 84 df 33 95 a4 bf
       -0.011301809910039883 -0.040200825724456477
0006c0 3a 2d b6 1e 6b 32 ac 3f f0 ae 00 38 ca 34 a7 3f
       0.055072162150361995 0.04532463010431609
0006d0 30 d7 a6 97 65 e6 65 3f 40 5b 2e 4b b1 07 80 3f
       0.002673338339458285 0.007827172381252745
0006e0 30 86 09 d4 fe 6c 90 bf 02 b7 a8 ad da 52 99 3f
       -0.016040784541820396 0.024730126237208168
0006f0 83 95 b8 d4 5f 94 6c 3f 37 db 79 33 1d ec a0 bf
       0.0034887191484524473 -0.03305140736931949
000700 be 8b a6 bc c7 1e 96 bf 79 a3 cf 40 2e d9 b3 3f
       -0.021601792229954724 0.07753266413022954
000710 3e 96 33 38 4c f6 a3 3f a7 7a e9 71 8a dc 9e bf
       0.038988477573905986 -0.030138171389234938
000720 f5 51 58 71 18 f2 a8 bf 7f 6e e7 5c f2 12 83 3f
       -0.04872204192739452 0.009313481769758212
000730 43 3b 91 fa f0 e7 74 bf 16 aa 38 70 f4 bc 62 bf
       -0.005104008982995736 -0.0022873663126763517
000740 06 7e 89 dc b0 09 8c 3f f5 bb ce 0f 19 71 82 bf
       0.013690358858354134 -0.00900477962008315
000750 12 11 ee 18 98 7a a5 bf 28 b0 d3 0e da 8d a8 3f
       -0.041950943988043346 0.04795724326126588
000760 f2 c7 08 e0 a6 6c 8f 3f ee 08 c0 fd d0 27 9b bf
       0.01534395571897915 -0.026519074905089583
000770 aa 9d 7a 39 38 68 9e 3f 72 d7 c2 92 0b 6b a1 bf
       0.02969444132636815 -0.034019815125630695
000780 ef 9a cd 19 71 d9 84 bf db bd 4b f4 c7 6f 79 bf
       -0.010180362319898132 -0.006210118361863216
000790 5a f3 59 cf 13 30 a8 bf c3 f1 d3 53 36 49 82 bf
       -0.04724180132050178 -0.00892870372126076
0007a0 d5 57 30 dd 58 5d 6b bf 93 75 f7 d3 41 65 60 bf
       -0.003340409815346649 -0.002001408167173488
0007b0 9a c8 de 7d e2 e5 9f 3f 43 cf 22 44 42 46 9a 3f
       0.031150378162870675 0.025658641251268276
0007c0 94 cd ad 79 98 3a 3f 3f d2 5e 74 eb 94 b8 b1 3f
       0.0004765150312586394 0.06922274349596627
0007d0 ee f5 cf 9b a9 ce 81 3f 33 c0 70 37 ed 76 ad 3f
       0.008694958751216366 0.0575479631592092
0007e0 86 53 0e 53 95 01 6d 3f 8f e7 00 19 bb 21 a8 bf
       0.0035407940380970974 -0.047132345964612125
0007f0 73 09 d6 cf eb 73 91 3f 92 49 0e f3 35 94 72 bf
       0.017043766556079597 -0.004535876026141488

b2 f8 [1, 10]
000000 a9 83 5c ca 15 10 72 bf f4 8c bf 13 a7 09 89 bf
       -0.004409871214904473 -0.01222544220940456
000010 7a 80 db 1a 9f fa 83 bf 12 93 b1 a2 ad 82 86 3f
       -0.0097553663321721 0.01099143650771731
000020 9a 2f c2 f6 83 3a 72 bf 24 a2 c3 f0 e7 06 47 3f
       -0.00445033596419 0.0007027275583171883
000030 72 21 d5 ae a6 48 81 bf 3d 22 e0 e3 9d ee 6f 3f
       -0.008439352236238238 0.0038979610244534156
000040 48 d3 b7 fa bb e4 72 3f d9 e4 f6 12 8c 88 93 3f
       0.004612669271854504 0.019075573594567217
