experiments/exp_batch_20250114_143214/exp_h25_lr0.5_run1/model/weights.npz (npz, 160046 bytes, 4 tensors)

W1 f8 [784, 25]
000000 7b 4d 6b 59 c8 59 9e 3f 07 4a ae 9a 3b 63 5e 3f
       0.029639368493759016 0.0018547136375884914
000010 72 51 c8 6f ac 79 44 bf 5e 2d 7d 3e 46 db 63 bf
       -0.0006248561836082313 -0.002423894114974053
000020 55 48 6c 8c e5 f2 91 3f 03 9b 26 b8 9c af 88 3f
       0.01752813977788777 0.01205370366080905
000030 44 fa 52 fa 14 33 85 3f e4 f1 b5 7e 0c 81 67 3f
       0.010351337327276451 0.002869152454591838
000040 ad 8c 0a df e5 71 74 bf 0e 46 df 63 fd 03 87 bf
       -0.0049914340349090204 -0.01123807869945195
000050 ba c8 ec 1e ce 49 44 3f c3 f4 24 17 94 82 52 bf
       0.0006191498231145267 -0.0011297651477229366
000060 34 3d 41 57 95 a3 82 bf 4c 15 36 8c 79 6b 80 3f
       -0.009101073003107453 0.008017491904647976
000070 9e c2 eb 0c d0 b9 5a 3f c8 00 dd b3 b5 0a 55 3f
       0.001631215261735409 0.0012842916907658698
000080 07 99 10 08 f0 a2 89 3f 69 cf 0e c1 b4 d3 5c bf
       0.012517810102576478 -0.0017594590355942358
000090 07 ee 5b f6 bc d2 6e bf 01 bb 25 78 d3 ec 7d bf
       -0.0037625971480090867 -0.007305933048299408
0000a0 d1 d5 81 75 5b de 7f bf 18 21 b8 f1 ee 30 91 bf
       -0.007780415784613707 -0.016788228515026565
0000b0 03 fa c4 cb 0b 80 62 3f ab 28 2f ea 05 50 93 bf
       0.002258322752964449 -0.018859951418371306
0000c0 33 70 58 82 9f c5 56 3f 92 38 cf 4d a1 f0 69 3f
       0.0013898904520664001 0.003166499182476087
0000d0 0a e9 9b f4 3d 66 72 bf 74 1b bc b9 53 7c 50 bf
       -0.004492036832511434 -0.0010062043792815308
0000e0 1a c1 6f 4d d9 11 8d bf 8a 9a 0e cb dd fe 98 3f
       -0.014194200206447283 0.024409738081568245
0000f0 80 a3 15 da 71 d8 7d bf 9e a1 8c 74 63 46 79 3f
       -0.007286495908695012 0.006170643326904117
000100 5b d7 8e 0d 03 73 91 3f b1 02 d3 a6 3e 83 8a bf
       0.017040298178208384 -0.01294564196212042
000110 51 ca 79 80 23 76 80 bf e8 56 5d 76 92 aa 83 3f
       -0.00803783164812902 0.00960268424720874
000120 31 67 39 4b 26 4c 81 3f e1 bf 5d 79 bf c1 74 3f
       0.008446025057469693 0.005067584939624199
000130 37 73 09 10 a3 60 66 3f c3 cf 20 1c 6f 32 8a bf
       0.0027316269700307333 -0.01279150776472438
000140 de 18 60 bf 97 47 5d bf 64 56 67 71 29 4a 7a 3f
       -0.0017870885762945525 0.006418382536556775
000150 2d 0e 72 3c 08 58 78 3f 75 f6 19 bd aa f3 2e 3f
       0.005943329021764349 0.00023614367687578892
000160 7c 7c 1d d4 87 10 68 3f 91 0c ce 04 cb 2a 72 3f
       0.0029375698949674605 0.004435341875139846
000170 93 8f 22 ef 81 67 55 3f a9 bc 47 89 b0 8d 7f bf
       0.0013064164054776603 -0.0077034851023959705
000180 52 92 60 66 b3 e5 83 bf 3e b7 30 21 e9 3c 87 3f
       -0.009715463220410534 0.011346646619212582
000190 33 7d 87 cc fa a6 7c 3f 5e 7e 4e ed 61 0e 74 3f
       0.006995181735390421 0.004896528746854393
0001a0 d1 0a 66 a2 e2 39 80 3f 51 4e 9f 56 e1 c6 77 bf
       0.007922907429706612 -0.005804901340485794
0001b0 49 9f 6f 57 ff dd 7d bf 3f be 30 69 af d8 6e bf
       -0.007291791370313502 -0.0037654329294339035
0001c0 c2 bc 41 0a 6e 69 73 bf 05 e3 2d e8 fb e3 56 3f
       -0.004739217609411374 0.001397129061585457
0001d0 c3 6f 7d 82 ec e6 90 bf b8 8e de a6 a0 74 7a 3f
       -0.01650590464065239 0.006458880945419736
0001e0 67 71 da 80 44 90 91 3f 16 e1 f7 9c ac ce 7f bf
       0.01715189968545996 -0.007765459318300102
0001f0 84 f8 50 64 6e ac 6a 3f 97 af 4b 8f af 1f 96 3f
       0.003256049737074442 0.02160524665934779
000200 a0 3c 5a 7d e4 2e 8c bf 7e 24 3c e6 0e ad 84 3f
       -0.013761315417723019 0.01009570732232334
000210 30 11 b3 a8 e6 e8 6b bf 41 d8 0b b0 40 9e 81 3f
       -0.0034069542940377215 0.00860262429476333
000220 53 dd 8f 90 b6 ac 58 bf 78 79 67 44 ab 25 81 3f
       -0.0015060217722274352 0.008372629189520295
000230 ad 1b 76 02 fa 93 64 3f 18 57 11 8e 4b a1 79 3f
       0.0025119669914519167 0.00625733865407143
000240 7f ef 84 b0 91 8c 7e 3f dc 31 41 c5 46 13 75 bf
       0.007458275890083742 -0.005145336577765804
000250 1c ee ba 92 32 d7 7c bf 21 ef bf 03 51 2c 35 3f
       -0.007041165877747637 0.00032307603737512415
000260 fb 8a bc 18 92 ce 89 bf 4f c6 a2 de 78 30 97 bf
       -0.012601033573053302 -0.022645844067204653
000270 a4 f1 bf 12 c5 b5 34 bf f1 b5 15 4e 81 d2 61 3f
       -0.0003160101066439719 0.0021755719650886564
000280 53 64 07 7a 1e 6a 58 3f 4a 22 07 c1 b1 7e 78 3f
       0.0014901445030004637 0.005980200149175172
000290 a1 57 1b a7 86 3b 7d bf b6 bb 03 2c e6 07 73 bf
       -0.007136846530292036 -0.0046462050524799705
0002a0 ea a0 7e 3c e1 7c 77 3f 58 fd 49 8d d4 6e 83 3f
       0.0057343290608644435 0.009488735734747664
0002b0 51 ef a6 24 9b 98 50 bf d8 22 e5 bc bb a2 42 3f
       -0.0010129466123620266 0.000568715733416071
0002c0 23 8c 97 ef 22 5f 90 bf 2f f6 0a 4b 4f 64 67 bf
       -0.015987916825803816 -0.0028554485982954718
0002d0 8c 7e 99 dc d4 a9 8f 3f 2f 47 02 ae 19 d6 65 3f
       0.015460646612324845 0.0026655675465655708
0002e0 63 1c 49 59 76 d3 84 bf 32 2c 29 b7 c2 76 94 bf
       -0.01016895732858653 -0.019984285763978878
0002f0 5a 35 96 29 2c 8c 69 3f 47 25 22 16 3b 92 92 bf
       0.0031185972736184455 -0.01813595125762404
000300 98 c2 f7 78 00 62 5e 3f 36 1d 43 9f 27 51 90 bf
       0.0018544201483302932 -0.01593458089408025
000310 0e 76 2b a2 75 bb 7e bf a3 c0 fa 81 36 ec 80 3f
       -0.007502994066013636 0.00826304039159737
000320 74 9e 21 0f fd ea 83 3f a7 66 34 cb 12 0a 72 3f
       0.009725548767348637 0.004404138005406877
000330 48 e4 11 4d 41 ef 7f 3f c7 ff 7b 1f 0c 59 6e 3f
       0.007796530802004993 0.003704570462900822
000340 96 c1 b9 ca 9d ca 5c bf 4f 33 1a 0b 5f ad 92 3f
       -0.0017572918831342036 0.018239483883508097
000350 31 27 b6 49 54 a6 7b bf 13 48 eb d9 eb 82 96 bf
       -0.0067504208085525244 -0.02198380010197105
000360 c4 b3 06 68 26 7d 4c 3f 91 8c 68 a2 d6 dc 75 bf
       0.0008694112330452854 -0.00533756105008644
000370 f6 f0 6b 42 19 e5 76 bf 6d da 68 84 3c 12 86 bf
       -0.005589579267276648 -0.010776970663852492
000380 4e b6 e4 b2 d0 4b 68 bf 38 7d a1 a4 e8 79 91 3f
       -0.0029658390186771194 0.017066607521312366
000390 6f 1f d3 ef 1b 45 80 3f c7 8a 0e 2d dc d1 83 3f
       0.00794431520115754 0.009677620053314752
0003a0 b0 65 72 96 a9 25 a0 bf 30 6d ec 8c ae 5d 7a 3f
       -0.031537341704459876 0.006436998212645137
0003b0 c0 0f b1 50 27 dd 89 3f 21 5f 0a 75 6d e8 94 3f
       0.012628848218930844 0.020417890804849684
0003c0 1a d1 29 29 0b 62 79 3f b5 04 24 df f2 34 8b bf
       0.00619701728520663 -0.013284585413659714
0003d0 c8 7d b4 79 61 16 82 3f 85 84 b5 b0 0b a8 7e 3f
       0.00883175041832275 0.007484479584804697
0003e0 3b ba 5d 0b 42 5b 7a bf 29 29 c9 64 25 a8 6f bf
       -0.006434686647351524 -0.0038643579812617413
0003f0 70 45 0b 1f 6b ac 8f bf 29 29 e2 ae d8 87 74 bf
       -0.015465580830467757 -0.005012365740308313
000400 24 9d ab 90 5e 71 87 3f 8a 9d df 3f e0 01 84 3f
       0.011446703710545743 0.009769203137649968
000410 36 b8 85 2c ff eb 68 3f 49 a8 ec 3b 98 28 7c 3f
       0.003042219530633462 0.006874651588797028
000420 55 50 c2 7e 73 3e 58 3f 63 3e 76 23 eb 6f 4d bf
       0.0014797332651470725 -0.0008983514916724552
000430 15 a6 07 15 e2 90 86 3f b5 6f 45 79 9c ac 74 3f
       0.011018530146389907 0.0050474273924371775
000440 a9 1c fd 4f 22 56 7a 3f 45 16 80 35 2d 58 79 bf
       0.006429800065070137 -0.00618760738143959
000450 f2 cf bf 15 12 9f 8b 3f 36 67 76 fc 19 f9 82 3f
       0.013486996926054904 0.009264185921711392
000460 18 65 92 00 0f ad 81 bf 2e 52 ed ae d7 54 76 3f
       -0.00863086433882869 0.005452005875515682
000470 84 dc 9b 60 5b 40 8f bf 3d ec b5 75 aa 50 81 3f
       -0.015259469877021432 0.008454639165156869
000480 73 83 a3 bd 09 4e 81 bf a8 86 63 30 7f 2a 4e bf
       -0.008449627017798033 -0.000920593360913287
000490 c3 34 10 b8 a5 1d 92 bf e8 6a 49 fc 5b 5d 8d bf
       -0.01769122062619456 -0.014338225018197773
0004a0 6d 26 58 48 20 e9 71 bf 44 3d 59 51 d3 a9 7a bf
       -0.004372717002760857 -0.006509614429503433
0004b0 db fd 13 e2 71 e2 77 bf 28 f4 d8 77 0b e2 92 3f
       -0.0058311890181807725 0.0184404174708456
0004c0 01 a4 62 4a f0 56 79 3f 7a 94 fb 38 89 a9 7c bf
       0.0061864267683313665 -0.006997619653451465
0004d0 fc d0 58 26 4c fb 63 3f 1c 14 c4 11 6c 81 5b bf
       0.0024391639042510276 -0.0016788058629242436
0004e0 56 fb c2 b7 e8 0f 8a bf d6 78 df fb c6 51 4e bf
       -0.01272565661235851 -0.0009252759552927047
0004f0 fb 58 25 77 fb 2f 8b 3f cc a8 fc b0 f1 21 7f 3f
       0.013275112699073768 0.007600730997902438
000500 93 61 ea 55 3f 3d 7b 3f 0e c3 7a 8d bd f8 85 3f
       0.006650206951825405 0.010728340988266829
000510 28 d9 40 96 f7 d7 63 bf ac a7 12 5b e4 29 74 bf
       -0.0024223170931022726 -0.0049227638384454035
000520 6d bd 72 8d 81 a3 57 3f 3b cd 69 9f c8 39 75 3f
       0.0014427914773412446 0.005182059938863499
000530 3c 43 6f 10 4a 25 80 3f 12 90 53 76 aa 48 53 bf
       0.00788362372068862 -0.0011769928617519948
000540 32 72 71 dc 22 97 47 bf da ce 42 08 26 46 80 bf
       -0.0007199211330646881 -0.007946297766785394
000550 da 82 d7 ca 76 ed 7e bf 0d f5 7c 67 02 41 74 bf
       -0.007550682098980766 -0.004944810287097268
000560 32 fc b2 c3 11 ca 76 bf e4 9a 5b 0b f2 63 89 bf
       -0.005563802139646733 -0.012397662135709316
000570 96 43 f9 2a aa 54 23 bf 6f d3 0b e2 16 e3 47 3f
       -0.00014748170132119755 0.0007289754613269815
000580 5a fe 78 43 de 5c 78 bf 77 c1 9d 3a cf 57 47 3f
       -0.0059479410334116415 0.0007123720035746979
000590 28 1e 77 dd 8b 4d 79 3f bf e4 0f 59 12 f6 82 bf
       0.006177469585459096 -0.009258406966170417
0005a0 04 94 11 30 ce 5b 27 3f d5 e5 06 c6 79 44 7c 3f
       0.0001782120889714246 0.006901240995313048
0005b0 d8 80 2b c3 fb cb 69 3f cf 50 dd 62 ad e5 80 bf
       0.003149024699595864 -0.008250574664693392
0005c0 2e f0 2f d9 4b 5f 83 bf 1e c1 c6 f4 a9 ed 79 bf
       -0.009459106984643108 -0.006330169574013915
0005d0 0d 7e 88 11 c8 c4 87 bf b8 e3 5a 57 6b 8e 9b 3f
       -0.01160579970843314 0.026910474020698877
0005e0 41 0a 19 a3 24 2e 6e 3f 04 7e cf 53 92 b8 6f 3f
       0.0036841121261954883 0.003872190280602929
0005f0 fc d4 e9 08 85 c2 63 3f a7 14 31 df 7f 34 72 3f
       0.002412090142849819 0.004444598674188039
000600 60 bd 4c bc 78 9d 8a bf aa 54 32 9d 3f b4 77 3f
       -0.012995665785267618 0.005787132732753589
000610 25 84 83 66 01 a3 8c 3f 7b 2b bc 5b b7 1d 74 bf
       0.0139827832612714 -0.004911152118220903
000620 c8 0a 43 72 70 df 6c bf 50 f8 39 ac 4c 9f 83 3f
       -0.0035245128839006303 0.009581183439191815
000630 5b 15 c6 f1 78 80 80 3f 05 70 d3 11 02 d0 6d 3f
       0.008057541731214249 0.0036392250463972453
000640 31 78 b8 fb 9f ee 96 3f d1 49 de a6 2b c9 49 3f
       0.02239465688591497 0.0007869208472917559
000650 0c 33 9a ba b0 59 66 3f 13 d4 00 88 09 05 82 3f
       0.0027283145653370696 0.008798670256604557
000660 a3 39 5f b7 d1 a4 50 3f ac 1d 7e 3b 4c 47 94 bf
       0.0010158584604941033 -0.01980322945703754
000670 1f ef 6f 33 25 a6 59 bf c8 b7 5d 48 4a 49 53 bf
       -0.001565491036443718 -0.0011771417061612211
000680 0f 55 6c 72 db 4e 90 bf ce 4b 20 0b a8 38 7e 3f
       -0.01592581640132545 0.0073782505223957805
000690 bb aa 49 8c 8a e3 74 3f fa ef c3 d7 00 85 92 bf
       0.005099812701341018 -0.01808549229552623
0006a0 1f 48 2f ad 5c e4 85 bf 4c 0e cb 6a 10 87 92 bf
       -0.010689472232034146 -0.018093353765620088
0006b0 41 5a 1e 8d 80 ef 80 3f 40 37 7e a5 ad 87 94 bf
       0.008269314104649374 -0.020048821664708116
0006c0 75 d5 f1 c1 f6 96 74 3f 2c 7e 37 6a 93 4b 84 3f
       0.005026782891140659 0.009909774474123521
0006d0 72 0a 44 b8 21 e8 7f 3f 11 3c 70 82 b1 b4 82 bf
       0.007789737432406173 -0.009133707802929466
0006e0 7e 83 d5 9f 81 3d 9a bf 79 4b 7b 0f a3 d9 8e bf
       -0.025625253086562598 -0.015063547048532066
0006f0 21 51 88 f2 81 67 79 3f 37 ef 2f ab 09 7a 89 3f
       0.00620222817135055 0.01243979982063302
000700 01 30 32 3d 7b fe 62 3f b7 e9 fb 5d ba f5 8b 3f
       0.0023186118137967786 0.01365228270832551
000710 1a ac 61 4e f9 1c 90 bf 6a 11 1f b1 68 2b 3d bf
       -0.015735526474980423 -0.0004450922580157198
000720 40 c7 6e fa 92 e1 88 bf f2 79 b0 51 a8 d4 87 3f
       -0.012148998515701614 0.011636080735169838
000730 f1 cd 04 93 dd c3 7a 3f 69 c7 41 6d de 12 5a 3f
       0.006534448170259819 0.0015914127480098578
000740 9c bc 84 bd 48 a6 42 3f 9a 09 0b d7 b7 3e 63 3f
       0.0005691390206602645 0.002349242270015495
000750 6f e2 10 42 93 b3 71 3f 70 78 73 05 3f 45 89 bf
       0.004321646906696771 -0.012339107850888292
000760 9f 3d bc a7 8a f9 77 bf 3a 68 25 ca 43 b0 9b 3f
       -0.0058532158107164325 0.02703958436300289
000770 bc 63 bd 44 32 65 73 bf 0a 39 65 db 8e 85 89 3f
       -0.0047351802457677415 0.012461772985855397
000780 33 51 f6 2b 82 37 55 3f 1c 2d ea d0 08 d8 82 3f
       0.0012949725349687524 0.009201115489551763
000790 9a 79 92 29 4a e9 91 3f bc 9b 09 64 e8 3c 72 bf
       0.017491492068637628 -0.004452617432071312
0007a0 c0 66 66 92 72 11 6a 3f c4 b5 6e ee af 8c 86 bf
       0.003182147763436699 -0.011010527099496133
0007b0 d8 d6 4f 85 1c 29 91 3f 32 67 27 c6 2c 2f 55 bf
       0.016758390080176294 -0.0012929856535408121
0007c0 0d e1 2a a8 30 3b 95 bf 4a cf f3 58 52 f7 77 bf
       -0.020733604683045793 -0.005851098699384336
0007d0 3c 90 b8 9e 3f 9f 89 bf e9 de f1 50 74 06 83 3f
       -0.012510773688582437 0.009289654464950075
0007e0 41 78 7b 1a 42 47 24 3f 27 b1 a7 2e d2 d7 6b bf
       0.0001547115509685244 -0.003398809921455154
0007f0 e1 5b 9b 01 25 ca 72 3f 37 24 91 54 6e 9e 87 3f
       0.004587311321038152 0.011532651859072469

b1 f8 [1, 25]
000000 9b e4 62 cb 7c 89 d2 bf d5 44 b8 e9 de ea f0 bf
       -0.28964156972831184 -1.0573414926223468
000010 01 85 b6 a0 95 2f d1 3f 2f c3 eb ec 93 73 db 3f
       0.2685293263876503 0.4289293111497043
000020 29 8e 72 86 6e ba f1 3f d3 3e 47 6e f6 82 e9 3f
       1.1080155612807039 0.797236647975263
000030 e3 26 d0 4e 1d 5d d1 bf 1d d6 80 6b a3 6e e1 3f
       -0.27130825707045697 0.5447556590722261
000040 9e 7a 93 98 90 57 d6 bf e4 5b a7 f8 d2 85 e1 3f
       -0.34909453296669735 0.5475859505194163
000050 2c 33 9e 99 50 ff fc 3f ca e7 b4 e9 a9 dc d5 3f
       1.8123327255918396 0.34159324477115816
000060 5a b0 0f 98 98 d9 c0 bf 80 c3 1f b0 83 99 e1 3f
       -0.13164050507419028 0.549989551536882
000070 1f 65 12 ed 6c d8 d0 bf f7 2a 18 30 09 37 e0 3f
       -0.2632095637469138 0.5067182483047351
000080 f8 31 64 2c b4 dd bd 3f 79 c5 09 4e 29 af e4 bf
       0.11666418155454739 -0.6463820003684041
000090 cc a4 1e 3d 84 01 f1 3f 92 dd 18 e5 1d 59 d3 3f
       1.062870253323399 0.3023142564083737
0000a0 d3 0a 2a 2b 9b 5e e2 bf f6 38 7a f8 0d db d6 bf
       -0.5740485995341608 -0.3571200300729197
0000b0 ef 0c 40 92 0d 58 cd 3f 94 b3 5d 03 b1 7c d1 3f
       0.22924966469881933 0.2732355625983527
0000c0 65 6a 30 39 42 9c d0 bf
       -0.2595372732627424

W2 f8 [25, 10]
000000 33 02 b1 07 5f cd 0d c0 05 ac df ef eb 50 fd 3f
       -3.7252789116758094 1.832256257063592
000010 75 25 54 a5 64 1e d8 3f 47 f9 ca f4 1e d1 f7 3f
       0.3768550505197575 1.4885549127789817
000020 78 9a e1 b1 82 55 0f 40 1f 41 64 00 21 29 00 c0
       3.916753186890954 -2.0200824766726693
000030 a5 9c e9 af 39 da e2 3f 40 85 75 f2 46 e6 fd bf
       0.5891388355056689 -1.8687200041825491
000040 6a 6e 7d ce 90 55 f4 bf 52 e0 72 52 d6 6e e6 3f
       -1.2708900514616297 0.7010299310995924
000050 6f a1 0c a3 38 af d6 3f d4 4b d8 67 b2 a0 fe 3f
       0.3544446556357092 1.914232640880745
000060 90 03 e9 6c ff 9a d6 bf e8 52 71 2b 57 1b dd bf
       -0.35321031223070865 -0.4547937320942723
000070 39 85 ab 38 b1 b9 f2 3f 09 9a 7e 82 f8 f8 c7 3f
       1.170335027091211 0.1872854840450631
000080 e8 5f d0 e0 66 65 fe 3f c0 90 ae df 45 62 06 c0
       1.8997563154025503 -2.79798483611566
000090 2f 36 a9 4e 4c 13 f9 3f 8d 91 8e 9d 4d 98 0b c0
       1.5672114441580438 -3.4493667897351714
0000a0 31 c1 a0 f4 de 60 e1 bf 08 53 df 98 82 78 0b c0
       -0.5430750635041816 -3.43384284431011
0000b0 08 bb 5f 95 52 b3 f0 3f 88 b5 99 b8 d8 b0 d2 bf
       1.0437799296302632 -0.29204385783563014
0000c0 94 52 b3 ff 25 01 f0 3f 06 5d 83 75 f9 31 04 c0
       1.00028037913322 -2.5244015866006775
0000d0 58 a0 0b ef 0c 17 df 3f 5b 62 c6 3a d3 35 01 40
       0.48578189224509094 2.151281794718938
0000e0 22 de 2b a9 cf 11 f9 3f 24 7b 0f 9a d0 ec e0 3f
       1.5668484314209157 0.5289080628388985
0000f0 91 57 15 77 0c 45 f6 3f 94 48 5b d5 9b 46 00 c0
       1.3918575908369102 -2.034476916168453
000100 f1 66 4d 3b 05 b8 c0 3f 8f 41 28 83 dc 0c f6 bf
       0.13061585803625733 -1.3781399844484417
000110 da f6 33 50 fa fb 04 40 dc ea 3f d9 64 89 ef bf
       2.62303602846701 -0.9855217211873781
000120 af 20 1e 3a dd 02 09 c0 c3 f1 3b 86 f8 83 c5 bf
       -3.126398519558357 -0.1680899291458343
000130 4e 2d 2a 8c 8e 6e ec 3f 83 25 e3 00 03 2c 05 40
       0.8884957063286636 2.6464901036567325
000140 d6 13 76 f3 0d 3e 07 c0 f8 ae 82 27 d5 1b 02 40
       -2.9053000469598187 2.263590153384822
000150 14 a4 f1 b0 c8 05 ef bf ae 4e 35 a2 64 11 b0 bf
       -0.969456048577856 -0.06276539764558706
000160 53 7e 54 c6 a7 38 09 40 5f 82 cf 7b 64 79 00 40
       3.152663754895721 2.059273688574009
000170 90 9a 28 ad 09 95 0c c0 5c 6f dd a4 b2 b1 fa 3f
       -3.5727723625198635 1.6683832588232326
000180 bd 9f f1 d8 d8 8e f0 bf 4f 7a a2 cc 67 d4 e2 bf
       -1.0348747705811399 -0.5884284016390867
000190 9a 57 d7 06 8a 5c 04 40 2b f7 66 72 ec fc e5 bf
       2.5451851400820944 -0.6871244654100556
0001a0 38 01 97 31 03 a5 00 40 89 e8 0c 3f c6 89 fc bf
       2.0805724977691646 -1.7836363280207783
0001b0 fc 80 01 b8 e1 d8 ed bf 4f 25 95 0d b9 c4 0c c0
       -0.9327248185982451 -3.5960560856953303
0001c0 49 87 eb 96 a0 ba 01 40 94 97 d1 18 ff 24 07 40
       2.21612661272312 2.8930646838152345
0001d0 a1 fc e2 c1 33 4b e2 bf bf 4c e1 27 33 53 01 c0
       -0.5716799532746287 -2.1656249156600036
0001e0 25 da 33 77 c1 27 ef 3f 33 b0 a4 cb eb 03 03 c0
       0.9736029937910798 -2.376914587939632
0001f0 f7 0b 47 d5 3e 59 10 c0 80 5a 60 54 cd e1 f6 3f
       -4.0871537518132675 1.4301274581863765
000200 52 b1 3b 49 45 e5 fe 3f e8 c9 c7 9e 7c f1 bb bf
       1.9309742794676663 -0.1091535461089631
000210 2e c3 06 10 bc f2 f3 bf fc fb 4b 99 e1 07 f5 3f
       -1.2467613817245353 1.3144241321713244
000220 9f 50 80 58 05 de ec 3f dc b0 f1 e3 f0 a4 f3 3f
       0.9021021584071781 1.2277687934939001
000230 f4 38 34 29 68 a8 e1 bf ff cd fb da 95 ab f6 3f
       -0.5518074803128727 1.4168909601256698
000240 f4 4e 3a 24 67 c3 0e c0 f0 32 7d 66 fc bd e7 3f
       -3.8454115705770793 0.7419416429271148
000250 80 f2 a4 99 e4 b2 c8 bf fc 80 ed fc bb c4 f2 3f
       -0.19295938017048186 1.173030841826459
000260 d0 f5 93 77 28 0e f6 bf 12 84 e5 eb da 78 03 40
       -1.3784565611853061 2.4340113095681852
000270 31 69 98 e8 01 25 e0 3f 47 3a a7 a0 90 43 d2 bf
       0.5045175116422681 -0.2853738373641232
000280 8c bc 29 20 02 c6 fa 3f 3e c1 43 82 fc 8c f1 bf
       1.6733418709152685 -1.096920498701436
000290 48 89 c8 c7 ef 62 e7 3f 2c 22 7d 62 df 24 f2 bf
       0.7308272268312885 -1.1340020987719397
0002a0 7d b8 33 eb 25 26 02 40 49 4c 35 7d 2d be c3 bf
       2.2686270117911236 -0.15424126256638918
0002b0 e0 07 f0 4a ba c4 04 40 1f de 62 35 ff 15 e7 bf
       2.596058450174482 -0.7214351694773916
0002c0 2f 5b 2b 79 e6 e0 07 c0 91 fe 00 70 26 a4 f3 bf
       -2.98481459296763 -1.2275757193710073
0002d0 05 34 e0 c7 11 c3 ed 3f 5c af f7 b2 28 e3 e8 3f
       0.9300621894668671 0.7777293677768102
0002e0 31 2c 54 68 80 fd 00 40 ea be dd 7f 4b 17 f5 3f
       2.123780074185128 1.3181872362874238
0002f0 5f ed 99 17 53 07 04 c0 71 3f da f1 02 b1 01 40
       -2.503576454529749 2.211431397889037
000300 9e c9 64 bb 69 86 c0 3f fb 93 e0 46 dd bf ea bf
       0.12910195970614508 -0.8359209427186437
000310 48 13 49 9d 47 e1 08 c0 44 6e 47 46 22 3f f0 bf
       -3.109999874870855 -1.0154135461115326
000320 c4 b9 73 db 02 fc 03 c0 75 b1 9f e6 57 e3 e8 bf
       -2.498052324742476 -0.7777518753405689
000330 25 c2 e0 d1 64 a6 06 c0 1e 6e 80 f1 84 58 b8 3f
       -2.8312469860759557 0.09510069747960201
000340 93 42 b7 90 ce cd c0 bf be 9f f4 1c cd 9a 0c 40
       -0.13128072801784593 3.5755865347054785
000350 b5 61 52 29 0d 96 04 40 a9 c4 b8 97 46 91 f2 bf
       2.573267290903653 -1.1604677130347147
000360 ad 7c 47 db 75 a6 fa 3f fe 57 05 f5 8b 4a dd bf
       1.6656397405238679 -0.45767496993846624
000370 a3 fc a4 af 45 11 02 40 19 4d ff b3 7e b5 e5 3f
       2.258433696959018 0.6784051433154757
000380 0f cf 77 ac 30 56 01 40 e3 d4 5e 57 ee c1 07 c0
       2.1670850252211333 -2.969692881185084
000390 22 10 ee d8 c0 ad 03 c0 24 fb 1d 45 7d 96 03 c0
       -2.4598404834414547 -2.448481121041725
0003a0 df ac 34 47 3c 40 06 40 41 64 7c a8 71 8a de bf
       2.7813649714422435 -0.4771999497766651
0003b0 43 8c e8 4d be d6 05 40 d7 d8 ec af a7 1b 02 c0
       2.729855164202975 -2.26350343171644
0003c0 89 33 c3 40 e9 04 f8 3f 4b 45 04 e0 d7 bf fe 3f
       1.5011990098748547 1.9218367338802007
0003d0 6f a5 b9 1d bf ed ff 3f ba ee bf d6 e3 62 d0 3f
       1.9955435906543604 0.2560357663312335
0003e0 54 3c 7d d3 98 ff f5 bf d1 3e cb f2 78 58 e5 bf
       -1.3749016057297654 -0.6670498601979152
0003f0 44 63 83 eb e8 3c 02 c0 b2 32 6f f6 40 5f 08 40
       -2.2797411345931398 3.0465106251416154
000400 6a cb ce 0c 28 98 00 c0 72 24 2b 0e 77 a3 02 c0
       -2.0742951393707942 -2.329816923801041
000410 c5 da 8f b4 09 f6 01 c0 62 5a cd aa d3 bb f7 3f
       -2.2451356989289217 1.4833561584433927
000420 ae 7f d5 fc 47 07 f2 3f c1 54 c4 7b a1 c3 f7 bf
       1.1267776371314357 -1.4852614245076412
000430 c9 2d 37 b5 60 1c f1 3f 7a 56 ea 54 f7 5e f7 3f
       1.069428165314877 1.4606850926406012
000440 98 aa ce 6d 7b ad e1 3f 86 76 de 39 15 87 02 c0
       0.5524270195649761 -2.315958454228908
000450 58 16 8c 86 22 9e f2 3f 38 c6 f1 89 71 7d e9 bf
       1.163607144904196 -0.7965629286029019
000460 88 d7 24 9a ed 1a e8 bf 12 2a c4 82 9e eb e3 bf
       -0.7532871256469074 -0.6225121072796489
000470 79 47 2e 9f 1e 5b fb 3f 7e c8 f9 3e eb 6c df bf
       1.7097460000991005 -0.4910228838917944
000480 81 8b a3 4f c0 6b ee 3f 68 9e 1e 5f 2e e7 0f c0
       0.9506532245107878 -3.9878814154833897
000490 95 dc e0 6e b9 de e3 bf c6 67 6a 7b b2 b0 ce 3f
       -0.6209380307763178 0.2397673704734286
0004a0 38 f6 46 f5 7b 26 f9 3f d5 91 1d da 73 2a 00 40
       1.571895559419671 2.020728782679934
0004b0 4f 7a e6 39 e9 40 e1 bf ca ac 06 6d 93 9d 02 c0
       -0.5391737109055813 -2.3269413488065753
0004c0 36 31 2d 0f 1e 45 d4 bf 83 a6 c7 d6 5c 14 05 40
       -0.31671859247287004 2.634942701309059
0004d0 c6 a8 86 32 6a 1e fe bf f7 22 55 8f 50 42 0c 40
       -1.8824254964516043 3.532380218301451
0004e0 14 86 ac c8 3d c0 b4 bf 64 fa 72 f5 ba 69 ca bf
       -0.08105837010636946 -0.20635163292714076
0004f0 d2 3d ec 5a 14 f3 f9 3f aa 84 c9 e6 f1 c3 03 c0
       1.621845584075221 -2.470676234268997
000500 05 4c ca 26 44 06 f9 3f 61 e7 9a d4 4a 77 f2 bf
       1.564029838108355 -1.1541240982901046
000510 ad 71 74 2b 0a 2e 08 c0 a4 09 6e e4 d9 6c f7 3f
       -3.0224803347502616 1.4640749857941069
000520 ed fc ea f2 22 53 e3 3f a6 9e ea 40 72 52 fc 3f
       0.6038985008707677 1.7701284919548157
000530 a8 f4 97 8b 73 04 c5 bf d4 df db f4 89 c7 03 c0
       -0.16419834438412306 -2.472431099853546
000540 fa 54 a1 3a 47 a8 00 c0 3e fa f4 04 e1 b6 0b 40
       -2.0821671085819817 3.464296377874489
000550 70 e0 60 a3 d3 22 02 c0 6d 07 54 83 1b c4 04 40
       -2.267005230325644 2.59575560188471
000560 67 d6 0e cf c8 60 0a 40 d9 4f aa 3a 2a ed 02 40
       3.2972580124285744 2.3658032019829816
000570 cc 01 73 68 04 91 f8 bf 9f 02 21 8e d6 44 d2 bf
       -1.535404594426029 -0.2854515445688239
000580 8e 92 38 34 3a 80 e5 bf ea 31 74 c7 a6 e4 10 40
       -0.6719027538243425 4.223292461840609
000590 31 c2 ea e9 26 63 0e c0 8b bd eb 25 b7 36 0f c0
       -3.7984140658156993 -3.9017165148322355
0005a0 46 9c cb 99 59 28 fa 3f e4 13 1d 67 1b cf 04 c0
       1.6348510749464977 -2.60112648541916
0005b0 44 26 9a ad 80 b1 f7 bf 98 fd 5b 72 32 72 05 c0
       -1.4808356076558917 -2.6807602819751075
0005c0 86 c5 a9 58 46 4a f8 bf 72 e4 78 2e 48 12 14 40
       -1.5181334937481963 5.017853475693402
0005d0 12 ee 8a 9b ee 28 fb 3f c6 d5 64 ee cb 1e b4 bf
       1.697493178928998 -0.07859491892016654
0005e0 c6 3e 50 44 6a 4b e6 bf ea 64 dc f7 03 4a e6 3f
       -0.6967059454200004 0.6965350953134053
0005f0 8d dd bf fa 4a 3a f6 3f eb 8f 6b e4 42 12 fc 3f
       1.3892316622639982 1.7544583246863066
000600 0f 8d be 21 35 5e 01 c0 44 8f a0 fa f5 d1 08 c0
       -2.170999778392463 -3.1025199489830886
000610 6b 84 a3 22 b2 be e4 3f f6 10 93 67 4e 33 da 3f
       0.6482783009088399 0.409381486079169
000620 5f 90 24 9f 71 78 f8 3f 77 8a cb 52 df d7 e8 3f
       1.5294052330509869 0.7763516060916363
000630 22 bb af 22 c3 ac 08 c0 52 e8 67 38 2a c7 fd 3f
       -3.0843565664175836 1.861124248824599
000640 9d 81 9a d8 b0 e1 d0 3f 94 11 c7 d0 a6 53 ec 3f
       0.26377507355393864 0.8852113797843679
000650 34 0f c8 30 12 16 b8 3f 10 bc 24 40 3d 49 f0 3f
       0.0940867776008048 1.017880678711439
000660 73 16 44 57 96 84 01 c0 08 fe da cc a5 83 02 40
       -2.1897398774770465 2.314281082566371
000670 ae 9b e6 ae 56 af db 3f f7 57 9e 41 43 53 0d c0
       0.4325768192306282 -3.665655625004543
000680 a2 08 c5 7f f1 30 0a 40 4f 75 cc 7d 38 61 03 c0
       3.2738981229786797 -2.42247103004653
000690 e4 a6 9f 15 7f 44 a7 bf f3 4b 89 ba 2b 91 fd 3f
       -0.04544446124039128 1.8479420935225306
0006a0 7d 14 6f de d6 d0 e3 bf 73 69 67 6a ce 9d c1 bf
       -0.6192430824672922 -0.13762836642747409
0006b0 99 1f 72 d2 91 80 0d c0 cc 2b 2f 49 0e ff d8 bf
       -3.687778133495112 -0.39056737086201276
0006c0 b8 c5 b2 53 43 d2 fe bf e7 4c b3 aa 35 16 eb 3f
       -1.926333739229774 0.8464611371986422
0006d0 60 da 11 4b d4 4a df 3f 42 68 6b 64 de d5 0c 40
       0.48894221621541156 3.6044280858305067
0006e0 b1 fa e6 b2 e3 68 e0 bf 89 d4 53 86 9b 1b f3 bf
       -0.512803887766344 -1.1942401168028332
0006f0 e1 bf 43 8f 86 e0 05 40 4a a2 12 7b 2c 35 01 40
       2.734631652121593 2.1509637465535763
000700 b3 cc d4 8c c7 26 da 3f 2f b7 7a 94 8f 11 fa bf
       0.4086169123940621 -1.6292873191809567
000710 dd e6 7a ef 92 c1 04 c0 cc 13 72 d0 bd c8 dd 3f
       -2.5945185384160667 0.46537728649155663
000720 20 ce 77 8c 5f e1 e7 3f 91 44 4f 44 23 44 e2 bf
       0.7462613814845476 -0.5708175977871567
000730 18 1d d8 66 cd b6 eb bf 06 f3 11 c0 bd a7 fe 3f
       -0.8660647400546706 1.915952444337735
000740 d4 8f 5d 00 fc 4e 0b 40 e1 1f 01 ed 65 22 03 40
       3.4135665920784763 2.3917959705322436
000750 c5 3d d7 9c 65 9c 0d c0 12 97 32 07 2e a9 fd bf
       -3.701365685766833 -1.85380366145677
000760 b0 bd b4 b0 af fb e5 bf ba ee d8 21 1c 9e 01 c0
       -0.6869734240807954 -2.202202095444446
000770 b7 d9 cd 73 b8 09 f2 3f 18 8e 96 14 96 f0 dc 3f
       1.1273731731031214 0.4521842194610328
000780 6b 5b 5f 24 0a 1b d5 bf a4 39 9a f5 05 18 e7 bf
       -0.3297753672790608 -0.7216825291559883
000790 7f 77 20 95 df d2 c0 bf 75 59 2e 7c ee 21 0b 40
       -0.13143534452040836 3.3915681554455497
0007a0 0e ff e4 9e 64 d0 db 3f c9 81 2e 10 05 ab e1 3f
       0.43459430233996066 0.5521264377639962
0007b0 03 3d de 1b 63 2e 06 c0 21 eb 8a 65 f4 30 d0 bf
       -2.772649972648311 -0.2529879562022633
0007c0 fc a2 30 a1 92 a3 f8 bf d4 f7 c1 52 df 39 f5 3f
       -1.5399347588046899 1.32662899329397

b2 f8 [1, 10]
000000 5c 41 3d 1e 27 87 ea bf 8a 36 3b 57 3a 1b fb 3f
       -0.8289981451617154 1.6941474349472707
000010 b6 e5 95 25 47 b3 c6 3f b4 11 cc 98 e6 df ea bf
       0.17734612784606235 -0.8398316368407479
000020 f9 d8 2f 6d c0 34 be 3f 54 fe b5 31 82 c2 ec 3f
       0.11799242654510413 0.8987437220493555
000030 31 9f ca b0 81 d0 d2 bf 90 a7 84 63 e4 ac f6 3f
       -0.2939762331466112 1.4172099959782578
000040 fa 1c 8a 67 59 e9 02 c0 64 04 bd ea 55 d1 95 3f
       -2.3639400567077447 0.02130636449078728
