experiments/exp_h25_lr0.1_run1/model/weights.npz (npz, 160046 bytes, 4 tensors)

W1 f8 [784, 25]
000000 95 93 a6 5f fa f2 84 bf 98 c5 8d 45 87 fa 82 bf
       -0.010229068798091304 -0.009266907510865605
000010 cf 03 0e 2a 80 cd 8b 3f f7 7b d3 c0 35 5e 8b bf
       0.013575555117997155 -0.013363285014234434
000020 7a 15 43 ea 92 52 5a 3f 42 ca a2 aa d8 4b 83 3f
       0.0016066012113225823 0.009422009189028139
000030 48 5a 63 3d 39 f4 80 3f 7d 1b 5a 2c 67 f6 74 3f
       0.008278319536129022 0.0051178007321429604
000040 07 53 80 b9 34 15 8a bf 78 bc ee 94 f3 f3 93 3f
       -0.012735759650277524 0.019485288586733124
000050 c3 9d 62 5c e8 b7 66 3f 6d 2e c2 74 69 4c 69 bf
       0.0027732408808167366 -0.003088193863794156
000060 a0 e0 cc 98 03 a1 8b 3f 2f c9 eb a2 11 53 88 3f
       0.013490703678698701 0.01187719133801987
000070 e2 35 5b 2d bb f1 66 3f d6 5e 88 40 14 3d 8c bf
       0.0028008132747803097 -0.013788374156362176
000080 93 96 4b fc 3c aa 87 3f 0b 68 8b 98 0e fa 72 bf
       0.011555172395172597 -0.004633004202981193
000090 8c dc c6 1a 03 80 88 3f bf e1 bd 3f 1b 51 85 bf
       0.011962913756049319 -0.010408604510062312
0000a0 e0 c2 84 11 9d 41 8a bf b1 55 41 b3 16 09 70 3f
       -0.012820460412144852 0.003914917633740898
0000b0 b3 d8 2c b2 9e 00 74 3f 53 09 97 48 49 7c 65 3f
       0.004883403688657295 0.002622740871374743
0000c0 02 a6 5f 18 8d 8b 88 3f 0a 66 06 84 a0 3f 71 bf
       0.011984922701191007 -0.0042110700745978755
0000d0 57 91 14 38 5f a0 7a 3f 5c 8a d3 84 7e bb 14 bf
       0.006500598859279747 -7.908782682223544e-05
0000e0 38 86 43 5f 02 42 4a bf 62 bb b1 a5 33 7b 8d 3f
       -0.0008013259489667085 0.014395144933784191
0000f0 de 82 68 23 8e 60 8d bf b0 b9 56 86 23 e7 63 3f
       -0.014344320731710377 0.0024295514910683477
000100 83 2a fa eb f7 bd 8c 3f 6d 1f 14 01 e2 38 91 3f
       0.014034211052849748 0.016818553272087856
000110 02 4b 9f 4d 3b 86 74 3f 10 b1 31 d1 9c 42 86 bf
       0.005010825780078278 -0.010869240888688597
000120 d9 63 d9 9c af aa 84 3f cb 8d 0b 37 7e 15 8b bf
       0.010091182684094523 -0.013224588446468474
000130 d6 69 5a e5 9c b4 6d 3f a2 87 29 54 e1 37 7e 3f
       0.00362616199238384 0.007377510252441074
000140 c3 a6 d8 bf a8 22 79 3f c5 43 8a 3b 7e 6a 59 bf
       0.00613656919225897 -0.0015512688388847767
000150 78 a5 60 5f 1f 27 7b bf 99 a1 1c 1e 16 ae 80 3f
       -0.006629107045264752 0.008144543451252416
000160 cb 4a 5b 07 47 66 78 3f 1f 96 13 43 3d c7 78 bf
       0.005956914382937393 -0.006049384407764729
000170 66 bf 68 04 97 be 9a bf 22 7d 9e 20 31 d4 82 3f
       -0.026117667812456523 0.009193786437946164
000180 36 90 f7 3f ac 42 71 3f 42 28 cf 1b 3d c8 03 3f
       0.004213974810657153 3.773151863802105e-05
000190 2d ca cf d4 0b d8 82 3f f6 6d e4 1d 14 65 72 bf
       0.009201137954709082 -0.004490927296753258
0001a0 41 cc 0f 35 b9 ed 90 3f b9 7b 3b eb 8d 98 5e bf
       0.016531843055372034 -0.0018674264837767864
0001b0 3a e3 76 4b 14 1d 95 bf 5b e6 ea 1f 59 10 52 3f
       -0.020618741136533482 0.001102530513590236
0001c0 f0 2a 42 f8 a8 ca 83 bf 6b 97 5d 0e 6a 55 63 3f
       -0.00966388709664076 0.0023600646408565205
0001d0 49 03 fe ce f1 5f 82 bf b7 80 7d 27 f6 b9 73 3f
       -0.008972062234308036 0.00481601861960728
0001e0 46 42 af 2d 53 eb 85 3f f3 33 10 79 8c 24 49 3f
       0.01070275290649748 0.0007672964003418978
0001f0 10 11 1e 44 f4 7e 81 bf 5e 56 58 fa d0 bd 86 3f
       -0.008542927101878678 0.011104233398366133
000200 0f 40 da 8e 89 33 49 3f c0 69 68 b5 9a d2 81 3f
       0.0007690831823357075 0.008702477131966257
000210 3e 49 e5 d2 32 a6 62 bf c2 52 dd 2e 9b 50 83 3f
       -0.0022765152599869823 0.009431087844555267
000220 ec b3 ac 98 1e 5f 83 bf 00 cb 2c 44 4f 79 8f bf
       -0.009458769830951362 -0.015368098514590312
000230 a3 dd ac ce ea 4e 72 bf 18 0a 1b 77 2d 22 6a 3f
       -0.004469792572130346 0.0031901252740180845
000240 1c f2 af 6f 2f a8 8a bf 7f 2d 3f b4 37 79 93 bf
       -0.013016100498128451 -0.0190170959247502
000250 20 39 39 23 ec aa 8e bf 26 94 2e a0 d4 3e 86 3f
       -0.014974446129738583 0.010862027300229182
000260 f5 7c 4c 2c 99 7e 92 3f 56 9b b7 cb 6b 24 86 bf
       0.018061059311659872 -0.010811655191856378
000270 a7 af ee 4f 82 68 6e 3f 62 8a e5 4e c1 21 94 bf
       0.0037119431649070447 -0.01966001552626507
000280 b9 0f 95 22 88 5a 7a bf 7c b3 38 b3 ac 28 87 bf
       -0.006433994081195432 -0.011308049411206993
000290 3c b5 d9 94 54 f5 92 3f b8 d0 d3 c0 00 bf 4c bf
       0.01851398619185328 -0.000877261512555203
0002a0 b4 cc 38 1a 3d 92 76 3f fd 56 07 c9 ae 30 8d bf
       0.005510557824481999 -0.014253011236103225
0002b0 90 85 c8 0b 12 98 8a 3f 37 7d 24 64 dc 77 66 3f
       0.01298536394557706 0.0027427010073918473
0002c0 c8 e5 b6 46 09 f1 7e 3f 9f 89 17 e0 76 83 82 bf
       0.007554088816897182 -0.00903981086134281
0002d0 09 dd da d5 22 28 96 bf bc aa d3 8b 42 35 84 3f
       -0.021637481978101145 0.009867210285354637
0002e0 0b 58 0f c6 58 6f 8a bf fe 37 41 89 b7 1f 74 bf
       -0.012907689613637549 -0.0049130601292528536
0002f0 06 a6 00 7e 61 db 15 bf 35 80 75 9c 7b c5 41 3f
       -8.337767167234536e-05 0.0005423406191020832
000300 22 ff 61 20 52 41 92 bf 4c 68 b4 2e db 14 7d 3f
       -0.01782730410241052 0.007099968129546563
000310 b1 95 2a 7a 57 b6 85 3f 56 3f fb 03 a4 71 88 3f
       0.010601695457192447 0.011935502406600722
000320 7e d5 14 ee 67 19 88 3f ae 73 a7 45 2d a5 67 3f
       0.01176720805470199 0.002886379644435575
000330 33 3e 62 53 ea 70 6a bf 54 22 d8 5e 35 24 60 3f
       -0.003227670352380385 0.001970390547971138
000340 32 1a 62 8c 33 da 83 3f 81 39 cd 28 90 72 74 3f
       0.009693529817252775 0.0049920684076155694
000350 33 b7 e4 4e e3 f7 85 3f 42 59 76 9a 75 3f 7a 3f
       0.01072671494020092 0.006408175838620802
000360 42 11 fc 3d 76 2e 71 bf c0 5e 0d 2b a5 c3 6e bf
       -0.0041947001298051085 -0.0037554002705454115
000370 9a c4 76 53 9b 8e 7f 3f 54 cd de bb 11 5b 51 3f
       0.007704359762486091 0.0010593102629002553
000380 8a f0 b8 e9 41 70 94 3f b8 41 83 2d 54 51 6e 3f
       0.01995947827366299 0.0037008899781556213
000390 b5 d0 08 a0 d6 fc 77 3f 0d 8a db 61 8f b3 42 bf
       0.005856359843665772 -0.0005707216366455673
0003a0 6b 3b 29 4b 57 26 88 bf 36 64 b8 13 27 f7 71 bf
       -0.011791879636033639 -0.0043860937544418135
0003b0 df 2d 02 c4 2f 5d 73 3f cf 12 ff a7 e6 72 72 bf
       0.004727541527369066 -0.00450410938350805
0003c0 9f 44 bf ab 60 fe 62 bf 42 6a 01 15 c7 cd 84 3f
       -0.002318562326742837 0.010158114746606665
0003d0 6d 1b b1 06 e2 f4 90 3f ff 1d f0 90 b8 13 8a bf
       0.016559154184757775 -0.01273292724910302
0003e0 21 37 8c 86 72 91 7b 3f 62 56 17 83 30 fd 83 3f
       0.006730506291899891 0.009760264397225164
0003f0 ef bf 37 ab 48 dc 87 3f 51 ab a0 9f 03 4d 89 bf
       0.011650626874114748 -0.01235392409224337
000400 f6 0d 03 c5 3f 4c 7b 3f f4 f7 08 49 85 a7 4a 3f
       0.006664513683236608 0.0008134270484061444
000410 6f dd dd dc d1 c9 54 3f cc b0 55 82 1d 7b 87 bf
       0.0012688207093257372 -0.011465292491913102
000420 25 8d 1d 15 64 46 96 bf c9 1b 50 f3 5e 08 7f 3f
       -0.021752895153793212 0.007576342487488349
000430 10 1a 6e 0b fe ae 52 3f 24 30 2e af 4b 3b 8e bf
       0.0011403542427800319 -0.01476153496130201
000440 db fc 3e 0a 4e a5 47 bf dd e2 9f 30 f0 6f 58 bf
       -0.0007216101698687376 -0.0014915319065932832
000450 b8 1d 51 70 5a a8 87 bf b0 ba 5c e4 2d 39 83 bf
       -0.011551577141417066 -0.009386404544412613
000460 c9 6e e5 e8 f2 5d 64 bf 0f cc ac 95 09 c2 9a 3f
       -0.002486204560382042 0.026130819092212983
000470 cf 68 89 1b a8 ae 93 3f 23 4e 83 af 42 8d 78 bf
       0.019220949822149443 -0.005994091501821982
000480 6f fa 2a af 5a 65 90 3f 1b 39 d6 af 69 ab 8a bf
       0.016011635724448355 -0.013022256544698288
000490 9c 0e 19 dd 0d 34 93 bf 20 81 bb c4 df ab 7b 3f
       -0.0187532583424984 0.006755708785675801
0004a0 48 ae 61 65 01 28 84 3f 09 a4 c9 1b bb 2b 81 bf
       0.009841929346484993 -0.008384191308509885
0004b0 a3 dc b7 dd 15 a9 71 bf aa f3 7a ca bd 4c 80 bf
       -0.004311643041993526 -0.007958872548778324
0004c0 44 17 fb 1d 63 e4 64 bf 87 92 b9 37 7d 42 83 3f
       -0.0025503097420792892 0.009404161704148052
0004d0 f7 cd 28 fb e8 9c 81 bf 51 22 de 5a 53 27 80 bf
       -0.008600063481117621 -0.00788750763946769
0004e0 87 87 b8 a8 ee e9 8b 3f af 96 d7 55 7e b3 85 bf
       0.013629784130049461 -0.010596262926763826
0004f0 31 42 c6 da d2 a5 94 3f 19 a6 77 8e 1a d5 94 bf
       0.02016381702702769 -0.020344176240462006
000500 71 29 26 00 f0 18 6b bf c1 2e 29 22 a1 78 80 3f
       -0.0033077895652173163 0.008042582373625764
000510 7f 19 4a 67 4d f5 7e bf fd 11 d5 44 aa a9 90 3f
       -0.007558157307931856 0.01627222104186109
000520 e8 23 d9 66 ab 77 64 3f 22 7a ef 23 7a 99 28 bf
       0.0024984691324658644 -0.0001876794430861343
000530 54 e0 ac a4 7e c0 1f 3f de 4d b4 99 f7 88 69 bf
       0.0001211240097916966 -0.0031170688577135527
000540 e1 98 e3 66 26 ec 72 bf bc e5 f6 96 f0 2f 36 bf
       -0.004619741446935972 -0.0003385507943352813
000550 91 c2 97 d4 08 7f 82 bf 5c d1 8f 12 09 f0 6f 3f
       -0.009031361568277137 0.003898637504329878
000560 36 ae c0 85 93 2c 5c 3f 98 64 ad c0 92 ac 8a 3f
       0.0017196121834882733 0.013024469857258844
000570 0a 02 cd 45 2a 01 85 bf b8 68 8a a8 3d 04 60 bf
       -0.010256128554488892 -0.001955147196281617
000580 ab 46 55 31 d1 a8 89 3f 53 3d fa ed c5 69 8c 3f
       0.012529024427439714 0.013873621296879668
000590 09 48 5c ec b0 ce 98 bf 49 4c f2 e4 02 94 76 3f
       -0.0242259639990792 0.00551224833101844
0005a0 e3 8e 64 d5 a0 df 7e 3f c6 9d 5b 78 bc cf 8c 3f
       0.00753748727428036 0.014068100379019632
0005b0 62 0d ba 06 32 1d 82 bf 6e 6b ec 2e 39 25 5d 3f
       -0.008844748335156086 0.0017788942747702613
0005c0 c2 54 3f ce ac 8e 92 bf 39 51 4b 58 fd 5f 64 bf
       -0.01812238701662206 -0.002487177671676968
0005d0 1b e2 c8 65 83 df 90 bf 70 58 71 0c 05 6d 61 bf
       -0.01647763546700008 -0.00212717996650285
0005e0 92 3e 51 6f 53 f8 6b 3f b7 9a d8 26 b2 62 94 bf
       0.0034143094622221615 -0.019907744999864998
0005f0 24 b6 17 6c 72 2d 5d 3f 72 92 1d bc f7 5d 6b 3f
       0.0017808549313217481 0.0033407057352852704
000600 47 38 ce 08 b6 cd 81 3f 0c 52 c3 d4 b7 b0 88 bf
       0.008693143981670327 -0.012055813007841663
000610 2a 18 ad 39 2a 87 81 bf fc 7c 93 56 ea 0d 53 bf
       -0.008558587918411648 -0.0011629856547228914
000620 80 66 f7 77 98 b1 4a bf bc 1e 6a e0 c1 5d 68 bf
       -0.0008146280742337836 -0.002974394479057311
000630 d7 67 66 37 8b bd 75 bf 54 10 53 3b 06 7a 6b 3f
       -0.005307716192328691 0.0033540841783139905
000640 2b e6 0d a3 07 59 8f bf 26 6c 70 a1 bc 91 84 bf
       -0.015306529677889 -0.010043595959407691
000650 45 7d 9c fb 87 0e 69 3f 43 ce 8e 26 3b 0c 99 bf
       0.0030586868205230455 -0.02446072028005931
000660 76 ea 16 82 6d ae 8f 3f 9f 6f 5d c6 aa 51 53 bf
       0.015469413311497631 -0.0011791389201425207
000670 bd 2c 02 a4 86 16 6f 3f fa e9 e9 bd a7 fc 7d bf
       0.003794920892749325 -0.007321028939822666
000680 14 3d c5 ea 1c 2a 7d 3f 55 01 74 40 d3 fa 7d bf
       0.0071202401707772985 -0.007319283678271245
000690 d8 8c 7c 82 8c b4 92 bf 1b c0 9d e7 10 df 5f bf
       -0.018266864265694988 -0.001945272930665715
0006a0 8e 9e e3 c8 83 6c 8b bf 71 96 22 1f 5e dd 97 bf
       -0.013390569275045363 -0.02330538811715716
0006b0 fe 82 81 ef 09 e5 86 bf 9d 2f e5 6a 7d f7 86 bf
       -0.011179044362678688 -0.011214237045940762
0006c0 2f 16 c0 0d 01 58 91 bf 43 61 82 b3 17 69 97 3f
       -0.016937271560911234 0.02286183388841435
0006d0 af 8c 62 56 ea a1 70 bf 3f 63 f0 cf e2 be 85 bf
       -0.004060664539937849 -0.0106179923732711
0006e0 5c 85 39 c8 88 db 73 bf c9 7b 48 2f 10 0e 7a bf
       -0.004848036103426292 -0.006361067983134691
0006f0 13 a4 36 9d d8 36 81 3f e3 16 96 82 0b 4c 91 3f
       0.008405391977094145 0.01689165100608293
000700 71 93 91 e3 b4 b2 84 bf d2 ad 1b 91 43 f1 66 bf
       -0.010106480784267654 -0.0028005904831524897
000710 d2 71 57 26 be b2 8c 3f 1e c1 b5 d0 13 9b 79 bf
       0.0140127997828409 -0.0062514089616885465
000720 4e f7 3b 80 f6 ee 80 bf 4e 80 ef 88 e5 ad 6a 3f
       -0.008268285549543865 0.0032567484954455833
000730 37 93 67 41 5b 11 7f bf 17 ee 0c 09 78 04 90 3f
       -0.0075849117915581165 0.01564204745521466
000740 46 7e b1 cd 4d df 76 3f c2 e9 21 b5 c6 a5 90 3f
       0.005584052963143521 0.016257386022042082
000750 b4 4d f7 a3 9f 14 81 3f 76 39 f0 bb d5 68 81 3f
       0.008340117637010681 0.008500737951206299
000760 e5 0d 7c 20 6e 83 84 bf ed 4f 8a d5 26 32 6b 3f
       -0.010016308180190012 0.0033198126296358683
000770 46 3f 7f bf 97 d7 6a bf a0 f5 37 cb 9c ed 99 bf
       -0.003276630766755692 -0.02532048216197824
000780 ff 0e 85 1a 71 22 60 bf c8 7a fe b3 bc 20 81 bf
       -0.0019695481352374196 -0.008363222353918856
000790 48 c3 05 1f d8 85 82 3f 48 93 b0 aa e0 35 55 3f
       0.009044350096446899 0.00129458370316478
0007a0 c6 d7 57 cd 5c a7 87 bf 94 af 46 c8 4a 96 74 3f
       -0.011549687401366426 0.005026142233344095
0007b0 bc a6 5d b2 c4 54 90 3f c4 3d 75 04 a0 32 93 3f
       0.01594836558016398 0.018747806808560488
0007c0 89 ce 91 87 d9 b4 86 bf f4 3e d5 50 02 7b 7d 3f
       -0.011087130975489206 0.0071973886927734106
0007d0 23 0b 77 73 f1 24 84 3f 32 56 b4 e6 24 fd 8a bf
       0.00983608850117929 -0.013178146639385966
0007e0 26 78 e2 91 51 3a 75 3f 43 ac 4e 03 a9 8e 81 3f
       0.005182570106766737 0.00857288400023582
0007f0 f4 9d 46 b3 ee 06 85 bf 1d df 9d 75 3f 48 85 bf
       -0.010267128797592819 -0.010391708161236185

b1 f8 [1, 25]
000000 50 a2 d5 62 cc b5 d7 3f ad 20 82 30 b8 b8 d7 3f
       0.3704710927181951 0.37064938294543986
000010 4f c5 ee 93 1c a2 d7 3f 73 86 ea 92 f9 b6 d7 3f
       0.3692695088057762 0.37054290148998986
000020 34 fb 07 cc 6c b7 d7 3f a5 06 45 15 36 ba d7 3f
       0.37057037281913385 0.3707404334746605
000030 b4 27 2c 55 b5 b4 d7 3f f2 74 80 39 cb b3 d7 3f
       0.3704045612108715 0.37034874549301755
000040 02 bf 0c e6 54 b3 d7 3f 5b f6 da ac 11 b7 d7 3f
       0.3703205343799568 0.37054864769365786
000050 c5 88 9b 87 63 b9 d7 3f 5a c1 69 f3 13 a6 d7 3f
       0.37069023363995895 0.369511592586624
000060 5b 9c 87 32 4d ba d7 3f ac 49 29 f2 0a a5 d7 3f
       0.37074594435256863 0.36944841049730814
000070 15 72 88 79 58 ab d7 3f 82 45 2a 10 6e a4 d7 3f
       0.3698331057401288 0.36941100672364524
000080 53 28 dc ca dd af d7 3f 68 4a b8 89 4d b8 d7 3f
       0.3701090317778199 0.370623955242229
000090 06 28 5a 21 6f b3 d7 3f 1a c8 9b 1c 5d b2 d7 3f
       0.3703267884926621 0.37026145738411886
0000a0 77 06 ae 7b dd b7 d7 3f 37 0d 44 33 06 b9 d7 3f
       0.3705972392855083 0.37066798216274627
0000b0 6f c2 57 78 9e b6 d7 3f 2f 60 7c 1c e9 b2 d7 3f
       0.3705211806509742 0.370294835870939
0000c0 c8 d4 4b 68 e6 bb d7 3f
       0.37084350762536333

W2 f8 [25, 10]
000000 62 8d d1 06 0c ea a2 3f bf 8f 9d 4f f6 30 96 bf
       0.036941886741966426 -0.021671150788634238
000010 d4 c2 2a e3 c7 84 a2 bf ce f6 60 db 77 99 78 bf
       -0.03616928718600368 -0.006005733672336878
000020 22 16 ac 92 2a 88 72 3f 3c 7b ec 37 9a c3 a6 3f
       0.004524389553585391 0.04446107800162344
000030 ea a8 83 b5 af 4d 7e 3f d2 27 bc 66 11 68 71 bf
       0.007398306239546163 -0.004249637578832082
000040 7b d9 d0 d1 fd 76 a0 3f 9a b1 57 91 fa 64 ad bf
       0.03215783296802762 -0.05741103195382209
000050 40 fa ae 44 9d 08 99 bf 16 3b 2d f1 da 1d a4 bf
       -0.024446923558338662 -0.039290277424347916
000060 8c 62 d2 84 d7 c0 93 bf 4e bb 5b a3 85 6e 91 3f
       -0.019290320855903917 0.017023170562363625
000070 6c 08 7a 36 3d ff 5a bf 17 9c 22 8c c0 61 a3 3f
       -0.0016477678090329973 0.037855164629313424
000080 a0 92 f3 cf 96 85 aa 3f 70 9f 8d 07 12 6b 2d bf
       0.05180045402975009 -0.00022444338881233037
000090 5d 7c b6 79 50 b2 91 3f ed 92 70 5d 90 2c a9 bf
       0.017281777790796194 -0.049168120771616454
0000a0 5e 32 de 95 3b a1 a8 bf e8 bd 3c b4 88 47 8e 3f
       -0.04810510830347846 0.014784877777485897
0000b0 5c 11 7c e7 f3 43 aa 3f 74 c9 ed 67 47 34 93 bf
       0.05129968834629281 -0.018754115789712825
0000c0 64 ba 2e be 38 75 b1 3f ab 8a ef 8a 89 df a7 bf
       0.06819491046074116 -0.04662732907288122
0000d0 ed 87 47 04 f7 5b a2 bf f4 cd 62 ba 12 2c 78 3f
       -0.03585788657416331 0.005901406437419866
0000e0 91 67 3f 0f 50 ff a8 bf 73 d0 c3 a1 c0 24 8e bf
       -0.04882288156632265 -0.014718537270234066
0000f0 18 32 21 96 82 f4 a4 3f 6c 3d da 3b d9 fe a4 bf
       0.04092796404492932 -0.04100684028264365
000100 4a 50 ba cf 0a 58 9f bf fe fd e2 15 09 64 a1 3f
       -0.030609291962335562 0.03396633522197233
000110 5c f9 b5 45 1c 5e 90 3f 8d e6 85 39 bf bb 83 3f
       0.01598400283318689 0.00963544267937102
000120 fb 71 ef 76 f8 dc 82 bf 3c ff cd 3e a7 b3 72 bf
       -0.009210530404680553 -0.00456586199004488
000130 b5 2a b3 d2 07 9e a1 3f 08 19 25 e2 3f 44 5a bf
       0.034408802480887436 -0.0016031860219115086
000140 0d e8 a6 a9 b0 d3 97 bf 98 79 75 f0 5c 9e ac bf
       -0.02326847110246182 -0.05589571414269584
000150 d9 c4 40 c9 a3 d8 91 bf 4a e4 82 cc 11 9a 9e 3f
       -0.017427977713116192 0.02988460360277071
000160 7e 33 a5 02 d5 13 90 3f 74 25 38 ad 9e b1 82 bf
       0.015700653349358877 -0.009127845441087891
000170 d3 86 04 4f b2 95 98 3f 40 0b 4a 17 08 59 47 bf
       0.024008546898705085 -0.0007125176912981881
000180 02 9d fb e5 a5 db 8d bf 03 d0 de e8 bb 34 a0 3f
       -0.014579101639766726 0.03165232865958958
000190 5e b0 80 55 6f 24 9f bf 3f 29 c3 42 f7 b5 57 3f
       -0.03041242560736667 0.0014471926361233204
0001a0 94 ad 27 fd e5 2d a2 3f c8 22 7e f5 5a 22 31 bf
       0.03550642695685294 -0.0002614471500171187
0001b0 14 e0 46 11 0b 21 a6 3f 6b 88 9a 9a 66 c7 85 3f
       0.04322084985636834 0.010634233086708819
0001c0 57 d4 91 59 75 30 90 3f 0d 85 1f b7 c2 f7 a7 bf
       0.01580985411824928 -0.04681213841809937
0001d0 ca 5f 92 33 de e1 99 3f 74 91 47 00 f9 3e 70 bf
       0.025275680444423 -0.003966305408969684
0001e0 6a 4a 09 dd ed 44 a4 3f 41 28 a9 fd f6 29 a4 3f
       0.03958838771054192 0.03938266607708885
0001f0 3e e4 44 15 9e fb 8b 3f e8 21 4f fd c1 c3 a1 bf
       0.013663516067582756 -0.03469663827087627
000200 e9 69 bf ad eb 59 82 3f 0a 33 ae 8a 6a 4e 90 bf
       0.008960572471484478 -0.015924133982070855
000210 2e a6 30 e3 04 a2 92 3f 6f 8e 44 47 1b 55 ab bf
       0.018196178785876586 -0.0533836864945244
000220 10 96 d2 00 02 e7 ab bf 65 56 76 a6 fa 26 74 bf
       -0.054496824837127034 -0.004919985868942688
000230 c9 6b f7 54 65 e3 97 3f f5 70 aa d0 51 78 8d bf
       0.023328383742278 -0.014389647655939511
000240 e8 04 40 47 41 97 a6 bf b0 7f 73 8f a7 bf 97 bf
       -0.044122734019774346 -0.02319204152161064
000250 1e 01 34 6f 17 8f 86 bf 3a 44 69 8f 6b 6a 98 3f
       -0.01101511295428331 0.023843460682034336
000260 44 a1 ba 6f 79 92 ae 3f 6b 94 0d 22 c3 17 8f bf
       0.059711260689541606 -0.015182041622845163
000270 2e 08 e7 11 f8 dd ad bf 57 2d 5a 71 32 18 b2 3f
       -0.05833411425148004 0.0706817175616171
000280 ae f4 7c a6 31 11 a1 3f 6a d1 7c 06 99 3b 76 bf
       0.03333430440259498 -0.005427930598490208
000290 4d 8e 56 01 2c 06 90 3f 13 5b 45 21 c1 30 91 bf
       0.015648543912574465 -0.016787545829482897
0002a0 e1 e7 2e 7e c7 d5 b2 bf 5a ac 7e c5 2b 93 a5 3f
       -0.07357451277394446 0.042138450487379145
0002b0 da 79 7d 5b 34 21 a2 3f 7a 7e ac de 28 fc 99 bf
       0.03540958039114957 -0.025375975218706583
0002c0 ea bf 17 92 c0 35 75 bf b5 25 88 2c 58 30 95 bf
       -0.005178215245436471 -0.02069223186302845
0002d0 a3 66 38 4f 11 58 a0 bf 97 0a 3c ff 86 e0 a9 bf
       -0.031921902580689186 -0.05054113259941067
0002e0 53 3a ad 86 a7 6e 86 bf 67 33 65 1e 11 2f 6e bf
       -0.010953244016176067 -0.0036845526075581117
0002f0 cd 36 6f 66 a6 92 9c 3f 9b 49 88 b3 f4 d9 71 bf
       0.027903175356007993 -0.0043582495350328555
000300 4b 88 f0 30 93 06 b1 3f 92 d4 d0 cf 76 e1 7e bf
       0.06650657601179082 -0.007539238079563708
000310 04 2c 2a 5f c7 21 92 3f 0d ef 10 09 9a 09 a4 bf
       0.017706980880159776 -0.03913575516386745
000320 7e bb ef 82 72 9b a1 bf c2 06 3d a0 5c dc 93 3f
       -0.034389093860105455 0.019395301132368876
000330 aa 08 54 09 78 72 91 3f 7a 61 e5 c8 1d db 85 3f
       0.017038226670600544 0.010671837514266914
000340 27 d3 77 9f 31 68 99 3f ea 73 27 f8 06 59 9c 3f
       0.024811530454786592 0.02768336190807822
000350 26 1a bb f3 df be 70 bf 34 02 d0 87 54 e3 92 bf
       -0.0040882824066046704 -0.018445320882167063
000360 20 8c 4b 77 02 7e 9c bf 04 0b 6d 55 51 47 8e 3f
       -0.027824438601680268 0.014784465236180384
000370 62 0e 93 02 64 43 a3 3f 4e 45 f0 e5 25 0d 92 3f
       0.03762352496553657 0.017628280791602884
000380 6e 58 20 8c 09 ac a8 3f 21 32 bf 1b 13 6a 64 bf
       0.04818754039313054 -0.002491986580912334
000390 25 49 27 af 5c 20 98 bf 89 50 82 5b ec f8 a3 bf
       -0.023560951414603033 -0.039008508844888
0003a0 5d 1f de 29 17 5d 96 bf f8 02 b9 dd 78 36 8c 3f
       -0.021839487009429493 0.01377577234882342
0003b0 f4 a1 da 5f b8 79 a7 bf bc 5b d9 11 40 fa a1 3f
       -0.04585052652447877 0.03511238305934891
0003c0 67 22 51 c1 dc a5 9d bf d8 b8 46 2a 88 43 60 bf
       -0.02895302705681715 -0.001985326716940166
0003d0 01 48 90 bb a7 41 9e 3f 7d 1d ea c5 67 71 78 bf
       0.02954732973382335 -0.0059675267826898555
0003e0 41 c1 f0 ae 33 83 9f 3f 35 73 c9 81 fe 71 a1 3f
       0.030773932983892086 0.03407283148110311
0003f0 a9 c3 5e 01 62 a8 a7 3f a4 c8 80 7b ac ed a1 bf
       0.04620653406835313 -0.03501643188100559
000400 3a 6d 0e 06 b4 1b a4 bf 4a 85 3f e5 78 a6 7d 3f
       -0.039273858775425954 0.007238838432358572
000410 d0 d3 ea 75 32 7c 37 bf d4 e7 57 5e 66 2c b0 3f
       -0.00035835487316698573 0.06317748835854725
000420 23 37 2f b6 a5 0c a7 bf 68 2d 73 b7 41 f2 a0 3f
       -0.04501836632662861 0.0330982719838982
000430 74 90 19 3d 7a 89 8d bf 7c 4a 58 ac 8e 3b 9a 3f
       -0.014422373761768116 0.025617818135354117
000440 4e 8c c5 90 b1 a3 a9 bf ef 54 db bf ef 5d 95 3f
       -0.050077008173297174 0.02086615189076196
000450 dc 4b 0e 10 3c 6f 9f 3f 8f bd f9 18 0b 63 a3 bf
       0.03069776390072919 -0.03786501579167655
000460 f9 46 0f 9c f2 2d 7a 3f 79 fc c5 b2 48 84 9e 3f
       0.006391475385457695 0.029801498328648954
000470 cc 23 c6 c2 c4 2b a8 bf a6 a8 dc 3c 42 76 9d 3f
       -0.047208927894707736 0.028771433796614197
000480 ce 81 a1 b0 bd 12 a7 bf ce 11 25 77 8e be 6e bf
       -0.04506485730303532 -0.0037529737975623206
000490 b5 8c 0e d8 54 87 94 bf aa de 10 e2 72 d1 89 3f
       -0.02004749840456262 0.012606523059829417
0004a0 61 a3 52 28 c1 b6 99 3f 33 91 86 fa f7 37 71 bf
       0.02511121567355035 -0.00420376650473413
0004b0 43 8b 4d 92 1c af b0 3f 71 d9 2f 6d a7 87 b1 3f
       0.06517199107979103 0.0684761659211739
0004c0 dd dd 96 cc b4 c6 a1 3f 73 70 23 bb d1 0f a5 bf
       0.03471913335254915 -0.04113631638912887
0004d0 db 74 d9 c7 d5 d1 a8 3f fa 0c 18 c2 90 26 97 3f
       0.048475914617236625 0.022608053061060375
0004e0 a7 0e 0f 85 8d 7f b1 bf 97 57 af 04 45 2a ad bf
       -0.06835255144602091 -0.056963116475954916
0004f0 1f 78 62 45 d1 ca 91 bf 7a 58 b0 1e 5c 6d 93 3f
       -0.017375249729063676 0.018971862195109136
000500 90 50 68 46 a0 a2 a2 3f e2 a0 08 ce a0 c5 a2 bf
       0.03639698848215389 -0.03666403307971834
000510 20 21 a9 e9 b0 67 52 3f ab a7 32 df aa e4 a5 3f
       0.0011233546889731286 0.04276021933158288
000520 2e 1b e0 3b be 94 b3 3f ff 29 c5 fd 1d 0c a4 bf
       0.07648838960458867 -0.039154946544460494
000530 59 7c 70 04 1d 94 75 bf ff 7a 37 6f 36 27 aa bf
       -0.005268205021848515 -0.051080418659458
000540 fd af 96 41 91 ce 9b 3f 48 33 f4 4a 8f 47 ab bf
       0.027155179622852178 -0.05328033246960345
000550 d9 dd 0d 96 6e 2a 9f bf 70 af 70 8d 87 fd 0f 3f
       -0.03043530264718961 6.101674960520733e-05
000560 5f d4 a5 b9 7a a8 8a bf e8 c5 64 45 10 40 a5 3f
       -0.0130166614442066 0.041504391165641696
000570 38 41 23 ed 06 05 a6 3f 01 13 a7 57 96 32 87 bf
       0.04300710339305386 -0.011326956319757555
000580 7a 1c 71 57 ba 14 96 3f fc 5b 39 b9 f2 53 ae bf
       0.021563445651079573 -0.059234223471030106
000590 6b 93 23 77 d8 59 95 3f 27 84 97 f5 bb 48 96 bf
       0.020850546142259157 -0.021761834015595973
0005a0 b0 95 f9 82 e0 bd a9 bf f5 41 7a 23 09 68 90 3f
       -0.05027677153411092 0.016021864691142047
0005b0 ca d8 fc 23 bf ba 88 bf e8 6a c0 24 e4 bd 63 3f
       -0.01207494095397656 0.0024098831108977266
0005c0 34 31 c0 36 f9 74 86 bf 59 51 7a c1 8b 72 96 3f
       -0.010965296729431452 0.02192133301157759
0005d0 f4 27 bd e5 0c 96 78 bf 1b 44 8d 62 63 82 75 bf
       -0.006002474194085384 -0.005251301023990097
0005e0 0c 96 0f dc f5 42 aa 3f 42 85 c7 27 af f2 84 bf
       0.051292117226506034 -0.010228508378477334
0005f0 36 a9 30 14 46 f7 a0 bf d9 64 2e db 9a b1 84 bf
       -0.03313654896222078 -0.010104379476432989
000600 27 fe 8c e5 94 04 9d 3f 9a d9 df 85 57 59 70 bf
       0.028337790022531586 -0.0039914530625452475
000610 05 1c d3 0b e1 dd a1 bf 6b 39 2b d7 c8 53 95 3f
       -0.034895928090513485 0.020827425129760806
000620 f8 85 86 31 b1 57 b2 3f df d5 76 0c 5f 08 9c 3f
       0.07165057620161253 0.027375683913950396
000630 a8 f6 07 d0 39 05 9f bf ec 04 db 69 c7 09 77 bf
       -0.030293372461520335 -0.005624560317017951
000640 41 74 ce 28 fe a4 92 3f 33 5e 1b e5 29 c2 8d bf
       0.018207522621754405 -0.014530494026458651
000650 a0 83 56 63 4d 78 91 bf 86 23 fd 30 78 df 87 bf
       -0.0170604793435164 -0.011656702990551226
000660 2a 0b af a3 60 cd 9b bf 99 2d d7 0d df de b0 3f
       -0.027150640478576772 0.06590074623016164
000670 74 31 d3 5e 30 b7 93 bf 65 ce 47 bb 49 37 76 bf
       -0.019253497874886574 -0.005423820508883991
000680 8e 2e 91 6b 8e 9c 7d 3f 73 f8 8c a0 01 b8 93 bf
       0.007229381874889319 -0.019256616043314922
000690 1c 2f ed a6 e9 91 80 3f fd 15 59 f3 00 8d 93 bf
       0.008090806395237453 -0.019092573979170514
0006a0 6e 7d 7f 7d b3 b2 4a 3f f8 aa c7 a1 0e 18 82 bf
       0.0008147598664400132 -0.008834947883732167
0006b0 7f 23 d8 c2 5b 5c ac 3f 7d 8b 68 92 87 73 93 3f
       0.055392138991073196 0.01899539786439729
0006c0 5e 46 b9 69 b5 fa 70 3f dc 6d 44 25 df 30 69 3f
       0.00414534439512834 0.0030750616371173333
0006d0 a7 87 bd fe 2f 56 a4 bf 45 0c b5 4c 6a ac 99 3f
       -0.03972005829451968 0.02507177441772181
0006e0 aa a5 77 0b d7 70 91 3f 34 d1 d5 6a f5 c4 b1 bf
       0.017032013010895554 -0.06941160066873381
0006f0 33 ad 11 46 94 6b 58 bf 76 ef a2 6a a8 cd 88 3f
       -0.0014904926286146258 0.012111011270796484
000700 48 47 54 3b 74 87 ac bf 4a e0 55 e2 72 16 78 3f
       -0.05572093223794511 0.0058807838116692965
000710 69 49 14 86 42 98 a1 3f ed 1c 81 fb 8f 3a 93 bf
       0.03436477553090606 -0.018778085446936755
000720 ea 84 f1 df 28 a9 93 3f f6 9c 95 e5 1e 85 90 3f
       0.01919998041956187 0.016132815134736377
000730 b2 e4 11 9a 2c 94 81 3f f7 c6 a7 af 3a c6 97 3f
       0.008583401157226642 0.023217122050431773
000740 63 22 e3 3b 65 5b 53 bf c5 d7 f4 84 78 8d 6e 3f
       -0.0011814583408968008 0.0037295678991098057
000750 70 a0 aa fe 59 5d 6b bf b6 24 94 b0 e2 44 87 3f
       -0.003340411921573909 0.01136185742736227
000760 cb 6c ce 92 4e 30 a5 bf 3e 41 2b 97 cb 95 79 3f
       -0.041384177609154436 0.006246371531873072
000770 02 43 72 14 22 10 9c 3f 64 60 f6 73 34 c8 7e bf
       0.027405292985863923 -0.007515149015851905
000780 4a 96 c6 91 20 4c a1 3f 93 cf ce 66 ee 0a a4 bf
       0.033783929629220014 -0.03914589886645028
000790 40 f0 33 68 4e 15 a3 bf 5f ab 3e 00 9a 9e a1 bf
       -0.037271928997114845 -0.03441315892208396
0007a0 05 b9 e0 ff 7a aa 70 3f c1 f7 63 1d 56 c4 97 3f
       0.0040688328427178665 0.02320990137467738
0007b0 ad 5d ef 61 dc 32 a7 3f 7c 1a fe aa 76 58 53 3f
       0.04530991263862503 0.0011807593218421666
0007c0 4f f6 24 53 0b 66 80 3f ab 5d a8 5d 97 22 90 bf
       0.008007133936753478 -0.015756955233965957

b2 f8 [1, 10]
000000 cc cf d4 40 5f f1 7b 3f 2a 59 b4 df 90 8e 93 bf
       0.00682198723125178 -0.019098533300245503
000010 e2 4b b4 b7 c5 3a 5d bf 30 6b 46 70 c6 84 66 bf
       -0.0017840319476973778 -0.002748859000531033
000020 12 01 a4 ba 1d 1d 6f 3f c0 1f 70 7d b0 21 7a 3f
       0.0037980633397866137 0.006379784978896852
000030 89 27 b8 22 89 23 88 3f 1e ec dc cf 3b 2e 8e bf
       0.011786528942156387 -0.01473662117097346
000040 6a 2b 3a dd ff 9e 50 3f 9d de 22 76 af 8b 81 3f
       0.0010144709275745297 0.008567209999781606
