experiments/exp_h50_lr0.01_run1/model/weights.npz (npz, 319046 bytes, 4 tensors)

W1 f8 [784, 50]
0	0xbf63c0f6048bddbc	-0.0024113469156607763
1	0xbf600abb2e3e24d3	-0.001958242022685222
2	0xbf7b91d5e77981a8	-0.0067308765061117395
3	0xbf6c853f01d06c5d	-0.003481505451885121
4	0xbf820b66f6a426a9	-0.008810810472385926
5	0xbf5de9dd65f9e74b	-0.0018257772534568558
6	0x3f57d7dc4baf45b3	0.0014552737545624305
7	0xbf7a2c04a24c0082	-0.006389635182813548
8	0x3f743b7f81b713e8	0.004939554284139704
9	0x3f7cd678340b66a7	0.007040471595894416
10	0xbf32fcaff488a51c	-0.0002897195413732055
11	0x3f783e41c5d1b726	0.005918747830134829
12	0x3f9a8398d4151e66	0.0258926276631243
13	0xbf8dc77404b1d681	-0.014540583031912082
14	0xbf71fdef271982a1	-0.0043925611404068985
15	0xbf91fae288055feb	-0.017558612396300004
16	0xbf84da4815ec2e5c	-0.010181964081787225
17	0x3f5c713bb42d5fca	0.00173598127795137
18	0x3f78f83d9aa69498	0.006096115723640903
19	0xbf5cb6dc539fb063	-0.001752581751584458
20	0x3f64ce63df3e49d5	0.0025398207307685086
21	0x3f7b81f5c00ed19a	0.006715736352749602
22	0xbf5d52f17bf94e6a	-0.0017897947544910594
23	0x3f53a4dbbd2d2d13	0.0011989732635864822
24	0xbf74a324df510be4	-0.0050383987737090165
25	0x3f842e609ae364c9	0.00985408280068824
26	0x3f39445aef126980	0.0003855440145998021
27	0x3f97bb96e4312b9e	0.02317653434537769
28	0x3f7d53cc797528cb	0.0071599948199240855
29	0xbf80f58e57e06d66	-0.00828086095503151
30	0x3f936d3e479bef62	0.018971417542146603
31	0xbf56fea54afaff89	-0.0014034856975939389
32	0x3f55f055d49c1f66	0.0013390386761233607
33	0xbf74909a4fa0c0cb	-0.005020716455007522
34	0xbf7756d112a2fdf5	-0.005698029223082814
35	0x3f702a3f1f518d83	0.0039465394703229765
36	0x3f7a97fab9f63cd0	0.006492595100453261
37	0x3f7a85f4581ce530	0.006475405187125902
38	0xbf86db1debca505c	-0.011160119779823834
39	0xbf50d2b689633b61	-0.0010268004021331755
40	0xbf85246ed23bfc94	-0.010323396483270998
41	0xbf7f80b3763dc71b	-0.0076910982351010805
42	0x3f6fb1997cc74e50	0.0038688657570931442
43	0xbf3280e205b0e55c	-0.0002823402225576499
44	0x3f77d4dfd13f8d69	0.0058182471147774995
45	0x3f4e277a201472a0	0.000920233375072483
46	0xbf8d3800e6ce1747	-0.01426697449074833
47	0x3f576ba31bf408a1	0.0014294712889868849
48	0x3f8ad842d60e4e50	0.013107797772853008
49	0xbf43232c0ba75e6b	-0.0005840268198040293
50	0xbf601566e057d20e	-0.0019633302024380022
51	0x3f3c16af96ab4689	0.0004285982783303962
52	0x3f78b5264f7ae4bb	0.006032132768887861
53	0x3f601861843135dd	0.0019647507302013993
54	0xbf8ad5727650c2d6	-0.013102430568410577
55	0xbf8d088f62824ed4	-0.01417648333907754
56	0x3f8fd59f218ee171	0.015544169627774026
57	0x3f91add70e859429	0.017264709721889347
58	0xbf75fd1298de8fcc	-0.005368302006818437
59	0x3f7ed7d9e3238995	0.007530070421326936
60	0xbf6fa1e16c954600	-0.0038613703551753087
61	0x3f7b66c384da2b65	0.0066898000201359486
62	0x3f97d96dedcb1a1f	0.023290364874606447
63	0xbf7711ce2a2a3c43	-0.005632214861761633
64	0x3f7692820353639a	0.005510814536329978
65	0xbf6e52521d31fd4c	-0.0037013629712984494
66	0xbf8fec35b14cdb25	-0.015587253068230897
67	0x3f912bc7f967fbfe	0.01676857433085032
68	0x3f87e221538e833a	0.011661777841995059
69	0xbf73c69113f24cee	-0.004828039847001293
70	0x3f6424ef91a67af8	0.002459018619631489
71	0x3f7cd67354ca1c36	0.0070404534459447745
72	0xbf6cfeabbf793da1	-0.0035394052936578856
73	0x3f82bf79a5c744e6	0.009154272433905718
74	0xbf3bf302f0441f30	-0.000426471917549953
75	0x3f3609309831a228	0.0003362411154684019
76	0x3f77377e5f2a4017	0.005668157233813551
77	0xbf77a43681377cb6	-0.005771840008917886
78	0xbf6809fd1c7168d3	-0.0029344504905966877
79	0x3f66e1acf79d502c	0.002793157412194011
80	0x3f7652d722c982d0	0.005450096487579173
81	0xbf5db6318d7f223c	-0.0018134578622143313
82	0x3f44ef468a0daeb9	0.000638875430110506
83	0xbf7bfa0e104e45ce	-0.006830267845445671
84	0xbf99600958723bfd	-0.024780412696198784
85	0xbedb05a5d080d67c	-6.442561478128152e-06
86	0xbf6fcb27ac800fc2	-0.0038810515288804923
87	0x3f89cf18da0cd6b8	0.01260203757702115
88	0xbf8486a9a4d9a287	-0.01002247366268817
89	0x3f55854e9c887507	0.0013135211648951943
90	0x3f8288710c85ea8f	0.009049304194140432
91	0xbf73295474371dfb	-0.004678087137512939
92	0x3f65e98609f05c99	0.0026748292871264343
93	0x3f62d49005542a39	0.002298623362212451
94	0x3f9265e509cad479	0.01796682235972866
95	0x3f745cf0e95ec616	0.004971448002764519
96	0x3f88e16036e052d8	0.012148620295229604
97	0x3f8ce832569b4b5a	0.014114754932426688
98	0x3f7cf2246c09983c	0.007066862367173295
99	0x3f92a2d6c2480401	0.01819930611418741
100	0xbf87eab2596582f9	-0.011678117135205822
101	0xbf6867754fafedfe	-0.002979020236578255
102	0x3f4aa7b1d3d00f21	0.0008134477899379469
103	0xbf667d41714f289a	-0.0027452734161431238
104	0x3f9140490197dea5	0.016846791002505985
105	0x3f84f2034424811d	0.01022722770409295
106	0x3f7005f0c02239e0	0.003911915237166913
107	0xbf78e9e58b855e1d	-0.006082436237498293
108	0x3f728ac0be00585e	0.004526856326284882
109	0x3f88550dc0ea4183	0.011880977105904083
110	0xbf7bbf3e9706c9ed	-0.006774181835157195
111	0x3f99466c3b837756	0.024682704098146623
112	0xbf5983b8f3d2faad	-0.0015572839904930789
113	0xbf9024186893c7b2	-0.015762692816629183
114	0xbf78bda46faf70f8	-0.006040232018645002
115	0x3f5a47ac46ff563c	0.0016040022273861162
116	0x3f92a2975f6e71ef	0.018198361587211605
117	0xbf7f025900454563	-0.0075705982784069785
118	0x3f5483ce5d3be36f	0.00125212815049577
119	0x3f864e750946ea88	0.01089183268128592
120	0xbf6c4478a322e5e9	-0.0034506183811486746
121	0x3f96802b2a471210	0.021973299460812667
122	0xbf76f6af377d9de4	-0.005606350365133992
123	0xbf956a29272453db	-0.020912783636123904
124	0x3f4be6018fb6ffb2	0.0008513934730487365
125	0x3f3f2126b1f573dc	0.0004749984236321317
126	0x3f97b3d482ca0baa	0.02314693496965573
127	0x3f88eb6738cfbded	0.012167745991944446
128	0xbf913f80cc314a58	-0.016843807661937354
129	0xbf70e6e75660299b	-0.004126456891763298
130	0xbf67518ffb3808e7	-0.0028465091834287584
131	0x3f894933961cdde7	0.0123466520486621
132	0xbf91c33fc092ff90	-0.017346378449246525
133	0x3f90366ec0be8008	0.01583264399926068
134	0xbf702b07c584afb5	-0.003947286946907204
135	0x3f758f4b453c14ff	0.005263608956515896
136	0xbf86c7ae16dc8855	-0.01112304694430947
137	0xbf6186e1ee0161f0	-0.002139512318575003
138	0xbf8b46f3cfbeb279	-0.013318924691554589
139	0x3f832b18de275d51	0.009359545020670853
140	0x3f849beb440314a4	0.010063016903936912
141	0x3f6096e14c4d40be	0.002025070224057484
142	0x3f7d90ba3b77636c	0.007218100995907455
143	0xbf701c0a4afffa17	-0.003932991225154689
144	0xbf8ff632dd99e736	-0.015606305492145017
145	0xbf9643bdaa07ecbf	-0.021742785933366756
146	0x3f749d76138c7826	0.005032979236402146
147	0xbf74bb458d48fcf4	-0.005061408698167503
148	0xbf8f50c7db8334c8	-0.015290795694819073
149	0xbf8006aa89c8e300	-0.0078252147005613
150	0xbf6b710e87f263cd	-0.003349808102552454
151	0x3f5aa855ad2bd2c5	0.0016270481762010053
152	0xbf50338b0b6590f1	-0.0009888513428331603
153	0x3f7512847baac310	0.005144612800606976
154	0x3f733e87388cc540	0.00469830341971661
155	0x3f7b332208a48545	0.006640561050774101
156	0xbf769bbe7a5f08c7	-0.005519622854935408
157	0xbf91031fbffd325c	-0.016613479703027387
158	0xbf58a03574144a50	-0.0015030405050465885
159	0x3f582b29f9428054	0.0014751348399286894
160	0xbf7e07ed40a2a0d4	-0.007331778304582499
161	0x3f6c7e42a5cbf38e	0.0034781743728430963
162	0x3f806cc31efbf8bc	0.00801994741732092
163	0x3f5d01c565395698	0.001770441788626986
164	0x3f8aded4903bbdba	0.013120327617314288
165	0xbf8a2d5068418c47	-0.012781742269174624
166	0x3f67a3a9c291b205	0.0028856578469940186
167	0xbf673519fc5c1184	-0.002832937959171557
168	0xbf59ba87f69cfc76	-0.001570351387684158
169	0xbf787e09b7bec285	-0.005979574165323802
170	0xbf900e16fd5ad870	-0.01567874833445909
171	0x3f90b93f146b1bfe	0.0163316589558029
172	0xbf8a6760ab97558f	-0.012892489658876708
173	0x3f6630b8e01497e7	0.002708779415701013
174	0xbf5426f26f5fcf31	-0.0012299888162460965
175	0x3f87cc5b52a4ed10	0.011620248279192086
176	0xbf70990bae6dcb52	-0.004052205686877768
177	0x3f6d230a396e265b	0.003556747407348832
178	0xbf817afd2b6e2194	-0.00853536404407932
179	0xbf92b12b0d09d147	-0.01825396792487879
180	0x3f93feb511f2ab61	0.019526318760351716
181	0x3f6582bd1433936a	0.0026258175799846366
182	0xbf7e85d269863fdc	-0.007451841280627005
183	0x3f8214d1e8b1f365	0.008828773416320332
184	0x3f567671af806be0	0.0013710127077561848
185	0xbf7d7e6cb54ea8a2	-0.007200646058587308
186	0x3f884ec1e8159ee3	0.01186896790996123
187	0xbf70c3f1b0e12fe5	-0.004093116860598632
188	0x3f6b72abaffc11de	0.0033505776663125117
189	0x3f5bfb04c47be302	0.0017077967221991734
190	0x3f786d75757ae533	0.0059637630690130726
191	0xbf91b7e8f47cd956	-0.01730312340006298
192	0x3f32c4441fad9e11	0.00028635657479589386
193	0xbf91d4310e4373f0	-0.01741100930745526
194	0xbf86b422c6a504f9	-0.011085769354965512
195	0xbf8f8d33d1d37e40	-0.01540604099358156
196	0x3f718636e803fc51	0.004278387525345443
197	0xbf464cc10d936ed9	-0.0006805365220787465
198	0x3f8f91edafb524ba	0.015415055203123241
199	0x3f649c3ac7834135	0.0025159023317443915
200	0x3f6cdc9d135ca038	0.0035231655009688966
201	0xbf642d4c3e3cd9dc	-0.002463005935989344
202	0x3f6fb289f3eda184	0.003869313658857178
203	0xbf79bbaca91905d7	-0.00628249593279536
204	0xbf6052950ef865a4	-0.0019925032900231666
205	0xbf861d3d78fe79ec	-0.01079795861715823
206	0xbf7f8fd94992e084	-0.007705544260879663
207	0x3f8158e5dd541d56	0.008470340554153449
208	0x3f7d77b9a159a3c0	0.007194256895311335
209	0x3f8f0bd7742cece1	0.015159304840941025
210	0x3f59606c7f9eac94	0.001548868136960012
211	0x3f81ff9e2210d670	0.008788333334545956
212	0xbf5ee0e970513e1a	-0.0018846778559867884
213	0x3f65e5f66673bf24	0.0026731312278726205
214	0x3f748dc64384192d	0.0050180191685796184
215	0x3f58fc98c62e7afc	0.0015250675139452654
216	0xbf5e6200410336f1	-0.001854419944766258
217	0x3f77c7245f008af4	0.005805151056878389
218	0xbf62ede8be5ea82e	-0.0023107095502910213
219	0x3f5c21283aa05db7	0.001716889654295046
220	0xbf57cbda1b3fe9c2	-0.0014524106927625712
221	0xbf5de81413074b86	-0.0018253513372783205
222	0xbf8a6bc67e7408ee	-0.012900877698943405
223	0x3f88eb4df0109ad8	0.012167557610223964
224	0xbf7603cb7e525bc2	-0.00537471284510266
225	0xbf69dda30a057f87	-0.0031574425085380583
226	0xbf8b59c4dc6975f1	-0.013354814506949505
227	0x3f7b0e3408bb13bb	0.00660534215757463
228	0xbf9653f30a4113dc	-0.021804616452090517
229	0xbf855b14c7af7b88	-0.010427629798810192
230	0x3f43b9b17e67e3ce	0.0006019703549205947
231	0x3f7fff8f904d3e29	0.007812081142062812
232	0x3f767c4d2a4bc265	0.005489636828074217
233	0xbf83b1b61a3cd901	-0.009616301227293624
234	0xbf56a617f768433c	-0.001382373242112502
235	0xbf8347c51ff62e8a	-0.009414234197513655
236	0x3f69043d1292d2c7	0.003053778917627123
237	0x3f5bb11b040a79bf	0.0016901744676612732
238	0xbf741a4a52fb7af6	-0.004907884911260698
239	0xbf4e05e4b745cdc0	-0.0009162298943423061
240	0x3f7e5d1eb8636415	0.007413024903336858
241	0x3f81f19b538734e8	0.008761609541489482
242	0xbf66dbd1c2211409	-0.0027903649179585916
243	0x3f7dfba455544ad6	0.007320062567731175
244	0x3f8e5eb0b5c27019	0.014829044863567774
245	0xbf803c92548aeea1	-0.007928031163252415
246	0xbf5ede1586180ae7	-0.0018840036576654397
247	0xbf62b46b25d87367	-0.0022832958918698634
248	0xbf8f1014c396cf15	-0.015167391032128866
249	0x3f82720eddc82560	0.009006611006969478
250	0xbf520efa2b32d7c9	-0.0011022036604066857
251	0x3f9637eec7fcc369	0.021697741466769758
252	0xbf9bd96d44e5026a	-0.027196605043402412
253	0xbf8ef0c0ddb3caae	-0.015107638135736092
254	0x3f97576211dc8a0a	0.02279427751558142
255	0xbf59087a13ae81bb	-0.0015278999478384031

b1 f8 [1, 50]
0	0x3f6b499916128271	0.0033309926953538006
1	0x3f6b4a3d1de74ff8	0.0033312982261381983
2	0x3f6b8a1be1318d1e	0.0033617538952498546
3	0x3f6b887f52c50f0c	0.003360985449178849
4	0x3f6b348d3c9b5230	0.0033209570436645505
5	0x3f6ad94481b402bb	0.003277429391914969
6	0x3f6b0947486f8e78	0.0033003227467689987
7	0x3f6b3dfd1a077e54	0.0033254569427610212
8	0x3f6b3a6e579b166a	0.0033237605210583625
9	0x3f6b61f59a08572c	0.003342609110641789
10	0x3f6b20980042f8c3	0.003311440350528634
11	0x3f6b46497609efb0	0.003329413870515517
12	0x3f6b1ba3732f824d	0.0033090774900162213
13	0x3f6b0f2af186ad04	0.0033031309833028173
14	0x3f6b4c79e2fc810d	0.0033323650931295135
15	0x3f6b38c6495920a9	0.0033229706557769867
16	0x3f6b55681757c51c	0.003336623480884383
17	0x3f6b4ca3347a3c0e	0.003332442054506674
18	0x3f6ae9ffd29d0d71	0.0032854076897891817
19	0x3f6b4e78c14ef773	0.0033333166597619367
20	0x3f6b5277a0dbfe19	0.003335221909651198
21	0x3f6b5a93647ce802	0.0033390883217210296
22	0x3f6b44d44177be3f	0.0033287187213699994
23	0x3f6b4fca5bfab7df	0.0033339454965561756
24	0x3f6b522513011e34	0.0033350681406181474
25	0x3f6b5ef079f5a515	0.003341169052579427
26	0x3f6bacd8570555d1	0.00337831739322312
27	0x3f6b5ea06602c8f5	0.0033410198958218015
28	0x3f6b3b7bdf292e83	0.0033242625588963417
29	0x3f6ad8bc322396bc	0.003277175493269306
30	0x3f6b813612b00a0e	0.003357511149716836
31	0x3f6b419ed1cb7087	0.003327188677174023
32	0x3f6b7b7eb618600b	0.003354785426164857
33	0x3f6bd3d1396501fc	0.0033969007883174456
34	0x3f6b6a30ea1164bb	0.0033465342863051284
35	0x3f6b27027739610e	0.003314499679429989
36	0x3f6b570dfd4893b8	0.0033374093275306514
37	0x3f6b2d4986eeb9b3	0.0033174930644783384
38	0x3f6afb97f49c3487	0.0032937972908997945
39	0x3f6b3d6bba35596e	0.003325186162025754
40	0x3f6aa77f34076505	0.0032536968649138375
41	0x3f6b5651b6ef12f3	0.0033370586383817346
42	0x3f6af08008b6d147	0.003288507524951498
43	0x3f6b3995fa690130	0.0033233575116186284
44	0x3f6b14a77e6bc393	0.0033057471622374795
45	0x3f6b3e3d9632ee2f	0.003325577055503868
46	0x3f6b7df497757e7d	0.0033559586697007857
47	0x3f6bb2e862ef2adf	0.0033812083051761722
48	0x3f6b3a60ac919156	0.0033237350622121005
49	0x3f6b0968b51382f7	0.003300385004522229

W2 f8 [50, 10]
0	0xbf751d0dcb2e2368	-0.005154661065611112
1	0xbf8f7bdaca5e4c07	-0.015372952748100145
2	0x3f90e0d190338b55	0.016482614923812495
3	0x3f7d692ef26fdd1d	0.007180388819498587
4	0x3f79898421b84800	0.006234661235355432
5	0x3f81470d078f0870	0.008436300080465226
6	0xbf8c033d55c7f7b6	-0.013678054027874125
7	0xbf69d116ff9f6213	-0.003151459616656868
8	0xbf8200957e5d8589	-0.008790176314223757
9	0x3f8930940f8a5f75	0.012299687122591977
10	0xbf8cb49809c07c31	-0.014016330525974481
11	0xbf91c2899e80544a	-0.017343664454603926
12	0xbf7e1ab62dfed632	-0.007349692954382857
13	0xbf3b3bd14514048a	-0.0004155527031600234
14	0x3f92fffe438926cf	0.018554661628775556
15	0xbf9cf710149f7148	-0.028286219843594723
16	0xbf8a5e7d74a0c95d	-0.01287553798838264
17	0xbf85d31715f2e2f4	-0.010656528813670609
18	0x3f5cec62921eb5a8	0.0017653429608615965
19	0xbf32c7138e00115f	-0.0002865240803660209
20	0x3f80a4e5b58cfcf2	0.008127016642559746
21	0xbf840cc32e0b92c9	-0.009789967386902092
22	0xbf93923ea4c8a15a	-0.019112566764449702
23	0x3f7cc49524de876b	0.007023413270788352
24	0x3f65746e53a5fb1f	0.002618995172439922
25	0xbf684ed05d1fcaf1	-0.002967268906098546
26	0xbf5d4d0777d8cbe9	-0.0017883847170991846
27	0x3f945bb4cbe8f7e5	0.0198810815293128
28	0x3f8578f4409a1e9d	0.010484607907769667
29	0xbf71feb9bc292d37	-0.004393315818173086
30	0x3f6eab13961c3064	0.003743685011505392
31	0xbf90c88a475ec467	-0.01638999996766124
32	0xbf522fec61361f14	-0.0011100586314984383
33	0x3f7b8b7f28005359	0.0067248312989434894
34	0x3f7cb184a5856594	0.0070052320009720455
35	0x3f820f95dfbd9ae1	0.008818789377710913
36	0x3f8f524bba9a7b06	0.015293685562310266
37	0xbf814649251d0dd7	-0.008434840626825242
38	0xbf88540c2a87d9ad	-0.011879057929928683
39	0xbf93e05417903e41	-0.019410432756613586
40	0x3f70ccfdbd645f3b	0.004101744815009851
41	0xbf8000228a8836a8	-0.00781275735155458
42	0xbf6dc43493c428a5	-0.0036335970781965093
43	0xbf85890c6df5a050	-0.010515305619904464
44	0xbf804aa05ef7dd9c	-0.007954838655662759
45	0x3f3ce4d8bf30965e	0.00044088641806392336
46	0xbf83b0ff81a752ad	-0.009614940780843762
47	0xbf8276c176fcf699	-0.00901557106373767
48	0xbf7d357c4ce91aa0	-0.007131085918962526
49	0xbf63927305427f1d	-0.002389168405059551
50	0x3f5ba90388d937ef	0.001688245250437866
51	0x3f84a4732d38a5fa	0.010079288308662438
52	0x3f7451ff5102b7cd	0.004961011247514646
53	0xbf821597fca916f7	-0.008830249212347747
54	0xbf900aef64df6855	-0.015666714221744666
55	0xbf58c9194ec9e9bd	-0.0015127894540954833
56	0x3f7c930cba7aba07	0.006976175041627736
57	0x3f81b48bb67b9171	0.008645144945554436
58	0x3f3efe41a01b832d	0.0004729185312566827
59	0x3f7ba1d3be0600ad	0.006746127241399486
60	0xbf6ee241fec2577d	-0.003769997498305365
61	0x3f794628f69307b9	0.0061704254268892195
62	0x3f52aec1e39a0589	0.0011402982185305408
63	0xbf8203b25450acfa	-0.008796113203138212
64	0xbf75a8fa52051145	-0.005288102926275966
65	0xbf52197e0b5a80b1	-0.0011047106649258282
66	0xbf7cee5ac530e944	-0.0070632501329391285
67	0x3f8e6ae2587b7480	0.014852302861465327
68	0x3f8068ff08851a39	0.008012764403827354
69	0x3f74db2b4511b273	0.005091828367863915
70	0x3f1c162b9ded3c0a	0.00010714188782155756
71	0xbf65f58b5cdd78bb	-0.002680561249618211
72	0xbf69e9b1236a252a	-0.0031631908162280857
73	0x3f6449b383711d0d	0.0024765497323958664
74	0x3f72fea190ec36bb	0.004637366407008232
75	0xbf5f8f55a57e68be	-0.001926263465043251
76	0xbf495da31a3ce47c	-0.0007741018675694457
77	0x3f4243ac39aaccf7	0.0005573836272873268
78	0xbf89b1256bd9d21f	-0.012544910768363114
79	0x3f953f6429b478a7	0.02074963097140228
80	0xbf5858170fe5eea2	-0.0014858460632173683
81	0x3f64a587f2df68c2	0.002520337605330076
82	0x3f7be6e95f86b5f6	0.006812011350502347
83	0xbf408cba8789f87a	-0.0005050574100804583
84	0x3f7b4ae9a23cb421	0.006663239127914473
85	0x3f9294311b06ba2b	0.018143431925347436
86	0x3f45d15e5cb1da6a	0.0006658278229128682
87	0xbf664e50865a9806	-0.0027228901625049344
88	0xbf85c4b3b0def365	-0.010629085383578827
89	0xbf870f4451f01764	-0.011259588003678274
90	0xbf643cb0b8dbf8f6	-0.0024703456500666477
91	0xbf970fc89df801b4	-0.022521147386216092
92	0xbf7d1aee529db4bc	-0.007105761478539193
93	0xbf9862c9f54f68da	-0.023814349744363784
94	0xbf7792a795bc8fde	-0.005755095127629032
95	0x3f746ca98185aae8	0.004986440785027503
96	0xbf815ad0ee4a6645	-0.008473999282887177
97	0x3f6e3ea39edd7eb4	0.003691978045864486
98	0xbf85b6359ba10ab4	-0.010601443111345567
99	0xbf8550b9928a2994	-0.010407876762901926
100	0x3f94a5b2ddadd46c	0.020163340358938006
101	0xbf7811e3b6569fe9	-0.00587643575764927
102	0x3f900710a84a836b	0.015651951095267885
103	0x3f7cff3d6d59f643	0.007079353284664305
104	0xbf5b85762ef7b165	-0.001679768956701266
105	0x3f817d41b4fa2235	0.008539689383966745
106	0xbf87c3d3f5668d98	-0.011603980948001788
107	0xbf7f612f4aa1633a	-0.007661041958350984
108	0x3f877d4afa5cc712	0.011469445958570943
109	0x3f7f915d3d1cf283	0.007706989492188956
110	0x3f4cf34b568c41ed	0.0008834951268870663
111	0xbf785d52d5643821	-0.005948375290485004
112	0xbf4efcc3420b7673	-0.0009456590088025698
113	0x3f7f6bc8d5ec44fa	0.0076711506979034675
114	0xbf875d9e26b7db69	-0.011409030491433563
115	0xbf77b628f115a9f2	-0.005788955620440893
116	0xbf934be8d369b8fe	-0.018844259170173842
117	0xbf582a9367edbdc1	-0.0014749946128310573
118	0xbf7db7d780fb03b9	-0.007255403339230187
119	0xbf754ea83e4439c2	-0.0052019664765467506
120	0xbf726f155b17e6bd	-0.00450046865580028
121	0xbf84355307853cae	-0.009867333094602717
122	0x3f6c565bdf5c3281	0.003459147871473001
123	0xbf8685556d016f2d	-0.01099650133999538
124	0x3f67308b6c233e63	0.0028307650655746016
125	0xbf76edf4b822586c	-0.005598026213325818
126	0xbf61b94cd56b5b94	-0.0021635533006291816
127	0xbf73cb3fd82ece8e	-0.004832505600393623
128	0x3f8d46f8c1e15b1d	0.014295524040944191
129	0x3f759ff368a46c3c	0.005279494109596657
130	0xbf8410a68ccab180	-0.00979738347208392
131	0x3f7e9a4565b0f4d3	0.007471343119559398
132	0xbf7279293f140dfc	-0.004510079497098026
133	0xbf90f714315b6e23	-0.016567531120797462
134	0x3f6aa07090070a72	0.003250331734507222
135	0xbf43d3fe32af5137	-0.0006051055146323651
136	0x3f8c238e82b563d5	0.013739693988712812
137	0xbf6c8b184711bbbe	-0.003484294335570819
138	0x3f896182f5f72d01	0.01239301980139951
139	0x3f97f81f8387e97b	0.023407452013978407
140	0xbf918c6cfdeba68f	-0.017137244222715394
141	0xbf64a9d9a1c7102f	-0.002522397100820604
142	0x3f5bd1dceeb8fe3c	0.0016979844612165082
143	0xbf546e67a6107654	-0.0012470256990647815
144	0xbe861d471e89f000	-1.6476486954300745e-07
145	0x3f8484f8df2bb329	0.010019249258641576
146	0x3f18f2b324d5e4ae	9.516924293064235e-05
147	0x3f8953d3e8a85ac7	0.012366920030257756
148	0x3f763cb23eade5d9	0.005428978222761193
149	0x3f8e996b90617cf2	0.01494106325497888
150	0xbf840182ca494d89	-0.009768506811417737
151	0xbf3de3c8e8e0e5f6	-0.00045608191510701447
152	0xbf6c8d4f18b19ecb	-0.0034853501179446847
153	0x3f7ff7c30bfb04f2	0.0078046435371004075
154	0x3f6c05b7491c2c85	0.0034206943317989813
155	0xbf8950b876733fe4	-0.012360993494809187
156	0xbf82996a1ba67170	-0.0090816774070894
157	0x3f845e6dc4eb45f2	0.009945733615867678
158	0x3f85b5d327540873	0.010600709569647848
159	0xbf88ef2fdbd72058	-0.012174962898726147
160	0x3f83bad45762211c	0.009633692661978936
161	0x3f913ead3a2eb565	0.01684065501801992
162	0xbf8e871ce2b4e752	-0.014906144779718442
163	0x3f6ea807ed7923d5	0.003742232783939129
164	0x3f7cb9096ceb1190	0.00701240236111679
165	0x3f66ff76c02b35db	0.0028073615406813807
166	0x3f250c60ffb9b11b	0.00016058620518622714
167	0x3f908438f7a70543	0.016129388919357678
168	0x3f90c4183603bb41	0.016373041435993278
169	0xbf72a2f1010e635c	-0.004549924299589527
170	0x3f4049ac45d53908	0.0004970637489039318
171	0xbf7451071ae6f33a	-0.004960086588138785
172	0x3f4839114214cd7c	0.0007392248409473913
173	0x3f83a86791bc86fc	0.00959854997160247
174	0xbf77f1c60948c3b7	-0.005845807627836422
175	0x3f708d7d5a569754	0.004041185054495095
176	0xbf8289d60fa6398f	-0.009051964142398087
177	0xbf64760e17bb85e6	-0.0024976992843768085
178	0xbf72e61901385613	-0.004613969492785158
179	0xbf6e75ab6892bc1a	-0.003718218595700329
180	0xbf95f80ae691fdd9	-0.021454019854443594
181	0x3f6e1fadc9da0751	0.0036772150331793392
182	0x3f869a43fd082d23	0.011036425742551764
183	0xbf876db14b97aca5	-0.011439690703772884
184	0xbf77268ceadd5569	-0.005651998957394746
185	0xbf671500256c9a8c	-0.0028176310401194
186	0x3f9060d6fa06dbbf	0.015994414339470128
187	0xbf7a6967e996fab4	-0.006448179157301826
188	0x3f5fbe0e11a0cb5d	0.001937402476426007
189	0x3f830e821055becd	0.009305015681746376
190	0xbf7456650d8b8ccd	-0.004965204942638479
191	0x3f83685cfe715908	0.009476400866486503
192	0xbf77fec965bbf731	-0.005858217915145223
193	0x3f86e20e4426212b	0.011173354582539282
194	0xbf75f9bc2fd3c913	-0.005365119080339892
195	0x3f741856ff11b0f2	0.004906024770303429
196	0xbf7924941d9ba35f	-0.006138399674207345
197	0xbf800f5251a45cf4	-0.007841723553197323
198	0xbf7f1f6262c6cc99	-0.007598289794645962
199	0xbf6e2f99301ed243	-0.0036848060562653397
200	0xbf8a851b9addf044	-0.01294919554106156
201	0xbf82f4f6fa997beb	-0.009256295702639824
202	0xbf77194442ae73cc	-0.005639330522993324
203	0x3f1a55b804728804	0.00010045943882855407
204	0x3f50c7ca63d70b60	0.0010241962876171504
205	0x3f4d8ff306c4759c	0.000902169862033442
206	0x3f7c5a45266d349c	0.006922025792687549
207	0xbf7ab6dbdeeb1a15	-0.006522044058050476
208	0x3f849fcd6d2acbc4	0.010070423978822414
209	0x3f62d069f40b3432	0.0022966451072990108
210	0xbf74d96bf97b50e0	-0.005090162063158682
211	0xbf5ef647b80a7413	-0.0018897724513984345
212	0xbf8642d69944d5f6	-0.01086967139472515
213	0xbf815afbb399e7d5	-0.008474317949765645
214	0x3f3ebaa548a69b23	0.0004688886189349475
215	0x3f83c0c8e419c6bd	0.009645051442223157
216	0xbf7aaaf16b34a1ef	-0.0065106802387977355
217	0xbf8220ac0de5ac82	-0.008851379560573362
218	0x3f882f397d0d0a00	0.011808823708297389
219	0xbf812faf086ea806	-0.008391730732757462
220	0x3f75209193df4f69	0.0051580130220435306
221	0xbf62bf8f720aa555	-0.0022886087102348776
222	0x3f7362aca01671b4	0.004732775037521387
223	0x3f8700e8c331c534	0.011232202965603656
224	0x3f6538f18093c4b1	0.0025906292763627427
225	0xbf6bf5c54a7dca0e	-0.003413091024350174
226	0xbf61d536a5ed66f5	-0.002176863417315706
227	0x3f5cd247ca8c898a	0.0017591191373829995
228	0xbf67a11780a40d55	-0.0028844317467943506
229	0xbf8e5f34dc2c42d1	-0.014830029458182821
230	0xbf76ba098259b707	-0.005548512597312933
231	0x3f822dab153a3631	0.008876167855556978
232	0xbf844605ac3f01e1	-0.009899181670221803
233	0x3f74982e0f9e8d1e	0.005027942586738802
234	0x3f618b25ba3afb8e	0.0021415459503652595
235	0x3f64ea8720153529	0.002553237835548079
236	0xbf83608bd72aa569	-0.009461491111624825
237	0x3ef5058ada19fc28	2.004780765796021e-05
238	0xbf8712ce932144fa	-0.011266340127038966
239	0x3f8cc581e76a5999	0.014048590540636495
240	0x3f6fcf89a8f1759b	0.0038831413908570595
241	0x3f638fe54318f28c	0.00238795068506043
242	0xbf7c07428f5d27f0	-0.006842861175593726
243	0xbf51e62be5b7e61c	-0.0010924748120245747
244	0x3f772b1975a6e386	0.00565633721492354
245	0x3f7b86c2815b740d	0.006720313822111923
246	0x3f82757ca332d838	0.009013150911737808
247	0x3f90755a76594e24	0.01607266757339522
248	0xbf80eda94346c779	-0.008265802732100746
249	0x3f71b7db2cb509dd	0.004325729514052826
250	0xbf95714627782eb7	-0.020939918669724302
251	0xbf8232cf8082dd28	-0.008885975941991989
252	0xbf9243f1b1491d4f	-0.017837311216024884
253	0xbf47bedeb3cd3b5c	-0.0007246577657527942
254	0xbf88f94ec6d8e4d5	-0.012194266742073282
255	0xbf4e3c014b03d433	-0.0009226805032357454

b2 f8 [1, 10]
0	0x3f2b2f2b035b2936	0.00020739936888098672
1	0xbf7139cd59ec052b	-0.004205515054082991
2	0xbf762d61da20bbf2	-0.0054143736215754735
3	0x3f6b5e182101f6ad	0.003340766074017085
4	0x3f652ae917a17ec8	0.002583937891401298
5	0x3f71bdb3a20b746c	0.004331304255825601
6	0xbf21e525a274e5a4	-0.0001365288201016615
7	0x3f3c92ba28ead2dd	0.00043599171560097604
8	0xbf400727712e0bce	-0.0004891340816900404
9	0xbf456cdf4e04591f	-0.0006538477282756228
