experiments/exp_h100_lr0.01_run1/model/weights.npz (npz, 637046 bytes, 4 tensors)

W1 f8 [784, 100]
-0.0034436869976325005 0.009524453751199645 0.015645768129179952 0.013858163719280373 -0.009483251883398398 -0.01516634372411165 -0.006574076292748786 0.015258352955902216
0.003468126120878697 0.00551973414189266 -0.0031025354714154293 0.003211529534455371 0.01995781845760543 -0.0049109814617668696 0.0072438621001260865 0.003605056494074597
-0.008463448955419013 0.017271104459429233 0.005524054149406716 -0.013327453778258492 -0.0034044448726026147 -0.008776827871096692 0.00963581454006501 0.009235405000822514
-0.016988914432539446 -0.0006402389349992075 0.02217867459200138 -0.023820221911336703 0.009507384095964704 -0.005362538469179716 -0.026228879521398154 -0.004189655426653119
-0.025223013746105447 -0.00828946733121224 0.01266416266675688 -0.01485629889943484 -0.008826065884901023 0.01538762137687361 0.0001286071309167021 -0.004585530131095215
0.004269226530709646 0.006211409736744446 0.013707787923619874 0.0012077182989612602 -0.014588989408821631 -0.005697678017605037 0.026442547178415352 -0.010087483406175934
-0.005520423927753381 0.009050760857448019 0.006318691157935993 0.001732566928677238 0.015933553630678186 -0.017373608794447305 0.005059772665647483 0.003716603414991087
0.0003879163169189814 0.0048069185841898765 -0.018720814569234363 0.006622387005669307 0.012150529830918832 -0.006873532888073377 -0.010486127808642975 0.0029367536987329307
-0.013849101998786667 0.0001902193819342036 -0.00023155460193665923 0.005763189164673537 0.009761945131882097 -0.015046052601858796 0.004026143670339002 0.012476916176135477
-0.02445075729390646 0.0001304296934545104 -0.01723228094274358 0.002411659803374826 0.007160917925434889 -0.01752712245377476 0.002818009042075004 0.004263067349402858
0.0008411289880563629 0.002008810244750551 0.00844708447250825 5.85229983062718e-05 0.002265748076421251 -0.0063236219895228514 0.020316914655914082 -0.015099421137672047
0.0001266969406705502 0.01885366065397105 -0.00414254189587861 -0.0021418363277473837 -0.009626897973043043 -0.010611861818189348 -0.0029225462853368035 -0.004827116493817131
0.0015727766031139955 -0.0021386584410147094 -0.0019123486110817385 -0.007599341980181355 -0.006403841702620035 -0.0021567095592874876 -0.005168357890938588 -0.016706789795082694
-0.010119604952448374 -0.008914896255347977 -0.030521219041126434 0.010719834931746264 0.005638941380405655 -0.008432880802594937 0.010756769942274088 -0.00782913911572719
0.004178803229466642 -0.010620898567207155 -0.006077530349556354 0.006327721547465665 0.0033643635563544274 -0.0009475164638048291 0.005272897640785943 0.007814395822771372
0.009495831504587816 -0.007098196836865095 -0.019488512626156456 0.004706253965782335 -0.003996640582731133 -0.0023297260537107002 0.0168727251728345 -0.003378660288450168
0.003252266940540809 -0.007500776852291722 -0.012767619660844547 0.01668314045768184 -0.009662173060674998 0.007279231646220161 0.0028839572876599006 0.007472721868904184
0.004999318470000742 -0.005833015122209136 0.003424201173680554 -0.0029547067868506303 0.007673310787320504 0.00402656566848657 -0.0026294091157665527 -0.005582688584528749
0.03001475656262526 0.0021128717974591353 -0.015677527933317847 -0.004121844960043374 -0.0007523180231856934 -0.007398455535460094 0.014991295372438875 -0.001462416016671759
0.0022516983162803954 -0.009143123231949197 0.007052619943584291 -0.02088704702825181 0.010591916489948375 -0.007816895332123147 0.005302121644101756 0.013704342777248588
0.01741472137908464 0.010166488136694003 0.007844530439267684 -0.0075514285793721585 -0.0005307885047501428 0.014488443638728808 -0.010044446304816703 0.003386209856367994
0.025734926771528395 -0.0014741485228228083 0.000646937704148973 0.012793853626492897 -0.0017541000488833901 -0.002800138938247857 0.004371221318891647 0.001831017259699616
0.004186653533531561 0.010996400025211425 -0.00623517658704104 -0.003173354198143799 0.00495364896491571 -0.009446684777072358 -0.007997191078795027 -0.004545655793559939
-0.000547989702955257 -0.0015901970461108634 0.0024553253545268145 -0.0014805096930723533 -0.006925173301303244 -0.009492499051273313 -0.005959050018463567 0.00304438670488319
-0.010757386554336336 -0.00939007897947625 -0.012021033256754904 0.017069248253233214 0.0020910320319841116 -0.0026058289600997503 -0.009919188063491263 -0.013508202350743612
-0.0050784622749689735 -0.004337373748766525 0.0003234683666813979 -0.00777656460794848 -0.007959934426196648 0.00022533196843954245 0.01775665283497014 -0.0021433742284701026
-1.0863590137271955e-05 0.014341066406869336 -0.018122057325834922 0.014268999111802974 -0.0011080956428088107 0.024760612753527294 0.0020065005642424826 -0.01511414491777416
-0.009848103019022449 -0.004328464589837264 0.0096549504127441 -0.006575759749948204 0.019080097497199286 0.008499150397924909 -0.00326597655331238 -0.011092991488555347
-0.0077366523725224895 0.0038144073285568828 0.001652223244327503 -0.004512955885734129 0.0023024154351146972 0.002318241728972162 -0.0018713091325936414 -0.014705270964732344
-0.011311171068245966 -0.010345163815597627 0.013286499623840478 -0.011567863014715945 -0.00586530286865746 0.015993233939396792 -0.0008420215828944829 -0.008457259936490442
-0.014527890730389877 -0.0001542095965032823 -0.016031810653456276 0.008403814719508648 -0.012005302957107422 -0.02109950021685533 0.009355682393331899 -0.0056250100350130955
-0.011537556715340012 0.0023756741062997064 -0.009795682483193338 -0.006455436998933718 -0.005981794293096683 0.010695291837869105 0.00869818978512848 -0.02199082602855372
00000000: b42c 0a61 ef35 6cbf 1f45 fd8a 8e81 833f
00000010: 0115 beb9 7105 903f 35c7 a73f ab61 8c3f
00000020: ca66 9785 f46b 83bf 0b11 5c32 880f 8fbf
00000030: a538 dc2a 6bed 7abf 5dcc 7d77 c53f 8f3f
00000040: 5efe 8f08 3069 6c3f fde3 f359 dc9b 763f
00000050: 8c14 4d0c 7d6a 69bf 1a8d 42ca 104f 6a3f
00000060: f5b7 4c86 d26f 943f b014 508c 891d 74bf
00000070: 1a83 116d bdab 7d3f e2c7 c0f7 5988 6d3f
00000080: 2493 cce3 4855 81bf 9ab4 4633 84af 913f
00000090: 87ca 9bfe 63a0 763f 3abd ee90 6c4b 8bbf
000000a0: 1091 716c a3e3 6bbf 0613 5ae5 95f9 81bf
000000b0: fe27 8f22 f1bb 833f f2ff 8c13 03ea 823f
000000c0: 7979 87bf 8a65 91bf 1d14 cba4 b6fa 44bf
000000d0: 3a43 2aa8 01b6 963f a0e0 5e08 5464 98bf
000000e0: 69f7 197e 9b78 833f b825 9475 07f7 75bf
000000f0: 9740 054f bedb 9abf c3ad 9f10 2c29 71bf
00000100: 5996 95cc 0fd4 99bf ace5 b578 11fa 80bf
00000110: d12a e123 abef 893f ba27 4daf fa6c 8ebf
00000120: d9b9 9f82 6613 82bf 227f 9d94 8b83 8f3f
00000130: be34 b7d7 56db 203f 9880 2adf 46c8 72bf
00000140: 3200 42c5 9b7c 713f c2e7 e69a 2271 793f
00000150: 20dc a826 d412 8c3f d849 32a6 89c9 533f
00000160: 9b00 2403 d5e0 8dbf 1ce3 facb 7256 77bf
00000170: 89bb 6a4d c113 9b3f 00b4 a01a bfa8 84bf
00000180: 4c15 ad83 959c 76bf 2fdf 178f 3489 823f
00000190: c99d 07be a0e1 793f 04c5 fe92 e962 5c3f
000001a0: 86e4 02af e250 903f 6ab4 5726 63ca 91bf
000001b0: 6d85 fc61 8eb9 743f 8bab d343 4872 6e3f
000001c0: 2874 0ee5 276c 393f d76d d161 6bb0 733f
000001d0: 023f 5199 8c2b 93bf 81db c579 1320 7b3f
000001e0: 13e0 0582 60e2 883f 1c66 65ef 6b27 7cbf
000001f0: f395 ff3f c079 85bf 1b79 f5a2 d10e 683f
00000200: d05f 4f01 eb5c 8cbf d0b0 870c b4ee 283f
00000210: 96bb 96e2 ae59 2ebf 6c19 ba4f 249b 773f
00000220: b8b9 b118 12fe 833f 14fc defe 76d0 8ebf
00000230: cf26 4ab6 b77d 703f 5394 7357 7f8d 893f
00000240: e550 c28b 9e09 99bf fef8 1e89 7e18 213f
00000250: ec98 56cc 56a5 91bf 8a9e 81ff 9dc1 633f
00000260: 450b c944 c454 7d3f 4484 ed46 a1f2 91bf
00000270: 5a0f 9e15 cb15 673f 0a92 8a6d 2676 713f
00000280: 44e9 69bf e68f 4b3f 3c29 c3c9 c774 603f
00000290: a1a1 727c b44c 813f 6c5d 0ae9 d2ae 0e3f
000002a0: 545c 743c 9e8f 623f fd3e 325a cce6 79bf
000002b0: 35d7 0210 f5cd 943f 0375 ccff 71ec 8ebf
000002c0: e51b f16e 3e9b 203f 73bc acbf 5f4e 933f
000002d0: 9315 711f c5f7 70bf 6bd7 649f c18b 61bf
000002e0: 3731 a65f 44b7 83bf 5f9c abfb abbb 85bf
000002f0: b61f ee16 06f1 67bf ce4c 9937 99c5 73bf
00000300: e624 c104 b4c4 593f 3995 f781 1785 61bf
00000310: d0b8 8faf f854 5fbf b87d 6ad4 7c20 7fbf
00000320: 3b7b e72a ea3a 7abf 0883 c5a0 f2aa 61bf
00000330: 6384 d981 6a2b 75bf e802 2aaf 951b 91bf
00000340: 90bb 8d62 96b9 84bf e45f e91e f941 82bf
00000350: 9377 7656 f440 9fbf da5a 9ae3 47f4 853f
00000360: faa6 01cd db18 773f 2fd1 101a 4245 81bf
00000370: debb e638 a507 863f 60be a943 b908 80bf
00000380: 98c8 4ff3 ca1d 713f fd96 00e0 68c0 85bf
00000390: e0fa 77a1 c0e4 78bf a146 acd1 18eb 793f
000003a0: 5ae1 48ee 948f 6b3f b536 bb1c 580c 4fbf
000003b0: 57de c1ae 0899 753f 5b73 f973 fe00 803f
000003c0: 5a91 15ee 8c72 833f 1304 66b4 ff12 7dbf
000003d0: db12 82f1 cbf4 93bf 3e50 ea6d dd46 733f
000003e0: bc11 8c09 c85e 70bf b1cd b226 ca15 63bf
000003f0: 8f33 3f6b 1547 913f 5797 2e6e 90ad 6bbf
00000400: f131 b884 7fa4 6a3f 3e2a 6774 22b9 7ebf
00000410: dcf5 20e7 e825 8abf 652a a49a 6215 913f
00000420: 955e 6eea c2c9 83bf a4b4 c4dd d3d0 7d3f
00000430: 1c53 79c7 18a0 673f 3df0 9f80 b79b 7e3f
00000440: c889 4b55 2a7a 743f 88cb fd12 5ce4 77bf
00000450: b7ca c901 120d 6c3f 26f3 9920 7834 68bf
00000460: a12a 23ae 0c6e 7f3f f312 c8fd 287e 703f
00000470: aae5 1e45 458a 65bf 3211 4f8e dfdd 76bf
00000480: d1e3 5537 30bc 9e3f 2fcd a968 034f 613f
00000490: 33dd 0517 c50d 90bf 4c52 d754 11e2 70bf
000004a0: 9399 23a7 e6a6 48bf 4327 0dc9 d74d 7ebf
000004b0: 615e cb9a c1b3 8e3f 517e be3d d1f5 57bf
000004c0: 53ce 1f54 2772 623f 77bc 1d3a a1b9 82bf
000004d0: f117 2440 35e3 7c3f 38de 95ff 6963 95bf
000004e0: 750b 69f7 36b1 853f fd37 76ee 4d02 80bf
000004f0: b629 f970 adb7 753f 25e7 54c0 0511 8c3f
00000500: a621 2b2b 2ad5 913f d788 7ff0 2ad2 843f
00000510: 3a57 830d cb10 803f 5e6f 952c 3fee 7ebf
00000520: 496a 6ea2 9364 41bf bf46 c9fc 1dac 8d3f
00000530: bbbd 15c3 2e92 84bf 6652 e592 65bd 6b3f
00000540: 9209 65b3 415a 9a3f 4466 7aec 0627 58bf
00000550: e949 1424 e832 453f 0a25 53f7 a933 8a3f
00000560: 38e7 0196 3abd 5cbf 55bd 3f25 51f0 66bf
00000570: 6442 bbc9 8ee7 713f 8db0 eccf d7ff 5d3f
00000580: 1c66 1940 0626 713f 8b2b dbd3 4785 863f
00000590: 4503 6b78 0e8a 79bf 0626 fd8f 01ff 69bf
000005a0: a386 cd04 474a 743f ce9a 6291 c858 83bf
000005b0: f873 25d1 d460 80bf 142f 8e2f 779e 72bf
000005c0: 5081 26ed def4 41bf 31da a913 c50d 5abf
000005d0: 96d0 28c3 301d 643f 3b5c a42d b541 58bf
000005e0: 6659 920d 925d 7cbf a438 dca7 cd70 83bf
000005f0: abca 1c4f 8468 78bf 41e7 aeaa 8af0 683f
00000600: c1ca 87fb f707 86bf 625a fd10 1b3b 83bf
00000610: dd78 9dc5 7b9e 88bf e64c 0fdc 997a 913f
00000620: d5fe 2646 3621 613f f700 34c5 d158 65bf
00000630: 903e afe2 8250 84bf 18f3 973a 30aa 8bbf
00000640: 64cd 2856 27cd 74bf 7e77 6ce6 10c4 71bf
00000650: c947 620e e632 353f 5d73 a9aa 51da 7fbf
00000660: 6780 4f50 4c4d 80bf 7b5f d1de e288 2d3f
00000670: b2b9 d9cc cc2e 923f f51a dc46 fb8e 61bf
00000680: 5f3f 9c75 58c8 e6be 247c a859 d95e 8d3f
00000690: 3bea 33ae 968e 92bf e838 41a4 1039 8d3f
000006a0: 8532 fda2 b027 52bf ab72 0598 d85a 993f
000006b0: 45c2 b0c9 ef6f 603f b1df 0731 2af4 8ebf
000006c0: e19b 2703 3e2b 84bf 7d15 af5d b9ba 71bf
000006d0: 794d 2382 f9c5 833f a378 2811 2fef 7abf
000006e0: dc14 05ab bb89 933f 36e2 05a8 0068 813f
000006f0: d324 8dcf 3fc1 6abf f9e4 431d ecb7 86bf
00000700: 5963 bace 77b0 7fbf 2250 5a57 643f 6f3f
00000710: dc78 3433 ed11 5b3f b613 005f 2d7c 72bf
00000720: 4225 dcdf 83dc 623f 8703 208d b4fd 623f
00000730: ebce 9ce1 d6a8 5ebf 618f fa0e cc1d 8ebf
00000740: 3c66 8aae 4f2a 87bf 1bfa 1362 d82f 85bf
00000750: 1bd5 e6ca f335 8b3f d699 a94a e4b0 87bf
00000760: d744 0840 3706 78bf 246f e8c2 8760 903f
00000770: 118c 9d94 6397 4bbf e45c ba36 0a52 81bf
00000780: 91fb 887c ccc0 8dbf 60a4 f058 6a36 24bf
00000790: 021d cf99 a46a 90bf eb32 0eeb 0436 813f
000007a0: 7381 a27c 3c96 88bf 57c7 927d 1b9b 95bf
000007b0: 20fb 496f 1229 833f 47a8 3d22 400a 77bf
000007c0: 9f21 25a6 00a1 87bf 30da f552 2676 633f
000007d0: 9b2e 423f c20f 84bf 9b3f ab2c 0471 7abf
000007e0: 2e95 c3ad 5d80 78bf 018f 51c5 69e7 853f
000007f0: 3dcf 4a45 5bd0 813f fc2c 6b5a c384 96bf

b1 f8 [1, 100]
0.0033513325982050895 0.003386601569720595 0.003414646638512919 0.0033670938257227296 0.003375710991624932 0.003351295905612041 0.003390252796854796 0.0033957764354653674
0.00332453193431511 0.0033578507203655497 0.0033608490632519787 0.0033698862670076607 0.0033725338043978873 0.0033497678975305894 0.0033385702914543883 0.0033983384410007722
0.0033042131529522614 0.0033500365571239735 0.003378372544701265 0.0033275347327096326 0.003380178263429794 0.003369931459411206 0.003358847499701029 0.0033418015238906485
0.0033515798119425717 0.003343498739842038 0.003355480291209769 0.00335464685310092 0.0033786933706285295 0.0033629308597296053 0.0033449199560473303 0.0033808637007726877
0.003364208036930951 0.00337748383301561 0.0033221005841095924 0.003387518989724674 0.0033672629059622373 0.0034269250880143167 0.0033377730063775825 0.0033766044808939384
0.003351323197198011 0.0033730834776067756 0.003370980987579467 0.0033566626903373037 0.003349922355532962 0.0033679012408050052 0.0033806180741695877 0.0033005594344575452
0.0033658648006422267 0.003375192558306309 0.0033748291017212106 0.003386014296551994 0.0033906903385288807 0.0033583344552502886 0.0033123415791448817 0.003343978132236776
0.003370276190154328 0.0033276739385822746 0.0033557683571390946 0.0033415443071230784 0.0033443740191452295 0.003327929695174553 0.0033406433059013267 0.003383281273217912
0.003408115289579821 0.0033762471400726906 0.0033161240765551482 0.0033253819526685383 0.0033964587647612346 0.00330103403902889 0.0032966023947062595 0.003387239783271109
0.0033146768503305875 0.003347812042013989 0.00338555988477973 0.0033853941054088027 0.0033723071932944978 0.003314065345922798 0.0033693999210087765 0.003353063915942674
0.0033681256446100854 0.0033534845196722288 0.0033474387039017658 0.0033206485393135208 0.003339332004351566 0.0034045713860062676 0.0033766796391206085 0.003385466910337539
0.003320799818345844 0.003264166863716253 0.0033706342272508054 0.0033597036114550397 0.003377020273538978 0.003377440021944054 0.003388596448331229 0.003354665475718417
0.0033275437101105156 0.0033480771568736387 0.003326378968382561 0.0033702038841400724
00000000: 13ae 08fd 4074 6b3f 04ac 91df 37be 6b3f
00000010: 6651 7974 08f9 6b3f c43c a6bb 4e95 6b3f
00000020: 10b1 e909 61a7 6b3f 50d5 0a4a 2d74 6b3f
00000030: 15be 671c e0c5 6b3f aee6 8397 75d1 6b3f
00000040: b025 d67d 0c3c 6b3f 1518 ec60 ec81 6b3f
00000050: 2fdc 071a 3688 6b3f 4e71 dbe9 299b 6b3f
00000060: 7419 a04c b7a0 6b3f d3f0 35f2 f870 6b3f
00000070: 6240 f346 7d59 6b3f d2f3 df0e d5d6 6b3f
00000080: fe48 caed 6f11 6b3f 220a 812e 8971 6b3f
00000090: aa76 fbf2 f5ac 6b3f f82a 4e9b 5842 6b3f
000000a0: 8b18 1363 bfb0 6b3f d7c8 0d2d 429b 6b3f
000000b0: c11f 3b85 0384 6b3f 2998 2708 4460 6b3f
000000c0: 16ce d4b5 c574 6b3f a724 bd37 d363 6b3f
000000d0: b8aa 9ec3 f37c 6b3f d221 c250 347b 6b3f
000000e0: 9f43 f630 a2ad 6b3f fcbd f5c1 938c 6b3f
000000f0: c9ed 343a ce66 6b3f a09c dd60 2fb2 6b3f
00000100: 1e9e db6f 418f 6b3f f4d5 60d3 18ab 6b3f
00000110: 89d6 9b2b f336 6b3f 0b75 d068 24c0 6b3f
00000120: 0d4c dc81 a995 6b3f c33f b965 c812 6c3f
00000130: c372 ec3c d157 6b3f fa96 24ba 40a9 6b3f
00000140: 2026 f8f0 3b74 6b3f e7ce 2267 dea1 6b3f
00000150: d45f 1ba3 759d 6b3f 0e87 518f 6e7f 6b3f
00000160: afc4 c1de 4b71 6b3f 1bec ee35 0097 6b3f
00000170: 3dd0 3382 abb1 6b3f 5a42 8b5a c609 6b3f
00000180: 9a7f bae7 ba92 6b3f eee7 fab4 4aa6 6b3f
00000190: 802d e393 87a5 6b3f 77fd 5b95 fcbc 6b3f
000001a0: d1ce ac03 cbc6 6b3f 6545 f014 f082 6b3f
000001b0: 61f1 2dd8 7b22 6b3f 4389 ed96 d464 6b3f
000001c0: 5f85 7c40 fb9b 6b3f 4963 9d57 a342 6b3f
000001d0: a882 196b 8e7d 6b3f ff22 8df0 b95f 6b3f
000001e0: 0cd4 3521 a965 6b3f a77e 88a6 2c43 6b3f
000001f0: eae5 e237 d65d 6b3f 8813 7e4d 41b7 6b3f
00000200: be36 b6f6 55eb 6b3f 252c 98e1 80a8 6b3f
00000210: 3140 aa8e 6a2a 6b3f 342d 78d7 d43d 6b3f
00000220: e7bb 23ea e3d2 6b3f aa17 b327 c50a 6b3f
00000230: 9747 24ef 7901 6b3f 92b4 f882 8ebf 6b3f
00000240: e344 6895 6127 6b3f 52b1 79e7 de6c 6b3f
00000250: fc1c 7b9f 08bc 6b3f b70a f09e afbb 6b3f
00000260: e3b7 6ea3 3da0 6b3f c6a6 e148 1926 6b3f
00000270: 9cda f8ce 249a 6b3f c429 887b e277 6b3f
00000280: fce5 c1af 7897 6b3f 2749 de4a c478 6b3f
00000290: 23a3 4678 166c 6b3f 8271 179c e733 6b3f
000002a0: 2b40 f937 165b 6b3f 293c 5058 e7e3 6b3f
000002b0: 3a9a cf13 69a9 6b3f 92be 2bb5 d6bb 6b3f
000002c0: b534 b9d3 3834 6b3f 4607 b53d 74bd 6a3f
000002d0: eff1 ba78 bb9c 6b3f 74a0 5524 cf85 6b3f
000002e0: 81b9 3ff4 1faa 6b3f e2ca 074e 01ab 6b3f
000002f0: 05fb 98dd 66c2 6b3f 433c 3b50 3e7b 6b3f
00000300: 8361 266d 5d42 6b3f 948f 953c 6d6d 6b3f
00000310: 8309 441c ec3f 6b3f a8cf d26e d49b 6b3f

W2 f8 [100, 10]
0.004310321653408007 0.01544540489155693 -0.008011549765560604 0.015526091397442255 -0.004931452278692831 -0.0035546655977374713 -0.00632332553459275 -0.00045170576869052383
-0.014813977707933676 0.0018549317294781187 0.014260474920973622 0.01057470155363447 0.0021708412362450662 0.014577792731196236 0.010042477091836397 0.010999873182925193
0.002889389992984989 -0.00502966018429824 0.014113812593454175 -0.001500479504455544 0.010658031061095892 -0.018658169351218355 -0.009389802940574912 0.01197777283513627
0.011560944635686502 0.0028766505590045147 0.004941932673535352 -0.010964066529242518 0.00939003232950843 -0.016382470461831975 0.0003017481756531103 -0.0005419540624849938
0.019388806636272286 0.014201163266760622 -0.004412294814880448 -0.0032900639029298565 0.01040721796326839 0.012326067290051576 0.015106689845553719 0.0031612252030769708
-0.0003877904733986638 -0.016721512733100713 -0.008273555891320256 0.006912509869201068 -0.011224090092835847 0.002465479481459668 -0.004777838135973977 -0.0024201524294728024
0.01056599434600125 -0.008826976936067672 -0.013058732554578406 0.01565478605316896 -0.0076245613300506354 -0.010372616006644155 -0.0020015020022930144 -0.011141087290803625
-0.0022671982876306656 -0.010745905558817812 0.008880424721592856 0.0003646295385627724 0.011585715638320112 -0.0052602841341867716 -0.005087307352147014 0.01784681557545475
-0.019253935264615652 -0.010884669423294751 -0.003006665718638747 0.006864159348914331 0.0013707568402258371 -0.011377927779131273 0.014276011116914305 -0.015499117781830572
0.0035485686476899397 0.0016121237569530432 0.011624793334262655 0.001126753363692987 -0.004775057363994818 -0.009596981459548183 0.024495279246827324 -0.004915450550734571
-0.009878115351931064 -0.00606185899930637 -0.016457908838938842 -0.004065502933474429 -0.005624230892013684 0.0005327011568113889 -0.01298244250981508 0.002099870247212623
-0.002397862111241735 -0.0012846845367594046 -0.008298140664669357 0.009539461495105607 -0.0075656715386721585 -0.007208827297343486 -0.018446252054638165 0.0019036599735346958
-0.00663456594825182 0.006541408172420761 0.0033691218880940407 -0.014248439191951966 6.53664827688953e-05 0.018563200320069046 -0.00575612310388655 0.01751185843987862
-0.0005058142460659336 0.020701829564803768 0.0061623391853891036 -0.0009019316647437714 0.010000386235522322 0.003231512479634705 0.001756123558604116 0.0020265898784520156
-0.0021909495148287965 -0.0003141606493982156 -0.014262546087421614 0.006317407668289179 0.0037422352167312788 -0.01977988961478595 0.012283856236128649 0.007992496071340179
-0.00466308726100169 0.0014758032877208358 -0.00453550270034542 0.007223991967892246 0.0063496781964665705 0.0002594449800773031 -0.002307260119887638 -0.0036208349189420608
0.01495686019217191 -0.009027463917509486 -0.00810971404477008 -0.004609287377301427 0.02272556495672352 -0.007077019948920775 -0.007298830698052091 0.0012454111953714387
0.024118608865163062 0.014010098308175742 -0.021739281112530238 -0.014570335960567357 -0.0017457510452565349 0.0007366145124128708 -0.0020490881557450246 -0.009602936455754416
0.010287259183277692 0.012381214173769483 -0.011729618190725308 -0.010840462242603122 -0.012438557835591228 -0.01223973328051953 0.013215943928896301 -0.0102101617570236
0.017868010515336447 0.006620463176962397 0.012004714169769861 -0.00977733846530523 0.007111490775199459 -0.009262331658043405 0.009924545796167358 -0.0078090810081758505
-0.008084747577217753 -0.006046707116299795 0.002453142673060026 -0.0037564099522838105 -0.011742166861927767 0.01572972813327739 -0.012803048107670618 0.009657035550519964
0.005618037491001954 0.005660965166162362 0.0013823332797737013 0.0027824605914213607 0.008790101933613749 0.0041434829485669615 0.03140385419001327 0.01802638536370082
-0.005631960098065764 -0.010541227177128663 0.00494630754028169 -0.002158916675139806 9.34274823326366e-05 0.00238322928609145 0.018607108644837392 0.01160571048627392
0.007095929997202037 0.0006509561923448483 -0.0008341025090469077 0.0010489242483642312 -0.0011662189114874488 -0.01810175224962752 -0.013024712980139692 -0.009569648575137155
0.0019103277594890436 0.010943187762156437 -0.007033270636711807 -0.01677092975081703 -0.012272862322310566 0.005497406825394003 -0.003944527074522057 0.00031476793357889315
-0.0019918109841198274 -0.0232401808130097 -0.003149514296295292 0.001879774715866611 -0.015524258941238614 -0.00021157101428775972 0.026805849088835047 -0.020338780283792803
0.0062224681026979535 0.013146991279499245 0.009519414115445657 0.007684783081626674 0.013279652392524073 -0.00021926426723237216 0.0014503322327028424 0.002687318308575857
0.015266302743701875 0.0032362109807126177 0.004484066927735507 -0.0013367561580782568 0.004597591758336664 0.019281494648517684 0.015554374066692704 -0.0005203433507939386
0.0002072456948609286 0.0024545367912121186 0.006495966270391773 0.010708800819107524 0.014044380901186048 -0.002424350523855329 -0.0006325151857958856 0.0005042304140668044
-0.019233612503748963 0.017218165132369668 -0.00445728702661696 0.003915975564093104 -0.004407251914327607 -0.006769700862546712 -0.0005169103953327689 0.015056324109443837
-0.012041218784216462 0.003126087619838143 0.0022621104552751946 0.0038174319413019635 0.018925622925473402 -0.020665603060701095 -0.0010094672529721628 0.008523123346737752
0.0012370280389574187 -0.008702322884900996 -0.003079511470411243 -0.01644018052487065 0.005116222873764265 -0.015587309288845105 -0.0003881055071599369 0.001564266662415188
00000000: 4807 9628 b3a7 713f 1dcd 0f27 d7a1 8f3f
00000010: 76eb dd01 5c68 80bf 9a34 4bb6 24cc 8f3f
00000020: 6bec 23a4 0033 74bf 652a b28f ac1e 6dbf
00000030: 40f6 f7c5 7ce6 79bf f23b 0281 5d9a 3dbf
00000040: 78e6 3b6e ca56 8ebf 76ad 52c7 2564 5e3f
00000050: 8ebf 498b 9834 8d3f 34db b36a 30a8 853f
00000060: 93d3 a983 95c8 613f d911 3a38 f6da 8d3f
00000070: 922f 7175 2691 843f 4e80 a5fc 1987 863f
00000080: 79ee ce70 7dab 673f c65d 0620 fb99 74bf
00000090: 9e08 16dc b3e7 8c3f 38dc 9899 7795 58bf
000000a0: 51fb c6b6 e0d3 853f a6b6 aa8c 201b 93bf
000000b0: c87f 5d04 f63a 83bf 14bc d874 cd87 883f
000000c0: 5518 f8b8 43ad 873f b98f 5502 c690 673f
000000d0: e4cf 63f3 fd3d 743f f7e4 6419 5474 86bf
000000e0: 8ae5 1bce 143b 833f a9ec 71fb 90c6 90bf
000000f0: 3171 ca8b 7ec6 333f c21a b67c 3dc2 41bf
00000100: 9e20 a5c9 a8da 933f 5bfd 5dde 7f15 8d3f
00000110: 5b30 e25e a012 72bf 0bb8 ac9b c3f3 6abf
00000120: 874d 5b26 6150 853f f849 31bf 683e 893f
00000130: b122 b396 41f0 8e3f 55a7 99db 91e5 693f
00000140: cf80 a466 0b6a 39bf d831 50b9 711f 91bf
00000150: 707d ccdf b9f1 80bf ced8 24bd 4a50 7c3f
00000160: 333a 02df a7fc 86bf bb0e bd37 7c32 643f
00000170: f328 a228 ed91 73bf 0743 2671 6dd3 63bf
00000180: 008d 53c1 9fa3 853f 2a89 1aca e013 82bf
00000190: 2335 fe69 89be 8abf 2438 7fe8 ce07 903f
000001a0: 894f f198 ee3a 7fbf ee15 2ef4 3c3e 85bf
000001b0: 3e38 9134 7465 60bf b072 726c 23d1 86bf
000001c0: fc28 f7cf a892 62bf 3839 8707 f301 86bf
000001d0: aad8 076e e62f 823f 3ef9 7af1 77e5 373f
000001e0: 7e83 236e 40ba 873f 7a1a 2fc5 ce8b 75bf
000001f0: 7a18 3cab 6dd6 74bf fef1 ef84 6f46 923f
00000200: ad90 1fb9 4db7 93bf a348 9b99 b34a 86bf
00000210: 3652 cf5d 6fa1 68bf 4a9e b0be 971d 7c3f
00000220: 8ea2 2bf3 5e75 563f 0234 a99d 4f4d 87bf
00000230: 2974 eac6 bd3c 8d3f cc23 eb5f 00be 8fbf
00000240: 1316 4349 e311 6d3f 66c3 0bb4 bc69 5a3f
00000250: 291e 8c59 bdce 873f c208 4136 f275 523f
00000260: ce27 70b3 028f 73bf 6197 120c 95a7 83bf
00000270: f206 165d 4a15 993f 50a6 c435 3922 74bf
00000280: c2af 0f33 fa3a 84bf a8d0 7ae2 51d4 78bf
00000290: a429 e590 57da 90bf 19cd 4122 fda6 70bf
000002a0: 760e f1fb 6e09 77bf d39c 0506 9f74 413f
000002b0: 0acd 03f0 8996 8abf 5232 3441 bf33 613f
000002c0: 38a4 236b aea4 63bf 2c39 8c84 5b0c 55bf
000002d0: 70cc 2d96 9dfe 80bf 67b8 24d9 6c89 833f
000002e0: 8043 4b7d 2efd 7ebf 62ee c0d7 0087 7dbf
000002f0: acd8 3b05 93e3 92bf f0eb 0e55 8730 5f3f
00000300: e197 55bc d82c 7bbf 75b0 b9e2 29cb 7a3f
00000310: 3554 6b8a 8f99 6b3f 06af c922 492e 8dbf
00000320: 1421 7c9f ab22 113f b59a 2249 3b02 933f
00000330: 2b22 ba87 bb93 77bf 8f74 2aed a0ee 913f
00000340: d1a9 85d2 1393 40bf 71f4 ca43 dc32 953f
00000350: f928 4a54 ae3d 793f 9a2d 6c80 f38d 4dbf
00000360: afa9 a11e 157b 843f ee2b 550d f978 6a3f
00000370: 2fc8 1f50 b7c5 5c3f a2ea 0228 119a 603f
00000380: 1395 6d10 c1f2 61bf 6ec4 00b7 bd96 34bf
00000390: 417d 0688 ae35 8dbf a9f6 4a35 48e0 793f
000003a0: 7867 d53b 09a8 6e3f e354 0eec 2d41 94bf
000003b0: dd6a 6c46 4728 893f e423 eba9 5e5e 803f
000003c0: 51e3 8cf4 9919 73bf d62e cab6 f72d 583f
000003d0: 836d 4dbc d193 72bf fa86 fa93 e796 7d3f
000003e0: 6969 1ac3 1e02 7a3f 9cf4 5cb4 c300 313f
000003f0: 8bd9 43d8 ace6 62bf 174b f4f1 70a9 6dbf
00000400: 0281 02cb b3a1 8e3f 290a 55b2 fd7c 82bf
00000410: e84d d164 d39b 80bf 3daa b128 30e1 72bf
00000420: 03c9 16d9 5e45 973f 2b75 bd13 cbfc 7cbf
00000430: bcd3 5af2 60e5 7dbf 6c17 ab16 a267 543f
00000440: c71c 3471 8cb2 983f 25fe 6090 53b1 8c3f
00000450: 69df aa75 d242 96bf 0bf9 8963 0dd7 8dbf
00000460: f08b 5de9 359a 5cbf 7012 cb9e 2b23 483f
00000470: 2e8d b2d3 3fc9 60bf 122b 2f50 b4aa 83bf
00000480: 90ac 0f8e 7c11 853f 465b b06f 525b 893f
00000490: 589a 30b4 b205 88bf adab 7136 8633 86bf
000004a0: 82f9 e7f8 6279 89bf 0277 3631 2511 89bf
000004b0: 60db aef7 f510 8b3f fd91 aab6 10e9 84bf
000004c0: 5558 3be3 fd4b 923f f153 450d 0f1e 7b3f
000004d0: 6e50 0e76 ed95 883f ed6f 9a27 2406 84bf
000004e0: 0175 e244 f020 7d3f 1db1 721c 21f8 82bf
000004f0: 5e40 fafc 5153 843f c7be ab38 6afc 7fbf
00000500: 3247 8673 bc8e 80bf 480a 0295 6ec4 78bf
00000510: 97ef b3f1 9c18 643f 6258 a73c c3c5 6ebf
00000520: 0ace 3ff5 460c 88bf d12c a12f 741b 903f
00000530: f7df 4a07 7c38 8abf ac24 ed5e 11c7 833f
00000540: e035 aa74 f002 773f 2c16 0ac4 f32f 773f
00000550: b5aa a40e eda5 563f a914 c327 3ecb 663f
00000560: c7c1 aa82 8b00 823f 2c0e 17bc c1f8 703f
00000570: a5cd 6d7d 2a14 a03f fea3 683e 8275 923f
00000580: 7ae6 efc6 8911 77bf 3240 e28f a396 85bf
00000590: 7e88 f151 9442 743f 29e7 7690 93af 61bf
000005a0: 40db b6ec cf7d 183f d1d7 f67a fe85 633f
000005b0: 0129 69ec bd0d 933f 8b14 e217 bcc4 873f
000005c0: 38ee 5c34 9f10 7d3f 35f6 53c7 9d54 453f
000005d0: 9823 ba7f f554 4bbf 1ee4 eed5 812f 513f
000005e0: 339d 6d05 7a1b 53bf e257 a607 4489 92bf
000005f0: 64de 5062 b3ac 8abf 25bf 507d 4099 83bf
00000600: 7cf9 1ad0 7e4c 5f3f 8d6a 6bcc 6169 863f
00000610: 25c3 e535 ebce 7cbf 168d 360b 662c 91bf
00000620: a2cb 6bb2 8322 89bf 742c 72e8 7284 763f
00000630: 5e3a 88ec 2228 70bf 5961 05fb eda0 343f
00000640: 08e5 2b61 2151 60bf 5c15 2e22 46cc 97bf
00000650: 0ef3 d39c 02cd 69bf 6675 6cbb 58cc 5e3f
00000660: a8fa 93c3 2ecb 8fbf 1598 9e2c 25bb 2bbf
00000670: d154 b614 fe72 9b3f ea3e a370 b0d3 94bf
00000680: 4d1b 0610 bb7c 793f fba1 b04c cfec 8a3f
00000690: 4061 6c22 ea7e 833f fbf4 3240 147a 7f3f
000006a0: 913a d3c5 5c32 8b3f 096c c1b6 49bd 2cbf
000006b0: c3af 7f60 22c3 573f 4810 fa07 b703 663f
000006c0: 79ca 1e78 f043 8f3f 4e5b 678a d382 6a3f
000006d0: fe55 ec8c e25d 723f d0b9 d3fe c2e6 55bf
000006e0: aaee e0a3 ecd4 723f 9dc8 bb33 87be 933f
000006f0: 49d9 68bf f8da 8f3f 6122 51d6 f40c 41bf
00000700: 29ba 9cf6 022a 2b3f 24bc d767 891b 643f
00000710: b3fb feaa 839b 7a3f c12a 61ea 7eee 853f
00000720: 6627 4ee5 4cc3 8c3f a714 d946 3bdc 63bf
00000730: 3e84 c304 ecb9 44bf 0d21 ac91 ca85 403f
00000740: 160a c0e2 f9b1 93bf ed07 9080 a3a1 913f
00000750: 7d9b 21e0 cd41 72bf ace9 acaf 320a 703f
00000760: b775 65ad 560d 72bf 19f7 eebc 8bba 7bbf
00000770: c0e4 179f 28f0 40bf 572e 2f9d d9d5 8e3f
00000780: f0b9 0e07 11a9 88bf 2aad ee82 e19b 693f
00000790: 8a70 9c4d fd87 623f 818f f62a bc45 6f3f
000007a0: 22d9 150e 3d61 933f 02fa 3025 5d29 95bf
000007b0: 9a20 a035 038a 50bf 75a8 4540 9274 813f
000007c0: f2fd 2dbe 7844 543f efe0 8401 86d2 81bf
000007d0: 7cc6 b221 343a 69bf c953 c7d6 b1d5 90bf
000007e0: 27f5 bf9e bff4 743f be9b 063d 3dec 8fbf
000007f0: de1e ed75 546f 39bf 8524 118a 02a1 593f

b2 f8 [1, 10]
0.004660507230528056 0.00037695662208447027 -0.0005616012545525658 0.0023791100194383076 -0.0008100503880571314 -0.001955426580046124 0.0035766142627972498 -0.003996601710724276
0.0026596447874800595 -0.0063291529889478995
00000000: a8cb 3462 e516 733f 6127 265d 48b4 383f
00000010: e8ed c682 0d67 42bf 8d2f 44f7 5a7d 633f
00000020: 626b 60f6 318b 4abf 2dbc c0a6 d304 60bf
00000030: 647b 4029 b44c 6d3f 237e 489a bd5e 70bf
00000040: 28d2 32ec adc9 653f 9f24 9511 99ec 79bf
