experiments/exp_h100_lr0.1_run3/model/weights.npz (npz, 637046 bytes, 4 tensors)

W1 f8 [784, 100]
-0.007232326283806515 0.003645019494889311 0.004633940445072039 0.0029054302542335852 -0.009641273573503634 -0.015243696886028796 -0.001107029259738063 0.0014848909134263465
0.006142698417675792 -0.01462335132234146 0.0011723650999708516 0.009764886027729769 -0.012387337214304813 0.011218330415182734 -0.005460259424402511 0.00786584760830564
-0.010961441034381347 0.004007752544787892 -0.006289508645417842 0.01865965813154553 -0.0009603806453272197 -0.010523951797380445 -0.012877363541218996 -0.008500526655226357
-0.01614729067221517 -0.0031237546370787104 -0.00046483412967916244 -0.008639510753204047 0.004844171128379746 0.0037975246667520716 -0.00862649959722737 -0.002728644146166724
-0.0030634617427503052 -0.0030095163744645863 -0.018977379589646265 0.012957274103461945 -0.0027989599071809295 -0.0010869489870654107 0.019238271916790242 0.0049544104504741495
0.011493948168110623 -0.0026619309947566 -0.012418409906272082 0.0001772121791649292 -0.001683206704648337 0.006307971498494958 0.0016524007317000665 -0.0005746160943906286
0.005216266044125008 -0.004496430123036305 0.004809241720766604 -0.0066205641425212455 0.012844165122790336 -0.02992078450813412 -0.019403390294728966 -0.01706385572107513
-0.01619820998778089 -0.0063918271388648225 -0.00238702044031883 -0.010768450214272404 0.004175567312605029 -0.010718408522988896 -0.0094709314444476 0.0023958536814524638
0.014092987113197451 0.0038557559301328945 0.0011398586937120144 -0.008031555381304309 0.0034104728229739723 -0.007664317252707019 -0.015214479266565353 -0.005383472513816264
0.004540103983034872 -0.007305148986382265 -0.007931163283885887 -0.00029363502667900416 -0.002701475187286298 0.0031983411169213185 -0.006074105760045637 0.017072215476791948
0.00014853836344176717 -0.008554200688970885 -0.0013741577142997177 0.00274484721766011 -0.0049475150073707745 0.00686478988277759 0.0013926437939358056 -0.007196613191652473
-0.0003660559962927755 -0.013460680608627816 -0.006366177650046952 -0.0027291031501770627 -0.0013121418560051294 0.006977578814996267 0.004524490450741317 0.010977835991585128
0.019382551485953206 -0.006702043596126637 -0.014072605418267258 0.003037111377244606 -0.01623335224153157 0.0012236540533383429 -0.0148825240267306 -0.0005720745888899439
0.01089701916609042 0.00909826240995452 -0.002788954805631742 -0.005593919732521681 -0.0010804572591287293 0.0013749247080646126 0.018049455366102002 -0.031970412634653285
0.010757428389582949 -0.016635409410038347 0.0018876460898857909 -0.004868615178492922 -0.01378756347617992 0.003208234742032134 -0.006843863901965866 0.01818557626589878
-0.010852982482142884 -0.006841667992968719 0.01050195543545762 -0.004527868643868505 -0.016870347618978692 -0.0036684038539739902 0.007008063950880326 -0.007639181325697011
-0.006373489836010059 0.011886488273453896 -0.0025405802381063586 -0.006164181384646254 -0.004901101812069161 -0.006926180299828262 -0.007794003747981536 0.012305036127551032
-0.021237699205047963 -0.005321524609020494 -0.012601583632317732 -0.009045162180533292 -0.007844790368510064 0.0076401047015234565 0.0006430025751998452 0.01854232590509396
-0.028294614456346602 -0.003983788279878774 -0.014197760883126517 0.002547318607506763 -0.011857114637651881 0.002611652952180119 -0.010773355494418435 -0.003630335937990503
0.008103318554923513 0.0017740992479717325 -0.006488942395848216 0.008528224165840245 0.0066671565634318485 0.011925142974591778 0.014099721805168434 -0.0061170855745541946
0.02039396331262851 -0.017608909611048638 -0.016649373282736583 -0.006397987386398854 0.006215680961185759 -0.012297073592103875 -0.002690613798235963 0.0061783863184477665
0.015634871696513813 0.0037689964466870373 0.001758408876233429 0.018013029634813917 -0.0006090753431244532 -0.00040567287194149534 0.013436162627260429 -0.014218696701780456
-0.001930836889880213 0.006452599321475679 -0.005519911536748813 0.018796143347721405 0.00013755422537984835 0.01811169991603074 0.008390408621205008 0.0006615702781541348
-0.016138598991428683 0.006833439153463602 0.012527245995946417 -0.009251943574204375 0.0017139133408114213 -0.003256427264260092 -0.025469986023004418 0.012213216299956042
0.019896013536627732 0.012786153605578728 -0.004904526842296627 -0.02510895047355206 -0.004238926069086708 0.01699158833932234 0.015543192598556486 -0.014921163711837928
0.004891546924553023 -0.0033145693766706823 0.020860293949817883 0.010871389179342146 -0.003795052980632457 -0.0030951148886417625 -0.002979231722780601 0.0052594528771151595
0.012326745673605335 -0.015465916509512326 0.010079674492350062 0.004935796877461393 -0.006571774791746148 0.006532456459803004 -0.009274635084907305 0.014141802461188024
0.011626096952020215 -0.007257627860867261 -0.0005254455764066003 -0.009133075342117701 -0.002800042148149222 0.0003682017514168803 0.010332201414588463 -0.008847967188591075
-0.005788019780295578 -0.004275191771865912 -2.7791569646388842e-05 -0.006133103730419846 -0.005490687759556873 0.00990988475606938 0.010036477817659394 -0.010639543316352964
0.011756885904026968 0.010057842735114005 0.017725945053638652 0.006705620215409639 -0.006587401541825132 0.007626051821385359 0.01263334070621833 0.003956752282516959
-0.0021150252010254857 -0.0175867812465174 -0.012688411120054376 -0.0057318021364192616 -0.0031064692216702426 -0.006561353844217359 0.014567631696834183 0.0009877157940027025
0.013087842500866965 0.019192955067719817 0.0034393399047499187 0.0019608819457900863 0.00223840823745044 -0.011423165997370428 0.020045161110438022 0.010254350487064962
00000000: dda4 cecd a49f 7dbf 643b c3f0 28dc 6d3f
00000010: 8173 9cea 09fb 723f ae1a 87fd 20cd 673f
00000020: fd17 85d5 cdbe 83bf 0ada c35c 1638 8fbf
00000030: 4eb2 d79d 3723 52bf eba2 527a 1554 583f
00000040: 087e 020d 1629 793f 6dbe 7ffd d8f2 8dbf
00000050: 9bab da70 4135 533f 932b 1bd1 9cff 833f
00000060: eb7b c241 885e 89bf 08d0 fdd1 a2f9 863f
00000070: 63dd 7c3a 7f5d 76bf 322b dd31 f81b 803f
00000080: c0dd 13b6 f372 86bf e8e3 c3e1 6e6a 703f
00000090: 4e27 0a1f 07c3 79bf 53d6 b775 841b 933f
000000a0: 066c 50bb 4178 4fbf d1fd 5ae6 948d 85bf
000000b0: 245a 257a 725f 8abf 3221 dd5f b968 81bf
000000c0: d5b7 6c55 ea88 90bf 1431 3900 fd96 69bf
000000d0: a3c2 9162 9f76 3ebf 928c 1b81 97b1 81bf
000000e0: f071 2949 7bd7 733f cb85 fb87 fc1b 6f3f
000000f0: 7540 312d c5aa 81bf 49be d8ab 615a 66bf
00000100: 17d4 ec7f 8b18 69bf 3c98 f6cc 69a7 68bf
00000110: d823 ce62 ce6e 93bf 4c4c 28e4 5789 8a3f
00000120: fcf9 7328 d8ed 66bf 16fa 8496 fece 51bf
00000130: 344f db92 32b3 933f df23 b16d 134b 743f
00000140: 6623 df9b 238a 873f 984f 2252 79ce 65bf
00000150: 837a 53c3 d26e 89bf 0a96 2607 413a 273f
00000160: 1687 ed6f e193 5bbf 9a65 a434 63d6 793f
00000170: 9efc 8fc6 ab12 5b3f cc15 a5aa 3ad4 42bf
00000180: c26a 11c1 a65d 753f c72b 3c45 d96a 72bf
00000190: 1f4b 8cfe dab2 733f 2639 9227 2a1e 7bbf
000001a0: d7a9 2ca9 0a4e 8a3f 6f7e bbdb 8da3 9ebf
000001b0: 6b52 fd7a 7bde 93bf 770e 10f9 2f79 91bf
000001c0: c4e3 9a78 4396 90bf 3da8 5e08 512e 7abf
000001d0: 48d3 3bd7 f18d 63bf 78c1 fdeb c40d 86bf
000001e0: 6f54 cc50 661a 713f c53c 9270 88f3 85bf
000001f0: dd50 88e6 7e65 83bf 189f a626 78a0 633f
00000200: 9f76 08b6 c8dc 8c3f 2b84 e133 1b96 6f3f
00000210: cb81 f0f3 e9ac 523f cbf7 961d d972 80bf
00000220: 925d a2a7 47f0 6b3f 980c 257f 9e64 7fbf
00000230: ee29 01d7 c428 8fbf 3c0e 2ce6 fa0c 76bf
00000240: 278b 0ae2 a498 723f 209d d2ff 00ec 7dbf
00000250: 8561 63b7 363e 80bf d2e7 27d6 603e 33bf
00000260: 6d3a 9272 6721 66bf 2cc5 f44f 6833 6a3f
00000270: 842e 7859 29e1 78bf 4285 92fc 607b 913f
00000280: 1cd2 8cd3 1e78 233f dcd2 9e61 dd84 81bf
00000290: 0152 519c a283 56bf 0726 09a1 5c7c 663f
000002a0: f534 7372 d843 74bf e8a5 a500 411e 7c3f
000002b0: 8314 32e3 2bd1 563f ac3f cd24 327a 7dbf
000002c0: 124e 5788 66fd 37bf bfb8 f7f7 4591 8bbf
000002d0: d56d ebcc 6b13 7abf 22a2 e018 585b 66bf
000002e0: ba07 fe96 857f 55bf 75fd 0c8d 8594 7c3f
000002f0: f69f 45a8 4588 723f 9a86 8434 8c7b 863f
00000300: 1417 fb02 05d9 933f bed8 fc20 9a73 7bbf
00000310: 39e8 5320 19d2 8cbf 0133 44c1 48e1 683f
00000320: e563 edd3 799f 90bf d553 0189 600c 543f
00000330: 315e d08f ba7a 8ebf 0c47 38d3 e8be 42bf
00000340: fcb6 8927 2d51 863f 156b 021c 1ca2 823f
00000350: 8948 c4b5 dcd8 66bf 1b0d ec64 a6e9 76bf
00000360: 9287 ee25 c4b3 51bf 1c59 f529 da86 563f
00000370: 5836 0872 8e7b 923f 3132 6909 6d5e a0bf
00000380: 4883 fa98 fd07 863f 169b 7c6d df08 91bf
00000390: 1624 3d8e 5ced 5e3f 10b7 7eef 1cf1 73bf
000003a0: 7913 c671 a73c 8cbf fff9 6fe9 2748 6a3f
000003b0: dd0b 32ba 4f08 7cbf dfa6 485d 3d9f 923f
000003c0: 9b52 99a6 163a 86bf 926e 7a44 0206 7cbf
000003d0: 3f5e 1d99 0c82 853f c19c ef7b d08b 72bf
000003e0: cbc2 2edd 7546 91bf 8253 9a52 330d 6ebf
000003f0: 3e0d a3d7 7cb4 7c3f b6b0 641f 434a 7fbf
00000400: 8c48 83a6 161b 7abf 5eaf 3073 f157 883f
00000410: 4911 23a1 fbcf 64bf 0539 42d7 9c3f 79bf
00000420: 898b f47f 2d13 74bf 6ebf fb5d a05e 7cbf
00000430: e55d 3df3 9aec 7fbf a991 f3fd 6133 893f
00000440: 2ca3 1cde 55bf 95bf 9fd3 91e2 05cc 75bf
00000450: 2400 a1ec dbce 89bf b8ed 041e 4586 82bf
00000460: ca22 9df0 ed10 80bf 9d04 4cfd 3a4b 7f3f
00000470: 56a2 0f84 e511 453f dda6 6a6d c2fc 923f
00000480: 9ac4 f86e 43f9 9cbf ff30 0506 4e51 70bf
00000490: fe0b 5b35 b713 8dbf c752 9343 1dde 643f
000004a0: 22c5 bffc 8a48 88bf e166 9480 0865 653f
000004b0: 6038 224c 5710 86bf 80b7 11c4 5dbd 6dbf
000004c0: fbb0 7501 7998 803f 164f fe8f 1c11 5d3f
000004d0: a442 0336 2694 7abf 18f9 14df 3e77 813f
000004e0: 6e24 5b36 054f 7b3f b6a3 9b98 356c 883f
000004f0: 1c84 49a0 50e0 8c3f b52b d5a7 3a0e 79bf
00000500: 55b0 dab5 27e2 943f d937 97eb 1108 92bf
00000510: 3135 fe86 880c 91bf 035b 5ba9 c634 7abf
00000520: 12ea 3527 9d75 793f 4a15 5147 352f 89bf
00000530: cc7a a048 a00a 66bf 5568 e0f2 814e 793f
00000540: 4869 747a 9602 903f eeb8 458f 28e0 6e3f
00000550: 6067 7327 4dcf 5c3f 6ace bbf4 0172 923f
00000560: c17e fa56 4bf5 43bf 99e0 c5b7 0f96 3abf
00000570: bae5 8a38 6b84 8b3f 486c 9b2a b11e 8dbf
00000580: f0c6 f052 84a2 5fbf fc78 f570 0a6e 7a3f
00000590: 0e34 6ff8 0b9c 76bf 23a8 e0d3 4b3f 933f
000005a0: 837d 82cc 8d07 223f 92dc 419b df8b 923f
000005b0: 8974 0695 fd2e 813f dbf2 b55a a7ad 453f
000005c0: 055c 7c0b a386 90bf a3ed ee5a 61fd 7b3f
000005d0: 696d e47e e2a7 893f d7eb 9ad8 aef2 82bf
000005e0: 8e3e ce6f ac14 5c3f c0f1 4113 39ad 6abf
000005f0: 9c57 fed3 cd14 9abf a6c2 b224 3e03 893f
00000600: c0a4 d7dd 9e5f 943f 24e9 9e7c a02f 8a3f
00000610: af83 3de6 c416 74bf 53b0 7b24 29b6 99bf
00000620: fbe5 630d d65c 71bf 3ddf e530 3e66 913f
00000630: 6cff 16ff 1bd5 8f3f bbeb 48b1 fc8e 8ebf
00000640: 4aba 15a1 2809 743f 7c07 57e2 2727 6bbf
00000650: b599 32a1 665c 953f 771e e627 bd43 863f
00000660: 3f67 078e cd16 6fbf d5a7 2b27 ed5a 69bf
00000670: 272a 21da e667 68bf 840c a2a1 ef8a 753f
00000680: ee21 46cc c33e 893f 755f e32c 98ac 8fbf
00000690: d149 6402 a7a4 843f 96bf b1e2 8e37 743f
000006a0: c566 ea5c 01eb 7abf cce6 b7ed c6c1 7a3f
000006b0: efe0 f972 94fe 82bf c64c 9e98 60f6 8c3f
000006c0: c02d 8351 6ccf 873f 8783 f1a4 2cba 7dbf
000006d0: ede1 82c8 c137 41bf f919 409f 5cb4 82bf
000006e0: 0ae5 842e 1df0 66bf 9ee3 0c7b 6621 383f
000006f0: c2e8 5e99 0c29 853f 924a b00d e21e 82bf
00000700: 3ab8 a3ba 2db5 77bf bb38 820d dd82 71bf
00000710: 9a84 af1f 3e24 fdbe 6b3f 1f7f 061f 79bf
00000720: 14ec c145 677d 76bf 4fbf 7937 a24b 843f
00000730: 8c75 f33f 018e 843f bb73 b454 2fca 85bf
00000740: a54e af83 fe13 883f 3ecd eccc 3499 843f
00000750: 3b2d 2f09 c026 923f eaae 6438 5a77 7b3f
00000760: 7f0f 0123 64fb 7abf 322b bab2 7e3c 7f3f
00000770: b224 6149 82df 893f bcb4 6d9a f434 703f
00000780: 2c23 3282 8753 61bf 8ccb 2ee9 4402 92bf
00000790: 4604 64b6 61fc 89bf 33ab 91eb 3a7a 77bf
000007a0: 0ac0 d1f6 bc72 69bf 45b7 da02 14e0 7abf
000007b0: 879e be6d a2d5 8d3f 196a 1cc2 c72e 503f
000007c0: 1aa2 217c cccd 8a3f 695c 5169 51a7 933f
000007d0: 6cb0 248d d12c 6c3f 88f3 827a 4410 603f
000007e0: b329 9945 4856 623f 64fe 0063 0765 87bf
000007f0: 8f47 a6fd b786 943f 1d8c de9f 3b00 853f

b1 f8 [1, 100]
0.4274086664087069 0.42757377851627826 0.42706356400685913 0.4275929765542128 0.4275266489255175 0.4269488011092103 0.4275463029713525 0.42746543668387466
0.42711157920747017 0.42741084865389023 0.4279508845179121 0.4276762931994464 0.4275723758713851 0.42710364513641563 0.42661112245733557 0.4271721455229449
0.42681349636836585 0.42760469083068847 0.42787430639717866 0.4266405974209541 0.4271426308998254 0.42714236091731644 0.4275980501600947 0.4275050030010119
0.42765142753772883 0.4266516090608411 0.42706507287670553 0.4271073695717461 0.4273618761225401 0.4276433904358034 0.42741602965720144 0.4275492649497198
0.4275791587383543 0.42731751662119605 0.42681629801315324 0.4274208683752597 0.4270587585503145 0.42736922452587717 0.42770877112693667 0.42685404738236044
0.42758457496855684 0.42767617771329736 0.42723007302113003 0.42737704551027766 0.42695828109732353 0.4277185810446105 0.4269852303991128 0.42671006525764843
0.42733078110664635 0.4267750434921621 0.42777999665642613 0.4278859708235984 0.42757060310599315 0.42714089635541996 0.42580192208580336 0.4274461431208106
0.425482409716382 0.42612520135760734 0.4277898314419204 0.42694411051736136 0.4273795886167238 0.42797506908078187 0.4277972375042874 0.4271560689450658
0.42767026414226356 0.42667000415778733 0.42761921757895893 0.42774598747282583 0.4267751345081187 0.42740876666351135 0.4268035682949292 0.42718915670064816
0.42752692722043945 0.42718442044558874 0.4277356106642342 0.4272662792492304 0.4280291317348363 0.4274415227676342 0.427063502307948 0.42778595464533925
0.42763501024377204 0.4277658420402299 0.4278163672720188 0.42701194629197525 0.4270697254720768 0.42756550840430163 0.4275216739187132 0.42706401286047085
0.4263587324830422 0.4275347565651546 0.42672121961944554 0.427248200135174 0.427257344470835 0.4272179341344887 0.42698302655003484 0.4277385011670113
0.427081971615248 0.42707800126279927 0.4273830550612406 0.4267353000567305
00000000: d426 10e1 a95a db3f 27b1 d668 5e5d db3f
00000010: 1b40 2e6a 0255 db3f 482d 93ee ae5d db3f
00000020: b66d d3bb 985c db3f 5e26 7510 2153 db3f
00000030: 2169 322b eb5c db3f 0191 aefd 975b db3f
00000040: 8b18 1cce cb55 db3f de23 3b08 b35a db3f
00000050: fc1d 531b 8c63 db3f 773b 2463 0c5f db3f
00000060: 7e99 c286 585d db3f 3840 f786 aa55 db3f
00000070: 561a c4bc 984d db3f f81f b2d6 c956 db3f
00000080: dc2f 198e e950 db3f d3f9 ae10 e05d db3f
00000090: 7d92 31ea 4a62 db3f db68 445d 144e db3f
000000a0: 2c4c 9c0b 4e56 db3f 1112 b8e9 4c56 db3f
000000b0: a557 5136 c45d db3f b001 b1f1 3d5c db3f
000000c0: 412f d717 a45e db3f 0aef ec8c 424e db3f
000000d0: 533c 51be 0855 db3f 323d 0c26 ba55 db3f
000000e0: 8f39 60a0 e559 db3f ef6d 1162 825e db3f
000000f0: 757c 4ac3 c85a db3f 1ed3 9897 f75c db3f
00000100: 0ae0 cef9 745d db3f a157 b991 2b59 db3f
00000110: 2e71 574e f550 db3f a62d d30e dd5a db3f
00000120: dc69 5c42 ee54 db3f 19f4 a972 045a db3f
00000130: 73f6 0c9c 945f db3f ca09 6ba3 9351 db3f
00000140: 92e5 70b1 8b5d db3f 30a4 23e7 0b5f db3f
00000150: 9c94 dfcd bc57 db3f 98c6 6140 255a db3f
00000160: b770 84d3 4853 db3f a599 5ec1 bd5f db3f
00000170: 171c 1cdc b953 db3f c6f5 c9bb 374f db3f
00000180: ee56 5b34 6359 db3f 620f a345 4850 db3f
00000190: 036e e159 bf60 db3f 33b1 c6d6 7b62 db3f
000001a0: 248f 4417 515d db3f a45c 28c5 4656 db3f
000001b0: 84ad 7bb4 5640 db3f 7955 6011 475b db3f
000001c0: 1b54 b092 1a3b db3f 0845 f5a2 a245 db3f
000001d0: 80ae e699 e860 db3f 8214 f963 0d53 db3f
000001e0: 858d 05eb 2f5a db3f 9e23 4d8b f163 db3f
000001f0: 919a 19aa 0761 db3f f10b 9a68 8656 db3f
00000200: ef9c 7d19 f35e db3f 2cae 82b4 8f4e db3f
00000210: 9a22 a9fe 1c5e db3f 8d39 ccb4 3060 db3f
00000220: f355 5da7 4850 db3f 84fb b54c aa5a db3f
00000230: 0524 e9e9 bf50 db3f ee0b 4f30 1157 db3f
00000240: e18d a4e6 995c db3f 4b2b cb52 fd56 db3f
00000250: 63cc c82e 0560 db3f 71c7 03aa 5458 db3f
00000260: 5754 a24c d464 db3f cb52 4fb0 335b db3f
00000270: 3695 ee27 0255 db3f a7f3 3857 d860 db3f
00000280: b8c8 e73b 5f5e db3f f727 7afb 8360 db3f
00000290: 3d1e 88e6 5761 db3f 68d2 14ea 2954 db3f
000002a0: c4e9 0042 1c55 db3f 269f dfb8 3b5d db3f
000002b0: 9ef8 f3dd 835c db3f 1531 224c 0455 db3f
000002c0: 473c 1823 7649 db3f 3871 56bd ba5c db3f
000002d0: 8a95 b184 664f db3f 73bf b6d5 0858 db3f
000002e0: 4198 5e30 2f58 db3f f2d3 d7e3 8957 db3f
000002f0: 1eb0 be9d b053 db3f da26 704e 1160 db3f
00000300: bf1d 339f 4f55 db3f fcf1 10f8 3e55 db3f
00000310: ed90 1675 3e5a db3f c1b6 7293 a14f db3f

W2 f8 [100, 10]
-0.0074925558666216144 0.03092310321065724 0.03247343255831336 0.009248858782926465 0.014021307410104262 0.055599525078708634 0.031286704138345466 -0.022510633436186162
-0.044111567698922084 -0.027444331323558613 -0.001799447816039571 -0.03302960026151265 0.012567809195038384 0.015450604773932008 0.08276912798387824 -0.03088454604948313
-0.01820911441948253 -0.02317630906442842 0.012332427458748636 -0.009846057275370414 -0.02316402180483973 -0.04885665488522575 -0.047474127776601836 0.04302199143480883
0.03244136948634341 -0.03717854827800963 0.010857613764112675 0.016850420398169967 0.014043135997986966 0.07349552123017108 -0.07130405850541208 0.03267019989292829
-0.025386995267971793 0.0049189394251160515 0.004189193826569015 -0.021620156055930366 0.002261893169461183 0.025745569166215804 0.017689846411455542 -0.014596230489012527
0.03912086236952523 -0.008456701508584095 -0.030889757692227623 0.006637299198588666 -0.03164359387523702 0.007868246700175446 0.006021382481279417 0.009617916979324764
-0.002824725869364639 0.00985719342799745 -0.021179781777264938 0.0517172981250183 -0.014689184040770452 -0.05069275027528288 -0.026785707545416173 0.03278853344892333
-0.02538330320538615 0.006797338433799111 0.022461576346488793 0.033889120818755 0.02256061595142723 0.00027338082499506157 0.006993923753417106 -0.07789315390839024
0.004086293616710547 0.03666785297440116 -0.0038763260604850252 0.014604741249626737 0.01618099081882145 -0.004420853217732277 0.007111335750223087 -0.0148355517707762
-0.045884143669238285 -0.006674196981629023 0.05244175193030018 -0.01784183904788941 0.003143114290362999 0.052751574299213094 -0.050076954511881724 0.01341924106240281
-0.05977927554482772 0.01994927398676487 0.02533188052258666 0.04112048584464268 0.0520373850339987 -0.05250170631988042 -0.01353121851382361 0.049188245630759464
-0.02850352222024465 -0.004723406002831939 -0.013429092893736049 -0.016044585667310773 -0.038230450965204006 0.0008846281048558498 0.04652708675936007 0.022351279746464957
-0.04697522097551069 -0.003197760672112206 0.016628804467761625 0.017920916176729786 0.0028858603242737286 -0.02612120239139712 0.005198161857929816 0.01914173584932216
0.0009507155149460636 -0.02149241928253987 0.008013061577798561 -3.370058425843873e-05 0.005613363401646031 0.015720913491567293 -0.04722750654471619 0.03787261174103735
-0.018918995993752602 0.0036633902119699024 0.024341504946885084 -0.030562753401510583 0.0195770867301674 0.02288107931568504 -0.007339037654068504 0.009434153672365879
0.010867981369124431 -0.020364657764378454 0.011491094034901166 0.021328383792438357 -0.037762593538067296 0.01220131959046536 0.047517743638079715 -0.012577528232166773
-0.04933703722478362 -0.015300635677548325 -0.019663557779847757 -0.06841838872654205 -0.03091997865346459 0.04493644464265935 0.002389915309629874 -0.006728173661947628
0.0703691891123744 -0.05002443004029735 0.06237856583399532 0.0008781565684598197 -0.049648718943478054 0.004331429407438464 0.05631200836920632 0.04116630371013384
-0.01820051681090017 0.04748912930931959 -0.029893315157610085 -0.01896321415795833 0.03465436605993901 -0.07043518622029696 0.03160522263986737 -0.07548558522674664
-0.03017373390392065 0.04667161663082116 0.022632997430517398 -8.776892225302352e-05 0.03574822146452845 -0.044491379946630334 0.0119945087832833 -0.03934499533584041
0.017276235277523765 0.03315870859718949 0.00013162046057916578 -0.05156164296880157 0.10860906008392227 -0.03301696434657128 0.03982984653421461 -0.059783820317707674
0.014970932409932924 -0.035676158229602024 -0.02817233636938402 -0.00598199925143613 0.04933870205809971 -0.030213547043850514 0.056262480398046606 0.004908394601625867
0.04835871760458951 -0.05429463266429032 0.01513709976908319 -0.011524666311983789 -0.011746232320563925 0.006567187466308123 -0.019892354741834945 0.002925824322152542
0.01952079762479898 0.0025910755490812457 0.0016221233547132402 -0.03933161459874679 0.020986232458381826 -0.0025266372188457228 0.0484780679220218 -0.08360992309266285
-0.011787389277639223 0.04649444216650852 -0.012462010442452912 -0.021713008556182467 0.0092170931829443 -0.043431191467697736 0.07020656258681232 -0.003090128760818435
-0.017795021971692592 -0.00474538593681611 -0.018653487009349788 -0.016859513466671826 -0.024258190667138267 0.08176699425869186 0.0076385716307249 0.043317206759915655
-0.037318591786800914 -0.014156556849102973 -0.002289468317192587 0.033044419884906674 -0.029338936143086684 -0.03186491580281808 0.007915919522726793 0.047324021293728105
-0.014783148746692152 -0.050080753578511626 -0.011020472202163118 0.025067745877396293 -0.04755606143975882 0.019103630674966284 0.03628888236510451 -0.020152848207100553
-0.00981488533655809 -0.009982710274097924 -0.010262705731649342 0.04681078648629774 -0.028651160350631512 -0.010219885390686393 0.00209156878654733 -0.01870725121086794
-0.053744116118289935 0.0060926752215755995 -0.03222747754590594 0.002218723410099592 0.015553421004824543 0.028895973694245243 -0.005768989213041769 0.030336355571317676
-0.008011328134606768 -0.025741016874706635 0.005233946793575095 -0.004153242862364735 -0.0041112490994368815 0.047285572331408766 -0.022105792181653844 0.010447080855151131
0.031961500635358096 -0.017697958898434514 0.010777871861246303 0.047933053803564586 0.0388351848942696 0.015048865570158642 -0.05529164621231865 -0.025732411005881556
00000000: bac9 91a6 83b0 7ebf d523 ec53 4eaa 9f3f
00000010: 9f54 a795 5ba0 a03f fce2 fbcf 10f1 823f
00000020: 5d40 3006 34b7 8c3f 18ba c57b 8a77 ac3f
00000030: f3cb 2596 cf04 a03f 75c2 ae09 070d 97bf
00000040: 3dc9 4899 ca95 a6bf c028 fbe5 5d1a 9cbf
00000050: dcf1 5361 6e7b 5dbf 1aa7 d879 41e9 a0bf
00000060: 2eeb cccb 26bd 893f 80e0 a811 91a4 8f3f
00000070: 6f27 cf89 5b30 b53f caf5 efcc 32a0 9fbf
00000080: 10e6 aefb 68a5 92bf d213 e5c5 87bb 97bf
00000090: 04c9 ec64 be41 893f 6125 f06f 2b2a 84bf
000000a0: 90e9 6130 4fb8 97bf f416 d94d bd03 a9bf
000000b0: 6bcb 6964 874e a8bf b74d 717c fa06 a63f
000000c0: 986c f6b9 279c a03f 8501 ef11 1109 a3bf
000000d0: 4e57 3c40 843c 863f 9ece 2292 3c41 913f
000000e0: a6cf c1ce a5c2 8c3f ee07 163c 9ad0 b23f
000000f0: 1e52 5a97 fb40 b2bf ef14 3000 26ba a03f
00000100: 94b7 ad69 0cff 99bf b1da 63bf e125 743f
00000110: 001f b527 b028 713f fe4e c71c 9823 96bf
00000120: 8282 13a6 8887 623f b5dc 57e6 0b5d 9a3f
00000130: 1fde 3b7f 491d 923f 58f1 c2e4 a0e4 8dbf
00000140: c9d5 ef50 a607 a43f 6c8d 4a43 bf51 81bf
00000150: 4f26 478c 90a1 9fbf 6806 de6f b62f 7b3f
00000160: 98e3 a4d1 9633 a0bf a36c 0832 3a1d 803f
00000170: 3741 578d e0a9 783f b003 0ef7 8eb2 833f
00000180: c7ac 5427 e123 67bf 1c90 3a1b 0230 843f
00000190: b371 4718 27b0 95bf 293b 2b90 b07a aa3f
000001a0: 39f3 7ae8 5c15 8ebf b33c 2771 66f4 a9bf
000001b0: d791 a167 b66d 9bbf 85a0 b19d a8c9 a03f
000001c0: 58be 86a4 14fe 99bf d440 5ea4 86d7 7b3f
000001d0: 3892 4cdf 2a00 973f 58a7 3633 ea59 a13f
000001e0: 2388 c14e 211a 973f f89f e4b3 91ea 313f
000001f0: f092 aa1c a9a5 7c3f b06b 9e44 cef0 b3bf
00000200: 0e48 2117 cabc 703f a6de adfa 20c6 a23f
00000210: cebd 11b5 3ec1 6fbf befe 4430 17e9 8d3f
00000220: 6dec 88e9 bf91 903f be66 d9bf 991b 72bf
00000230: 2e3b a6a7 c620 7d3f b387 630d 1a62 8ebf
00000240: 7bbe ed60 207e a7bf c2e5 351c 6756 7bbf
00000250: 7c9e f832 a5d9 aa3f c73f d88c 2145 92bf
00000260: 5edb b5a2 96bf 693f e4f2 da1c 4102 ab3f
00000270: fad8 d2c3 afa3 a9bf 1454 000c 8c7b 8b3f
00000280: 8a20 e3a2 639b aebf 8d8c 681d 956d 943f
00000290: cd10 90b9 99f0 993f 51f7 cb8b be0d a53f
000002a0: 72e0 c7e5 a4a4 aa3f 1694 41ef 80e1 aabf
000002b0: 626a ef67 41b6 8bbf 18d8 a9a4 332f a93f
000002c0: 1dec 06ff 0630 9dbf 7c21 eda4 d958 73bf
000002d0: b92c 5956 b680 8bbf b339 e0ea fd6d 90bf
000002e0: 59b9 3611 f192 a3bf 30f2 c563 ccfc 4c3f
000002f0: 18eb 04f8 65d2 a73f 53a6 23fe 40e3 963f
00000300: 95d7 9fdb 220d a8bf 1ea1 3ab0 3032 6abf
00000310: 0645 712d 2407 913f 8ada 9253 dc59 923f
00000320: eda4 d576 16a4 673f 5853 0338 84bf 9abf
00000330: 3fb0 ddf2 aa4a 753f f095 d825 e499 933f
00000340: 88f3 b105 2e27 4f3f 41c2 b8d7 1b02 96bf
00000350: 38ff 56eb 2669 803f 803c 0a42 37ab 01bf
00000360: 3fac b0c3 09fe 763f 91f4 3ca5 2419 903f
00000370: b090 2928 342e a8bf 6908 aff9 0964 a33f
00000380: 08ea 4354 805f 93bf c088 e4a4 af02 6e3f
00000390: 30ab babe faec 983f db3e 57a9 d74b 9fbf
000003a0: 7231 070d 040c 943f 7aa4 6e3d 236e 973f
000003b0: f458 55eb 890f 7ebf 7cef e7ab 3652 833f
000003c0: 2471 6ec4 f341 863f 9f73 5e0c 79da 94bf
000003d0: 1cee 9988 a488 873f 14d2 759b 1bd7 953f
000003e0: ec2a 8460 9e55 a3bf 106c df64 01fd 883f
000003f0: d27e cfe5 3e54 a83f 1696 5f43 3fc2 89bf
00000400: 7a55 b942 b442 a9bf 2da1 be8e f055 8fbf
00000410: 258d 5906 af22 94bf 0888 0616 de83 b1bf
00000420: b447 70a4 7ca9 9fbf 7208 47e0 e801 a73f
00000430: 4ad0 0a03 0494 633f 531f 705d 008f 7bbf
00000440: 5539 e215 b703 b23f 1359 0c56 cd9c a9bf
00000450: e9ef 7458 15f0 af3f c8c4 03df 82c6 4c3f
00000460: c812 4d90 8e6b a9bf 7ae9 653a d5bd 713f
00000470: 3bb9 a274 edd4 ac3f 6eb3 43f0 bf13 a53f
00000480: 1d78 e401 28a3 92bf 201c 99c2 7e50 a83f
00000490: 6542 e26b 5a9c 9ebf 03ba 8ac2 176b 93bf
000004a0: c337 c891 37be a13f cec8 4d55 0a08 b2bf
000004b0: 88f7 3d4b 8f2e a03f c048 def7 0553 b3bf
000004c0: 631e 4301 dde5 9ebf 1a62 2996 57e5 a73f
000004d0: e31c 19bf 1a2d 973f 505b 4c9a 1202 17bf
000004e0: 091f 2944 974d a23f 713d a6fb 92c7 a6bf
000004f0: 6873 a5b7 9390 883f 1919 75f8 0625 a4bf
00000500: 4353 0f86 dcb0 913f ae4a 01a2 2dfa a03f
00000510: 4055 b825 7340 213f 2add 8ea4 4966 aabf
00000520: 4218 1ca9 cdcd bb3f 6cd7 297c 99e7 a0bf
00000530: 1fce 89e0 9364 a43f 9f61 3022 fc9b aebf
00000540: 66f5 ba88 14a9 8e3f d1a5 af39 2544 a2bf
00000550: 8904 6f7d 35d9 9cbf 57d2 64b2 9480 78bf
00000560: 3983 881f ec42 a93f 8848 ccd1 4cf0 9ebf
00000570: d157 9a92 6fce ac3f 9c35 a324 d31a 743f
00000580: 0c2a 2d4d 79c2 a83f 7b6d 488f 81cc abbf
00000590: 8a4c b723 3300 8f3f c01d 4287 3e9a 87bf
000005a0: 7c25 589d 680e 88bf 74d9 4ff6 31e6 7a3f
000005b0: 65f8 3954 a95e 94bf 722b e1f8 e5f7 673f
000005c0: e3b6 8f8d 42fd 933f 3426 d517 e139 653f
000005d0: 1c6e 8cb0 ad93 5a3f 800d cdfc 4523 a4bf
000005e0: c0cd 4c38 6a7d 953f 0c5c 2907 beb2 64bf
000005f0: 5fc1 9808 1ed2 a83f 04d7 4dbd 7567 b5bf
00000600: 7e17 9f9b fc23 88bf db11 1a99 1ece a73f
00000610: 158b 57ba ae85 89bf f016 9656 ef3b 96bf
00000620: 8b89 474e 69e0 823f 86cc f5f5 9c3c a6bf
00000630: 3662 46aa 0ef9 b13f 8309 fb3e 7850 69bf
00000640: 239f 99b5 db38 92bf 3a06 7dd6 e56f 73bf
00000650: 0665 a552 e619 93bf c601 ddcb 9e43 91bf
00000660: 964d 4d9e 23d7 98bf a2b9 3b86 aeee b43f
00000670: 804f 7975 9f49 7f3f dc9b c644 ac2d a63f
00000680: 88a0 8326 6c1b a3bf b2e2 86e5 1cfe 8cbf
00000690: 2fb2 85f1 5cc1 62bf 7d22 71bd 32eb a03f
000006a0: fe9a efac 060b 9ebf 789a 8626 9950 a0bf
000006b0: 9c37 bebb 3836 803f 6a25 8ba7 da3a a83f
000006c0: b20a 31a3 a046 8ebf 53b7 8e3d 2fa4 a9bf
000006d0: 5de2 8ebd e691 86bf 0f53 e9f2 5bab 993f
000006e0: 487d 38a1 4459 a8bf 6f74 eff3 e68f 933f
000006f0: 0edb eed5 7494 a23f 0e0c e2bf f2a2 94bf
00000700: 94ab 469c d319 84bf 84b7 38b1 d071 84bf
00000710: 8422 e30b 9d04 85bf 4b0c 1e5a 95f7 a73f
00000720: 1a2d cbd2 ba56 9dbf 35c8 2ccc 29ee 84bf
00000730: a244 2371 5622 613f c74d 9860 fe27 93bf
00000740: e734 294a 5984 abbf 5329 260d a2f4 783f
00000750: 213a 2fb4 1e80 a0bf 7025 870f 002d 623f
00000760: 2100 74d4 78da 8f3f a2ed 02f8 e796 9d3f
00000770: 520f 0440 39a1 77bf 4a0b 3c5c 7e10 9f3f
00000780: e86e af42 3e68 80bf 9d12 9266 da5b 9abf
00000790: cd25 ebe4 3070 753f fe5c 42a4 fd02 71bf
000007a0: 3a3b d806 f5d6 70bf a5da 7885 d035 a83f
000007b0: 78b6 e399 e6a2 96bf 0a70 e474 4765 853f
000007c0: 137e ebff 415d a03f 02ec b2ea 691f 92bf
000007d0: e7f5 5079 b512 863f eda9 f764 ae8a a83f
000007e0: 1c29 1c92 34e2 a33f 93d1 b98b f0d1 8e3f
000007f0: 72a4 72c8 2f4f acbf 28b6 dede 9859 9abf

b2 f8 [1, 10]
-0.01243413885730802 -0.011140869006217921 0.0026058409441837987 -0.005877801911821818 0.008855899726236403 0.004277613346961802 0.018100610833413168 -0.00261550349341008
0.00381555017916478 -0.005587201761203139
00000000: b4ee f7dd 1177 89bf 45ed 3e20 06d1 86bf
00000010: e079 4834 d858 653f 54fe bc6f 5213 78bf
00000020: 5f52 9bbd 0a23 823f 3bd4 e116 6785 713f
00000030: 7abe 446e f788 923f bcc7 efbe 1b6d 65bf
00000040: dd57 8be7 c941 6f3f 3cc6 720d 9be2 76bf
