experiments/exp_h50_lr0.1_run3/model/weights.npz (npz, 319046 bytes, 4 tensors)

W1 f8 [784, 50]
0	0x3f99dfd936a83b42	0.025267976723678538
1	0x3f53ce2b204635d0	0.0012088223603286992
2	0xbf37215908be9e0a	-0.00035293983159553953
3	0xbfa26b0f4ded71fb	-0.03597305132163694
4	0xbf4c517c39a52acd	-0.0008642059868092189
5	0x3f7096fc00b9420e	0.0040502399311468495
6	0x3f92dc974bdda2f1	0.018419612889746643
7	0xbf50e07a0de2c053	-0.0010300819335889069
8	0x3f7307f950f0466e	0.004646276370310438
9	0xbf91e03ce566bb9a	-0.01745696211008472
10	0x3f658d0226775c40	0.0026307146069757537
11	0xbf7f0ef96d746f24	-0.007582640005491279
12	0x3f866a0d84618434	0.010944467165417839
13	0xbf865f4c5b79f89a	-0.010923954526557634
14	0xbf8809679fcee31e	-0.011736688198526187
15	0xbf8ddb3329c6a39b	-0.014578246796036079
16	0xbf66919dd5e0b741	-0.0027549822543936624
17	0x3f7f6b58a451a282	0.007670732743556232
18	0x3f89cf36fef882a6	0.012602262168969713
19	0x3f64002a03586c68	0.0024414845054372865
20	0xbf85230a92297c6b	-0.010320742211830066
21	0xbf70029cb3b1cc6e	-0.003908741108818876
22	0xbf38e64c6682cdee	-0.00037993779416042775
23	0xbf7fda92f62f0b0d	-0.007776807850805379
24	0xbf8af8ad1c6df5e0	-0.013169624738789076
25	0x3f75e0681bf5c5a7	0.0053409640089382765
26	0xbf84231b46c595fa	-0.009832585427555596
27	0x3f7b03116130206f	0.0065947226421557556
28	0xbf6edc86ab92954e	-0.003767264392609582
29	0xbf8687681d922f28	-0.01100045528644207
30	0xbf7f7e1c5d1a098f	-0.007688628001803712
31	0x3f86cfbeda93d146	0.011138430638745544
32	0xbf664c53c1a03e17	-0.00272194250738501
33	0x3f817993cf82649c	0.008532671709234933
34	0xbf47bac495aa08c4	-0.0007241687665813447
35	0xbf6c8dbedae0437a	-0.0034855582844177087
36	0x3f8dfbfea334f584	0.014640797954252667
37	0xbf702dad9ba1e4d2	-0.003949812084209374
38	0x3f78a80595141396	0.006019613080984329
39	0x3f96be90064638e5	0.02221131361289332
40	0xbf655a7ffd80d976	-0.002606630307151632
41	0x3f850faa28071599	0.010283784243152282
42	0xbf607e899f3e94dd	-0.002013462822974972
43	0xbf80ec4f0d6caf54	-0.008263223263916743
44	0xbf5406467c7dd39c	-0.001222199281952308
45	0x3f91c9eee176b277	0.01737187625046707
46	0x3f58c356b2a301f6	0.0015114161165429275
47	0x3f6df9fcc6a84c03	0.003659242346893078
48	0x3f864cc14d5fcf40	0.010888586210036189
49	0xbf7428c65b23433b	-0.004921698406364079
50	0x3f8214f956090ee5	0.0088290671711841
51	0x3f90a10f7fda813d	0.016239397219238717
52	0x3f321f601e5dde0c	0.0002765283264731528
53	0xbf8078f6fe7e5b4c	-0.008043222085502365
54	0x3f6e25bcb8fcb07a	0.0036801038730996357
55	0xbf83473f7c525924	-0.009413238507744177
56	0xbf616e2dc6652de0	-0.0021277326624493526
57	0xbf86d8f0252b3953	-0.01115596402578648
58	0xbf81032e8b301854	-0.008306850073506102
59	0xbf64096280398fd0	-0.002445881256607031
60	0xbf9416a5919f3e80	-0.019617640507759493
61	0xbf7b94e3445324e7	-0.006733787308982309
62	0x3f77d536e50ec46c	0.005818571503298658
63	0x3f771f05c3dc0a2b	0.0056448197553913655
64	0x3f6cae33997245e1	0.0035010345268993025
65	0x3f535be4eedcb77f	0.0011815772699707847
66	0x3f49543b57708e40	0.000772980666515051
67	0xbf6992bc00ddd1c5	-0.0031217262211901986
68	0xbf71b1288c681e17	-0.0043193420338023735
69	0x3f828678dab119cb	0.00904554765123757
70	0xbf43b021cb8f6da4	-0.0006008305564323868
71	0x3f761d1b437d43b7	0.005398851870112623
72	0xbf793c7a92ae89f3	-0.0061611927039017965
73	0xbf84d272938ee23d	-0.010167021873585752
74	0x3f80fb8b6da27efd	0.008292283328330092
75	0x3f700c9fdbe4d716	0.003918289612831824
76	0xbf4c32718e90d37a	-0.0008605055310285513
77	0xbf78df53dd74ce52	-0.0060723567942662805
78	0x3f937b68f266e215	0.019025459094082892
79	0xbf72ad9df1a4f9f3	-0.00456010529370453
80	0xbf7be9a7462a3bea	-0.0068146261352372926
81	0x3f6c3f7a0445826f	0.0034482367647544125
82	0x3f95c43535e44d94	0.021256286062521904
83	0xbf89895197642bc8	-0.012468945915790189
84	0x3f9fbc5404c88f32	0.030991852561910345
85	0x3f63b386663f948f	0.002404940127223094
86	0x3f927a84550bfe46	0.018045489970061966
87	0x3f957785a348e4ba	0.02096375283347094
88	0xbf897b5b102fcf1e	-0.012442313605766805
89	0xbf85d027e2e80291	-0.01065093194211045
90	0xbf94694a0cb9324a	-0.019932896639419696
91	0xbf83ab7bffde7f46	-0.009604424234396124
92	0x3f7972ff721955a7	0.0062131861064548604
93	0x3f613a9d166cc313	0.0021031444661264802
94	0xbf7182dc5d847b3f	-0.004275189210857288
95	0xbf7a00d54756da93	-0.006348450774956621
96	0x3f8469ee18855c33	0.009967670558280605
97	0xbf86d8d320e96426	-0.011155747835049534
98	0x3f84fac54e147107	0.010243932195003426
99	0x3f8eca148e29ee18	0.015033875072950884
100	0x3f7d0fb4bece4062	0.00709505656858775
101	0xbf866503edb15621	-0.01093485898142449
102	0x3f86e6fd992a9fd1	0.011182767140169777
103	0x3f8705e83851766f	0.011241735666938283
104	0xbf7c05b3cb0cf5cc	-0.006841375653320946
105	0x3f98c4d592dac807	0.024188363159460404
106	0xbf77a2007f62e705	-0.005769731467972998
107	0xbf84259882a14707	-0.009837333189497878
108	0x3f6f027934683937	0.003785359123191469
109	0x3f7276ff31819a29	0.004508015488772923
110	0xbf8448d3b3ce35fb	-0.009904531407097563
111	0xbf80aa64d076cd97	-0.0081375003927409
112	0x3f567186e1d1870c	0.0013698403556862719
113	0xbf89919e44601649	-0.01248477598347643
114	0xbf7421ec8b3e0dd5	-0.004915164947195423
115	0x3f7d3785c136c511	0.00713302848764498
116	0xbf558369a1e4c62f	-0.0013130694929483035
117	0xbf57bc9a7c6baea7	-0.0014487751629372132
118	0xbf6d6d53d8c3af5e	-0.0035921704894600745
119	0x3f775254452a095d	0.005693749599802037
120	0xbf7b009a65b0177c	-0.0065923720494590575
121	0xbf96bd389c3ff361	-0.02220619634316579
122	0x3f801a31b039b1a6	0.007862461271735576
123	0x3f93ebca6ba11aa8	0.019454157656833587
124	0x3f70bb49efe8ca17	0.004084862534500042
125	0x3f81cdbbc9980b0c	0.008693186845453414
126	0xbf630607f7a6d416	-0.002322211800868344
127	0x3f93cc084cc57afc	0.019333009420161126
128	0x3f7580dce28b2ed1	0.005249846298010134
129	0x3f8d885ee125de2f	0.014420262571305546
130	0xbf508077faff7079	-0.0010071918186360925
131	0x3f721bb3d6660ca9	0.004420950403417092
132	0x3f88b57a824342bd	0.012064892864516502
133	0x3f692250ed681c73	0.0030681210148518156
134	0x3f52518c946bfe21	0.0011180756425232046
135	0x3f3c31162d04e41e	0.0004301718845627927
136	0xbf7af5e8c3fef95d	-0.006582173576985842
137	0xbf828595cbe5bc3d	-0.009043855938868467
138	0xbf9931e848d5632a	-0.02460444397488285
139	0x3f5737fde1c623f9	0.0014171580615729414
140	0xbf569a6a220819d3	-0.0013795887426809497
141	0x3f775b7004c8d19d	0.005702436039929285
142	0x3f92f577eb58a6a4	0.018514512767217398
143	0x3f91442965deb97c	0.0168615787912869
144	0xbf726971a8f0ebf4	-0.0044950904694429535
145	0xbf8e2d37a974c8fc	-0.014734682902233669
146	0xbf55190bf0ad797d	-0.0012877098658559954
147	0x3f60f65bed5eabda	0.0020705981687192234
148	0x3f70d9353ba55bd1	0.004113395635008525
149	0xbf6c26c2eba0384d	-0.003436451629574433
150	0xbf583666183f1d2c	-0.0014778134363824897
151	0x3f642ad87dcdd96d	0.0024618366573420565
152	0xbf63f8169322bfcc	-0.0024376336014810592
153	0x3f8534db8e4059c1	0.010354724196116718
154	0x3f8ef981fa5e5994	0.015124335721151273
155	0x3f6ee50f974a045b	0.003771334124679044
156	0xbf82bd9bc2b80e25	-0.009150711898661854
157	0x3f6bbccae9b99b12	0.0033859217781356888
158	0xbf70f213e884a9ed	-0.004137113348671379
159	0xbf92df07a1fa1c05	-0.018428916226664444
160	0x3f7243e6600bfa0f	0.004459285643632529
161	0x3f8662cd806d100c	0.010930638772727284
162	0xbf7cdc3a4bcbb1ec	-0.0070459630194190485
163	0x3f756ac364c65d53	0.0052287705006145045
164	0xbf1ec35dfbdbf7d0	-0.00011735211498017863
165	0x3f9bdbaab804fc62	0.027205150109918093
166	0xbf93f04bfe08127d	-0.01947134721742082
167	0x3f737f26e78de7a0	0.004759933443773706
168	0xbf889e70c3343071	-0.012020951230191397
169	0x3f6eecfdaae72c4c	0.00377511543704182
170	0xbf770485c001ad6b	-0.005619547329938394
171	0xbf8573f79b86d209	-0.010475096162601909
172	0x3f844720162630e7	0.009901285816134876
173	0x3f5210fb5136f0f4	0.0011026815671888986
174	0xbf8451beb7a9660b	-0.009921541194830593
175	0x3f6b7efccb81cf7d	0.003356450786720032
176	0xbf8c8491c3a8d426	-0.013924731048158345
177	0x3f813cffc8494cae	0.008417127895120249
178	0x3f54b876d73c1f11	0.0012646828226383115
179	0xbf463ea8bc4548ca	-0.0006788562682607188
180	0x3f914016e806cdd8	0.016846044456270665
181	0x3f61085b37d37733	0.0020791799166620883
182	0xbf4340f3005dcea0	-0.0005875765352656055
183	0x3f596d811076c70c	0.0015519867318797868
184	0xbf43b9379d45ab7a	-0.0006019136003890667
185	0xbf8ff312b9d7ba8c	-0.01560034398695833
186	0xbf813994004fcc96	-0.008410602817070772
187	0x3f7a28aaa26b721a	0.006386438885524837
188	0xbf8722ea5b02a688	-0.011297064688125205
189	0x3f72f556b407f1fb	0.0046285044522815745
190	0xbf7c109ac11afb64	-0.006851772793821851
191	0x3f83bb4d212c2737	0.009634592604487941
192	0x3f811f73a933a6f2	0.008360770798805348
193	0x3f7b705562830148	0.006698926481647334
194	0x3f569655fd4573fb	0.001378616308179702
195	0xbf90adf2d5b77692	-0.016288561147908505
196	0x3f804e960fca53f8	0.007962391240008401
197	0xbf70dfd759610d78	-0.004119721610610021
198	0xbf7eba440888a366	-0.0075018556167741664
199	0x3f7ad25868506077	0.006548257199959654
200	0x3f66c951704dd774	0.0027815428351755603
201	0x3f7fd3b52059b13c	0.007770259404065446
202	0xbf8e09008a14e6de	-0.014665607656400178
203	0xbf7375ac471d1c35	-0.00475089355479157
204	0x3f822fb0d2c50cff	0.00888002532213372
205	0x3f849f05fedae507	0.010068938102778547
206	0xbf6d47660fd3b464	-0.0035740846056940157
207	0xbf61c0d0a7ba5a83	-0.0021671366974474484
208	0x3f8cac5c25527ad4	0.014000625504477261
209	0x3f5b692df6c68d2c	0.0016730259768358942
210	0xbf28f5cae96b24ef	-0.0001904306597764536
211	0xbf815bced6eb402a	-0.008475891050153523
212	0x3f7f2d641db4d6bd	0.007611647680553166
213	0xbf75b1e0990afbda	-0.005296590171098148
214	0x3f80856956cecc61	0.00806696220556641
215	0xbf489bdf174e2c8f	-0.0007510031997396571
216	0xbf8b5fecb9eed1d2	-0.013366555618497342
217	0xbf929114750c7823	-0.018131560939871016
218	0x3f53bc67f5b07dcf	0.001204587481659181
219	0xbf784060a2d04549	-0.005920770153367735
220	0xbf78a2487075e5a8	-0.006014140096675481
221	0xbf5130f00448608b	-0.0010492652810452387
222	0x3f907b5fe656d1eb	0.01609563678148788
223	0xbf863af709597347	-0.010854654286214361
224	0xbf95ab88cb500028	-0.021162164124689437
225	0x3f8fc5492973ba84	0.015513011529461503
226	0x3f07f4654a74f0ba	4.568990817197098e-05
227	0x3f80c6efa6231c84	0.008191940553287098
228	0x3f862e841f96c7cd	0.010830909933108668
229	0x3f4ec03d74a00961	0.0009384441448221753
230	0xbf70c7b7e601d9e8	-0.004096716264135193
231	0xbf55d5dc22936e93	-0.0013327264553514614
232	0xbf813064890edb1b	-0.008393083031348383
233	0xbf8e10c2409a7c52	-0.014680402370968935
234	0xbf5b4da852b5ecf1	-0.0016664642124329355
235	0xbf7fd1381b1fd6b0	-0.0077678863180971475
236	0x3f87de63ebfb4673	0.01165464462193031
237	0x3f73c74c8a87e22d	0.004828738201915911
238	0xbf7d0deeed0d3756	-0.007093365959759476
239	0xbf87e7320c4e6ec8	-0.01167143917137227
240	0xbf400e4a5d4055bb	-0.0004899848086121131
241	0x3f8fb4667f4ac92e	0.015480805167815772
242	0xbf80221c2722d77f	-0.007877559608782779
243	0xbf7441c72265fec3	-0.004945543163898672
244	0xbf951794900ba5f6	-0.02059776429351775
245	0x3f98360e3df8a3eb	0.02364370587580204
246	0x3f839305fdc86ba1	0.009557768637980692
247	0xbf985be79ba3ff04	-0.023788088678883504
248	0x3f8c6adbaa96c593	0.013875690597020795
249	0xbf5496e84afc1ca5	-0.0012566822514957024
250	0xbf86757b32a4bca8	-0.010966265185372429
251	0x3f5702d37104df3c	0.0014044823511322876
252	0xbf51f58cb7412f86	-0.0010961412599667943
253	0x3f2e471d447a91fe	0.00023100120801190777
254	0xbf8a898371b15be0	-0.012957598597649722
255	0x3f8f00f49ffaad07	0.015138541347673241

b1 f8 [1, 50]
0	0x3fd8c09ad0922032	0.3867556607078796
1	0x3fd8cb4ab91df1da	0.3874079520972181
2	0x3fd8c3a2277f57e6	0.3869405160634173
3	0x3fd8c72835eebb35	0.38715558306550985
4	0x3fd8ca146b46adfa	0.3873339698427284
5	0x3fd8c9be3db4aacf	0.38731342340421987
6	0x3fd8b7d12cfce946	0.3862193049750612
7	0x3fd8c40e433580cc	0.3869662910783631
8	0x3fd8ba198f16497f	0.3863586327871857
9	0x3fd8ce256f3f298f	0.3875821672815158
10	0x3fd8c2f13e310d6d	0.38689833711051486
11	0x3fd8bccc81957e05	0.38652336744959853
12	0x3fd8c9b5c2487006	0.3873114011091733
13	0x3fd8cda9b87be3ef	0.3875526715851824
14	0x3fd8bf8ced580e8e	0.38669131448862337
15	0x3fd8c11982650358	0.3867858670601456
16	0x3fd8bf0c65ca5420	0.38666067066634646
17	0x3fd8cb63d306a0e0	0.38741393669125834
18	0x3fd8cd0b5a4cf123	0.387514913734565
19	0x3fd8d00d00fddb22	0.387698412865051
20	0x3fd8c4ae95c455d6	0.38700451493909094
21	0x3fd8c61a60f1d88e	0.3870912501073541
22	0x3fd8c399b517ce32	0.38693850216734227
23	0x3fd8c6f3159143cb	0.38714291673846607
24	0x3fd8cd497e2c4c5b	0.38752972909532496
25	0x3fd8cf7938be8e83	0.38766317883912665
26	0x3fd8c35bd9418dc0	0.38692375389492994
27	0x3fd8c41cc639a048	0.38696975095672714
28	0x3fd8bee4eeb42bdb	0.3866512614337673
29	0x3fd8be04c726fc1d	0.3865978188368347
30	0x3fd8c85c22008e5d	0.387228997426268
31	0x3fd8ca28928d400f	0.3873387747926253
32	0x3fd8c7c14cf36e3d	0.3871920825456277
33	0x3fd8bdea307de591	0.38659147964025303
34	0x3fd8c299af310c41	0.3868774615149882
35	0x3fd8cdacfda512f2	0.3875534512520026
36	0x3fd8cced624a05d0	0.3875077686171524
37	0x3fd8ce6dabdf51f8	0.38759938988121645
38	0x3fd8cd057be540f1	0.3875135145108422
39	0x3fd8c16055dcb541	0.3868027533051937
40	0x3fd8c4f811cb934a	0.38702203500570376
41	0x3fd8cda203899d20	0.38755083413566815
42	0x3fd8c57f29b6ab06	0.387054243789564
43	0x3fd8b50385e1a489	0.38604820322377315
44	0x3fd8c4f2facd7fd5	0.3870208214993885
45	0x3fd8cb871092a718	0.38742233866160936
46	0x3fd8bf03d56e3cae	0.3866586288722357
47	0x3fd8ca83b6c01369	0.38736050459583865
48	0x3fd8c2fb47ef3bac	0.3869007303700822
49	0x3fd8cc444930d354	0.387467452502553

W2 f8 [50, 10]
0	0x3f97979b0644b5a0	0.023039266831963112
1	0xbf884fa4a6c94817	-0.011870657291329008
2	0xbf903a4eb42554bc	-0.01584742521784642
3	0x3fa0d77779668b10	0.03289388043346808
4	0xbf854581b89dd20e	-0.010386479803607986
5	0x3f6f8c20c45750da	0.0038509979228625703
6	0xbf72e2129a55b563	-0.0046101309466000965
7	0xbf8b97f4bb6aa476	-0.013473426789760472
8	0xbfad426d96e7291d	-0.0571474310596207
9	0x3fb3ed9680ab0a1f	0.07784405366241075
10	0x3f944c646beeed08	0.019822663390852063
11	0xbf9739ad72457bb5	-0.022680959796499162
12	0x3f75c13e297610b0	0.005311243839404664
13	0x3f89a428a8f2f8dd	0.012520139366071376
14	0x3f6dd0f340dc9c4e	0.00363967428610893
15	0xbfa89d8b2bbf0d91	-0.04807696255695782
16	0x3fb2a45da1e0fcd7	0.07282052232857282
17	0xbf9fbb51c469810d	-0.030988004315418972
18	0xbf9be309e44f7ebb	-0.027233271179169388
19	0x3f90a95befbcafa1	0.016271053798092464
20	0x3f64261fbed6b5fe	0.0024595851925457426
21	0xbf8db09e45d12cb7	-0.014497028833054022
22	0xbf91ebb31380a092	-0.017500684800467577
23	0x3f99e348c5d63ea5	0.025281083178525638
24	0xbf9d0398eb189474	-0.028334035252687476
25	0x3fa4e730c5bffd69	0.04082634366931865
26	0xbfa62b49c174c546	-0.043299012055636285
27	0x3f8c14b57602c065	0.013711373962309101
28	0x3fa25a4d4d97c710	0.03584519931963659
29	0x3f8cfbcbe86d7af0	0.01415213873923224
30	0x3f975c5de53a7098	0.022813288799270554
31	0x3f6b8106307ff55f	0.0033574219596618628
32	0x3f9cf8c539f00b7b	0.02829273382304674
33	0xbfa12bc860aa9b7c	-0.03353716068277543
34	0xbf7b17593ddf08ca	-0.00661406383545877
35	0xbf88230ffc5532b2	-0.011785626304708561
36	0x3fa7c05a23b14227	0.04638940511415895
37	0xbf909c998b3d203c	-0.01622238075586345
38	0xbf9c3e10765e6d81	-0.027580506539022224
39	0x3f7c4be97406e673	0.006908332754784407
40	0xbf810d053824eaa4	-0.00832561566914098
41	0x3f8469f478856aa0	0.009967718055738317
42	0x3f9eeca3385479d2	0.030199575722798695
43	0x3f92f1f39595a953	0.018501096730156274
44	0xbfaffe46dd50e651	-0.062486853138079675
45	0xbf9de09e9773a91a	-0.02917716788662359
46	0x3fa4e0a42a10d13e	0.040776376852962745
47	0x3f9c7ba69734c21d	0.02781544015778269
48	0x3f876eb5c54ed723	0.011441631397115131
49	0xbfa7c3abcd4c0e71	-0.04641472703044947
50	0xbf94c8e6bc7c3000	-0.020297627691476805
51	0xbf924ddd9bf41201	-0.017875158923759574
52	0xbf87f9dda9c0b066	-0.01170705007833579
53	0xbfa6169f9400a2ee	-0.043141352478704195
54	0xbf805c8d47f7b24e	-0.00798902870061471
55	0xbf867f6259f5ded6	-0.010985153551458831
56	0xbf8d7282058cec69	-0.014378562731158522
57	0x3f9bb1110eef0a58	0.02704264310501467
58	0x3f959c8bff52abaf	0.021104991396594105
59	0x3f9c1b3271421262	0.02744749847672024
60	0xbfb24cb6b24fa286	-0.07148305753038117
61	0x3fa8b6e5016d63e3	0.0482703747026745
62	0xbf721b577b33e3bc	-0.00442060634963409
63	0xbf96a148668d404a	-0.022099620112669784
64	0x3f9b901a5efb6afd	0.026916896865126983
65	0x3f9b305b0b860611	0.02655164964517637
66	0x3fb6f621a88dc982	0.08969316830715537
67	0xbfb10e29bf411002	-0.06662236136713776
68	0xbfa289b6113d60dd	-0.036206903080427934
69	0x3f5b68956c2e081d	0.001672883911596041
70	0x3fa86ead9f865f12	0.047719407771351766
71	0xbf889372baa3cb05	-0.011999985047145065
72	0xbfa37df7d9f6bc25	-0.03807043586436291
73	0x3f9ccfb9c88a70b2	0.02813616072181508
74	0x3f7fb2cd6c6186ab	0.007738878664982056
75	0x3fa2cbe1c8b4df23	0.03671174597769624
76	0xbfa3862c21462a70	-0.03813302904298588
77	0x3f9e9986e5aaf53e	0.029882533805666293
78	0x3f8d14ccb705d159	0.0141998284677604
79	0xbfa36497748295c8	-0.037876828167366094
80	0x3f3724b436e5a078	0.00035313987509378404
81	0xbf833bc76cf5e603	-0.009391363156043836
82	0xbfa59765d4e7389d	-0.04217069839397534
83	0xbfa0eadb9fd15b96	-0.03304182363415646
84	0x3fbb8ae713df8610	0.10758823619064395
85	0xbf98142e3d96ca58	-0.0235144829836805
86	0xbfa504aa3443c619	-0.04105121505734761
87	0x3f9c55115ba74505	0.02766825792224827
88	0xbf91ac0fc48b162b	-0.017257925387431577
89	0x3f967bb419fb6214	0.021956266485036194
90	0xbfa23e8806e210d5	-0.03563332637807696
91	0x3f6aad2a8b2dbce0	0.003256400197123463
92	0x3f86f9c9149ee577	0.011218615476411327
93	0x3f4219d706d7a540	0.0005523967681117306
94	0xbf9f26cba2325e4a	-0.0304214303729096
95	0x3f707b199fac2a10	0.004023647396716359
96	0x3fa24e1069d88aa8	0.035751831932676226
97	0x3f81aac92dc411ec	0.008626529416241056
98	0xbf75354487841c28	-0.005177753155527966
99	0xbf81725cf66d85e8	-0.008518911619549166
100	0x3f97aa7a91d805a2	0.02311126246605045
101	0x3f81aaeccfad2fa7	0.008626794898780888
102	0xbf9d78e8e027c121	-0.028781546288827124
103	0x3fa9c3b6b217fdf1	0.050321301689105875
104	0x3fa0a96a7c1adc8e	0.03254254116966947
105	0xbfafdcf149b1d70e	-0.06223253273576122
106	0xbfb1f4e20a99ac93	-0.07014286764904147
107	0xbf75eb60cd8b5db4	-0.005351427208288784
108	0xbf9e43c97193c780	-0.029555461461263643
109	0x3f988e013672a96f	0.02397920508216472
110	0x3fb25991f15b5e46	0.071679231095339
111	0x3fabd38040dff5fd	0.054347999495785594
112	0xbf92e15b9a8bd733	-0.018437796886210122
113	0xbf8351bb6f184514	-0.009433235481113779
114	0xbf802a1524a3d113	-0.007892766171132359
115	0x3f919713c32c41c5	0.017177876269728793
116	0xbfa1ceb05374e39a	-0.03478003519780444
117	0x3f886e024aa9ef26	0.011928575423773301
118	0xbfa279f3889d4017	-0.03608666460661441
119	0xbfa53b87ed418fa4	-0.0414698102111111
120	0x3fa01adc1c13f672	0.03145492403744478
121	0x3fa484d000284b0b	0.04007577897950484
122	0xbf9b2a076fd4f6c3	-0.026527515602757356
123	0xbfa15088470ebca2	-0.03381753795053412
124	0xbf63efa34537031d	-0.0024336041330744866
125	0x3f81c248a1c19365	0.008671348034292323
126	0x3f5d8368fbafa1c0	0.0018013501382886238
127	0xbfaad5202b44a876	-0.05240726974655356
128	0x3f8fca93c4a69579	0.015523104132465037
129	0xbfa0f91c28f44fce	-0.033150558471021094
130	0x3fa2b53103398a84	0.036538631099365865
131	0xbf98dce49150a1d9	-0.024280139321634173
132	0xbf88e0921aa6254c	-0.012147084654105321
133	0x3fa2ef8c2f80186d	0.0369838531478742
134	0xbf9584860d0ed495	-0.02101335005473411
135	0xbf7ccedf90397d90	-0.007033227247659993
136	0xbf8a75c011486d5e	-0.01291990330451281
137	0xbf6e67200fa5e015	-0.0037112833207935216
138	0x3f8246024937fea4	0.008922593936403551
139	0x3f954a05c9077a7c	0.020790186304902467
140	0x3f78b55601c1c91d	0.00603231045180255
141	0xbf6ebf4e05681595	-0.003753330597876479
142	0x3f8a75c4a320e8a2	0.012919937351501713
143	0x3fa9a3dc71b012b5	0.050078286054519174
144	0xbfb4e27463e18503	-0.08158042372226153
145	0x3fa6cc4a41189e3c	0.044527359434422625
146	0xbf950bc9dbaf8867	-0.02055278209071112
147	0x3fa276d11bb23826	0.036062750464324986
148	0x3f935ad28778117b	0.018901147383091548
149	0xbf5a58f9ba4f5fb1	-0.0016081274745740443
150	0xbf67706d068f2de4	-0.002861226025265161
151	0x3f8f503532d5aeca	0.015289703000881078
152	0x3f6e78f2feea2cca	0.0037197824488593755
153	0x3f910390c83a6cf1	0.016615164013825404
154	0xbf9b9c5e2363b6ae	-0.0269636830425301
155	0x3f9fa918a5a4f83b	0.030918488607533084
156	0xbfac7ba587855b45	-0.05563084868724969
157	0xbf9b3af5bd52094f	-0.026592101745799564
158	0x3fae441a7dbadbb8	0.059113338325395615
159	0x3f806fc1970d9a18	0.008025658056522153
160	0x3f95db37ba08b6c1	0.021344061593643774
161	0x3fb7ce352ba11a46	0.09299022975128776
162	0xbf91445aa91c6b59	-0.016862312862126447
163	0xbf8395a01011894a	-0.009562731256839502
164	0x3f509189268c4712	0.0010112609253991084
165	0xbf855cacf17a465e	-0.010430670852005604
166	0xbfabfb8022b34437	-0.05465317176425127
167	0xbf9b8c0681e2fff4	-0.026901342084556704
168	0x3f924fbb0dbc05f7	0.017882273400578765
169	0x3f5a9fc488c36473	0.0016250056533435836
170	0x3f9ac08c066b6a2c	0.026125133411236387
171	0xbf804013d7aeb8fc	-0.007934718150718549
172	0xbf9f81291bb25665	-0.030766146007030665
173	0xbf7489b08df1239e	-0.005014123597967405
174	0x3f5599d34dd1dc5e	0.0013184131160224525
175	0x3f7c83f8f811823d	0.006961796317313471
176	0xbf86b07ff9824c95	-0.011078834344777891
177	0x3f98ed2c83dba2dc	0.024342246578188717
178	0x3fafa275b88d3d87	0.06178634527042975
179	0xbfa44eee80fd9114	-0.039664700742635756
180	0xbfa85b4c43c4ae29	-0.04757154776811163
181	0x3f93965e1abb8e48	0.019128294355040404
182	0xbfa826a25ddb81f7	-0.04716975589485977
183	0x3f957639a526969a	0.02095880575656981
184	0xbf7e6c828ee3a451	-0.007427701943222579
185	0x3f68ab9eb82b347e	0.003011522291990475
186	0x3fa78fdfbe6f957c	0.04601954650551485
187	0xbf94e256e321d7e1	-0.02039466630272802
188	0x3f9065d90037188e	0.01601351798833455
189	0x3f9aaed1bdcef017	0.026057507715208397
190	0xbf3c04b69e272650	-0.000427527031345497
191	0xbf9889857be49393	-0.02396210259134397
192	0xbfa217c3279e6937	-0.03533754213931888
193	0x3fa8838661f3f01e	0.04787845559801006
194	0x3f68e450e4921805	0.0030385570467528233
195	0xbf63c7156ff5586c	-0.0024142664621349865
196	0x3f9870f3b3904b9e	0.02386837752790038
197	0xbf71c69e123bf4eb	-0.004339807000858213
198	0xbf821531e6db39f3	-0.008829488618542469
199	0xbf824f4d06a430ff	-0.008940316929987533
200	0xbfa0ef0bc912e0c2	-0.033073776526579404
201	0xbf9b13d92d2f6496	-0.026442902930146582
202	0x3fa4690fb10261ab	0.03986405406721202
203	0xbf7937bf0c293e1e	-0.006156679419816706
204	0xbfa15b43e9d64e6b	-0.03389942388016894
205	0xbfa1deb764dfe57d	-0.03490231615428294
206	0x3fb5a276928a7351	0.08451024129540242
207	0x3fa25e4a6c2e5fa4	0.03587563105173722
208	0x3f762d578bc4db74	0.005414335228400503
209	0xbfad2b0a00058d9f	-0.05696898699059293
210	0xbf934a4531df6c4b	-0.018838006180754523
211	0xbf65b11bd7f4ab43	-0.0026479286022057804
212	0xbf93feb89e98ba83	-0.019526371650665297
213	0xbf892eb4d6ea33e2	-0.0122961166464623
214	0xbf9a0cee9a33c8ff	-0.025439956819305994
215	0x3f97f63600bd5914	0.02340015773310096
216	0x3fbd87634ae8bcd2	0.11534710482441149
217	0xbf8b7973eddef2ff	-0.013415246674293167
218	0x3f8a875fc6510c6b	0.012953518142358974
219	0xbf9155967c0156cc	-0.01692805415981162
220	0xbf8ae9b083202f92	-0.013141039849891265
221	0xbfaa9f7388b9fdc6	-0.051997766914606156
222	0xbf6214e5569d956e	-0.0022072295441143896
223	0xbf98872a7d134e6f	-0.023953117259976894
224	0x3f9461ea0cc281ee	0.01990476324920281
225	0x3fa26e2ac9f964b9	0.03599675860886848
226	0xbf6160ea643ca0e8	-0.002121408267971348
227	0xbf948d99261d4395	-0.02007140441066076
228	0x3f9e35d8d86f2edf	0.02950228520403086
229	0x3fa27290acde8164	0.03603031263560544
230	0xbf9537ce33abf488	-0.0207206934965041
231	0xbf999dff0c972800	-0.02501677049966844
232	0x3f9aceee7633a328	0.026180005993327843
233	0x3fa4c4d04644a354	0.04056406839146712
234	0x3f966111b271cb6f	0.021854664341343474
235	0x3f87d68a024bc3c2	0.011639669604365358
236	0x3f8ab5fc48802c27	0.013042422258896803
237	0xbfabcd6dae8cfed4	-0.0543016696524298
238	0x3f92da3fc77ba14e	0.018410679388496214
239	0x3f9c03b448b69e7e	0.02735788053328613
240	0x3f61a29405a7e2e8	0.0021527186447623976
241	0xbf9087e89ff9cdc3	-0.01614345051207323
242	0xbf6e17ef3c137d46	-0.0036735222389407155
243	0x3fa85c63464383d0	0.04757986290656613
244	0xbfa1e172d30f6efa	-0.0349231608049347
245	0x3f906dacf03e49e2	0.016043378985679875
246	0x3f9113fa07b05a85	0.016677767485897128
247	0x3f9289c9774cb4ea	0.01810374060294332
248	0xbf91285689953e96	-0.01675543989887148
249	0xbf8df66debe5305a	-0.014630182992412855
250	0xbf73c3e934093d99	-0.0048255071165636204
251	0x3f59dc2cf6d7bcbe	0.0015783728698542244
252	0xbf7955dc747807e7	-0.006185399200605324
253	0x3fa2187a42f113c8	0.03534299914512179
254	0xbf97b6716576ca51	-0.023156902139542194
255	0xbf9a7707bbd1527e	-0.02584468921516469

b2 f8 [1, 10]
0	0x3f55895dde143260	0.001314489047504662
1	0x3f54100f2653ad81	0.0012245319315365712
2	0xbf8ccef52dfcff65	-0.014066615549040493
3	0x3f8025a926b09c8c	0.007884332173558904
4	0xbf5a090b60d6850a	-0.0015890704265547084
5	0xbf9861c1a42b013d	-0.023810411114710595
6	0x3f90571ddc4502e2	0.01595732361716074
7	0x3f72cc46fce630d4	0.004589345261035233
8	0x3f8bdefb29f929c1	0.013608896463797817
9	0xbf74f12e8b8c1acd	-0.005112821404287882
