experiments/exp_batch_20250114_141918/exp_h100_lr0.1_run1/model/weights.npz (npz, 637046 bytes, 4 tensors)

W1 f8 [784, 100]
00000000: 227f bf6e e6cc 703f d1fc 1494 afd0 7a3f
00000010: 0ed2 16cb bec9 95bf c367 cdff 5035 833f
00000020: e7d3 ea49 fbf1 6e3f bf23 aad0 e8a0 8a3f
00000030: f81f 77a6 cd2f 8d3f 4e56 c17c a95d 903f
00000040: 5fcd d735 5491 81bf ecbe 4d72 ac6c 8dbf
00000050: 440c ee59 6d0c 893f 4e2a 7140 c02b 7e3f
00000060: a35d f8a2 0eba 8fbf 0396 6fb8 ad24 693f
00000070: 2ce3 2a27 3bb0 8abf aad0 e775 b910 68bf
00000080: d88a 97f1 22ed 7dbf bbb7 6454 a9a2 75bf
00000090: adf7 ccb5 9f81 7a3f 56f7 3e30 ebf4 7c3f
000000a0: 408b ddfe 3006 70bf abf3 140a 9e57 61bf
000000b0: 4311 4245 0f31 97bf d659 4566 863c 6cbf
000000c0: 10a4 dbc0 634c 8a3f 2dfa 8e68 dcff 3c3f
000000d0: 3551 249b 47c1 753f fb22 00ae a64c 62bf
000000e0: 9e22 996b 5825 753f e982 69d5 95cf 723f
000000f0: f1fc e738 1be2 53bf bf4d 2603 502a 883f
00000100: 5cee e0c6 2cde 81bf ffcd 1db8 2aea 753f
00000110: 9bbb 4690 f8e6 4d3f 91fe be28 56de 8abf
00000120: fc7d 6826 89d4 863f 2999 e200 58ff 70bf
00000130: 9b7f b91f 396c 86bf e04f ad9d 00cb 78bf
00000140: 2980 c51f 45cf 743f 099d 11d9 56fc 943f
00000150: a1a0 ec59 54b0 7c3f e4af b51a 58ef 79bf
00000160: b552 acf5 6ed3 9abf 6336 b89f c53c 793f
00000170: ffcc a2bf 73a9 79bf 25d3 874a 1dd4 8d3f
00000180: 76aa 2018 affe 6cbf 35be 0c67 0d74 7e3f
00000190: 1f68 6a49 c395 7abf 6c1f 7767 b8d3 83bf
000001a0: ed6f 3e15 52e3 8cbf 2eb3 af3f 80bd 62bf
000001b0: 58e1 a443 0973 90bf e057 c2fa c348 90bf
000001c0: f110 2924 3981 86bf 2ddb 1918 a022 8bbf
000001d0: cb18 957a 9fe8 833f a9c0 db76 6def 813f
000001e0: 31a1 fee0 28df 823f 6e6d 2cf9 114e 903f
000001f0: b347 2592 dd29 823f c728 fe26 a06e 4d3f
00000200: 8552 7d35 059e 62bf c87c 6df2 33f6 623f
00000210: 859d 26af 6529 8f3f a725 ca11 b324 81bf
00000220: 307e 6485 1305 713f 2cab d60d c048 7abf
00000230: aaa3 94a8 596a 73bf 3f97 d432 95ca 943f
00000240: be1e 2038 4244 6d3f 4f9b 151d 5b3a 92bf
00000250: a81e 0e39 1620 403f b173 e4a5 2f0a 603f
00000260: ed89 bb0d 64fe 5b3f 0cbd 95c7 65c9 453f
00000270: 4076 aab7 4900 53bf e4b4 b1ac f143 6abf
00000280: a095 41ba 8b48 8c3f 8da0 4166 a285 64bf
00000290: 6c5e 56e4 f8e8 773f ae23 4d8e 984a 67bf
000002a0: b9b3 1a78 c31d 80bf f3a7 91c4 fa82 81bf
000002b0: 6704 32ba 0e50 7abf 0344 f499 0b63 67bf
000002c0: dfe7 1626 9fcb 863f ae0d 2157 346b 8d3f
000002d0: 2a91 1daa fa5e 2f3f 72a5 9891 f30e 943f
000002e0: c41a 6d2e ed08 96bf 014a d8c2 7b56 733f
000002f0: 434f 1c34 ff18 72bf 900b f3fe 8121 7fbf
00000300: 44ab d1bd e971 7ebf 7185 2313 b8f3 8bbf
00000310: 5bac 5343 aaaa 943f 1540 4acc 2471 8e3f
00000320: 2aa2 aae2 1849 623f 75d1 80d1 a1e3 61bf
00000330: d57a f05c f39c 7e3f 93ab fb51 92aa 8a3f
00000340: 1510 4b6f 035b 7c3f c7e6 6232 cf11 883f
00000350: 6f38 ed6e 701d 77bf 0aa3 7ff6 d4c7 4dbf
00000360: 4fe7 a99a c685 733f 04e2 c6c3 a001 7b3f
00000370: 37b9 f5a1 3307 94bf a748 eb64 f679 82bf
00000380: 1215 5bce 13d0 763f 06b7 d644 4299 403f
00000390: 38a8 5981 4ba3 74bf 52d5 b227 c8ea 523f
000003a0: 3175 df3b 813d 7fbf 1bf7 ab1e 7942 783f
000003b0: 5210 483e 9c89 893f 5378 f975 8e02 783f
000003c0: 9b42 6d01 39d2 883f 1ce9 7e37 9aae 60bf
000003d0: fe89 f094 ab14 71bf 7514 81cf dddc 2b3f
000003e0: 57d3 1bc9 7b34 273f 7ba2 bae1 0d97 75bf
000003f0: f5d0 d742 7097 833f 4ed2 e6a6 a0de 813f
00000400: eec6 33b4 5971 3a3f 0957 65a9 1061 82bf
00000410: 1adb ca2f 57bb 763f 6c0a efa2 2dac 873f
00000420: cc17 4a55 bb9f 783f e40f 0235 bd53 50bf
00000430: 7e72 d5ff 6f95 79bf 7767 85d8 0e8e 8b3f
00000440: 3ac3 4e0f 0442 7dbf 2c95 ae79 6177 633f
00000450: ac80 9a14 db98 83bf 1f49 6704 f36b 8ebf
00000460: 5b23 e301 424f 903f 5e9b e600 3ae1 843f
00000470: e7d8 b728 5ab8 74bf d080 a96c b1d3 5b3f
00000480: 2082 dcec 8917 75bf 05e1 a43f d58b 153f
00000490: e506 5292 fe73 933f 6ea3 b54b 12ea 70bf
000004a0: acf8 7073 1016 85bf 861c 5f4b f871 92bf
000004b0: 281b 6a6a 30c0 813f 8454 80ff 5c7c 5fbf
000004c0: b3fe 7127 f574 74bf c870 196c 660b 72bf
000004d0: 7102 57b3 ca9f 8a3f 3539 bee0 01cf 8bbf
000004e0: f141 eb54 8b55 74bf 31d8 bfe9 8924 90bf
000004f0: b3a8 5519 0007 653f 08c3 c90f d0ff 54bf
00000500: 76c8 ce42 671e 643f 37ae e3d3 7ad1 633f
00000510: 1542 fcb1 0001 6cbf c931 6cca 230c 8d3f
00000520: 7825 fab4 573b 89bf a026 2846 16a1 8f3f
00000530: 36fe df40 02e5 6dbf 047f 54a2 2d5f 89bf
00000540: 81cf 99bd 739d 6a3f 3f0f 21a1 88e3 803f
00000550: f53f 636e 3ad8 843f 83a0 2c9e 2083 733f
00000560: 012f 5e8c 2433 7abf 96e8 bf0c 0e1c 76bf
00000570: 937d 0379 3094 773f 04c0 e098 93ed 5ebf
00000580: 888a f5a2 0704 86bf d6e6 37dc 190d 7fbf
00000590: 4421 31fb 1843 583f 7362 7ba8 fd0f 593f
000005a0: 48a9 f7e8 a00e 943f b060 ed59 eb2c 89bf
000005b0: 6ca1 9002 9435 843f 218a 30c8 d518 853f
000005c0: 5c8a 2eac bd4e 62bf 0763 3f76 7757 6e3f
000005d0: dc04 ea51 98c0 713f b84d 51ef 1e05 863f
000005e0: 0180 6554 2463 813f 2e1f f46d 7190 853f
000005f0: ea42 dcad c8bb 86bf c006 1942 07c8 69bf
00000600: 1b65 fffa 4907 84bf c17d 243d ac4e 743f
00000610: b6f9 dfee 7b98 87bf 3f52 3c7c 2d52 8cbf
00000620: 9eeb 6b7a 7354 83bf 2605 650c c3fb 72bf
00000630: 8703 037f 5ea7 72bf a02b 48cd d4f3 72bf
00000640: 31fa fedc b4e3 85bf dc4f d15a 6686 8bbf
00000650: 48ab 8d41 6eb1 82bf b0b8 8bce 02de 703f
00000660: 351e f106 f2ae 843f cfaa 5022 7f7b 73bf
00000670: ba44 85e9 da94 903f 0a1e c068 5546 60bf
00000680: 59fa 63ae 21af 80bf fcd5 1a1d 6db0 80bf
00000690: c1d9 cd49 8c7e 663f dccb 3ff9 734d 80bf
000006a0: 1b76 e70c 7b99 8a3f 550b 5cca f052 81bf
000006b0: 7374 e6bf b209 973f c7d1 f5fe b8fb 753f
000006c0: e784 8719 2079 783f 8059 70a6 231c 9abf
000006d0: ede8 51e6 f3e1 79bf 208a 4938 7621 85bf
000006e0: eed4 462c c908 403f d0a4 4246 d7ee 8cbf
000006f0: 33ed 3d45 7973 573f 0ac4 81a5 a76f 973f
00000700: 939c 14bb 3880 983f 08a2 d893 5708 8c3f
00000710: a96d a64e fd3b 783f e3db 9630 8352 423f
00000720: 58cb 8464 3684 833f b0be 71f4 4785 53bf
00000730: 6768 f5e5 6882 73bf 7212 1133 ef9d 6cbf
00000740: 5e4d 3711 b470 72bf 265d 75a0 eb9d 903f
00000750: 1e6c 6b98 1d42 7dbf a3b2 a754 a392 58bf
00000760: be9b d384 5d84 913f 0dfa 1d79 dd71 7abf
00000770: 1353 1e5f 6899 583f 17bb a6ab df80 6fbf
00000780: 77ea 6e93 7d59 4fbf 7371 5566 f16f 94bf
00000790: 9069 3ed5 421b 8abf 18fd 3ad7 4f68 92bf
000007a0: d1b7 0cde d8f8 723f dbab 54a3 9d79 80bf
000007b0: ee28 f3b2 d9f2 953f d5ac cf5c f626 833f
000007c0: ca32 3223 3e46 7fbf c5e5 836d 0f6a 843f
000007d0: 6374 7ffd efb0 79bf 03ec 5105 d29f 723f
000007e0: a372 59d0 2e39 713f 367e f511 15a4 6cbf
000007f0: 6a6f 68f0 7040 443f b328 8427 8693 99bf
0.0041016579889115185 0.0065466745884911895 -0.02127740969236141 0.009379036718815464 0.003777495191878522 0.013002222888887858 0.014251333849543343 0.015982292403654612
-0.008577974217564842 -0.014367434728881766 0.01223073416418264 0.007365942939098048 -0.015491594646887935 0.003069247529753795 -0.013031446583555338 -0.00293766234175948
-0.007306229113484185 -0.00528207916640427 0.0064712752035215705 0.007069510178494406 -0.003912154568612547 -0.0021169745165523133 -0.02264808521478413 -0.003446829318060933
0.012841014216478569 0.0004424965960047347 0.005311279021288852 -0.0022338157141387183 0.005162568466012955 0.004592500007306135 -0.0012135759203600294 0.011799454780691996
-0.008724546260160775 0.005350272056478199 0.0009125436486579931 -0.013119385832282478 0.011147567257522965 -0.0041497647891104794 -0.010948606758745252 -0.006052973180732807
0.0050804805908626705 0.020493847845867417 0.00700409841264374 -0.006331772000844869 -0.026197179550836853 0.006161472290398959 -0.00626511778152694 0.014564732396118505
-0.0035394115266361116 0.007434894899048629 -0.006490481223091065 -0.009681168229590496 -0.014105454705536114 -0.002287626729858514 -0.01606382823340033 -0.01590257852566157
-0.010988661209133417 -0.013249636397842568 0.009721036842745076 0.008757453145762222 0.009214705816547127 0.015922814210268248 0.008868914625654733 0.0008981973642090629
-0.0022726155984094686 0.002314664324714142 0.015215677650145984 -0.00837077997245468 0.0041552317182147885 -0.006417036257895952 -0.004740095356546551 0.02030404207939473
0.003572587332204196 -0.017800735140009846 0.0004921062955966686 0.0019579821229300455 0.0017086007200580692 0.0006648776026575722 -0.0011597366234704781 -0.003206226368596009
0.013810245153034029 -0.0025051280845681035 0.0058374140111464405 -0.0028431872946481284 -0.007869269469063288 -0.008550604938324801 -0.006424005058876059 -0.002854845675422714
0.011130565023325488 0.014364632519692968 0.00023934182996322137 0.01958828521870743 -0.021518426855687847 0.004721148912283813 -0.004418370140928665 -0.007600314899891894
-0.007432854702623729 -0.01364845093161435 0.020182285651497583 0.014864242062031999 0.002232121090248525 -0.00218373875761751 0.007473898541347797 0.013020651938367133
0.006922734658193282 0.011752718663376694 -0.005643309776884305 -0.0009088315828168225 0.0047662504172139705 0.006593349444692812 -0.019558722267384723 -0.009021687464528872
0.0055695317912001375 0.0005065511301631527 -0.005038542692640084 0.001154609168947236 -0.0076270149420143854 0.005922768711341476 0.012469502115898621 0.0058618130566100045
0.012119717937509924 -0.00203638191666501 -0.004170103303325677 0.00021257598541716034 0.0001770402055211405 -0.005271009660341104 0.009566189803969819 0.008725409596857105
0.00040348472630489976 -0.008974199456740732 0.005549755642894972 0.011558872732966928 0.0060117070867188975 -0.0009965274548742126 -0.006246030328239114 0.013454547865581408
-0.0071430357537998704 0.0023762611212584574 -0.00956889301897975 -0.014854334422953528 0.015927344670476056 0.010195210602274404 -0.005058624442872728 0.0016984207783466328
-0.005149401445834673 8.21923166868279e-05 0.01899717109745937 -0.0041294779469830244 -0.010295990488995287 -0.0180128856661921 0.008667352912437545 -0.0019217403587437351
-0.004994351990830803 -0.0044054032201438845 0.013000091169375257 -0.013578428908456711 -0.004964393867979742 -0.01576438416665144 0.002566814606940937 -0.0012816936352033088
0.002455903703286795 0.0024192236879707857 -0.003418446882172308 0.014183311095188682 -0.012320218286975701 0.015443967834488703 -0.0036492389690463657 -0.012388569370670684
0.0032489071425576004 0.008246486108084759 0.010178047651066871 0.004763724721478127 -0.006396429793209314 -0.005397848970455274 0.005756558748742607 -0.001887697351332208
-0.010749873791330758 -0.007580853477969737 0.0014808410603724545 0.001529691422481741 0.019587053507998747 -0.012292708093511656 0.009867817238117658 0.010301275417139046
-0.0022348122160605177 0.0037038167229009908 0.004334063529882939 0.010751954725640597 0.008489879441810901 0.010529409568803407 -0.011100356870458811 -0.0031471387635811643
-0.00977952763780592 0.004957840736352138 -0.011521309115775629 -0.013828616479750198 -0.009438421414861339 -0.00463463011539148 -0.004554146886392447 -0.004627066857675027
-0.010688221925986148 -0.013439941069158516 -0.009127484679728362 0.0041179761544595656 0.010099306904648756 -0.004756447427136392 0.016192837241139492 -0.0019866626880717985
-0.008146536955334559 -0.008149006319722034 0.002745889664250018 -0.007960229915601795 0.012988053637793808 -0.00845897786667186 0.022497933352145737 0.005367014541992571
0.0059748891730759595 -0.02549796775209634 -0.006319000943330472 -0.010317729561568234 0.0004893286027739788 -0.014127427894282368 0.0014313396722787752 0.02288686702417312
0.023926626604545986 0.013687786292465823 0.005916585427623224 0.0005591526580052099 0.009529519026363495 -0.0011914446529565463 -0.004763040312662259 -0.003493277727587612
-0.004502013576217349 0.016227418583494878 -0.007143130881298835 -0.0014998049761018393 0.01710649607857894 -0.0064562464993955905 0.001501418996189223 -0.0038456314625458054
-0.00095671302448548 -0.01995827853294103 -0.012747308857616685 -0.017976043235418876 0.004631850374421335 -0.008044463679274408 0.021434213206512114 0.009351658542036049
-0.0076353480573174235 0.009967918901099613 -0.006272256337948342 0.004546947854687569 0.004204924456271772 -0.003496209290162057 0.0006180335483949421 -0.0249768220537951

b1 f8 [1, 100]
00000000: 65a4 0a42 ed4c db3f c75c 688b 224b db3f
00000010: e41c 044a de4a db3f 877d 5f21 d54a db3f
00000020: 1be4 5273 d248 db3f c8b1 097f f94c db3f
00000030: 95e9 81d4 f349 db3f db5b 97b5 4f4c db3f
00000040: d50e cb53 df4a db3f 7b79 36d0 984c db3f
00000050: bb35 6f5d b14a db3f 8245 81ee 8a4c db3f
00000060: b220 0375 114c db3f 54d4 4d89 7b49 db3f
00000070: 4358 d548 7c4a db3f 2a09 9f22 5149 db3f
00000080: 0d90 e161 e64b db3f 6d55 9170 e34d db3f
00000090: 4a01 71c8 b44c db3f a5be 9155 984b db3f
000000a0: 9537 a9fa d34a db3f 8b83 0edf 544c db3f
000000b0: 8464 0853 094b db3f d1d8 2038 bf4a db3f
000000c0: 513c 60d2 964b db3f 1a95 a5c5 c04c db3f
000000d0: 4148 e7ea 074c db3f 3906 cfbb cb4b db3f
000000e0: 8fb9 b69e 034c db3f 025c 9e7f c64e db3f
000000f0: eb9c 6d8c 724c db3f 6f97 2bdb 434a db3f
00000100: 9f5c a7b0 6b4a db3f 25a6 fa6c 224a db3f
00000110: 073d 43a1 f04a db3f 10e6 04d3 0c4a db3f
00000120: f993 8844 aa4c db3f e334 4730 954b db3f
00000130: faf3 a4eb 964b db3f 6337 9ef8 034d db3f
00000140: 37d9 7da6 8849 db3f 1058 15a4 854c db3f
00000150: 5b86 b85a 7c4c db3f dff5 9149 cd49 db3f
00000160: 6e42 4979 714b db3f 4e52 a81f bb48 db3f
00000170: 571b ee57 654a db3f 7f37 5442 5849 db3f
00000180: af90 7273 644a db3f 710e 97de 7347 db3f
00000190: d937 5a19 3c4b db3f 77ea 1be9 b443 db3f
000001a0: a4e6 9a05 b849 db3f ec31 0afc de4b db3f
000001b0: f76f 0cc5 bb49 db3f ceba 393d e34a db3f
000001c0: 6523 280e e94a db3f a905 3aaa 5c49 db3f
000001d0: 3494 575d 7c4d db3f 75e9 480f 824a db3f
000001e0: 511c 1b8d a74c db3f f028 1d57 2a4c db3f
000001f0: b13b 0832 fe49 db3f c375 2871 c64b db3f
00000200: d768 19af 7648 db3f 2127 028a 8049 db3f
00000210: b8a9 1c95 1c4a db3f 6d85 e659 bd48 db3f
00000220: 1be8 d4d6 594d db3f 3e5a ee7a fe4b db3f
00000230: 8d83 6253 014d db3f ff57 f4cd fb4c db3f
00000240: 3416 2c1b 704a db3f 5f69 4fc5 7f4b db3f
00000250: 894d 5509 f849 db3f d71e 4373 544b db3f
00000260: 52b3 da4b 7d4d db3f a37d b87a d54b db3f
00000270: 5ad7 639e e24a db3f b568 eda5 524b db3f
00000280: c811 94d2 fd4c db3f b055 95cc 084d db3f
00000290: f0fe 24ae 7249 db3f ace0 6e1e f04b db3f
000002a0: 213e 6717 4e4b db3f b883 c233 694a db3f
000002b0: e818 9778 8f4c db3f 03df ae73 d94a db3f
000002c0: 4f88 4f5a d74a db3f 95ea e4f9 0f4c db3f
000002d0: d823 1973 1d4e db3f 83da 2f2c 9b4a db3f
000002e0: 2661 d92c 5b4c db3f 645d d42b 8b4b db3f
000002f0: c879 410c 4b4c db3f 0fd9 784d f84b db3f
00000300: aa86 7ad0 d04a db3f 8548 8f45 fe49 db3f
00000310: e451 9947 224e db3f 0652 bef4 3a4c db3f
0.42657023858425297 0.42646087278394557 0.42644459941989354 0.42644241580088543 0.42631970655526324 0.4265731564144315 0.42638870003397616 0.4265326760627752
0.4264448469441338 0.42655010541229615 0.4264338886685796 0.4265467957639758 0.4265178339669645 0.42636001976581395 0.4264212332976777 0.4263499105546936
0.4265075641508254 0.4266289328855553 0.42655677389486313 0.42648895603540843 0.42644214132894237 0.4265339067733797 0.42645485981626785 0.42643719178466905
0.426488595433459 0.42655963231512006 0.42651555957593607 0.4265012106007791 0.4265145349444532 0.42668306792023725 0.42654098237694765 0.42640777972552873
0.4264172768720957 0.42639980928888327 0.4264489722090307 0.42639465911233376 0.4265542668602503 0.4264882060495678 0.4264886189665159 0.42657565383057355
0.42636314639038936 0.42654553436057174 0.4265433202691377 0.42637951073251473 0.4264796909747365 0.42631414500764186 0.42641576373028073 0.42635160901487973
0.4264155509392919 0.42623612153349827 0.4264669654447722 0.42600748791270554 0.4263744406449439 0.42650580037368857 0.42637533419633605 0.42644577960065255
0.42644716627596885 0.42635265945144823 0.4266043578666683 0.4264226102128739 0.4265536191928208 0.4265237665864694 0.4263911713214226 0.4264999489840557
0.4262978277162239 0.4263612125147223 0.4263984161540537 0.42631467608779056 0.42659612636237093 0.4265133095263173 0.42657502310799417 0.4265737067483996
0.4264183297494555 0.42648309963774084 0.4263897029061004 0.42647277122567345 0.42660457999845847 0.42650353416862624 0.426445631673564 0.4264723415741501
0.4265741878919269 0.42657680491296457 0.4263579083089857 0.42650988552078206 0.42647125516393386 0.4264166837183967 0.4265478780402092 0.4264434461324386
0.42644294566537594 0.4265174808858004 0.42664276351984887 0.42642859759454427 0.4265354097347135 0.4264858177206945 0.42653156468250275 0.4265118366778475
0.42644138678779575 0.426391189507861 0.42664391510086674 0.4265277280876777

W2 f8 [100, 10]
00000000: 00e9 72fa e4c4 52bf ebdc 83ca f9df 723f
00000010: 8736 cbee 5b13 77bf 640b 921a 8610 693f
00000020: 6803 1946 ff49 9f3f 7269 5865 03b4 85bf
00000030: 9c6d 1dac 98a6 91bf 2016 e4d1 00ae 15bf
00000040: 707f b788 4e15 983f 71b4 b476 78df 6abf
00000050: 3f51 3b48 950d 603f 02e5 a6da e365 833f
00000060: 3320 6479 004b 86bf 23f6 d6cd 9c44 9abf
00000070: bf17 d7a8 0cdc 703f c220 c3e8 1e24 71bf
00000080: 56b5 1539 bc51 6dbf 14f0 c8e7 de53 693f
00000090: 6818 ab1f bee4 4ebf 0b90 2f92 7319 803f
000000a0: 9d2f 3ce2 41f0 543f ae61 63d3 0be4 66bf
000000b0: fc15 ba1f 2628 8cbf 9450 e2ee 670f 893f
000000c0: 0bda c929 85ec 79bf def0 ccdb ed30 93bf
000000d0: 65cf 341d 3047 97bf ce25 ad89 df7b 8e3f
000000e0: eacd fb04 4177 65bf bdf8 6ee1 3e74 753f
000000f0: f647 5f6e 919f 60bf aae3 dc4b f2d3 82bf
00000100: 3b98 0754 4766 7f3f dd93 ca13 0b84 94bf
00000110: fc2b 1bf3 4ff9 563f aa99 5711 3597 5b3f
00000120: ab31 49dd 3a7f 63bf 673d 09f2 cba0 a4bf
00000130: bcfa 5153 237f 903f dff2 f5ff 869d 91bf
00000140: 98f6 573d ea7e 57bf 0733 ba47 cb1b 883f
00000150: fb01 6b23 0a1b 953f f00c cb8c d3cf 973f
00000160: 5862 6ce6 d897 50bf acab 0541 776a 7a3f
00000170: 55ef 8321 4402 9cbf c0eb 6069 0ed3 93bf
00000180: 664b e124 18c3 713f 829f 45cc 3603 81bf
00000190: 974c da75 12b5 7a3f 0c98 c6a6 ce3e 713f
000001a0: 5f6e f8ee bda1 6cbf f2e5 6996 756e a0bf
000001b0: 042f de5f 8cc1 903f 42bc ac5e 54de 7cbf
000001c0: 0ba1 5a56 7818 8e3f 8ae1 364b 0fa8 64bf
000001d0: 9940 7e65 be8f 7d3f 5b1b 6c09 b16a 853f
000001e0: 0a18 22c5 58b5 6d3f 8fea 79b1 4417 6a3f
000001f0: 3652 8b87 66d3 68bf 46b0 f7af 09d1 79bf
00000200: 1852 ccdb 1da6 8fbf 0a9c 4a42 807f 6a3f
00000210: 60d8 db9b b49b 6dbf c4ec c277 97f4 443f
00000220: 7a81 acf1 fd5c 8dbf 39ce 9cd4 bd90 923f
00000230: dcfb 5cdc 592a a93f 402e ba2d 6390 97bf
00000240: 53ab 1426 44f1 89bf 286d 97ac e5fd 8d3f
00000250: 2493 2304 3cd4 563f 3892 d305 d612 90bf
00000260: a4d4 62d1 eebb 5bbf 1d11 ccb6 f500 84bf
00000270: ba36 eb8f 7fc4 653f e0b4 18e4 5b74 4bbf
00000280: aa74 4670 5c20 74bf 5afe e0cd 87c1 743f
00000290: 3c8e 3a66 8c4e 993f f22a c3a1 1469 94bf
000002a0: a6d2 45a2 0e6d 973f 5a99 02b5 aa8f 8fbf
000002b0: cbca 4032 d8c3 a03f 12a4 eafb 9944 87bf
000002c0: 4d16 d6ce 6f8c 723f 3a43 f9fc 51c1 963f
000002d0: 732e 7db7 a26e 5bbf b753 9dea 24f3 91bf
000002e0: 90e6 1f51 d7fe 933f 28aa 6dcd f31e 79bf
000002f0: 3c38 bbd9 c71d 73bf 7b10 ccf6 d710 74bf
00000300: ede4 7ce2 c731 8abf e449 ecd3 8e6b 99bf
00000310: 6391 626b 7ac9 833f 058b 0f64 519a 83bf
00000320: f42f 1e2f 9074 213f d010 2d86 5f75 46bf
00000330: f212 7b0b fe11 8bbf 0527 e848 d5ab 9a3f
00000340: ff9a 9343 e14e 693f 688a 93ef 851e 84bf
00000350: 88f6 b427 70e2 9fbf fb42 b6fd 4a12 863f
00000360: f2a6 705f 3315 8c3f 44aa 3a52 071b 82bf
00000370: 6509 54b0 b7c0 6bbf 2122 4a06 1a0b 8dbf
00000380: dce7 ae67 ba40 8abf 1cb6 6e1c b33d 5fbf
00000390: d559 d5d6 e5a4 8a3f ec20 25f3 fd3e 88bf
000003a0: 34f1 fbdb 2b26 85bf 2b31 4187 9b4d 57bf
000003b0: 9540 c06d 4ad9 843f fd7e be7d 2ab8 8abf
000003c0: a631 ee69 981f 82bf 32f0 c039 0395 6abf
000003d0: f1eb 99a8 dd27 7abf 6890 08f2 9197 9fbf
000003e0: d27a e03b 94c7 963f e57a 4099 79c7 93bf
000003f0: b6e0 04dc b407 733f 2a6e ac6b eb43 763f
00000400: 6eb8 73f1 0b42 853f 6901 f94a 1672 7c3f
00000410: 039f c8ed fc2d 8d3f ddd2 d6a7 6d69 9b3f
00000420: 00ca a4f2 23ca 74bf 5d85 8114 024a 843f
00000430: 7050 b99f a6d6 3c3f 4526 ae08 c883 91bf
00000440: 398a bdf9 d480 9abf 257d aedd 0b6a 923f
00000450: 8622 d0d0 744e 953f bec8 98d0 c02b 533f
00000460: 3a04 a13a fedc 843f 1aec 7b2a d053 7ebf
00000470: 47af 1040 6639 8c3f 0ee1 d3e2 5af5 9dbf
00000480: 1c11 8a15 8bd8 953f 4036 a9ff e8fc 643f
00000490: e4f1 dae3 32de 813f bc86 298c 1991 863f
000004a0: 249b f0ab aaee 91bf a2fd 345f f363 88bf
000004b0: f5cf b0ff 26aa 96bf 4b8d e4bb 0b01 a33f
000004c0: d84d d56f 1690 823f 9060 c052 4f35 94bf
000004d0: ba1a c6f1 f173 8b3f 6a71 eaa0 dafd 86bf
000004e0: 1c73 f75c 9427 84bf ffb8 10e7 8d70 603f
000004f0: 07b1 e04b 246a 733f 0ffb 0a14 b08e 6b3f
00000500: 82e0 22c8 21ba 823f 1848 2398 0984 92bf
00000510: 181b 5a9f 3d1f 853f f247 32a0 bc77 883f
00000520: 883e a424 ef12 863f 7658 08ac d5bb 8f3f
00000530: 9106 1ae3 37a8 a1bf 0870 5007 5677 63bf
00000540: 9030 5d5e f1d8 8b3f 74df 7ceb aae5 473f
00000550: 587c 8ef5 1ece 943f 708b ef64 240f 91bf
00000560: 60bb 197c e113 7cbf fd11 32f6 e9e6 85bf
00000570: f3cd b2c3 8253 71bf f001 e102 dfce 8dbf
00000580: 987a 8e87 d16f 5f3f f2bf 638c ba0d 58bf
00000590: 71f5 889e 8122 a13f a0ae 215f d892 733f
000005a0: 8014 75b4 3b1b 853f d3fd 8a5f 3d99 6ebf
000005b0: 7b52 fec4 5cf6 883f aa86 4264 fdb6 773f
000005c0: 1e5b ce03 2dc3 923f 96d5 b7f3 2163 6abf
000005d0: f1ec 4ccb ffa3 94bf 8332 dfaf 33eb 73bf
000005e0: 70aa 20ff 08e5 8e3f 4aee 7350 2bbd 5abf
000005f0: 125d 9656 a7a1 81bf 80ab 7cb9 2904 2b3f
00000600: d977 7fe7 6a8f 92bf 4fc5 5a22 de3a 943f
00000610: 3c9a b69d b3c9 613f c0fa bea3 033e 8ebf
00000620: 7a4c 938a c64c 8fbf 6e2d 9de9 2882 70bf
00000630: bb11 852e e220 953f 506d 0c13 54ee 6b3f
00000640: b13e 824a aac4 793f 8d0b 3797 4ce4 9cbf
00000650: 7be8 951b 9773 7bbf 857e 15a4 3d52 883f
00000660: 8637 c5cf d748 853f 4ece 1e81 2389 67bf
00000670: ec84 c4a8 52e6 6fbf 27af f38e 65dc 833f
00000680: f862 6d01 f817 713f 4c5a 19f7 eb5e 953f
00000690: d8e3 5433 3f51 603f f4f6 bd92 3287 42bf
000006a0: 3568 4f5c c092 713f ec8b 99c4 9558 8ebf
000006b0: f82a d05d d37e a03f 7173 22e6 f442 90bf
000006c0: f8a1 df69 40f9 933f ace6 724d 72a9 883f
000006d0: 2e29 2aa6 ded2 923f 7a28 efcf 978c 8e3f
000006e0: 7fc6 4b5b 637d 823f 7ea5 1ef0 d8de 9ebf
000006f0: 5e65 ddc4 7dc3 7e3f b0c2 45bf 720a 20bf
00000700: 8549 00a8 89ac 913f 37d8 c899 b59c 84bf
00000710: 8c32 61ca 11d2 9e3f 045c b345 4536 a2bf
00000720: 7e62 6428 f968 653f a3d0 dc39 2d05 90bf
00000730: f982 b16f c3dd 8dbf 5b0d 09a4 d08a 843f
00000740: e9c0 1eae 24f6 663f 68ca b23f fcd6 7b3f
00000750: 77bf 479e 09d3 81bf b647 bc51 6036 7c3f
00000760: d4d7 0381 ad56 773f 7f34 9014 e8df 603f
00000770: 9eaa 3023 f644 663f 0c03 4dc6 1422 923f
00000780: e068 9468 ac61 853f 5a76 4d0f 36e0 a23f
00000790: f987 8eaa 5469 803f 6f7f e62e 7cda 7f3f
000007a0: 8c0e 76dc 8762 653f 7356 7cf4 f945 78bf
000007b0: d639 69ee 6633 8ebf 2474 a0f4 afef 80bf
000007c0: b880 d310 cd98 9b3f 1044 c386 7842 79bf
000007d0: f76a bc06 bedb a03f 5895 38c7 23b3 97bf
000007e0: 6ec8 e265 0b51 8fbf 4b30 bdfd 2e18 87bf
000007f0: d416 c792 5428 913f 1f02 3069 b22d 6cbf
-0.0011455761066785919 0.004608131166825328 -0.005633696663336025 0.003059636994806979 0.030555714276718687 -0.010597254305186186 -0.01723707724100408 -8.27014923495341e-05
0.0235187788911157 -0.0032803871923961438 0.0019596019427387252 0.009471683607318319 -0.010885242180407406 -0.025652360976655807 0.004116105510041323 -0.004184838046235652
-0.003579013464949081 0.0030917504903111934 -0.0009427955950165436 0.007861044787155455 0.0012779849429902298 -0.0027942877742186045 -0.013748452990749442 0.012236415841734329
-0.006329078835384037 -0.018741337338028845 -0.02273249796162648 0.014884706868218436 -0.0026203412925214125 0.005237813594190563 -0.0020292129947643246 -0.009193318309927385
0.007665899873677213 -0.020034955103842 0.0014022141225946685 0.0016839998473813047 -0.002380003900077384 -0.04028928117315438 0.01610999294325198 -0.017202481625178897
-0.0014340674873659972 0.011771762968487488 0.020610960399382688 0.02325373217423715 -0.00101276570939581 0.006449189983281405 -0.027352394624343763 -0.019359803373145246
0.004336447060341841 -0.008306911572347312 0.006520340071477857 0.004210288269325357 -0.0034950933111426575 -0.03209273778061207 0.016363328315079265 -0.0070479675003261594
0.014695110450091883 -0.0025215433795119967 0.007217162834322854 0.010457404232068581 0.003626511935240555 0.0031849233308183854 -0.0030304911164001037 -0.006302869645406222
-0.015453561086851628 0.0032346253450046313 -0.003614285232170153 0.0006395091618495376 -0.014337524354744547 0.018130270101393207 0.049151237630659955 -0.023011731782885514
-0.01266721001828378 0.014644426660132284 0.0013933740706814713 -0.015696853738420752 -0.001692755909556789 -0.009767455712343104 0.0026571742485888812 -0.0008378456770451702
-0.004913674438651908 0.005067377553188724 0.024713700999781305 -0.01993210065192392 0.022876957563726784 -0.015410741471282453 0.03274417508545965 -0.011361315727599606
0.004528462171383985 0.02222183329132863 -0.0016743268042373166 -0.017529084033714528 0.019526829077199326 -0.0061330340894110505 -0.004667072931352986 -0.004898875817847532
-0.012790261840211115 -0.02482436340785367 0.00966163292134387 -0.009571681848631561 0.00013317356166131467 -0.0006853786875145266 -0.01321791145836346 0.0260461164234931
0.00308937069768278 -0.009823843358792675 -0.031137230323329962 0.010777078502344653 0.013712312078570463 -0.008840615460333663 -0.003387793318894316 -0.014181330983107423
-0.012818771638070041 -0.0019068001872527612 0.013009830111212853 -0.011838897688577231 -0.010326712275393925 -0.0014223116713934596 0.010180074190458558 -0.013046581232458271
-0.008849325878849634 -0.0032448828697209326 -0.006385675290966995 -0.030851631543683672 0.022245708613008848 -0.019315624216797018 0.004646021349167187 0.005435866939275816
0.01037988024333122 0.00694473941945293 0.014247871405202788 0.026769364708985378 -0.005075588628005168 0.009906784296790755 0.00044004028288680604 -0.01710426857929394
-0.025882079832977054 0.017982659726496614 0.020807099575935094 0.0011700995404564786 0.010187135853017993 -0.007404149196868404 0.013781355695833176 -0.029256267637692672
0.021333859624534587 0.0025620032077202926 0.008724591806974887 0.011018943395529994 -0.017512003654839195 -0.011909390776621735 -0.02213345466243762 0.03711735409367608
0.009063887870673179 -0.019734610963582144 0.013404741469242299 -0.011226375613937651 -0.009841116988292202 0.0020067950759062865 0.004739896567155683 0.003363937285342351
0.009144081039593969 -0.018081808005099814 0.01031349318078649 0.011947129858786074 0.010778301530563597 0.0154949849248107 -0.03448652884709447 -0.0023762398000268838
0.013597379390965864 0.0007292828149507561 0.02031753896482899 -0.0166593252760196 -0.006854897308229052 -0.010694339586060581 -0.004230032728787847 -0.014554731631620549
0.0019187494456002537 -0.0014681169282617615 0.03346638736955299 0.004778714372246334 0.010305849499341102 -0.0037351797767255306 0.012188648950350647 0.005789747058004538
0.018322661740593486 -0.00322109824423462 -0.020156857284047317 -0.0048629778884331535 0.015085287366749273 -0.0016320155135066843 -0.008609111146866275 0.00020611771901121387
-0.018125219707023497 0.01975581249889063 0.0021713741422957605 -0.014766720232612385 -0.015283156494126472 -0.004030380072275503 0.020633253182738658 0.0034095422819412705
0.006291070174611655 -0.02821464226668584 -0.006702032341644788 0.011875611848778842 0.010392843273304708 -0.002873010010228139 -0.003894006198735247 0.009697717118306649
0.004173249027041186 0.02086991019890609 0.0019918665299454123 -0.0005654332103259539 0.004290343674222587 -0.014817400038003435 0.03221760292225001 -0.015880419298457796
0.019505506956109614 0.012041943539191045 0.018382529155624265 0.01491659739794592 0.009028221343643892 -0.030146970420593437 0.007510653767746815 -0.00012238169405122878
0.01725974166772339 -0.01006452441752624 0.03009822652556919 -0.035570301779152685 0.002613531719486694 -0.015644747406626035 -0.014583136411773877 0.010030393606149593
0.0028029171380340345 0.006796822878799881 -0.008703303473310815 0.006887794730362209 0.00569789671884809 0.002059891969571625 0.002718430268506224 0.017708134272882467
0.010440203610916077 0.036866845481864544 0.008013402419070547 0.0077767229944639546 0.0026104596651651043 -0.0059261096828514435 -0.014746479178168775 -0.008269667294422751
0.026950077201832484 -0.006166907125774848 0.03292650062777185 -0.02314430144737875 -0.015291298910913489 -0.011276595228672323 0.016755410631751413 -0.0034397587382957308

b2 f8 [1, 10]
00000000: 4dc9 b1b8 0fb8 713f a06e ff94 fe22 3cbf
00000010: b3b3 664d d35f 64bf 56ca b463 df86 72bf
00000020: 740f cf87 f4f9 853f f6cd 8593 86c5 86bf
00000030: e85a a09f ff63 47bf 9c65 c318 c10f 6dbf
00000040: 3699 abac e576 763f 5ae6 3b4c 10ab 623f
0.004325925266231612 -0.00042933192616854444 -0.002487099361323486 -0.004523155799051345 0.010730657953793112 -0.011118937851938942 -0.0007138250505274975 -0.0035475512905633454
0.005484482923497949 0.0022788351360503558
