experiments/exp_h50_lr0.1_run1/model/weights.npz (npz, 319046 bytes, 4 tensors)

W1 f8 [784, 50]
0.0007537821987925072 0.0051735051650842355 -0.013075919435496512 0.0063129429847238894 -0.011969928720497784 -0.007048479509628966 0.014061389119306548 -0.015342884021760931
-0.009139801994311927 -0.00027045028692132675 -0.002599888272981573 -0.001985534566799869 0.002561033784946742 -0.043327291339901576 0.0039800987526642925 -0.004790912535234364
0.009469291608916217 0.009941030562156486 -0.00075466648115329 -0.0017804810683274145 -0.005628924205194999 0.0028427811967778336 0.013062993481267491 -0.0014624311877192162
-0.009015547235494855 -0.0010765199599422897 0.0023319305890312915 -0.018386479304552148 -0.013471938363208855 0.01626225304859099 -0.006707150652589985 0.003245418714633071
-0.001553546849715233 0.004245350198803939 -0.001137165536240482 -0.010692127959376976 -0.0022546948146055183 -0.015336363571663068 0.00677891553560405 -0.004530273482764961
-0.0015612424219144324 -0.006186039190960978 -0.0038741420030020124 -0.01159393860197037 0.009399879503314596 0.01608343043068169 0.005051154645341331 0.0017500215170424514
0.011608100185272438 -0.006070182228110474 -0.004207526656251436 -0.004572681569938612 -0.0031737606647866557 0.004357773307632232 0.01025094849466006 0.013296684122620289
0.003661759769283579 -0.0039376731431989154 0.0012185763535939352 -0.003932981993217577 -0.009649818212337945 0.007542744920364847 0.006056999044910771 -0.0066608093274533545
0.019130760292420456 0.008390638661398752 0.0029647605909612317 -0.010397282367147381 -0.015984810736603024 -0.016980720000649107 -0.0034725623346296623 -0.011608394190946204
-0.014828786410888752 0.002266404178282041 0.012471383653431119 -0.007732518446512231 0.00636165298758499 0.009006939776170024 -0.00029055312831979374 -0.008242138548117516
-0.013279188735536095 -0.006808447647655873 -0.0101911023398146 0.0018324072765522042 0.015787488539373725 0.013697055045838343 -0.001247888133343899 0.008727634272697394
-0.003957498112809398 0.01618996418210449 -0.0003429941792820875 -0.0051047395387034886 0.0035776368580392247 -0.007342723275360388 0.0038846999707498227 -0.011577033847066551
-0.007105473830412649 0.002225669952701444 0.0025904312618822804 -0.017839908419723903 -0.005330560895790708 0.002227961808411786 0.004090172683554308 -0.0028621128403306852
-0.016050905307684906 -0.016067188256376597 -0.0034789619354195383 -0.01763365065226864 -0.009309740292819937 -0.007895352909635727 0.007165922461965228 -0.02200323037322803
0.01731802928418931 -0.007669392091693889 -0.011993461514169737 -0.0044840926311544 -0.0026485824010988764 -0.016362362748791662 -0.007752848791768711 -0.003442548155125607
-0.014906076270178623 -0.0003433132184925989 -0.01385358380013276 -0.000914561322749859 -0.005930671898629044 0.0014114109173125754 0.006978153481408409 -0.0073784270155167935
0.0008648064680702938 0.005535663552816105 0.013316599827528567 0.0057375598102878695 -0.0052220694065171925 -0.020091535060429724 0.01724661129609468 0.00750531663136407
0.010835254719887234 0.0023271235113704026 -0.008641588167586797 -0.018674296464328544 -0.012734939287532237 -0.00806972945072743 0.015285813830384156 0.011692973908379273
0.0038353844932687846 -0.005517267126895027 -0.0011819423390933316 0.010837933129779376 -0.010385192322978532 -0.0029397599714668216 0.008797750191426718 -0.00020538308580333341
-0.02062780404188371 -0.011675414494968214 -8.80308858026657e-05 0.012766452212509194 0.0027240349518925645 -0.0005271598813911435 -0.010430386867644366 0.003162146044760983
0.02011906611767231 -0.004303071771989797 0.02042019921505616 -0.020222283327030473 -0.0033870123414864346 -0.012811165070455464 -0.00984028533243772 -0.019402605939638336
0.016286102276549218 0.00834806291056565 0.008735902413060086 0.008464788962873513 0.0004750983007219114 -8.9417324349762e-05 0.019728643820692702 -0.009002477769313327
-0.01604300673332353 0.0073613653300937006 0.002723424174006889 -0.0055019104721967735 -0.005059514801574216 0.012179671170726006 0.0010404580123934883 0.004012359101513964
-0.018392141627463835 0.00015325461409158002 -0.00025175722266475666 0.0009668633709600822 0.006143471884718871 0.017740730703362514 0.008395070528688583 -0.0122515893081673
0.010686209099729291 -0.01341680570634292 -0.01611737716148466 -0.00419642886420581 -0.004813224245567649 -9.08334975605883e-05 -0.01391622918942347 -0.018063620847751705
-0.009546531610510361 -0.01062554628693014 -0.005632440533875391 -0.001367604762168034 -0.007208201984065655 -0.0023294218531943133 -0.014669258098426497 0.0008855401600007042
-0.00834993473752455 0.005321801527032407 -0.029802081123104698 0.012928932587802592 0.002331669263407683 0.016406249607066145 0.01028471238599923 -0.028910305554720597
0.005560334368193312 -0.0037633494977678994 0.002069258217937527 0.019868262463329116 0.0016757318645142566 0.002229165320946327 0.0033179884472074824 -0.004135929570475214
0.011790728828469604 -0.017133916992250902 -0.005151721226508902 0.0025145374410055843 -0.002731153681194402 0.007227710548014491 -0.006703660145329559 0.02277995187612281
-0.00014813016635808888 -0.004778038471530509 0.00031543299545382276 0.0026110957137124085 -0.008016042417647017 -0.007111782139387522 0.0014809244659162635 -0.0016455737324099786
0.0066903060118491875 0.013462570535897634 -0.010418535766003312 -0.0035918386381922204 -0.004222076664802754 0.0036504284242333544 -0.002625421814859194 -0.015103214350341957
-0.007001825304559255 0.01038708177724531 0.0004905275978774772 -0.0024087502347475637 -0.006059589610079229 -0.0033474536622186846 -0.006495652561014629 -0.012964316548606924
00000000: 9703 31f2 2eb3 483f b3e8 d537 d030 753f
00000010: 5c86 b932 8cc7 8abf b20d 93ba 99db 793f
00000020: 9cb2 1ea3 b083 88bf 96a5 afcf ddde 7cbf
00000030: 42e2 3ab3 37cc 8c3f a25b cc08 176c 8fbf
00000040: a887 4275 e3b7 82bf 1892 3423 67b9 31bf
00000050: 78f9 6163 5c4c 65bf 4286 f1c0 f743 60bf
00000060: cca2 358b e0fa 643f 3585 a8a6 fe2e a6bf
00000070: af04 a49f 6f4d 703f 1f5e 82ca a29f 73bf
00000080: d270 36ce a264 833f 5557 3989 f65b 843f
00000090: af77 8fed 99ba 48bf 444e 6afd e02b 5dbf
000000a0: f6b4 f7d5 5a0e 77bf 0291 a288 be49 673f
000000b0: bfb9 514e c5c0 8a3f 040d ee87 e1f5 57bf
000000c0: de85 4144 be76 82bf fd53 5f81 40a3 51bf
000000d0: 5fce b9b3 691a 633f 19df 34bd e7d3 92bf
000000e0: d83c 78f5 2c97 8bbf c60b 0354 0da7 903f
000000f0: 094a 3c0b f578 7bbf 77b5 b7e7 2296 6a3f
00000100: 86a0 633a 0c74 59bf ae0e 3984 9263 713f
00000110: d25c 7332 9ea1 52bf e807 481f c1e5 85bf
00000120: 34d7 b70f 7078 62bf 1fc0 d6df ab68 8fbf
00000130: 77ba 7148 35c4 7b3f b8e2 3407 568e 72bf
00000140: 6503 2b49 5394 59bf 256f 4540 8856 79bf
00000150: 8098 7e26 aabc 6fbf 15b3 0419 90be 87bf
00000160: 97b3 6c78 3e40 833f 573e d4be 2c78 903f
00000170: f8f5 2300 85b0 743f f02a b64b 1fac 5c3f
00000180: 2bc4 50d5 fcc5 873f 566d 6822 0cdd 78bf
00000190: 659d 2b56 e93b 71bf 783b c4dc cdba 72bf
000001a0: a4c0 56c8 dbff 69bf 9d41 6fdd 74d9 713f
000001b0: 99e4 4c04 73fe 843f f67b 9dbb 4a3b 8b3f
000001c0: 9963 8e4e 44ff 6d3f 7241 f515 f320 70bf
000001d0: 9400 8765 14f7 533f 8d05 96d0 071c 70bf
000001e0: 191f 13ad 48c3 83bf d4a1 142c 24e5 7e3f
000001f0: 99eb f44c 39cf 783f daf0 9e63 5d48 7bbf
00000200: c3d8 3697 0397 933f f365 2575 1c2f 813f
00000210: 78af eab8 8d49 683f 6397 df9d 2b4b 85bf
00000220: 52c6 627d 525e 90bf 83e3 42d4 6463 91bf
00000230: ef45 23b5 7d72 6cbf 9405 464b 24c6 87bf
00000240: a1a1 6405 8e5e 8ebf df5b 687a fe90 623f
00000250: 7139 6bc7 988a 893f f8eb 7e1d 22ac 7fbf
00000260: 2a9c 7b38 ad0e 7a3f e99d 34fe 3a72 823f
00000270: ae05 132f ac0a 33bf 062b 1b1c 41e1 80bf
00000280: 6c3b b18a 1e32 8bbf 853a bbbf 2ce3 7bbf
00000290: d0d9 139a 12df 84bf f8fd d854 ac05 5e3f
000002a0: dfaf d96b 982a 903f 5e7f c99b 330d 8c3f
000002b0: 979e 31ae 0572 54bf fa74 2e3e cbdf 813f
000002c0: d9f7 7ecf bc35 70bf dd00 be1a 1a94 903f
000002d0: ef50 61c8 7c7a 36bf 7828 f915 b5e8 74bf
000002e0: cff8 ab29 d94e 6d3f b6cd 4c45 6713 7ebf
000002f0: 2856 886a ced2 6f3f 450c 102e b3b5 87bf
00000300: 3859 961b a11a 7dbf dec7 1275 913b 623f
00000310: d89b ac31 8738 653f 16c8 e7fc 9f44 92bf
00000320: c5d6 778b 7fd5 75bf 08de 52e3 5f40 623f
00000330: 2ae0 925e dbc0 703f 2c6b 7e21 4972 67bf
00000340: 3786 7805 a66f 90bf 5035 66c0 ea73 90bf
00000350: 25af 9277 e97f 6cbf a33c 7143 8e0e 92bf
00000360: fb3d bc30 fc10 83bf 0351 4c54 702b 80bf
00000370: 78c0 eaa9 035a 7d3f 3cfe 6fcb 0388 96bf
00000380: 9486 a045 d1bb 913f d4a6 6cc3 f069 7fbf
00000390: 9be8 c027 0790 88bf bea9 3f73 e95d 72bf
000003a0: e831 64d9 7ab2 65bf c1bd 9093 4bc1 90bf
000003b0: 5e05 2f80 73c1 7fbf 58a9 b7f7 8b33 6cbf
000003c0: 529e bcb0 1387 8ebf 25aa b30b d77f 36bf
000003d0: ebeb d48a 445f 8cbf ddbd 567c e5f7 4dbf
000003e0: 6f12 919d c24a 78bf 42ee c9ee e21f 573f
000003f0: 0a6d d3cf 1f95 7c3f d51d a46b d738 7ebf
00000400: c2a7 b5bf 8556 4c3f 0c6f bc5e 90ac 763f
00000410: d575 06c6 bb45 8b3f 628c e77b 4480 773f
00000420: b24d 1895 bc63 75bf 243f 0b18 e092 94bf
00000430: f227 ef7d 18a9 913f d034 a517 e5bd 7e3f
00000440: 4772 5345 cb30 863f bbb9 00ec 5410 633f
00000450: 98b4 8554 aeb2 81bf 0d43 5cd2 5a1f 93bf
00000460: 094e 0d9e c614 8abf 63a6 a0c0 dc86 80bf
00000470: 6e36 f433 2b4e 8f3f ea5a 3c64 7cf2 873f
00000480: c1e7 ea5e 626b 6f3f ee13 f91d 4699 76bf
00000490: 9068 4cec 6c5d 53bf 6002 cac2 3232 863f
000004a0: 8770 1eeb d444 85bf 5bf1 ef9d 1f15 68bf
000004b0: 0af0 cd0a 8e04 823f 0a83 fa45 83eb 2abf
000004c0: c624 fe7e 741f 95bf 7893 629b 47e9 87bf
000004d0: b77e 2c1a a713 17bf d3cd e835 4c25 8a3f
000004e0: 1f5f 0221 b750 663f a1ae a439 2346 41bf
000004f0: a46a d9d3 865c 85bf 4d19 1e3b 80e7 693f
00000500: d97f 01ac 179a 943f c051 8708 19a0 71bf
00000510: 8ed3 395f 08e9 943f c200 2976 26b5 94bf
00000520: 2853 9c67 14bf 6bbf 9296 0278 bd3c 8abf
00000530: f030 7dbd 2427 84bf f226 dfd7 46de 93bf
00000540: 36dc a0d2 4dad 903f 7694 7c09 ca18 813f
00000550: 3635 52f9 20e4 813f 85cb 1abe fc55 813f
00000560: e6f8 faa9 d322 3f3f 8483 63ef b170 17bf
00000570: 3969 04e0 be33 943f 563d d11c e46f 82bf
00000580: 8d1c fff4 936d 90bf 14ec 8b75 f326 7e3f
00000590: 74fa 5538 6f4f 663f 389b b2d8 2b89 76bf
000005a0: 26c5 b329 49b9 74bf 689c d5ca a7f1 883f
000005b0: d8b7 b548 ff0b 513f e8d6 ee71 436f 703f
000005c0: e165 2cbb 63d5 92bf c474 681c 5f16 243f
000005d0: 444d b209 c97f 30bf 10b0 6b47 a3ae 4f3f
000005e0: 079d 42ad e529 793f ef5b b648 a02a 923f
000005f0: 7857 f24a 6f31 813f 4d87 387b 5c17 89bf
00000600: 05fc cfb4 a6e2 853f 29e2 cd2d 457a 8bbf
00000610: 0437 39df 1281 90bf 1444 b54b 4630 71bf
00000620: 1a85 910b 08b7 73bf f5a7 099b bbcf 17bf
00000630: fb88 04aa 1c80 8cbf 205c 2713 457f 92bf
00000640: 907f 75c8 218d 83bf 459d 6fae d8c2 85bf
00000650: b00b 3cbe 0a12 77bf 4b28 8d6e 2668 56bf
00000660: 5b69 8dfc 5886 7dbf 33a5 b2d5 2615 63bf
00000670: 9a89 507e ea0a 8ebf 3f46 6403 7304 4d3f
00000680: c3a1 f844 c519 81bf e202 3b38 50cc 753f
00000690: e71b 1bcf 6f84 9ebf 022b 18f5 7b7a 8a3f
000006a0: 29d4 6767 dd19 633f 9ca8 0cc6 cccc 903f
000006b0: 6ee7 c5ba 2610 853f b7e3 7fc3 a99a 9dbf
000006c0: c36a 42e4 6ec6 763f e9c8 85e0 50d4 6ebf
000006d0: 91c9 ef8b 8cf3 603f 0e8b 0886 5858 943f
000006e0: 175d 8463 8774 5b3f 39b2 d304 e642 623f
000006f0: 75fe d07b 532e 6b3f ca66 e623 d6f0 70bf
00000700: 23d9 b6d5 bc25 883f 8b50 89b4 8d8b 91bf
00000710: 2ab6 f9a2 f819 75bf d2a3 5b02 5e99 643f
00000720: 56ed b6f7 a45f 66bf dddb dbc6 cd9a 7d3f
00000730: a62c 6711 4c75 7bbf 21e6 3fb1 a053 973f
00000740: cc93 ab70 6c6a 23bf b28a 96ef 2292 73bf
00000750: 2123 4966 16ac 343f cecf 4e56 dd63 653f
00000760: 9996 3700 b76a 80bf cb75 477b 3e21 7dbf
00000770: 5781 8889 7243 583f 0671 4957 09f6 5abf
00000780: 9786 5658 4b67 7b3f cdca 5fa1 4392 8b3f
00000790: 5af7 1833 5056 85bf de32 79af a16c 6dbf
000007a0: 59ff 2413 2b4b 71bf 01e0 59d6 80e7 6d3f
000007b0: 7a24 a89a e881 65bf 62f4 971d 6fee 8ebf
000007c0: 5f4e 202b f2ad 7cbf 6cee 4584 d245 853f
000007d0: 9b3f cefe d712 403f 726b 70ef 83bb 63bf
000007e0: f252 3db3 f0d1 78bf 24a0 2180 1e6c 6bbf
000007f0: b141 0d75 2f9b 7abf a6e5 ba1c 098d 8abf

b1 f8 [1, 50]
0.385998080237746 0.3866378268691727 0.3855762845329771 0.38592747042583403 0.38544786322020325 0.3854385585899798 0.38633113992282253 0.38607764435760844
0.3863521866913368 0.38639267606101985 0.38579567028662126 0.38611485406266743 0.38606760078248675 0.38663410186163866 0.3859506578550818 0.3867276632655122
0.38590634218412834 0.3857778112536823 0.386491436183742 0.3860074147886202 0.38534560090981934 0.38623949182696476 0.3862130856994205 0.38643419688010955
0.38452909969534954 0.38639071732067803 0.38567548457423845 0.38662608016306743 0.38578825138234585 0.38615320734479264 0.38612684571648387 0.3866205399795584
0.38642221512850305 0.3864371672507132 0.3866451506073677 0.38599041611546586 0.386337414939977 0.386473550299658 0.3853716176846887 0.38548182736888975
0.3862231597458217 0.386211420874495 0.3867050168542088 0.38591010012617744 0.38609662082048546 0.38537538113002245 0.3865350567201092 0.3866117216976755
0.38624314438365576 0.3862242667065523
00000000: 5f27 bc4a 31b4 d83f c22c 7395 acbe d83f
00000010: 40ab 0b27 48ad d83f 81d8 0622 09b3 d83f
00000020: b501 b683 2dab d83f d8b9 f07c 06ab d83f
00000030: 6a46 d93e a6b9 d83f b1e3 0e02 7fb5 d83f
00000040: c3f3 a485 feb9 d83f e724 c658 a8ba d83f
00000050: a971 b452 e0b0 d83f eabb ac13 1bb6 d83f
00000060: 53fb d9e1 54b5 d83f 89e6 c0f5 9cbe d83f
00000070: 61dd 5663 6ab3 d83f 9ec4 8b62 25c0 d83f
00000080: fefc bf83 b0b2 d83f 85d9 b66a 95b0 d83f
00000090: b1f7 a593 46bc d83f daf5 a171 58b4 d83f
000000a0: 492b 6498 80a9 d83f a182 74d8 25b8 d83f
000000b0: be70 1717 b7b7 d83f 79fd 697f 56bb d83f
000000c0: 8251 e3f0 1f9c d83f e1b2 9721 a0ba d83f
000000d0: 2f61 473a e8ae d83f e82f 8550 7bbe d83f
000000e0: a090 b734 c1b0 d83f 28a6 32f1 bbb6 d83f
000000f0: 976f 9d5f 4db6 d83f dd23 cb13 64be d83f
00000100: e02f 1b3e 24bb d83f 983e d3f4 62bb d83f
00000110: 3a00 414d cbbe d83f 4b43 7225 11b4 d83f
00000120: 44db 9890 c0b9 d83f 3296 d38e fbbb d83f
00000130: 65ca b0b7 eda9 d83f d71b 70f8 bbab d83f
00000140: c93a 0458 e1b7 d83f 76d9 7f1b b0b7 d83f
00000150: 11a1 2566 c6bf d83f ae3b cf46 c0b2 d83f
00000160: 4849 e199 ceb5 d83f 50c4 a880 fda9 d83f
00000170: 35b4 d788 fdbc d83f f545 3c17 3fbe d83f
00000180: 03a6 5b2a 35b8 d83f 4047 9bfc e5b7 d83f

W2 f8 [50, 10]
0.014949091436211688 -0.003527070032178025 0.015059983235186272 -0.011759717227515922 0.011791295637848283 -0.016667503088352072 0.01997305354708329 -0.049583378181854904
0.03606451672094593 -0.024288672571134748 -0.022037611955937165 -0.002803305805943836 -0.004539216734742979 -0.04119651048770279 0.04560573050780032 -0.01567155353698593
-0.004652267207982884 -0.004097785650093903 -0.014312208781419783 0.021437261036429883 0.002584256332989669 -0.020368075557182883 0.06232997957846531 0.010712309589597402
-0.010541242672732468 -0.044469254834455976 0.024320227194577458 0.0011648632340427903 -0.050033976733275864 0.020281736446963725 -0.023580004088503123 0.017921254786858055
-0.046850191322588386 -0.03490372958049677 -0.012537769312039211 0.027167000535034368 -0.02724813316846056 0.00257982141016026 0.0998282295780916 0.005630455187855064
0.023963451032169906 -0.08658887124701262 0.05415898078515557 -0.033778545811274596 0.037901222347246376 -0.02423867679994205 -0.015241182838940022 0.058114784031271925
-0.01890733938770952 0.03623302857975855 -0.020155008132052715 0.03647039473286696 0.04077270949063403 0.022842233359123307 -0.037252388299840906 -0.02695581574484806
-0.0181820118343508 0.008974849962254979 0.06834528148764178 -0.08345631923027269 -0.030450989608885422 0.031030419958756713 0.02303086921392627 -0.010642278261087178
-0.009047803885310525 0.06494479428024144 -0.06278017469596253 -0.010624492670265669 0.01646275365768788 0.0019905519292086346 0.007448767718170737 -0.05133778504899417
0.004649708506628615 0.004382735533207848 0.021982595809661255 -0.017377311270367762 0.020962260341379206 0.011915836041878286 0.05578312927787259 -0.03455808367576083
0.008826216110844443 0.012847797282288714 -0.07739530113607505 -0.025141987131593265 0.0525754023972587 0.012654948540979828 -0.00911087538534333 0.03492326932936294
0.00442842872057951 -0.004052331777531269 0.008451942325993882 0.026253248304107406 0.011654904372803256 -0.0032590864992987673 -0.035407062132847805 0.045647399994127674
7.268581090688099e-05 0.008513072111765914 -0.0043653228994279415 0.019253818613724726 0.039445695948471596 0.04115803951122251 0.03026889293179921 0.021456349149034097
-0.030385536346778094 0.0034490014072166785 -0.06034727013434645 -0.02896860394328958 -0.00265998653491439 0.00045600422992705426 -0.023822982863475912 0.015470291847357298
-0.008259971762776085 -0.015100926094009858 0.027426093442450488 -0.04554578331088673 -0.045639374760210925 0.05745603405843207 0.04373819749473798 -0.05361527363357683
0.0025146847306644063 -0.02928296773688172 -0.008288453117517145 -0.02075379050721792 0.04359331151785041 0.02095707141353814 -0.006828458207695726 0.009329161604661958
-0.07854041855096892 0.04879034435343263 -0.05049102422660254 0.004838379186253803 0.021970445126514238 -0.004422539309748771 0.02820844133464234 0.00910615878199353
-0.007736133707767915 0.002167634963376351 -0.021845925845545136 0.0012362434669754754 -0.025746086261113937 0.054695354105137935 -0.007715110078617167 0.0441842190401548
0.04314584001217334 -0.003431414972789028 -0.030566461191705124 -0.032433201360543513 -0.021162316986453978 0.0042625089859063435 -0.029519935658174623 0.05163385919612794
-0.020901835906538657 -0.05530635699332176 0.019838191611600345 0.024698574258118597 -0.02046726600944849 0.01392581430276155 -0.0038959556173281586 -0.013960510943458623
-0.027635230103461052 0.018965331036435308 -0.03658435882231135 0.07417381090444877 -0.0015400770623401226 -0.0038321846542976115 -0.0426665998440083 0.03334722187871196
0.005068641138240527 -0.009161537132482508 -0.03695340050710855 -0.03672046291165638 0.013703079257136184 0.02979640471119394 0.03277055845864987 8.627738274321738e-05
0.024958147968222915 -0.044744038282792276 0.05466256318909378 0.0003381933192692617 -0.028510841084611535 -0.013484304763726442 0.03599228529463905 -0.009687060807955492
-0.028139933262319883 0.05255651817083563 -0.008628294846525917 0.01411887675876446 0.015829914663143336 -0.018462531071658857 -0.00855013958640824 0.058984509874115784
-0.009312634791125183 -0.0058425942136646255 -0.013890778927985039 0.004094040367355828 -0.00152121924281575 0.032132537135430725 -0.06971107758480038 0.03555858841647032
0.045302657488926264 0.021215596781511165 0.019766366146510977 -0.04489028204739699 -0.028114438118230233 -0.04583866902570135 -0.051729698441248397 -0.004104025878932577
0.07081411873256042 0.04364775335125184 0.007336885043178943 0.04340148193694557 -0.029739869160877352 -0.013873951410302296 -0.027311259437107997 0.03283949001751168
0.034040909825823785 -0.017905822244404995 -0.014904054341784248 -0.06910843028621572 0.022753485154230813 0.01248121889745445 -0.02158323030424566 0.007263140161910124
0.020266593119831797 0.000566063897399687 -0.05055779605242398 0.029001764042294313 -0.010262349443764973 0.055094946537026485 -0.0657095937010864 0.02252304390787908
0.00990811606713787 -0.02369283686239171 -0.030982856055451896 0.033971351778670285 0.01510698083551085 0.0010840001254406192 0.02402946973104072 -0.011899302342115253
-0.05793703133576045 -0.035365246770687794 0.042072559325090624 0.08114951805508135 0.08202922089612183 -0.0018898805634853374 -0.09772600095162232 -0.02249028276091421
0.018263047765301965 0.011497374040636417 -0.047768892505368955 -0.016631244223577278 0.024939396610749693 -0.06857004434979933 -0.013152205118513277 0.03595663523896791
00000000: 3769 9616 a19d 8e3f 3285 0b4e cde4 6cbf
00000010: 6897 c9bb c4d7 8e3f 8e17 3887 7a15 88bf
00000020: 71de 22e9 0826 883f bf8a ae32 4911 91bf
00000030: d1d7 24ef d073 943f 84ba 6e17 fe62 a9bf
00000040: a49a b95f 0c77 a23f 9cd3 6c39 21df 98bf
00000050: 8ddf 871a 0791 96bf 6a1c 3b58 f5f6 66bf
00000060: 6686 cdb6 b697 72bf e00c 8282 b517 a5bf
00000070: 1917 1562 a259 a73f a7eb ac27 340c 90bf
00000080: b22b 2b78 410e 73bf 1197 a6f5 d6c8 70bf
00000090: 70a1 3225 b84f 8dbf 6be5 443c a6f3 953f
000000a0: 3cd4 e80d 942b 653f bc2b 9a69 5edb 94bf
000000b0: 6020 b30f b7e9 af3f 20ca d0da 55f0 853f
000000c0: f505 4fa4 a596 85bf 7209 6296 acc4 a6bf
000000d0: 365e bad1 66e7 983f ce52 a65f ca15 533f
000000e0: a838 84ab 0d9e a9bf 1cb3 fb4a bcc4 943f
000000f0: 5c42 9949 5b25 98bf 6af2 d90c f359 923f
00000100: b06e 158f bffc a7bf ba02 1dd2 e6de a1bf
00000110: 84ae 47e9 66ad 89bf b644 508b aad1 9b3f
00000120: 28a5 5743 efe6 9bbf 59d0 c112 4722 653f
00000130: 5b67 41c5 578e b93f 587e 4bce f50f 773f
00000140: e10b eef9 df89 983f de16 3432 b02a b6bf
00000150: 0f8d 83d6 b9ba ab3f b0b8 21eb 6b4b a1bf
00000160: 2371 ebfc c967 a33f 3ac3 9d10 06d2 98bf
00000170: f1cb c3ee c436 8fbf 2326 a891 38c1 ad3f
00000180: 0660 4c11 725c 93bf 24f8 91b1 228d a23f
00000190: 7b72 1cb3 83a3 94bf 51bc 4c61 3fac a23f
000001a0: 1dc5 a91b 29e0 a43f 69ea fa54 f463 973f
000001b0: 1134 e4ba be12 a3bf 5e97 3e2c 4e9a 9bbf
000001c0: 0eeb d028 4e9e 92bf d15a 98f8 6761 823f
000001d0: 3349 d38c 137f b13f 1412 bdb1 645d b5bf
000001e0: cf05 0152 8b2e 9fbf afb3 9d3b 70c6 9f3f
000001f0: 3f00 4a78 6795 973f acbe b068 9ecb 85bf
00000200: e7e2 4dae a787 82bf 4ea5 7ad7 38a0 b03f
00000210: f804 288d 5c12 b0bf 846c 7144 4bc2 85bf
00000220: da5b 3fb2 9cdb 903f 426b fb6d 7d4e 603f
00000230: 1cb3 eb5b 9982 7e3f 9844 ab37 f248 aabf
00000240: 0eea 8c9f 920b 733f 4caa 839c a1f3 713f
00000250: aab0 5508 9b82 963f 5802 659e 5bcb 91bf
00000260: ae41 777a 2177 953f 7dbd d570 5467 883f
00000270: 6681 d537 9b8f ac3f 5d4f 66de 98b1 a1bf
00000280: 4019 59ac 7a13 823f 907b 3929 f24f 8a3f
00000290: ef56 3eaf 2dd0 b3bf 4f53 f231 d2be 99bf
000002a0: 8593 bdc3 29eb aa3f c7b6 ed70 d6ea 893f
000002b0: 9f39 8bfe b8a8 82bf cd2c 4777 76e1 a13f
000002c0: afde 7048 8b23 723f 7107 5087 2d99 70bf
000002d0: 7cc7 057f 404f 813f ce06 85ab 21e2 9a3f
000002e0: c11d f4c8 86de 873f 4904 bdbd ccb2 6abf
000002f0: 2ce8 d0db df20 a2bf 2c92 3e94 185f a73f
00000300: 80d6 10b9 dc0d 133f 91db 7732 4d6f 813f
00000310: 92af 6e71 5fe1 71bf 7385 13e5 45b7 933f
00000320: 521f 22ec 3932 a43f 3b1b 56a3 aa12 a53f
00000330: 17ae e904 cffe 9e3f 4ef0 8b37 a7f8 953f
00000340: 9ff8 85d3 621d 9fbf b36a ee87 1441 6c3f
00000350: ab81 425f d6e5 aebf 9c56 301a f2a9 9dbf
00000360: f8b5 9b65 65ca 65bf a0ad 1e41 7be2 3d3f
00000370: f5cc 2a51 0d65 98bf 930f 5a6c e3ae 8f3f
00000380: 9930 b2a4 9aea 80bf 1966 b4fd 3bed 8ebf
00000390: 1bc8 91f9 9515 9c3f dbf8 94e3 c651 a7bf
000003a0: 8b8e 024c 0b5e a7bf a647 7a96 e06a ad3f
000003b0: e4da a65f da64 a63f f904 a50d 7673 abbf
000003c0: fecc b115 ad99 643f b1f6 09b3 5afc 9dbf
000003d0: 05e4 9758 89f9 80bf fe73 fc4d 7b40 95bf
000003e0: a246 96ce dc51 a63f cf44 5d41 c575 953f
000003f0: 7a4d f24a 28f8 7bbf 5ed1 eddf 2a1b 833f
00000400: 272f 1791 391b b4bf ac96 b74a 0cfb a83f
00000410: 3cf0 96a3 f5d9 a9bf ca01 ee85 68d1 733f
00000420: 5d11 309d 6b7f 963f f0d7 355b 5e1d 72bf
00000430: 6f81 0374 ace2 9c3f 5169 49f1 3fa6 823f
00000440: ea87 5b94 ecaf 7fbf fc31 e028 dcc1 613f
00000450: 24d6 3a44 c75e 96bf d8e7 ac50 2e41 543f
00000460: 5846 f799 2e5d 9abf 91d9 3f8a 0701 ac3f
00000470: a22e 9017 e199 7fbf 31b4 8d5f 509f a63f
00000480: 5c18 9f27 3617 a63f 6acc c9e2 321c 6cbf
00000490: 7bf9 b07c d04c 9fbf 01d6 4ba6 159b a0bf
000004a0: 9d26 750d 93ab 95bf 330f 188b 9075 713f
000004b0: 1073 ed58 793a 9ebf ce2e 3ad1 c06f aa3f
000004c0: b06b 9476 4a67 95bf f02c 1865 1d51 acbf
000004d0: f402 bc80 7650 943f 5c29 c942 954a 993f
000004e0: 42b1 98f8 5ef5 94bf d215 0128 2385 8c3f
000004f0: 2ca6 d13e 69ea 6fbf fe36 800f 5497 8cbf
00000500: 4715 0ce6 684c 9cbf 0aba 3cd2 a56b 933f
00000510: bdb8 5f61 2fbb a2bf 52e6 0d0c 0efd b23f
00000520: 4cb3 6d27 8d3b 59bf 50eb 6578 ac64 6fbf
00000530: 3b4e ec85 65d8 a5bf 0e57 c316 e312 a13f
00000540: ce4e c8fe dac2 743f 98ba ebb2 48c3 82bf
00000550: d8db 4e5d 8eeb a2bf f95d 9946 06cd a2bf
00000560: 7275 1c2a 5c10 8c3f 6182 17df f282 9e3f
00000570: 54ff b379 4dc7 a03f c036 2926 fa9d 163f
00000580: 9b42 2bf5 a08e 993f 502b 3bca b0e8 a6bf
00000590: dee5 6c42 bbfc ab3f d003 f93e f129 363f
000005a0: fcd0 2828 f231 9dbf 4e8a c1bf a89d 8bbf
000005b0: a05f 7fb0 946d a23f d88f ea4a cfd6 83bf
000005c0: 9d0b 4bf4 b6d0 9cbf 4182 781d b0e8 aa3f
000005d0: 7214 7d21 b6ab 81bf ca2e 7b8f 5bea 8c3f
000005e0: c54f 1b97 b735 903f c2db 9d7c d7e7 92bf
000005f0: f0e8 324f bc82 81bf 6684 c2b9 3733 ae3f
00000600: 7296 f0ae 8012 83bf 06d1 2471 67ee 77bf
00000610: ae7b b1c9 c472 8cbf 7adf c797 e9c4 703f
00000620: 5cd7 77b9 74ec 58bf 4eb3 4408 ad73 a03f
00000630: 6c48 65ce 95d8 b1bf 926b ae3c bc34 a23f
00000640: b174 acf0 e831 a73f 18ea 5d99 8ab9 953f
00000650: e8dd a360 a23d 943f b283 9aea dbfb a6bf
00000660: 2388 0d01 08ca 9cbf 8311 b780 2a78 a7bf
00000670: 4dff 12a6 507c aabf a047 e90e 62cf 70bf
00000680: 1329 0dc4 df20 b23f 2300 6092 ff58 a63f
00000690: da18 0a15 480d 7e3f 6cc3 0813 b838 a63f
000006a0: a3af bbd5 2074 9ebf e59c 963c f269 8cbf
000006b0: a13a 6198 7bf7 9bbf d7f9 486f 56d0 a03f
000006c0: 9522 db64 cf6d a13f 2b74 ca63 e755 92bf
000006d0: 9560 ce4f 0486 8ebf 900a f50f 17b1 b1bf
000006e0: 8005 6e8a b04c 973f ba8c d4d7 c08f 893f
000006f0: 16f1 3111 ea19 96bf 1efe 6257 f4bf 7d3f
00000700: fca3 9a0a c4c0 943f f8a8 a0f6 7c8c 423f
00000710: 45bc 3421 b6e2 a9bf ee12 5a70 a3b2 9d3f
00000720: e0c2 ed39 6d04 85bf bc50 1aa3 6735 ac3f
00000730: f6c7 fa0b 58d2 b0bf 637d f6e3 4710 973f
00000740: de60 c9d3 b44a 843f 50cc e45d ef42 98bf
00000750: b8b7 fa45 f8b9 9fbf 71d5 c769 b164 a13f
00000760: f2dd 09a5 68f0 8e3f c6af 9b45 a0c2 513f
00000770: 6648 8a6a 2e9b 983f 909f 3c53 a95e 88bf
00000780: 70fb a02d eca9 adbf e613 97c4 641b a2bf
00000790: 2777 b8d4 888a a53f fbfa 21fe 36c6 b43f
000007a0: 26b1 10f5 ddff b43f 3c3d aacd bbf6 5ebf
000007b0: 705b 0e3a 9204 b9bf 9561 be53 b107 97bf
000007c0: e04f 8263 8cb3 923f b18e f46b ef8b 873f
000007d0: 1d45 270e 2a75 a8bf 96d2 20e8 c707 91bf
000007e0: 55f2 4c93 b689 993f 6ab8 f771 ce8d b1bf
000007f0: 5d9a d516 8bef 8abf 17e4 d978 e868 a23f

b2 f8 [1, 10]
-0.0013380768315017617 0.0074849620306483506 -0.008708849756962032 -0.010626739725881993 0.0048592202876569165 0.00985982625462302 -0.005795406999854059 0.013006284376613875
-0.006611704537902871 -0.0021295150974387214
00000000: b601 c60e 4dec 55bf 398e 2232 8da8 7e3f
00000010: ecab 2207 f2d5 81bf b2a6 afdc 78c3 85bf
00000020: d842 8303 43e7 733f 0879 767a 6331 843f
00000030: 1b8b 80b8 ecbc 77bf 7afc 51f0 09a3 8a3f
00000040: 307f 2dec df14 7bbf be11 65b6 ea71 61bf
