experiments/exp_batch_20250114_141918/exp_h50_lr0.01_run3/model/weights.npz (npz, 319046 bytes, 4 tensors)

W1 f8 [784, 50]
00000000: b72c df02 d808 97bf 49a2 c778 8a78 7ebf
00000010: f5be 83a9 6551 5fbf 969a 2a8d 0392 77bf
00000020: 11ea 2fec d7f7 87bf 7939 1adb 5454 64bf
00000030: be7b aa73 f310 573f c533 928b 6e74 74bf
00000040: 4348 4fa9 c82f 723f 5cd3 1b3e f907 3e3f
00000050: c9ed 0559 5619 78bf c59b 626d c6a3 633f
00000060: 7607 050e b9ee 89bf 7158 e115 ae64 773f
00000070: 92d2 18c2 cd80 86bf 68ee b79e b94c 7cbf
00000080: 3e0f 81dc 2c25 873f 57f4 880d 090d 883f
00000090: 5cb9 9486 5557 84bf be93 56dc 97ce 8dbf
000000a0: 8dc1 8a39 6b83 89bf 0d47 619a 9ccb 85bf
000000b0: 8b1f 2a6a eae8 803f 50a3 055b b7d7 7b3f
000000c0: 2113 42cb 613b 8fbf b60c 7a6c 5fe8 86bf
000000d0: f71a a329 070f 42bf e34b 2f2a c678 893f
000000e0: ba22 8654 1ebe 84bf 52f6 9aa3 8fb5 98bf
000000f0: 0efc b959 8b17 683f 030d e5ff 5e5c 613f
00000100: 0a30 9a25 9855 74bf 2351 85da c774 74bf
00000110: dea9 2e29 e26d 8c3f 3ef2 e6f2 f724 27bf
00000120: 4f26 85d4 43cd 503f b205 adc1 e2b8 543f
00000130: 9f57 d771 6284 923f f55c 4859 88e7 783f
00000140: 6ea4 9aa7 6335 813f 6cd8 448d 70a9 84bf
00000150: 4a0f 4cd7 dd43 763f 96f8 8537 eda9 473f
00000160: 019a 276e 2969 8ebf 035b 2485 64ec 813f
00000170: d72d dc9b d13a 7dbf 031c d7af 4b6c 923f
00000180: bc1f f30e 707d 833f 6169 14b7 27c9 7abf
00000190: 2c94 5efc ced3 7fbf 863f 702e 6c31 523f
000001a0: 947f 759c 78ed 803f 3c28 a2db 698d 773f
000001b0: 6f7f c260 d86a 763f 7fc7 7275 370f 8dbf
000001c0: ef63 28ba 3cd4 463f dee4 9868 4fa0 93bf
000001d0: 15bf 592c 741b 81bf 89fd 1ae3 3ebe 5a3f
000001e0: 8d39 99e9 a466 77bf 279f 94c1 4147 913f
000001f0: e59b f1b7 058b 7e3f a3a4 3346 8588 823f
00000200: a666 7b1c 7edb 903f 2f74 0160 1033 763f
00000210: c979 5941 f8e4 7cbf be4f 0b2a db32 7e3f
00000220: 6a9d 4b71 ed2e 90bf e0e2 5f7d 6da7 64bf
00000230: 7974 7186 036d 74bf df72 bf88 bc96 6abf
00000240: 0d69 7f58 d769 203f 6960 6ea9 3fba 7f3f
00000250: 50e1 6b97 df7a 8c3f 8092 fc86 3967 753f
00000260: ee17 03ec 6354 85bf 5e9a 7ae3 60dc 503f
00000270: 0f26 937c ca49 853f acb5 9170 ca11 713f
00000280: c7b5 79d7 e0d5 923f 2536 9307 0136 48bf
00000290: f963 d059 cc35 81bf 1c34 75d7 aa3c 85bf
000002a0: f6f4 6b8a 668e 7f3f 0ce7 0f1d 7bf8 723f
000002b0: 08a4 93d4 d975 71bf 68bf 5ad7 13a9 823f
000002c0: 6d19 2912 8480 623f d81e 5791 f71b 74bf
000002d0: 3b80 41eb c32c 84bf 7208 41eb 16cd 44bf
000002e0: c713 f6b3 d379 6e3f f033 b0de 2935 94bf
000002f0: 9e19 520b 9861 813f e8ee 1817 77a4 833f
00000300: 1331 9ef7 9cc2 7d3f 71ef d096 d331 773f
00000310: fabf 7f0c fc22 92bf c303 86ad 1c4a 913f
00000320: d9ff 15e9 6a39 813f b1af 5465 165c 703f
00000330: e096 6f02 1d07 863f 9542 70cf fc54 933f
00000340: d298 85d4 79a1 5f3f d7ac 2bc6 67e0 5fbf
00000350: 931e 7c52 2347 87bf 4e52 1272 5593 853f
00000360: 412d 6171 e6e2 643f e500 3f76 ff1a 6c3f
00000370: 5fba a2d1 9671 63bf 201a a5d1 a10f 983f
00000380: f1fe b83d 837f 70bf 31de 37bb 944d 833f
00000390: 4342 a1ed d222 8fbf 2a6c 3d92 10d3 733f
000003a0: 249d 72f5 e163 88bf 61ee c570 2f4a 733f
000003b0: dccf d093 5e09 79bf f5fe 2810 9c1e 643f
000003c0: 9eb5 7d58 412b 673f 966e 1ae6 a0fb 533f
000003d0: 6550 ac85 65e7 613f f2c7 c0fd 0444 593f
000003e0: 8e4e 20f0 d053 73bf 75e1 c2e6 70d0 5a3f
000003f0: 3736 4379 0e19 7b3f 947e 9af9 c2ce 71bf
00000400: 00a5 0e4c f6fb 7abf 0a69 d953 6378 6d3f
00000410: 4120 0b74 1436 7abf 84f2 e1f7 5f08 69bf
00000420: bb50 c292 95d1 77bf c969 ced8 c83c 82bf
00000430: 67c4 9923 68ce 4c3f baf1 e452 1b5b 813f
00000440: 8d8c 72b1 256a 77bf 233f 64e1 d961 87bf
00000450: d49a 2f61 1afe 90bf 5e98 db72 3875 833f
00000460: 041c d6f9 5024 85bf 0ce6 2009 7682 363f
00000470: 9ede be2a 98c8 673f b6c7 c4ef 6fa5 233f
00000480: a8bc b0b7 a408 5e3f 1a69 588f f432 74bf
00000490: b093 0139 a988 833f 21e2 3fa1 22fb 7e3f
000004a0: bef7 fc44 ff83 773f e165 9841 aab4 413f
000004b0: ccca 5a67 df5b 653f 0ddf d306 c8af 753f
000004c0: 84a9 7168 1d8a 8a3f 4fb8 3ae8 4754 713f
000004d0: 75d2 8112 6e11 713f a864 1c8b 01b8 85bf
000004e0: 1aab 7983 ec43 64bf 3ca8 462b c2a5 903f
000004f0: 3239 6c3d 0753 92bf d53d 0268 60fd 963f
00000500: f63a ef21 f603 80bf 2ccb f0a7 fb37 853f
00000510: aa8c 6310 6053 90bf 47fd 0c98 1198 85bf
00000520: 9627 ad27 118d 803f 47f8 de3a 461e 783f
00000530: bb8b 0ed7 94fb 61bf e893 1068 ebc5 623f
00000540: 78cf 15e9 8fd5 80bf 9073 ddc3 d1fc 7f3f
00000550: fe3a e3fd 1deb 783f 44f4 1d90 6573 5fbf
00000560: 55d0 6784 a4bb 593f 21e1 e407 0004 74bf
00000570: 12d5 acfb f016 7c3f ba5a 157d afea 74bf
00000580: 2ff8 bf60 cb8b 95bf 93d4 3783 7399 89bf
00000590: ed05 fee1 6e81 813f ea46 7d4c 8b5a 51bf
000005a0: dcfe daee a873 7a3f 0d0d 1526 7156 543f
000005b0: dbc9 6210 c10d 81bf 4576 e779 7cb4 75bf
000005c0: d861 e40c f225 4b3f ff5b 2bb4 cc1f 88bf
000005d0: 572d bf18 f08d 663f f68a b635 ea56 8abf
000005e0: 76c1 d248 6fa5 603f d5da 06ad e7b6 633f
000005f0: 91d2 c262 24f4 66bf ffa8 c528 17b9 a4bf
00000600: 7cc1 fb93 d726 663f 1af2 0d36 f718 6cbf
00000610: 5a4d 93f4 7599 513f 9fb7 dc1d fd67 4b3f
00000620: 6d2e 2f14 0d8c 70bf a5eb ad23 8dba 5b3f
00000630: 52af 7c93 75e2 71bf 6ab2 d755 1b05 7c3f
00000640: fe69 6939 deb4 6abf 5737 560d a128 8fbf
00000650: b5d1 d7aa c47a 68bf fac0 60f3 4e4b 81bf
00000660: bf38 a8ea 5714 943f 0e67 7e89 e999 68bf
00000670: 2eca 969a c6d9 5a3f 728f a924 8072 76bf
00000680: e3ec 4239 56cb 70bf 6d2d 8c42 d313 7ebf
00000690: 6a87 09ac f14e 7fbf fb9b c1b0 a99b 783f
000006a0: 6f1c 2aaf 5c8a 72bf be90 f44f 86f8 763f
000006b0: ed53 ff64 68d7 893f 0c8f 23d4 45e7 8e3f
000006c0: 8aa7 d882 02ad 72bf 7f28 4bb9 8cb4 893f
000006d0: 6327 5536 6da5 5b3f a16a 9746 e6f6 72bf
000006e0: 9106 c7d4 911e 673f 1033 4261 86b7 5abf
000006f0: 915c 1428 0aeb 813f 7a22 4cdc fc19 61bf
00000700: e3f6 2df5 ef7f 693f aca8 e306 214e 83bf
00000710: 954d 9d56 2be1 7d3f 253f 9ab4 f31c 593f
00000720: 8945 0f40 65aa 78bf 916e 81ac 5852 78bf
00000730: 47b6 2032 4e17 8c3f 5f62 85ae 637a 6a3f
00000740: 5bcf 4c10 c89b 3b3f ce07 ab08 1371 8d3f
00000750: 4961 96b2 246e 6fbf 531f 4449 b588 593f
00000760: 740b 778b 4947 523f 451a e198 157d 923f
00000770: 3a3e 7dfb 6b08 75bf eb0e 397a dace 813f
00000780: ae31 4550 a215 903f 6faa 1135 e96f 74bf
00000790: 91aa 7487 5b52 63bf 35af 0575 52ad 51bf
000007a0: af6b eade f9ff 65bf 77f0 9e23 5b4a 423f
000007b0: e877 2667 3f08 683f 9b55 3dec 334e 7ebf
000007c0: 51d2 5ab4 def9 77bf cec4 3446 062f 863f
000007d0: 660f a090 bf4a 81bf bee3 2b87 a8d7 783f
000007e0: a1c5 1143 cb4d 563f 738b f9b1 7a88 853f
000007f0: d59f 75a4 9d28 6cbf 2162 55df f3bd 823f
-0.022494673896102237 -0.00743917551560764 -0.0019114964289279033 -0.005754484055308004 -0.011703192611084242 -0.0024816186276616606 0.0014078500231915337 -0.004993850533662807
0.004440101464711135 0.00045823893570622553 -0.005883538528333295 0.0023974299939086585 -0.01266235899004518 0.005711250325552184 -0.010987861142987474 -0.006909108236409979
0.011301374892475399 0.01174361298137165 -0.009932201547226675 -0.01455420151871489 -0.012457692807715382 -0.010642264806083124 0.008256751408467064 0.006797519905696728
-0.015249980941243248 -0.011185403345058336 -0.0005511078809597715 0.012437389528633552 -0.010128247217623499 -0.024130100594211897 0.0029409143151606426 0.002119241281577923
-0.004964441608205314 -0.004994183233368229 0.013881461030753547 -0.00017657782286830016 0.0010255014804719969 0.0012647833270452544 0.018083131979288344 0.006080181705804257
0.008402613212938639 -0.010088805495439078 0.005435816351340448 0.0007221611295305126 -0.014849017786173315 0.008751664460346037 -0.007136172089086532 0.017991240127027918
0.009516597229222039 -0.00653949273808005 -0.007770355738022022 0.0011104160746562021 0.00826544024920376 0.0057500968051816224 0.005472989298283311 -0.014189179679622075
0.000696687366431024 -0.019166222342595123 -0.008353145221206707 0.0016322721607336685 -0.005713123502188455 0.01687338584920819 0.007456800783166327 0.009049454884421165
0.016462297905354938 0.005419792141847997 -0.007054300067095239 0.007372718916219099 -0.015804014244080213 -0.0025212419959611404 -0.004986776132764986 -0.0032457048709900595
0.00012522462588899393 0.007745979956688223 0.013906237419619188 0.005225395885450568 -0.01041486801149102 0.0010291048219329894 0.010394651343079734 0.004167357235116336
0.01839400592000631 -0.000738859656075956 -0.008403393259913005 -0.010369620037318276 0.00770416312184107 0.004631501114084956 -0.004262782001412731 0.009111552247617019
0.0022585467825450485 -0.004909483968226623 -0.009851008049906898 -0.0006348001393308279 0.003720200998659415 -0.019734052864851692 0.008486926885109377 0.009591036217094964
0.007265675690984591 0.005662752647420764 -0.017711580527190997 0.01688427743056643 0.008410296667307126 0.003994071468053238 0.0107557550781609 0.018878889237444147
0.001930588698166914 -0.0019455922526344005 -0.011366153673875423 0.010534923118293762 0.0025496006810833698 0.0034308423509800006 -0.0023734994584494874 0.023497131748877575
-0.004027855549395319 0.009425317729422652 -0.015203140141381804 0.004839958888477583 -0.011909261038751291 0.00470942050412368 -0.006112451022136835 0.00245600205496987
0.0028282429010945817 0.0012196608808271773 0.0021855337958048165 0.0015420960180674262 -0.004718605197939886 0.0016366102745860288 0.0066156926515766245 -0.0043475738727064735
-0.006587946031609393 0.0035974445334378035 -0.006399230857546513 -0.003055751264638142 -0.0058151095110085494 -0.00890499984398198 0.0008790977946785517 0.008474553553804099
-0.005716464270480459 -0.01141710490313092 -0.016594326192626976 0.009500924115354244 -0.010323174118424212 0.00034346944551408363 0.002903268052218368 0.0001498889104226111
0.001833115441296754 -0.004931407272602573 0.00953800397128099 0.007563720009777814 0.0057411166633851134 0.0005403357819801468 0.002607284865768866 0.005294591287785766
0.012958745717885696 0.004230767142571492 0.004167013139625743 -0.010604869897678462 -0.0024737948804632983 0.01625731839309473 -0.017894852756449704 0.022450929973784135
-0.007820055876349024 0.01036068540824927 -0.015943051338478988 -0.010543954327316597 0.0080815639718315 0.005888246856498531 -0.0021951586754353747 0.002291641023946845
-0.008219837475486477 0.007809466738618279 0.006083600192325232 -0.0019196025682213383 0.0015706163991327144 -0.00488662731213932 0.00685781606698767 -0.005106626036044554
-0.021041085987228477 -0.012499716226537927 0.008547655364739415 -0.0010591850604736949 0.00645795812096114 0.001241312500796013 -0.008327015221174008 -0.005299078211888968
0.0008284980665705334 -0.01177940296967783 0.002753228129199019 -0.012861089481537285 0.002032010414574066 0.002406551830257934 -0.00280196291540797 -0.040474628188194466
0.002704068232439903 -0.003429873308446807 0.0010741855533538875 0.0008363710328234026 -0.004039813126791009 0.0016924265207467284 -0.004366359025691784 0.006840807703593835
-0.0032600727384253228 -0.015214212626940045 -0.0029882279547967746 -0.008444420625977934 0.019608854005178197 -0.003003078581923619 0.0016388358584264007 -0.005480289992735853
-0.0041001670944595696 -0.0073431255666592645 -0.007643646270112695 0.0060078266652459035 -0.004526483581350423 0.00560810533287198 0.012617889005847227 0.015089555298295497
-0.0045595262613832375 0.01255140247794295 0.0016873899961233555 -0.004629992975845682 0.0028221939339523956 -0.0016306698135252796 0.00874908385098497 -0.002087587230907237
0.0031127630876984654 -0.009426363013023874 0.007294816294080593 0.0015327815948786374 -0.006021876820299873 -0.005937906629778348 0.013716326622751697 0.0032321879299781887
0.0004212726055812154 0.014375828458813713 -0.0038367001295222286 0.0015584726689343478 0.0011156290255349395 0.018055283981335064 -0.005134984785243152 0.008695322852083595
0.01570752730303731 -0.0049895391140163245 -0.002358607070751369 -0.0010789208646099894 -0.002685535458409181 0.0005581803336478637 0.002933620294426998 -0.00739879877422336
-0.005853528918738763 0.010831879632493015 -0.008443352318870456 0.006065042793800877 0.0013613209705706025 0.010514219814643266 -0.003437335868216688 0.009151368382547766

b1 f8 [1, 50]
00000000: 3211 ccf0 2ed0 6a3f 3f3a 7ba6 eda7 6a3f
00000010: 8e58 ab4e acee 6b3f 2a69 2819 cf00 6b3f
00000020: 27eb 0edc 04da 6a3f 9a04 5af5 15b6 6a3f
00000030: 7519 d177 d724 6b3f 4042 dec5 95db 6a3f
00000040: 3695 803f a281 6b3f fe9c 2c75 6934 6b3f
00000050: 2234 40b6 e6a7 6a3f e935 e3eb b518 6b3f
00000060: cf24 3f7c 4404 6b3f bd10 2c91 fb6e 6a3f
00000070: 0ed0 5b2a 77e9 6a3f 6ceb 4524 fd8f 6b3f
00000080: 9387 b934 24ac 6a3f c9e4 f403 429c 6b3f
00000090: 3fef 1132 b41f 6b3f c9c9 920c 1ad5 6b3f
000000a0: 5aff fec6 fb2e 6b3f 4821 0b2d acd9 6a3f
000000b0: e63c 8413 0e8b 6b3f 6389 419a 475c 6b3f
000000c0: a9a5 8d9f ded3 6b3f 0c9c 8531 d2c2 6a3f
000000d0: f4ae cdce df7e 6b3f 83a1 3473 249f 6b3f
000000e0: 7f9a 7054 b2ef 6a3f df22 a8fd a7c3 6b3f
000000f0: 15f0 5c7c f8b1 6b3f 7c65 db07 6dbd 6b3f
00000100: 01d9 39e0 6c87 6a3f 2b71 e07a 6e99 6b3f
00000110: a3f1 1c75 9a38 6b3f 60dc 2f8b a29a 6a3f
00000120: e099 8dd5 1a7c 6b3f 64fb 6a5e 52a1 6b3f
00000130: 1fc3 7110 225d 6b3f 5b17 b10f 33ad 6b3f
00000140: 767a 5bc1 b893 6a3f da98 f7d1 9d67 6b3f
00000150: 965a 1bf1 bd7f 6b3f 0f88 ccc5 3524 6b3f
00000160: 174c 93df e1e1 6a3f 6ae2 a970 815f 6b3f
00000170: 72d8 02a3 399d 6a3f 3227 c061 fe70 6a3f
00000180: 99de 151a 574a 6b3f c1ee 0422 538e 6a3f
0.00327309768761288 0.0032539025886315904 0.0034097066285126492 0.003296284188093375 0.0032777876772035644 0.003260653388509183 0.003313465915684317 0.0032785344364543445
0.0033577126414622528 0.0033208904000222575 0.003253889664853308 0.0033076813843766384 0.0032979333500163586 0.0032267487926010683 0.0032851531458337807 0.0033645576642675114
0.0032559115550591738 0.003370407997547707 0.00331101602983877 0.0033975132724546092 0.0033183019185968722 0.0032776224910301723 0.003362205021523945 0.0033399008262204196
0.0033969257460071023 0.00326672604949208 0.003356396793995015 0.003371783439110655 0.0032881243710279335 0.003389194590685526 0.0033807614553591583 0.0033862237458889815
0.003238403938492174 0.0033690603077173495 0.0033228890178220324 0.003247563808595852 0.003355076227694584 0.003372822643853567 0.0033403077427966023 0.003378486374944351
0.003244267320823109 0.0033453066277956247 0.0033568105508082298 0.003313164734565006 0.003281537207479267 0.0033414390684892064 0.0032487989156733616 0.003227707709815863
0.0033313466271314815 0.0032416938485349826

W2 f8 [50, 10]
00000000: 49b2 710c 27fc 7d3f c1e3 c1f1 9ccd 5ebf
00000010: 420c 19ac 936a 713f 12a4 571d 675d 893f
00000020: 379b c19c 4247 52bf 2d47 978a 383b 82bf
00000030: 9688 d145 17bf 823f 6b24 693c fda2 49bf
00000040: c1c8 57fd 96d0 85bf 425a c622 d944 873f
00000050: fc1f 5bec 47ef 883f 6af8 e8f1 9625 7f3f
00000060: 07e4 51a2 116b 683f 196a 93ea 6920 89bf
00000070: 10e2 dafc 7f72 693f 7e3a 8c82 b185 873f
00000080: f554 ba83 1803 893f 44bf 4e88 d45d 4d3f
00000090: 0d48 c2f3 e568 68bf 80ea b9fe 6879 2c3f
000000a0: 0ca5 ae36 146c 88bf 8f6a 3140 ad53 9b3f
000000b0: 8b21 85d4 fb19 803f 8363 a7f1 8e65 883f
000000c0: 2631 9110 ec72 8dbf 253c 70a5 4938 533f
000000d0: 1e7c 9041 7a77 6bbf 3918 af3a c669 963f
000000e0: 56a5 957a 3f4b 6dbf c8f9 5ed9 6e37 88bf
000000f0: 6d7c 9094 d24d 6cbf b85d 2dc1 bd35 8d3f
00000100: 592b 2084 c0a3 733f 534e 33b4 4e31 613f
00000110: 3c12 d859 f534 86bf 23a3 8404 d585 823f
00000120: 7186 7b9c 58c2 80bf bc95 b4a2 268d 90bf
00000130: e65a d51f a1c4 87bf 3a22 70a7 9b20 743f
00000140: 28e7 0858 2b1e 65bf 00ab 487c e60f 76bf
00000150: d8b9 094b 5b8d 823f d899 21ba d955 863f
00000160: e878 43f1 33a2 33bf 54b6 900e b8f6 6ebf
00000170: d7c7 d214 9aba 8ebf 7659 be17 58d1 743f
00000180: 2cb7 8b54 f181 8ebf 74db b85b 0056 333f
00000190: 3015 82c1 1bf8 7e3f 56d8 0b9a 4dd9 543f
000001a0: 047f 2b17 2948 8b3f b7a3 398b c9f5 7e3f
000001b0: a3e9 b106 115a 5a3f f814 de3a 6410 7abf
000001c0: e6a4 e4d5 6c73 8a3f c6b3 6985 7395 753f
000001d0: 1fcd 08d9 54f3 6ebf 92f7 835c caf6 76bf
000001e0: 0439 961e 2562 86bf a4c4 f752 2fcb 52bf
000001f0: b0ea c296 97df 643f 0af1 5f54 1211 7fbf
00000200: e47e 11a9 83f7 633f fb7e 9144 4429 863f
00000210: 00d3 31e3 d5b4 89bf b1e9 9ceb 53ee 813f
00000220: e4a0 7568 6160 7e3f dba7 60ae 9b0c 813f
00000230: 3156 d8e0 4df0 723f 9a5a 3e28 ac75 84bf
00000240: 8477 c69e 36f3 84bf 854e 0137 af17 8cbf
00000250: 0feb caf9 fbac 86bf 3286 a4e1 2018 623f
00000260: 265b 1d52 69b2 3bbf 6d61 818a dfe2 7a3f
00000270: 30b8 0235 5af8 90bf ad00 299b 9b4d 733f
00000280: 4e5a 8b3c 04c4 6e3f a708 c987 65f3 923f
00000290: a8e5 af23 2ee5 713f 4275 fe71 7f95 87bf
000002a0: 334c 0230 16b9 7d3f 5871 5285 5a49 76bf
000002b0: 3fd1 e1f2 bdb0 6c3f 6f1b baf0 da24 933f
000002c0: d247 4664 da06 863f 5d7c b38c 83a0 8bbf
000002d0: 6171 01ee 0c10 8abf a41c 665a 3cb7 6fbf
000002e0: fdcb e114 6a14 8abf 0ecd 3c59 2039 843f
000002f0: 3b11 806e 9ab7 7c3f 1582 008b a2cf 78bf
00000300: cb75 a3c1 43d2 783f d0be ab5e b92e 03bf
00000310: 4dc4 14ae 64dc 573f 98ce 2f25 3c98 793f
00000320: 9927 d6a5 ab37 693f 923f 10b5 b44f 80bf
00000330: 3454 e0e7 06ea 633f 3ec4 2a31 3ab7 833f
00000340: b292 c474 5f06 4cbf 9195 7d74 293b 87bf
00000350: 9778 3324 5cb4 803f c2b1 0c67 9830 82bf
00000360: 3e0b eb38 6442 883f 34a9 cd60 4e58 68bf
00000370: a70f 6512 53fb 68bf d2c5 fcb3 04db 5abf
00000380: afb7 e890 bc03 893f 3769 7f4c fb5b 903f
00000390: 4bc5 f90c 122f 833f cfba d6eb 0a59 92bf
000003a0: 5613 aebc 09e7 673f 94d5 89f2 78cb 783f
000003b0: 4c6b e616 2a72 4abf ae54 840c 419a 903f
000003c0: 65f4 7be6 840a 7d3f e596 09db ec5d 8e3f
000003d0: 24a8 9ba9 bdce 703f f482 cae4 9f1b 673f
000003e0: a99b 96fb 4889 69bf 7da2 43db c0d1 71bf
000003f0: 5b1d 4edb 2fdc 7fbf 1e97 08ff 77ea 7abf
00000400: 8004 cb71 4234 7ebf 9d30 3205 ea69 7bbf
00000410: 74c9 4bd7 65f4 6e3f 4e28 05fd c87b 4bbf
00000420: 4d88 f8f6 7baa 6abf 3cf4 ac3c 59d2 45bf
00000430: 7ef3 f194 5cb2 833f d057 4416 7569 68bf
00000440: f4fd e8e1 e762 933f cc8a 1051 5cc7 79bf
00000450: ec2d 96b0 25c7 9bbf d7a6 781a cb0d 70bf
00000460: 57be 7776 b737 733f 7821 b47e c947 60bf
00000470: 9257 5d01 3430 8b3f 4361 0a10 1e3e 70bf
00000480: 6b2d f5aa 4eb1 88bf eb54 6690 b442 933f
00000490: 3fd9 904a 61a5 80bf c738 8374 e731 8f3f
000004a0: f614 a994 de84 883f 3e16 1abf d71e 773f
000004b0: 50a7 03b1 62a5 7a3f e808 3e4a 9ca9 703f
000004c0: beb3 5918 56e3 9ebf cf75 f3db 2ee2 7b3f
000004d0: 932c 5727 4c1b 7abf 8bd7 352c e9ae 793f
000004e0: 2fdd 3c7d 9ccb 8ebf 63d3 4c54 2b6d 8b3f
000004f0: bd2d cc3d 1d2c 80bf 48f3 79c4 ad3d 36bf
00000500: 55e1 b859 df52 38bf aa90 217e aa57 413f
00000510: 31e6 fcf6 891e 903f 665e 1a6e b84b 81bf
00000520: 7cae dbbf 0d1a 7cbf d1a3 45d8 0c3e 523f
00000530: 4ad8 bcff c0bb 703f 9673 5bc3 e7f6 64bf
00000540: 8142 b390 ce09 723f 0a23 ab30 dbce 73bf
00000550: 0242 5ccd 6107 45bf fdf9 a29a f84f 903f
00000560: 0670 beaf fb13 6e3f f022 d196 ff76 843f
00000570: 05c9 fbf2 24f1 54bf 71e1 79aa fe7b 8dbf
00000580: 4e0d 622f 7b0e 603f 02d6 337f aad5 823f
00000590: 1620 1a09 86a8 84bf b414 8ad5 0cbb 713f
000005a0: cc65 29ab 2524 75bf 54fd 7770 f42b 763f
000005b0: 56c9 6392 35f0 93bf c195 9efe 8013 663f
000005c0: f761 3893 c524 71bf dd4b 5b91 17ca 7bbf
000005d0: 4dcd b56b 9913 783f 578e 4ce0 d19a 8abf
000005e0: cd53 af91 55f0 74bf 9c2a 8517 a3dd 89bf
000005f0: 2a34 74a8 3c84 4abf e40e 0c0a 57d5 9a3f
00000600: 9c5d ac1a 5d18 5e3f 41cd aaec 7c6e 65bf
00000610: 47a1 0bda b164 63bf 8437 0932 4c59 7cbf
00000620: 5528 4588 b00b 6cbf 2075 55e6 10e2 6c3f
00000630: 374b 68c7 a91d 7c3f 955c 0c1f 1a5f 57bf
00000640: b424 312a 353b 8e3f 6a7c ac0e ebce 983f
00000650: e3cb 81a9 c740 95bf a41e 7630 0d8c 82bf
00000660: 5724 d2f1 1c8a 863f 2052 b529 5899 933f
00000670: 99c5 cea9 35af 7bbf 2c44 acbf cca4 8cbf
00000680: cfcd 4f1c 6bb4 84bf 6e28 662c 3c90 953f
00000690: 650d 5d72 35f5 7b3f b26f 9039 7ec0 7ebf
000006a0: 58d2 348f 7a8e 6c3f d722 3188 07fd 72bf
000006b0: fa43 a069 de4a 653f dc99 554a dfa9 72bf
000006c0: 6497 7a90 e78e 603f 1989 cc93 b991 813f
000006d0: 3807 a608 7fb7 75bf 019a 46ca 6e7d 4d3f
000006e0: 0e7e d363 a530 64bf c912 b4aa 74e9 833f
000006f0: 6478 9e69 39c0 8ebf b5c0 5beb c51c 6e3f
00000700: 1247 4062 908e 88bf 4dd6 f625 8155 6f3f
00000710: 411e df15 b6c1 4d3f a0ee 91f6 090d 89bf
00000720: 8286 a7a6 d275 723f e898 39b7 a834 9e3f
00000730: 4ace f762 419c 7cbf eae7 b0aa f58d 82bf
00000740: ba62 5b72 d6cc 90bf 10ad 1053 273c 893f
00000750: 0bc3 294f 6a74 71bf ef45 5c80 45cf 873f
00000760: ec8c 6c2d be2c 91bf bb9b 7123 2333 953f
00000770: 5372 4c23 40b7 66bf 95e8 b513 d10d 753f
00000780: ff0e 4a50 8a57 6abf 1f27 720b 1157 8c3f
00000790: a1a0 13ca 22cb 76bf 4047 6b80 6cd4 71bf
000007a0: 6181 0dd7 b8ed 77bf 9704 b73e 5909 94bf
000007b0: 5530 40c8 d628 70bf 42be ba2a 3650 883f
000007c0: 2caa 5810 bc1d 513f aeff 225c 006a 89bf
000007d0: b66b 43d6 efd7 86bf 6780 eea1 6cc5 87bf
000007e0: 2b12 faa2 bbb3 743f de1b 2136 327d 7d3f
000007f0: d064 4547 2610 76bf 9048 bb49 366f 7d3f
0.007320549520141891 -0.0018800766620456907 0.004252030224566163 0.012385182936627746 -0.0011156225691821406 -0.00890201733537629 0.009153539484206424 -0.0007823692802243603
-0.010651759725963552 0.011361786245101094 0.012175142193328263 0.007604207638506203 0.0029807419219278794 -0.012268855544268086 0.003106355644231458 0.01148546867036981
0.012212935943618034 0.0008961951976882228 -0.00297970688377181 0.00021724135091346145 -0.011924894255417338 0.026686389010459662 0.007862059996697443 0.01191245722741186
-0.014379352813329204 0.001173087997589092 -0.003352869779078129 0.021887872058663247 -0.0035759200879296555 -0.011824480064999046 -0.0034550774476112462 0.014262659509468686
0.004794837966992948 0.0020987069307041666 -0.010843197635957862 0.009044326973325639 -0.00818318584009889 -0.01616344802927981 -0.011605509551981762 0.0049139099346651675
-0.002577862411524818 -0.005386257490082924 0.00905867884395388 0.010905934326911046 -0.0002995850384318725 -0.0037797541486018025 -0.015004352341154643 0.005082458603189335
-0.014896283524162245 0.0002950430750589463 0.007560833379220797 0.0012725122289203492 0.013321228999700015 0.007558619766862166 0.0016083875914590727 -0.006363288424727324
0.012915468480587621 0.0052694809479420564 -0.0037781388457688437 -0.005606451486753887 -0.01092938422769097 -0.0011470758580538832 0.00254802329263034 -0.007584640121418804
0.0024373599522248147 0.010820897429027357 -0.012551947589807266 0.008755355480038004 0.0074161343576195395 0.008324829348641252 0.0046237032052168095 -0.00999006746114377
-0.010229517670093953 -0.01371704947101838 -0.01107212883049649 0.0022087709632081726 -0.00042262145335796237 0.006564019400763105 -0.016572389112006813 0.0047126844752371335
0.0037555773491065097 0.01850660935657147 0.004368953926126386 -0.011515613237686243 0.00725659052854426 -0.005441049191315571 0.003502245896976813 0.018695279066857248
0.010755258736740023 -0.013489749652249633 -0.012725926411967849 -0.003871553303898505 -0.01273424984194626 0.009874584887802598 0.0070110352025987656 -0.006057391103269545
0.006059899018706581 -3.65877457023635e-05 0.0014563544467132317 0.006248698179650035 0.0030783035751413387 -0.007964526916140167 0.002430928695512447 0.009626822114428998
-0.0008552518934591051 -0.01134331118346202 0.008156509260910645 -0.008881750721763452 0.011845381724361222 -0.0029717951605806817 -0.003049528360095938 -0.0016391321114038637
0.012214158222459163 0.015975882095383667 0.009367123623834536 -0.017917795795876764 0.0029177847076788206 0.006053421450464742 -0.0008070664896878492 0.016213432682964317
0.007090109960469969 0.014827585634701499 0.004103413457167835 0.002820789616024272 -0.003117220444170472 -0.004350427003580235 -0.007778346004563143 -0.006571263060811265
-0.0073740573395194575 -0.006692804471765038 0.003778647335246516 -0.0008387309444881726 -0.003255121344197176 -0.000665944645653511 0.00961754159492911 -0.002979973493107281
0.018931983149966983 -0.0062936407203177495 -0.027126873877518706 -0.003919404385251921 0.00469180741445959 -0.0019873557517977 0.013275533954281635 -0.003965489799746816
-0.012056936828818995 0.01880914813371685 -0.0081279374008828 0.015231903308088225 0.011972178375013059 0.005644648322805033 0.006505380166552957 0.004068003185127213
-0.030164094196539308 0.006807501834570086 -0.006373689151085621 0.0062703235920390605 -0.0150367952079323 0.013391817579398063 -0.007896641205227145 -0.00033936970110186706
-0.00037115052120697173 0.0005292494281659195 0.01574149675363951 -0.0084452065087099 -0.006860784252903703 0.0011134267270682572 0.004085306074378245 -0.002559139883358384
0.004403883834314671 -0.0048359453309749865 -0.0006417491483450834 0.0159300655729968 0.0036716380836434607 0.009992596426074724 -0.0012781964141451174 -0.014396657540814957
0.0019600301703250117 0.009196598059570075 -0.010087058213017069 0.004328775533058483 -0.005161425726862356 0.005413012353073416 -0.019471013126300583 0.002694847052185451
-0.004185458924915945 -0.006784526883808231 0.005878066348816558 -0.012990607888759316 -0.005112013105606783 -0.012629770427016233 -0.0008092209035638388 0.02620445250342031
0.001836863443434789 -0.0026161613398813237 -0.0023673509280010305 -0.0069210983643425185 -0.0034235427757823103 0.003525765425975394 0.006864226530995768 -0.001426482686104601
0.014761367178055408 0.02422683026372533 -0.020754928322684562 -0.009056189576554026 0.011005617265498353 0.019139649911567358 -0.006758889791784206 -0.01398620567263905
-0.010109745790010031 0.021058025560286735 0.006825646187113098 -0.007507794442997028 0.0034859079111362705 -0.004635838910936405 0.0025991767879607304 -0.004556534030916794
0.002021267198716469 0.008578729460684319 -0.005301948762623181 0.0008999625174979654 -0.0024646024963741525 0.009722625216917706 -0.015015076194512207 0.0036758294689818957
-0.011990669248948236 0.003824951403397481 0.0009081019486467183 -0.01223190101358479 0.004506895881122854 0.02949775331799112 -0.006984954277402597 -0.00905982901723586
-0.01640639374713502 0.012321765158125803 -0.004261412878449953 0.01162580774283392 -0.016772243044340593 0.020702885664288333 -0.0027729275410719816 0.0051401297636123515
-0.0032155705869757463 0.013837941324044643 -0.005564819236703184 -0.004352973780173575 -0.005841943770832665 -0.019566912129225313 -0.003945197098811877 0.011871741465568356
0.0010446869431556356 -0.012409212886609424 -0.011154054380701921 -0.011607025806199723 0.005054219203547687 0.007199474466751147 -0.0053864951372244035 0.007186138212732854

b2 f8 [1, 10]
00000000: c0bb 01ca b6e9 77bf 29ec 2dad 243d 883f
00000010: 7ac0 6f86 dfde 7abf 572a b6af 6eae 4cbf
00000020: 905f 556a 402c 71bf ac49 798f 53c9 7cbf
00000030: 4d30 bca3 fd97 69bf bf03 7363 9fe9 803f
00000040: f488 a7ef dab7 6a3f 735f ff58 8176 713f
-0.005838121433142385 0.011835371527686505 -0.006560204644287743 -0.0008752861462409484 -0.0041925922608569005 -0.007027937324510718 -0.0031242326639411623 0.008258099768115089
0.0032614971253092043 0.004263406051869245
