experiments/exp_batch_20250114_141918/exp_h100_lr0.01_run3/model/weights.npz (npz, 637046 bytes, 4 tensors)

W1 f8 [784, 100]
000000 35 67 78 0b 00 a8 8a bf 85 1b f4 f6 12 ff 80 bf
       -0.013015747404142889 -0.008299015199112034
000010 77 25 2d d6 fc 55 5c bf 82 d3 cd 16 50 da 83 3f
       -0.0017294854266814688 0.009693742462084879
000020 f7 eb d5 13 a8 82 3d bf 9d 1f 98 b4 5d 3f 91 bf
       -0.00045029262022183665 -0.016843284747693244
000030 2e f5 60 52 f2 b5 83 bf 84 45 85 ff 19 85 7f 3f
       -0.009624379290580434 0.007695294909653486
000040 01 64 ff 06 bc 93 83 bf 0a d0 fc 37 98 65 6f 3f
       -0.009559124911833196 0.0038326237699042353
000050 57 72 d0 ac 38 da 89 3f a7 5d 28 87 3c d5 7f bf
       0.01262325551402303 -0.0077717174886155265
000060 60 af c7 cc 85 db 78 3f ba 17 9e a6 ed 7c 78 bf
       0.006068728118844152 -0.005978515933639567
000070 e5 65 48 a9 10 0c 83 3f 27 3b 7d 47 a0 45 2d 3f
       0.00930035606966135 0.00022332746061201026
000080 97 7c 63 a3 ac 86 89 bf fc d2 33 73 3e dd 7a 3f
       -0.012463902221894236 0.0065586509183403995
000090 4a 92 c4 c4 40 7d 86 bf 72 01 df 88 6a 13 93 bf
       -0.01098108864295812 -0.01862875423808092
0000a0 3b a1 aa bc af f7 47 bf ad e3 e5 c6 1b 1c 99 bf
       -0.0007314308253017274 -0.024521287932177383
0000b0 35 10 e1 d5 6a 4e 82 bf 35 2c 76 9b cb f4 6e 3f
       -0.008938631679605272 0.0037788368896989563
0000c0 a0 3e 47 cb cd 66 88 bf 1e 6e 94 85 92 2d 91 3f
       -0.011914832845746404 0.016775407221855436
0000d0 27 94 39 b5 52 e5 87 3f af e0 9a 59 08 70 94 bf
       0.011667867808862266 -0.019958620518736477
0000e0 5b 2e ad d5 e6 28 6d 3f 6f 36 2c 9d 1b 35 66 3f
       0.003559542511913522 0.002710870679385739
0000f0 37 a7 29 b5 82 4e 77 3f 7a 12 04 da e3 95 88 3f
       0.005690107895682853 0.012004642573182556
000100 03 82 f4 24 b9 4a 85 bf 45 e6 6b 24 2e f9 6d 3f
       -0.010396429481773778 0.003658857461570605
000110 0d da f4 59 10 c4 86 bf 5f 57 fe 9c 8b 97 6f 3f
       -0.011116149659398134 0.003856442148342617
000120 bf b4 46 56 b1 3d 80 bf 87 a2 a6 1f 64 bf 8e 3f
       -0.007930169530334983 0.015013487068089816
000130 1c ab 65 4d b3 37 56 bf df ec 6d 7c e5 26 78 bf
       -0.001356053447660605 -0.005896469526187802
000140 8c c2 57 1f 27 c8 84 bf 96 82 cc 69 63 05 5f 3f
       -0.010147386211401675 0.0018933745224744328
000150 6d 11 0f 38 ee 5d 6d bf fe 44 9e 52 4d bd 83 3f
       -0.0035848286356402943 0.009638408740814782
000160 47 5d 01 ea a0 81 3b bf 20 40 f6 8c ea eb 7b 3f
       -0.0004197137695931174 0.0068167841085511605
000170 e1 5b 68 b9 0e 0f 78 3f df 05 8e 64 e1 fd 6f 3f
       0.005873734966846706 0.0039052393153162636
000180 52 3b 1d 38 b2 d8 8a 3f d6 ad 92 3e 60 cd 49 3f
       0.01310862764117152 0.000787422174786052
000190 65 6e 13 60 bd 9c 8f bf 07 21 27 9e 68 dd 5a bf
       -0.015435676092628367 -0.0016397020013859136
0001a0 0c a9 5c cf a9 df 8c 3f 13 92 fb d4 b7 89 54 3f
       0.014098478928265233 0.001253537677194609
0001b0 5a 6f 1d 47 3f d7 67 bf 98 5f 31 ae 83 96 60 3f
       -0.002910255040587656 0.0020248958476649197
0001c0 dc 16 69 c4 42 93 7e bf a3 ff c9 3e 69 03 6e bf
       -0.007464657601820437 -0.0036637359210657957
0001d0 1c 02 b9 99 e1 77 77 bf 72 e0 27 06 ec 7c 71 3f
       -0.0057295620459290285 0.004269525498323034
0001e0 70 09 8d 0d 2f b2 68 bf 6c c9 7b e1 56 82 73 bf
       -0.003014652157078128 -0.004762973192315872
0001f0 93 a7 74 39 43 14 76 3f 83 c8 fd 56 de 02 5c 3f
       0.0053904176668683355 0.001709668282242422
000200 56 43 1f 36 2e e4 7e bf 9f b0 b7 61 9c 8a 73 3f
       -0.007541828645074874 0.004770861497927963
000210 3c 7e b9 70 53 47 8d bf 25 02 ca 6d 24 d1 91 3f
       -0.014296199681836368 0.01739937706088503
000220 36 ae e7 02 9c 05 81 bf b1 04 c1 5b 71 c4 90 bf
       -0.008311480368283868 -0.016374369836061834
000230 0a ad ca eb 94 69 8a 3f ad 62 25 f3 ad 92 25 bf
       0.0128966936548154 -0.00016458867464554574
000240 eb 6e 33 e5 74 9c 70 3f 2a c8 ff c7 a8 ce 85 bf
       0.004055458662346227 -0.010648077586640953
000250 56 ea 23 8e 3d 1c 85 bf cd 16 f2 11 cc 4e 6c 3f
       -0.010307770633962193 0.0034555421585221514
000260 27 27 1a 35 e6 5d 80 3f 65 54 33 99 f3 95 50 bf
       0.007991598601865114 -0.0010123137370119603
000270 9f f2 b7 3c 34 a4 7c bf 01 96 82 91 fd e8 17 bf
       -0.006992534686557277 -9.120986612972533e-05
000280 24 59 c4 bf 96 4f 57 3f 43 e4 76 a7 30 b7 64 bf
       0.0014227840575294437 -0.0025287580753823604
000290 ce ab c3 3a f8 92 87 3f 72 43 75 32 c9 af 64 bf
       0.011510791104646059 -0.002525227511491251
0002a0 ea a7 d8 9b 98 54 70 bf 8c 9a 92 f9 87 9b 97 bf
       -0.0039869271545658145 -0.023054241759974434
0002b0 65 53 3e 07 ac cf 66 3f c4 0d 29 54 47 ee 7b bf
       0.0027845725944168225 -0.006819037082610394
0002c0 0a 0c e9 4f b7 3b 90 bf 67 bb 22 83 3e 5f 7d 3f
       -0.01585279870256432 0.007170910061332281
0002d0 fe f1 f7 2c d7 31 83 3f a9 a9 77 78 40 d5 52 bf
       0.009372407016592806 -0.0011494760127513748
0002e0 1f 47 62 8d 63 0a 6a bf 8a 3c 9d a6 ab 3f 91 3f
       -0.0031787819271550523 0.01684444622452167
0002f0 d1 b8 c6 11 a7 83 85 bf df 4d 3c 7d cd 92 91 bf
       -0.01050501368521531 -0.017161570328495187
000300 c5 6c 45 29 68 28 88 bf 72 83 78 08 06 46 7e bf
       -0.011795820006844324 -0.007390998427155947
000310 3a 11 60 a4 bf bd 87 3f 88 0f 3b b4 bc e3 80 3f
       0.011592385486445356 0.008246874094204562
000320 c9 19 47 ad 5e f4 62 3f 17 a3 c7 80 7e 9c 93 3f
       0.0023137902410070616 0.019151665315720736
000330 87 b8 42 15 f1 80 71 bf aa 01 64 d9 79 17 67 3f
       -0.004273359041844788 0.002818811403926887
000340 21 29 33 3f 4a dd 71 3f 2e b2 15 f3 22 4b 86 3f
       0.004361429240086674 0.010885499041898585
000350 08 4d 5f 0b 9b 1b 6a 3f a2 ae 53 41 af d5 80 bf
       0.0031869915210137635 -0.008220071011656064
000360 a3 bd c1 84 9a 72 84 bf 14 17 e4 d1 a0 bc 51 3f
       -0.009984213997283947 0.0010825701243119589
000370 1e 29 4d 04 aa 3c 80 3f 75 01 3e 0e bd a1 81 bf
       0.007928207641857695 -0.008609272954118488
000380 e5 ee c4 06 e6 da 33 3f 45 50 cc c2 22 32 8d 3f
       0.00030296436195319097 0.01425578267075179
000390 21 c6 ad e5 e3 3d 94 bf 78 e4 25 92 23 e0 7c 3f
       -0.019767342465860097 0.007049693058769006
0003a0 e4 73 64 c3 ec eb 74 3f 71 fa 8e 42 a6 03 91 bf
       0.00510780797619945 -0.016615484058770173
0003b0 7e fc 2b b9 dc ad 58 bf 7e 89 f7 49 32 28 95 3f
       -0.001506295728802148 0.020661149754127354
0003c0 b8 a1 20 88 cb b3 88 3f 62 a4 45 0f 9b 7c 83 bf
       0.012061681834965352 -0.009515010264936122
0003d0 9e 2e 26 31 95 04 5d 3f 04 09 83 91 8a 57 67 3f
       0.0017711121514335858 0.0028493601240323647
0003e0 1e 0b 42 f8 57 4a 80 bf f5 b7 4d 52 de c9 89 bf
       -0.007954299224598279 -0.012592064749437507
0003f0 bc 3a 67 aa fa e9 9b bf 94 3e 09 80 f5 32 73 3f
       -0.027259747171963097 0.004687270150114071
000400 18 7e 01 50 45 62 82 3f fe 4e 85 40 27 d4 80 3f
       0.008976499084552933 0.008217150360600108
000410 7f 06 42 15 d6 62 93 3f aa 12 ce c5 81 2f 6a bf
       0.018931717917900045 -0.003196481191880392
000420 3f 4f 32 6b cd 8f 53 bf f4 03 c0 52 9d 69 84 3f
       -0.0011939531366679937 0.009967068755942755
000430 fe c9 6e 18 89 ee 63 bf 93 1a b2 ca 19 85 72 3f
       -0.002433078541309585 0.004521466015950398
000440 c7 c5 7c 9e 7b 75 5a 3f 3f d2 8c 24 ae d5 71 3f
       0.0016149241655053369 0.0043541719867801745
000450 da d4 aa cc 69 72 7a bf 81 4c fa e6 04 e7 68 bf
       -0.006456769255853001 -0.003039846014709691
000460 1c 0a 43 8d fc ea 89 bf f5 74 db 76 86 e2 83 3f
       -0.012655232487650152 0.009709406378016964
000470 2c ed a6 e5 54 2e 81 3f 7a c4 73 87 79 b3 8c 3f
       0.008389151819634032 0.014014195867704016
000480 0d 84 bb ce 48 25 70 bf 0e 72 f6 e8 c0 1a 85 3f
       -0.003941807178962098 0.010304934606034013
000490 bb bb 5c 24 2e f5 6e 3f 84 61 f3 ca 1e 86 88 bf
       0.003779020425006744 -0.011974564140857742
0004a0 cc 83 18 a1 35 9a 81 bf 6a 24 d3 3b fc 5c 89 bf
       -0.00859491250872848 -0.012384386611659266
0004b0 ab c1 18 cb 21 de 91 3f af 16 11 14 37 eb 75 bf
       0.017448928853072292 -0.005351271772331564
0004c0 e7 65 77 0a d7 74 68 3f 8a f6 89 ac 58 9b 85 bf
       0.00298540115521172 -0.010550205960721887
0004d0 de 99 28 a6 28 39 7a bf d3 ac 08 c7 b9 fa 7d bf
       -0.006402167115572925 -0.0073191887791310304
0004e0 4a db 9f 4d b7 9e 6b bf 79 be 94 cc c6 2b 70 bf
       -0.003371580137350537 -0.00394799858013039
0004f0 5c 56 5d 40 78 08 63 bf 3b 1c 98 69 6a dc 7c 3f
       -0.002323374620497627 0.007046142266978579
000500 bb f0 72 34 a3 e9 66 3f e3 cf d1 68 a2 43 6a bf
       0.00279695392563725 -0.003206078725776594
000510 da 31 76 46 44 ca 4e bf bb 53 7e 06 e5 fb 83 3f
       -0.0009396394133758771 0.009757794628777341
000520 a8 09 ed 7c 0b ec 6c bf 0e cc 4a 40 1b 0f 87 bf
       -0.0035305237173883404 -0.011259282016316898
000530 b0 03 f8 93 ac 2a 69 3f 57 c1 f3 d6 36 3b 97 3f
       0.0030721064247249616 0.0226868218132393
000540 51 74 85 52 7c 42 79 bf 0a 5b e2 49 54 9d 7d 3f
       -0.006166921266722873 0.007230118992217491
000550 61 dc 5f cc 8d ad 6b bf 8f 4c e5 46 ab bd 65 bf
       -0.003378655385855065 -0.0026539178135550133
000560 d7 ef 56 d1 9f 03 73 3f 7a 2c 3e c6 d4 ff 81 bf
       0.004642128265398746 -0.008788740444080501
000570 8e 95 37 e9 08 ab 81 3f aa 51 18 6f b9 f6 8c bf
       0.008627004258367401 -0.014142464354372237
000580 2c a6 8c 90 93 84 89 3f 6a a2 e2 72 dd 77 8b 3f
       0.012459900711820536 0.013412218159218631
000590 be 20 e1 6b f7 d0 6d 3f d1 a4 eb 30 34 6c 8b 3f
       0.0036396820496840945 0.013389976256308252
0005a0 60 f0 27 af 22 81 6f bf 0d e7 59 25 41 42 83 bf
       -0.003845756285270993 -0.009403714134566888
0005b0 98 3f 32 75 13 60 55 bf cd 08 9c a5 fe 1f 7c bf
       -0.001304644586330261 -0.006866450037479943
0005c0 ed df ca 89 a2 da 78 bf a1 bf 6c 93 0f 39 6f bf
       -0.006067881503149392 -0.0038113884178514056
0005d0 6b 00 81 4e 92 a5 30 bf b6 b8 5d d6 98 be 77 3f
       -0.0002540094560608055 0.005797001858679865
0005e0 a5 fd 54 f8 92 d6 7f 3f 92 cf 1d ee 2b 71 85 bf
       0.007772993184800657 -0.010469763950574227
0005f0 0c bd 20 9e 55 d3 87 3f fa 70 d2 be 6d 38 7c 3f
       0.01163355721300132 0.0068897520951873795
000600 65 e1 99 7e 83 dd 8f 3f 68 a1 04 db bc 40 59 bf
       0.015559222508486579 -0.0015413135807396897
000610 29 a1 2c 01 03 32 77 3f 81 2a af 9d 8a ec 54 bf
       0.005662929283780018 -0.0012770990058351974
000620 a4 ba 4b 8a ac 29 5e bf 57 5c 70 7e cb 35 6c bf
       -0.001840990539843248 -0.003443620156314202
000630 f3 1f 7b a7 f1 6e 7e bf e8 b9 ba 5a bd 9f 74 3f
       -0.007430023156935295 0.005035152116461529
000640 7b 99 31 94 da 31 7a bf 00 21 cb 61 d8 2a 58 3f
       -0.006395200561291832 0.0014750588517689622
000650 b3 33 55 38 ca 0e 91 3f 03 09 f0 41 34 06 80 3f
       0.0166579815752816 0.007824333441025738
000660 26 8e 9a d4 32 03 71 3f 9e 5c 03 63 39 b0 73 3f
       0.00415344100625562 0.004806732337065215
000670 12 d7 64 06 e3 d0 97 3f 9e cc 53 7f 78 4e 47 3f
       0.023257777467015357 0.0007112587324215219
000680 dc c3 d8 97 26 92 90 bf 71 fd f8 f7 14 3e 92 bf
       -0.016182520883550086 -0.017814948687598645
000690 4c d2 2d 87 d0 88 67 3f a7 4c 9e de 00 4a 8f bf
       0.0028728554547632675 -0.015277869027875047
0006a0 11 e8 b5 37 f0 3d 71 bf d7 f2 2b 75 94 03 73 bf
       -0.004209459638667938 -0.004642085945985661
0006b0 8e 35 62 9d d2 53 79 3f 67 c8 7a b0 f4 60 90 bf
       0.006183455194457633 -0.0159948570932972
0006c0 66 b8 cd 6a db ca 82 3f 0c 1b c6 58 50 bd 77 bf
       0.00917598170937257 -0.005795778135854201
0006d0 78 f1 f5 2f 1f ba 76 3f 8f 2f e4 bb 5c 0d 80 3f
       0.005548593354771085 0.007837986453999494
0006e0 03 78 40 5d f5 a6 80 bf 5e 2f d3 d3 fa 7b 71 bf
       -0.008130947979278607 -0.004268626970951176
0006f0 53 c5 86 53 c4 d4 73 3f 7e 59 a0 7a 6c 09 8b 3f
       0.00484158220244642 0.013201568119296733
000700 38 d1 a3 0e a2 7c 96 3f 31 7f 2c 2b 4b d2 60 3f
       0.02195981230120589 0.0020534008157397023
000710 96 b5 38 d7 1f 99 74 bf d6 2d c0 e6 fe 6c 74 bf
       -0.005028843286294734 -0.004986758907772301
000720 0f 17 3d 3b 3c 97 75 3f e0 72 ed 46 24 44 79 bf
       0.0052711823262308185 -0.006168500621097833
000730 b2 48 34 7e 26 42 78 3f 8d 29 ba 98 a2 c7 8d bf
       0.005922460902427472 -0.014540930066932823
000740 11 1d 4f 03 53 be 83 3f ca 2d 78 51 9d 38 8f 3f
       0.00964035848472958 0.015244702385664239
000750 4a 84 f4 1f f6 4f 87 3f d8 46 32 59 43 11 64 bf
       0.011382983064836111 -0.00244963792790363
000760 b7 e0 ee 08 8b c6 3c bf 9a 48 1f 6a 9e 1e 7c 3f
       -0.00043908018499961725 0.0068651378696406255
000770 68 2b bf f5 a6 bb 51 3f 35 54 fd 30 c6 8b 95 3f
       0.0010823374241108689 0.02104100870140631
000780 31 18 4a 18 03 06 5d 3f e4 7a 1d 72 c5 ac 77 bf
       0.0017714529250567707 -0.005780001900204754
000790 7c 2b bd 38 5f e2 68 bf 94 64 da bc ef 00 82 3f
       -0.0030376300618732404 0.008790848685111187
0007a0 49 3a ed af ef 3d 7d 3f e3 10 2b aa 9f 8e 73 3f
       0.007139145162752111 0.004774688425360748
0007b0 0b ac 91 85 d5 00 81 3f 92 07 d6 39 bb 5d 6e 3f
       0.00830237211103759 0.003706803966168467
0007c0 a1 2c eb eb b8 86 86 3f 73 cf 69 f9 b6 b3 61 3f
       0.010999149989763092 0.0021608899799562763
0007d0 46 a8 b4 fe 8c 76 44 3f 8e 90 24 59 fa 41 72 3f
       0.0006244839145541712 0.004457452700339938
0007e0 4f 61 b9 8f df 43 44 3f 90 29 28 9e eb f0 8e bf
       0.0006184426887996616 -0.01510795666128642
0007f0 05 2a 4b 3f dc b5 89 3f f1 60 9f d1 92 9b 83 bf
       0.012553902322356878 -0.009574076673672912

b1 f8 [1, 100]
000000 24 23 fc b3 d9 80 6b 3f 86 40 55 b0 4b 3d 6b 3f
       0.0033573390973099682 0.003325126485528132
000010 32 bb c5 3c 79 f9 6a 3f 56 f0 6c ba 02 37 6b 3f
       0.0032927863996329515 0.003322129562915814
000020 6f 12 a7 44 24 b0 6b 3f b9 54 d1 05 9e 65 6b 3f
       0.003379889332082712 0.0033443533307414256
000030 78 6f a2 4c e3 29 6b 3f ed a6 1a 39 cc 65 6b 3f
       0.0033158721390246747 0.0033444393855760397
000040 7d 78 75 85 53 4f 6b 3f 92 d3 a8 0c 94 15 6b 3f
       0.0033337241435865126 0.0033061877814141794
000050 fb e3 f9 97 f5 58 6b 3f d4 26 77 d9 76 3f 6b 3f
       0.003338317561255353 0.0033261605528637026
000060 83 6a 63 ea 50 30 6b 3f 49 47 3e ac ae 2e 6b 3f
       0.0033189373381053446 0.00331815830026808
000070 7e 22 fc a3 7d db 6a 3f 07 31 2a 60 c7 51 6b 3f
       0.0032784894864373295 0.003334893613390236
000080 ff bb fe a4 5a 32 6b 3f d0 fe c3 d4 fe 5a 6b 3f
       0.0033199091339706217 0.0033392884416797233
000090 96 91 1e b0 ee 2c 6b 3f cb 07 38 9f 44 40 6b 3f
       0.003317323863443809 0.0033265438339648893
0000a0 cc f1 d9 d3 2b d1 6b 3f ea c9 98 c4 b4 23 6b 3f
       0.0033956390387272824 0.00331292444459418
0000b0 58 7b 80 a2 cd 18 6b 3f 42 68 cd 67 05 6a 6b 3f
       0.0033077255539092736 0.003346453244756937
0000c0 34 6b 88 65 ba 67 6b 3f 3c 20 db 76 4e 62 6b 3f
       0.0033453598555416523 0.003342774630116478
0000d0 09 97 3c 9b 05 52 6b 3f ba 9e 2c 55 a5 be 6b 3f
       0.0033350095271939034 0.0033868054537327915
0000e0 c8 3e 45 bc 44 6b 6b 3f 63 b0 a1 59 bb 46 6b 3f
       0.0033470480431459816 0.0033296260053728307
0000f0 a4 4e d3 33 c8 57 6b 3f 8b eb 03 69 30 6b 6b 3f
       0.003337756176373068 0.0033470101844818626
000100 ef 2d 6e 5c 0b 86 6b 3f 96 0a eb f0 f7 04 6b 3f
       0.0033598157783154485 0.003298267612394777
000110 d1 01 e2 3c 1a 97 6b 3f 8d 39 de 66 08 47 6b 3f
       0.0033679497201435167 0.0033297695253573013
000120 c4 b2 c8 91 6f 59 6b 3f 36 8b ae f9 1c 2d 6b 3f
       0.0033385447589096857 0.003317410080357598
000130 a2 aa cf c3 5b 80 6b 3f 0a 4a c0 aa 90 89 6b 3f
       0.0033571045191725527 0.0033614945914533
000140 d6 ed 1a 22 cc 79 6b 3f 4a a5 14 56 76 86 6b 3f
       0.0033539759614009497 0.003360015035145968
000150 8f 4e 15 e5 fb 46 6b 3f d8 6d 2d 44 11 69 6b 3f
       0.003329746229306547 0.003345998500135155
000160 c2 f0 97 7e d0 b4 6b 3f f3 68 89 1c 74 2c 6b 3f
       0.0033821174772566695 0.0033170955469304874
000170 e9 5c da b9 fb 35 6b 3f 1b a4 b5 77 e8 a3 6b 3f
       0.003321639683075629 0.003374055898963236
000180 a4 95 9c 3f 55 41 6b 3f 01 56 68 5e 9a 5e 6b 3f
       0.0033270516404566176 0.003341008664629497
000190 93 cd 86 57 c7 68 6b 3f 0e fc e2 97 1a 65 6b 3f
       0.0033458608051774668 0.0033441085243732854
0001a0 73 75 cb 16 08 47 6b 3f f0 23 02 13 05 94 6b 3f
       0.0033297689427473297 0.0033664797884438366
0001b0 9f e5 7d 67 82 0a 6b 3f 9a d7 20 07 1f f9 6a 3f
       0.0033009097059532723 0.003292618371257339
0001c0 b7 a7 ea eb cd 6b 6b 3f 6a 68 8b cc 8f 1d 6b 3f
       0.003347303572202666 0.003309994561601794
0001d0 70 a8 af 62 28 33 6b 3f 08 e8 8e c2 6a 7f 6b 3f
       0.0033202923564106743 0.003356655612575036
0001e0 82 ec d0 48 f2 26 6b 3f b7 7c 2f ac 8f 75 6b 3f
       0.003314469539444754 0.0033519559960804818
0001f0 53 f0 42 34 47 79 6b 3f 59 f6 7f c3 13 ac 6b 3f
       0.0033537283617004836 0.003377951241417415
000200 a4 34 62 f7 61 64 6b 3f d8 f4 ca 53 22 5c 6b 3f
       0.0033437646298524904 0.0033398313956626118
000210 82 90 29 34 91 12 6b 3f 44 56 e6 09 23 4a 6b 3f
       0.0033047519694254244 0.0033312496518174434
000220 91 ac d5 d0 d5 a3 6b 3f 81 ac 2c 71 80 5c 6b 3f
       0.003374021157176062 0.0033400066980867065
000230 63 36 1e c9 38 6f 6b 3f 04 b1 42 bd 61 39 6b 3f
       0.0033489331335150737 0.003323260209148528
000240 93 43 c6 89 b9 6d 6b 3f 73 d0 3a e4 13 e4 6a 3f
       0.003348219279537942 0.0032825840479180856
000250 05 62 42 2c 71 51 6b 3f 47 b4 d1 63 83 61 6b 3f
       0.0033347330482451664 0.0033423963746402083
000260 f9 03 2b 69 35 60 6b 3f 6b c5 55 42 93 88 6b 3f
       0.0033417742900785333 0.0033610225825035276
000270 f2 83 e8 22 e4 9d 6b 3f 74 7a 94 e3 cc 99 6b 3f
       0.0033711868084229596 0.0033692361581779077
000280 70 62 d3 75 66 4c 6b 3f 4c d4 1e 5b 98 4c 6b 3f
       0.0033323289086236094 0.0033324218465744845
000290 6c 60 ef 26 fd 62 6b 3f 32 c1 2c 73 16 20 6b 3f
       0.0033431000115165446 0.003311199042762913
0002a0 10 2b 00 25 dd 28 6b 3f c1 1a 9f 51 89 af 6b 3f
       0.0033153838376213177 0.0033796007164455803
0002b0 0d 2a c2 70 75 51 6b 3f 4a de 55 ec f0 11 6b 3f
       0.003334740997222646 0.00330445342359179
0002c0 5e 3c 7d da 1b 5a 6b 3f 6c be b8 0f db 4f 6b 3f
       0.003338865662875486 0.0033339766066758283
0002d0 05 97 0d 62 19 89 6b 3f 17 98 92 ea ce 76 6b 3f
       0.003361272407732654 0.003352550633809247
0002e0 ee 3a 76 b7 da 7a 6b 3f 13 f4 70 29 d1 19 6b 3f
       0.003354479962303861 0.0033082089608158587
0002f0 e1 4b 5e ce 92 54 6b 3f 59 15 a0 e8 4f 1b 6b 3f
       0.0033362262065081837 0.0033089218823102837
000300 79 0b f7 44 15 6d 6b 3f 2a c6 ba 7a ed 56 6b 3f
       0.003347913305078828 0.003337348772981104
000310 35 b6 fa f8 dd 8e 6b 3f 05 e9 a1 1f 7f 21 6b 3f
       0.0033640227701059685 0.003311870849811107

W2 f8 [100, 10]
000000 4e e7 68 fa 75 cb 75 bf 9b 1d 8d 65 3a a5 87 3f
       -0.005320988514137271 0.011545616363618552
000010 76 a8 cd 1c 0f 39 6e 3f 4f 4b 82 ab 5a 4d 6a 3f
       0.003689317242266783 0.0032107134721370066
000020 6f 4a f4 54 84 a7 8f bf 95 e5 a4 c6 af 63 8e bf
       -0.015456231920812883 -0.014838574647557926
000030 5d 55 e8 c4 63 6f 6e bf 68 bf 88 24 b4 70 91 bf
       -0.003715224134121327 -0.017031492929333508
000040 eb fa 32 c8 0a 91 7a bf 4e c5 ee b1 f1 b1 56 bf
       -0.0064859791920628225 -0.0013851986220568438
000050 18 ed 64 7f 3e 39 59 bf fc ed b4 2e 2c c4 90 bf
       -0.0015395269707159705 -0.016373339033846065
000060 41 70 1a f8 a1 54 85 3f 82 31 e5 fc 3d 8f 62 3f
       0.010415330299388017 0.0022655688000325367
000070 85 1f 21 fb 80 d5 87 bf 9c c5 7f 48 43 3f 65 bf
       -0.011637694991932577 -0.0025936426281922397
000080 8e 24 8f 28 28 bc 4e bf 2d d8 40 e3 9b 9a 89 bf
       -0.000937957390413706 -0.01250192439338712
000090 e5 a7 66 6c 1b 5f 79 3f e2 36 42 22 e3 f2 89 3f
       0.006194216845338806 0.012670301897994066
0000a0 96 44 4c fc e1 a4 87 3f b3 9d 23 e4 39 6e 83 bf
       0.011544957649251491 -0.009487583422425816
0000b0 d5 65 9f 2e 87 87 88 bf c4 07 29 06 85 57 77 3f
       -0.011977249250707903 0.005698699593780835
0000c0 5f a1 79 5d b9 ae 99 3f 4a 52 16 b1 3d ad 5c bf
       0.025080581980007618 -0.0017502882441010775
0000d0 aa 3e d8 07 0e 5c 3d 3f 05 35 8f 4a 6b 49 82 bf
       0.0004479917768955658 -0.0089290983322834
0000e0 a2 5d 6f 5a 45 57 95 3f ef 35 3a 55 fb cb 7c 3f
       0.020840724606242873 0.007030469674317071
0000f0 8f e1 75 06 af ab 7a 3f d8 f8 9c ef 4f b8 87 bf
       0.006511386577919955 -0.011582016467965792
000100 96 06 b9 f2 f5 34 71 bf 9c 4d 36 ab b6 07 8e bf
       -0.004200897917657228 -0.01466314992902689
000110 62 81 b7 d3 f2 68 93 bf 8e 8b fa 40 86 8b 82 bf
       -0.01895503442017466 -0.009055184228889759
000120 07 b1 ad aa 3c 41 52 bf 31 4f fd 06 16 a7 43 3f
       -0.0011141865204207806 0.0005997521929921088
000130 1b 45 03 1c 8e 63 5b 3f 68 a8 e9 c6 20 06 77 bf
       0.0016716850077965254 -0.005621078524749114
000140 7f 3d 67 db f9 e7 84 bf af d5 54 43 0a 02 8a 3f
       -0.010208084114224246 0.012699203662672824
000150 fd 6a 3d cc 82 a6 91 bf 36 93 8f f3 35 00 81 3f
       -0.017236751285376595 0.00830118321932503
000160 f3 29 d2 2b 56 30 6c 3f cb b1 97 aa a0 40 86 bf
       0.0034410174399159776 -0.010865454870292354
000170 50 2c 99 74 bd 70 92 3f 13 fc 2b f8 ad 2c 8b 3f
       0.018008194200131833 0.013268813263037449
000180 3f bc 42 92 44 94 91 bf cc ec 6c 3c 77 7a 8c 3f
       -0.017167159487766034 0.013905459910907324
000190 f8 7a b1 d5 f4 c3 74 bf e3 a7 62 6d 90 ac 90 3f
       -0.005069691072178577 0.016283280063966187
0001a0 2d 3d bf 43 5b 89 65 3f 54 3e 8e 2c c4 9f 7d 3f
       0.0026289732468069067 0.0072324431465769674
0001b0 a9 43 4b 84 1f a6 74 3f 8e 16 f7 da 5f e5 6f bf
       0.00504123984565378 -0.0038935539411991188
0001c0 03 40 c6 9a a5 7f 94 bf a6 9e bc 81 94 db 8c bf
       -0.020018184253387982 -0.01409069081235199
0001d0 c6 61 37 e3 40 5f 77 3f a5 47 b1 f6 0f 52 68 3f
       0.00570607516007055 0.0029688178815740645
0001e0 db 4f 63 ff 68 64 72 3f 57 b2 33 da a9 49 93 bf
       0.004490289828215278 -0.01883569139765692
0001f0 fe 4d 1c 9e 54 ce 5f 3f 45 cd ab 69 10 86 75 bf
       0.0019412828773440745 -0.0052548066257601155
000200 99 0a 82 e8 00 33 8f bf 6b 28 a6 61 a1 07 85 3f
       -0.015234000297146099 0.01026846007586731
000210 d1 20 b6 b5 03 f9 9d bf d2 4c 73 7a 22 37 56 3f
       -0.029270227399621988 0.00135591856979005
000220 f8 f6 ac 26 b7 f8 80 bf cd 1f 6a f0 28 ad 94 bf
       -0.008286887042796107 -0.020191802667369353
000230 5a bd 92 ae 13 a4 7c bf c6 ed 08 35 44 b9 65 bf
       -0.006992413408780729 -0.002651818482517251
000240 50 9c 18 41 4a 5b 82 bf a0 2a 8a c3 2a 23 83 3f
       -0.00896318446309699 0.00934441956748816
000250 16 cd c0 8e b0 62 7c 3f 5c 21 c3 d7 87 e4 6c 3f
       0.006930055311431779 0.0035269406490422827
000260 f1 aa 33 30 a7 b0 72 bf 5c 54 ca 25 68 c1 7e 3f
       -0.004563000754596245 0.007508665873179412
000270 c8 40 f7 a5 6a 70 70 3f d8 cc cc 0f b2 9a 88 bf
       0.004013458819329858 -0.012013808352639918
000280 0f bd 0f 13 af bb 91 3f 3e 7d 3c c8 a0 b4 69 bf
       0.01731751970140488 -0.0031378879811111695
000290 8f 95 7e f0 d3 25 76 3f 66 15 11 98 9d 9c 60 bf
       0.005407169235615141 -0.002027805138399219
0002a0 ea ca 1b 22 55 6c 89 bf 5b 1d 5a 8f 20 4a 74 bf
       -0.01241365919438438 -0.004953505694749917
0002b0 ca d9 02 af 9c 3e 4c 3f 31 61 5c 8e 48 7f 84 3f
       0.0008619561249563698 0.010008398861416442
0002c0 61 ba d7 cc 5a 60 68 bf 21 1c fb ce eb fc 61 3f
       -0.002975632995677644 0.0021957975039614973
0002d0 ac 58 23 a6 58 2f 91 3f 91 00 c9 2d 38 a2 3a bf
       0.01678217424417798 -0.0004063975482360228
0002e0 ed 2a b7 40 d2 f4 84 3f b3 ed 1d 3d 3f 2f 3d bf
       0.010232584571800507 -0.0004453210250329978
0002f0 a8 7c 45 04 8e a9 fd 3e 73 bd 0e 78 c2 19 78 bf
       2.8288195850986617e-05 -0.005883941311295759
000300 4d 00 fd 9a b5 9d 7f bf 48 10 75 4b 1f 85 81 bf
       -0.0077187627755962 -0.008554691782258442
000310 4d 5f 52 a5 43 87 72 3f c8 6f 44 ae 85 26 75 bf
       0.004523529282913175 -0.005163690748556556
000320 c0 bf 1d ed 1f d2 85 bf 66 f2 2f cd 89 8f 8a bf
       -0.01065468733187902 -0.012969090055770138
000330 f8 db 25 6e 48 c2 7d 3f b2 b0 7d 15 eb cd 70 3f
       0.007265360766147026 0.004102628990818301
000340 2d 40 1e 6c 83 dc 73 bf 38 7b 29 60 a9 60 86 bf
       -0.004848969810964871 -0.010926554915554484
000350 1c b1 45 68 e2 1b 70 bf f6 d7 41 57 5b 33 7a bf
       -0.003932842639511127 -0.006396633911313279
000360 f7 6c 52 7a 3a 9f 75 bf 7a c6 de 29 1d bd 71 3f
       -0.005278805188164918 0.004330743713511271
000370 22 59 12 ea 69 8c 72 3f 98 e9 dc d5 bc 28 77 bf
       0.00452844021596935 -0.005654084814347725
000380 b7 61 44 90 ff 97 80 3f 9d 33 92 34 37 fb 81 3f
       0.008102413740332588 0.008779937068789151
000390 a3 48 bc be 7b 62 72 bf a3 1e 82 92 f0 e7 87 bf
       -0.004488452319281108 -0.01167285868747509
0003a0 6f 04 33 71 17 ed 7c 3f 5f 9e c6 50 4f f4 81 bf
       0.0070620456419315655 -0.008766765263160168
0003b0 ac f7 9e e5 e0 f0 96 3f 3e 66 cd d2 64 f3 6b bf
       0.02240325356955679 -0.003411957665247183
0003c0 be 5c 72 30 77 29 55 3f 2e 8c 27 07 75 1e 95 bf
       0.0012916244466277117 -0.020623997270274134
0003d0 88 43 89 0e 5e 71 8e bf a8 9b 5a 51 32 8e 7d 3f
       -0.014864668673142636 0.007215687326300214
0003e0 ca 86 25 0f 50 ed 6a 3f 50 98 78 b1 b3 ac 92 bf
       0.003286987653312011 -0.018236930567717302
0003f0 e1 14 d1 e5 f7 69 7d bf 06 0e 24 96 71 ee 85 bf
       -0.007181137419199874 -0.01070870150989035
000400 aa 17 48 4d d3 3e 93 3f ec 8e 35 86 4d e7 73 bf
       0.018794347373862465 -0.004859259442443902
000410 27 16 16 91 bb 3f 82 bf a6 73 f2 8b 29 5e 94 bf
       -0.008910622945005177 -0.01989045063656971
000420 95 e1 82 e6 0b 42 72 bf 02 c6 5f 43 ea 54 89 3f
       -0.004457518087456332 0.012368993931860753
000430 a8 d2 d7 bf cc cb 63 3f a2 84 1c 5c 7f c5 78 3f
       0.002416515256067637 0.006047723292597203
000440 d5 88 d6 51 6a b7 57 bf dd 81 f2 b6 36 1f 8e bf
       -0.0014475382116434972 -0.01470797296343645
000450 e0 ee c0 6f 01 bd 73 bf 11 c2 7c bd 52 ff 7c 3f
       -0.004818921672320647 0.007079432681891721
000460 39 47 85 c3 4f 83 76 3f 54 bf 37 4a 40 e5 76 bf
       0.005496322228582256 -0.005589724667046731
000470 fe 27 c4 7a 71 e3 7f bf 3d e1 49 1c 2f 68 99 bf
       -0.007785266189111793 -0.024811493016813947
000480 a3 29 bc 55 c1 1e 97 3f 60 7e 50 30 8b 03 87 bf
       0.022578259332513572 -0.01123722783273634
000490 fb 0a bd b8 72 d7 89 3f 3b 28 b4 d8 6a 7d 68 3f
       0.01261796594883923 0.002989491161888428
0004a0 c6 27 93 d3 e0 50 8a bf a4 08 2e 9b 46 29 3b bf
       -0.012849575478316565 -0.0004144475344035703
0004b0 31 a2 9a 5d 00 d1 78 bf 45 ef 94 3f 53 43 79 3f
       -0.006058694294246923 0.006167721928530605
0004c0 22 3f e3 63 90 74 86 bf 0c 5b 7c 6e 0e 79 92 bf
       -0.010964515732126371 -0.01803991841651524
0004d0 9d 0a e7 7a e1 fa 79 bf cc 02 bd 27 89 7a 55 bf
       -0.006342774182885561 -0.0013109530836602932
0004e0 63 80 5b 39 06 04 72 3f 2a 87 9b 3c 0c 8d 80 3f
       0.0043983691336678425 0.008081527328105038
0004f0 7e 63 b5 29 c2 8b 74 3f 64 f6 73 5d 26 a0 77 bf
       0.005016096543237645 -0.005767965186576161
000500 96 10 ba c3 32 07 83 3f 4a 7b 90 9e 9c e0 8d bf
       0.00929107341585959 -0.014588569249153988
000510 ce 87 d1 e2 1c 52 7a 3f f8 24 f8 d3 1a f1 6f bf
       0.00642596515271694 -0.003899147413680578
000520 bf 00 e8 ab af 4a 69 bf 72 99 dc 41 11 e6 80 bf
       -0.003087370975890818 -0.00825131876224525
000530 1b 38 8c 16 cf 69 90 3f 73 5c 46 6c 4a 0a 8f 3f
       0.016028629065708438 0.015156346730505121
000540 1a 0b 19 f6 4f 10 7f 3f 8f c4 50 56 74 95 8c 3f
       0.007583916043190775 0.013956936725749962
000550 f4 1c 04 dd 75 a6 58 bf 9c 6f 57 30 93 84 89 3f
       -0.0015045310029238564 0.012459897911803179
000560 61 a6 4f a5 6b f1 62 3f 50 0d db 2c 5f 42 70 bf
       0.002312383885954714 -0.003969547060197101
000570 8c a3 82 71 d8 23 03 bf 74 3c aa 85 a4 6d 85 3f
       -3.650669367633646e-05 0.010463033036357518
000580 91 67 b9 18 f3 5f 53 3f 29 f6 c2 2f a2 00 75 3f
       0.0011825441350965286 0.005127557317050648
000590 3c 11 e8 72 85 09 30 3f 28 e3 1f 5f 07 1f 81 3f
       0.00024470813778544923 0.008359963980170429
0005a0 71 09 f2 7f 53 1f 96 3f 4a b1 43 1c 46 08 7d 3f
       0.021603874859019215 0.007087968701153644
0005b0 5f cd 81 00 c9 22 94 3f d4 a5 8b 12 a7 8a 40 bf
       0.019663944869944824 -0.0005048099311270545
0005c0 e8 36 0a 89 87 4a 3f bf 9f a1 57 05 42 eb 7f bf
       -0.00047746476142483544 -0.007792718786256008
0005d0 76 3b c4 ca a6 74 75 3f 87 65 be 6c ee 4b 64 3f
       0.005238200694534059 0.0024776131376255703
0005e0 73 bd a3 22 55 cb 6a bf 92 15 37 b9 3f 0f 48 bf
       -0.0032707846449892496 -0.000734239687908799
0005f0 66 ed 5f 35 01 f7 56 bf ed e7 67 93 ae 94 8b 3f
       -0.0014016639520367468 0.013467182038755932
000600 61 84 a0 0a a5 4b 73 3f e0 60 e4 1d 10 5b 90 bf
       0.004710812276273208 -0.015972377609700383
000610 9d c5 06 9f af ef 62 3f 6c 01 c1 63 bc 2a 11 3f
       0.0023115568257813927 6.548666800743557e-05
000620 10 09 58 67 ff 78 27 3f 02 d2 79 a5 85 d1 6b 3f
       0.00017908208580769873 0.0033958063393646496
000630 c8 9e a3 91 5e 8d 7e 3f b0 bc f0 af 63 4a 82 3f
       0.007459039125229779 0.008930949026846186
000640 47 2b dc 7a 74 80 86 bf 0c fe cc 30 62 c2 64 3f
       -0.010987195968046882 0.00253409555298823
000650 da 73 55 48 90 8e 80 bf 4d 5a 66 c6 3a bf 94 3f
       -0.008084418494655955 0.020260732993472797
000660 5b 99 90 cd fc cf 56 bf d3 98 a1 52 fe b3 97 bf
       -0.001392361524503358 -0.023147558015261204
000670 2a a0 d8 b5 79 b4 7f bf 60 01 1a 41 31 33 83 3f
       -0.007740474158289637 0.009374985503428135
000680 c2 2c 5d 9f 5e 29 81 3f 3f aa 8d 37 27 8c 82 3f
       0.008379687536623218 0.009056383498053154
000690 a0 f2 3f 0b b7 83 90 3f 1e 58 d0 76 53 18 43 bf
       0.016127452909119655 -0.0005827338733321895
0006a0 95 87 2e 9a 88 07 91 3f 3b 4d 16 21 e7 ca 83 bf
       0.01663030091334113 -0.009664350220907827
0006b0 93 d5 9b 34 c7 1b 7b bf 69 b6 7f 57 0b d2 97 bf
       -0.0066182881798701075 -0.02326219293165935
0006c0 88 fc 12 bf 50 9c 61 3f 08 04 11 01 06 a3 4b bf
       0.0021497323110391577 -0.0008434085194793947
0006d0 ae f3 25 80 31 b4 91 bf 57 2f 46 58 c4 fd 85 bf
       -0.017288945623920852 -0.010737928337014742
0006e0 42 95 dc c3 76 8c 77 3f 47 4c a9 34 49 18 76 bf
       0.005749191213714257 -0.005394254646108604
0006f0 59 a9 c5 49 d8 fa 5f bf 35 71 71 40 1e 19 84 3f
       -0.0019518959225828995 0.009813534108780256
000700 79 05 a4 38 50 89 96 3f 51 e8 12 0f 38 8b 89 3f
       0.022008183915209287 0.012472570381181354
000710 08 c0 80 85 86 2a 70 3f 5f a8 df 25 7c 19 86 3f
       0.003946805452912379 0.010790796190082995
000720 ad 1f 7a 55 15 eb 85 3f 09 e4 26 d0 68 f9 84 bf
       0.010702292128612923 -0.010241335727970495
000730 e3 68 26 58 98 0c 77 bf 3e dc ac ab 7a 9c 7c 3f
       -0.005627245993674121 0.006985167676979263
000740 0b bb db bc 47 c4 49 3f 5d c3 55 ea dc 99 62 bf
       0.0007863378793596399 -0.0022706331971495256
000750 33 f3 2a f5 78 b4 81 bf ca 0f 72 3b a0 2c 85 3f
       -0.008645005208899192 0.010339023412832566
000760 62 1f ff 5b 5b 78 85 bf 7b d9 f1 49 a9 67 46 bf
       -0.010483468766224472 -0.0006837441068359562
000770 a4 42 41 12 3e f4 5b 3f de fb 9e d9 c4 07 85 3f
       0.0017061811604614308 0.010268724337832266
000780 08 a9 d8 13 7f c1 1c bf 1a 75 b9 3b 6a 99 78 3f
       -0.00010969484443338143 0.006005682920286826
000790 35 2a 35 8a 43 4e 84 3f e8 7f 4d fc d5 44 72 3f
       0.009914901404632118 0.004460178261837179
0007a0 e9 f0 86 84 4c 22 4d bf 50 59 4e 09 42 ac 85 bf
       -0.0008890985127929771 -0.010582462224004857
0007b0 3d 3f 3e 4d a0 4e 92 bf 8e 02 9f 39 9b 54 65 bf
       -0.01787806006865299 -0.0026038200130361127
0007c0 5b 7f 9e 1d 94 d8 7b bf e3 33 d8 97 45 c5 6f 3f
       -0.006798342301323003 0.003878246234995762
0007d0 7f 8e 4f fe da e6 67 bf 1c 1c 9c ae 85 a6 67 3f
       -0.0029176976408836204 0.0028870211580200988
0007e0 76 6d 02 74 16 9a 7c bf 6e a0 c9 53 c7 1a 89 bf
       -0.006982886989273287 -0.01225810741853214
0007f0 95 1c c1 12 da af 88 bf 10 81 89 a5 12 02 5a 3f
       -0.012054160783135518 0.0015874082656851009

b2 f8 [1, 10]
000000 9a 64 ae 10 ae 44 6a bf 83 91 0e 55 06 17 6d 3f
       -0.003206577273385647 0.0035510181118800234
000010 5a c9 fa d7 a2 3b 60 bf cc d8 fc c4 db 07 73 3f
       -0.0019815617123068287 0.004646166300338272
000020 b6 7c 73 3e c6 67 70 bf 13 ee ee 3a 5c 79 63 bf
       -0.004005216970852368 -0.0023772050257926474
000030 93 26 30 15 f1 fb 50 bf c9 80 eb 6a 9f cd 6b 3f
       -0.0010366300891767918 0.003393946993455275
000040 36 d8 1e e4 b3 ec 30 bf 78 7f 4e bb d6 e0 54 3f
       -0.0002582492053265802 0.0012743088711672772
