experiments/exp_batch_20250114_141918/exp_h50_lr0.5_run1/model/weights.npz (npz, 319046 bytes, 4 tensors)

W1 f8 [784, 50]
0	0x3f5a61dd0a3aaa23	0.0016102465241753037
1	0x3f74730ee41ae515	0.004992540519816365
2	0x3f9484de76190b33	0.02003810497104581
3	0x3f74de09681bd888	0.005094563240836909
4	0xbf6fcdc84761e80c	-0.0038823043533371456
5	0xbf9ce4ec84babef0	-0.02821702537647658
6	0xbf8402b61b515353	-0.009770796497983325
7	0x3f8c1894505ee175	0.013718756392208967
8	0xbf929b259b310658	-0.018169963452470433
9	0x3f6fc9eb40f6bfc8	0.0038804621505832172
10	0xbf50a51bd8f77f00	-0.0010159275005818258
11	0x3f5e70f92e1e86ac	0.0018579896354612808
12	0x3f7101daff22e8c6	0.0041521601253242165
13	0xbf85b9ee7f17e27b	-0.010608542684154223
14	0xbf5998c7ecfcfd45	-0.0015623047256239791
15	0xbefee6c3ae1bc4e1	-2.9469893781224123e-05
16	0xbf655d23d3d40c8a	-0.002607889152046965
17	0xbf73c6d9ea95e3e4	-0.0048283111913116385
18	0x3f8c7948bb02c581	0.01390320606910467
19	0x3f73faf8df023a8c	0.004878017571299364
20	0xbf7b30907f6081d3	-0.0066381115375695075
21	0x3f7b6a9b74f737f1	0.0066934654746102365
22	0xbf80ba31411c6db4	-0.008167633819133303
23	0xbf6cb4e7b85c352c	-0.0035042310509029364
24	0xbf88c53cf3ee9c11	-0.012094951814857454
25	0xbf8e3310b5b115ad	-0.014745836777488497
26	0xbf5e2a03966c5ed7	-0.0018410716090268475
27	0xbf720ed2c8cf1c5a	-0.004408667923548293
28	0x3f3e7ffea75758da	0.00046539275294089704
29	0xbf56ff26c41b9552	-0.001403606278864562
30	0x3f6e32fbf4a1d33b	0.0036864205367756176
31	0x3f90eb8ff9013e78	0.01652359921746302
32	0xbf7bcd88c01dcb8c	-0.0067878095450052515
33	0xbf89d7f9de431cbc	-0.012618972869303462
34	0x3f7309462f9b6aac	0.00464751640694298
35	0xbf75bb9db68aa7fe	-0.005305877749075092
36	0xbf67c48e921c84e7	-0.002901342829219378
37	0x3f730556ce86674a	0.004643763626882189
38	0xbf71e4cef4be4d08	-0.004368599340426778
39	0x3f7519493671385a	0.005151067721341185
40	0x3f4ab5867b495ea9	0.0008150965355282108
41	0x3f59245cfc75335a	0.0015345485752107008
42	0x3f8bc228dd2c7875	0.013553923844991747
43	0xbf4a3081955bef87	-0.0007992394191371634
44	0x3f76844c4fd75b23	0.005497263043671183
45	0xbf906540feccc176	-0.01601125292944646
46	0x3f8de25f96876b80	0.014591929227142364
47	0x3f73a25f5fd893e5	0.004793522411579131
48	0x3f96ae7586270dd7	0.022149883568784858
49	0xbf755aeb95734781	-0.00521366143148494
50	0x3f86a0be8e8344d2	0.011048783039230878
51	0xbfa05cadb612d88f	-0.03195708129480678
52	0x3f72beb6cc0d5367	0.004576410342299698
53	0xbf70571e06fe950a	-0.003989331526019111
54	0xbf8936d8a6e597a0	-0.012311642258918287
55	0x3f431917c34c7071	0.0005828252820694447
56	0xbf4e9b59140eae69	-0.0009340462639690464
57	0x3f82627150c5e64c	0.008976826932428093
58	0xbf83b817f24408fa	-0.009628474312652891
59	0x3f80c76f905153cd	0.00819289359257338
60	0xbf7dc4e7b1af69c0	-0.007267861418734645
61	0xbf76c2e8aab74b73	-0.005556973318976743
62	0x3f50c67ec28ac8dd	0.0010238874330466476
63	0xbf52a34a646cfb4e	-0.0011375643241106795
64	0xbf6c29294b1f5fbf	-0.0034375959885259706
65	0x3f6b2b87fb7ebbe0	0.0033166557222652354
66	0xbf4de0f66e9358e0	-0.0009118274002968517
67	0x3f61329b2090014e	0.0020993261173318017
68	0x3f67cbaed8813348	0.002904740806150139
69	0xbf6052aa594c79a5	-0.0019925429463818083
70	0x3f8e03aa1e2a54d6	0.01465542702252735
71	0x3f81fc8dc8765726	0.008782489471552756
72	0xbf8c3f9ed50b3a55	-0.013793221355993849
73	0xbf80c12f9fac050d	-0.00818097311048629
74	0x3f8dd16ef0befacd	0.01455961868475466
75	0xbf8784435d925e96	-0.01148274068172776
76	0xbf863f4e5a61ca63	-0.01086293423961599
77	0x3f7b91e5d6d98ab7	0.006730935868832936
78	0x3f6e761dbcb6391e	0.0037184315494364203
79	0x3f6b630f5f85d37c	0.003343133950858888
80	0x3f4254142890aca1	0.0005593393735855609
81	0xbf5215999d3e6cd4	-0.0011037826670648359
82	0x3f667177a54a7125	0.002739652331298486
83	0xbf65619a6171bf44	-0.002610017323199461
84	0xbf7e43de96cf6cfb	-0.007388944138223548
85	0xbf9064d2172876d0	-0.016009600318389883
86	0xbf78de0363f1eee5	-0.006071103328505
87	0xbf892bd25e95ae24	-0.012290614615913027
88	0x3f5e0ca9bf7e342c	0.0018340738006117447
89	0x3f893e038c8b439e	0.012325313307344928
90	0x3f760eb7f3fe5724	0.005385130469127284
91	0x3f933d9127e0bf29	0.018789547022776496
92	0xbf82d315c958e5aa	-0.009191675383692328
93	0x3f63187fa2e8d377	0.0023310177705532747
94	0xbf890c7e836c8e53	-0.012230862031692135
95	0xbf87c05002d3a644	-0.011597275816217174
96	0x3f91fe2c10f1af5c	0.01757115224283666
97	0xbf888a57830b26d1	-0.01198261612570964
98	0xbf7177f97fafa445	-0.004264807324013968
99	0xbf84ae64a12e6fd2	-0.010098253411165024
100	0xbf6ee68f0bc5e404	-0.003772048365302984
101	0xbfa41232be9b436d	-0.039201341407198644
102	0xbf91888bbf804dbd	-0.017122443736367055
103	0x3f82cf9c616656f0	0.009185048792271527
104	0xbf884b37614fd7cc	-0.011862213761542416
105	0x3f5ade5d5e1c4c16	0.0016399299424321215
106	0xbf90a2b18e5cc851	-0.016245626749146706
107	0xbf820fb5daff5c5f	-0.008819027658246435
108	0xbf6bcb373e4cd7ff	-0.0033927992793918445
109	0xbf82cddbbc2b6d3f	-0.009181706123334464
110	0xbf92a2144386b0b7	-0.018196407910793435
111	0x3f97232701ff0728	0.02259503316577774
112	0xbf8677276daed660	-0.010969455752142199
113	0xbf9163421fb3513f	-0.016980202851145206
114	0xbf74fa51bdb31c5e	-0.005121535588108987
115	0xbf8cb196d4d57e03	-0.014010599489380665
116	0x3f86742476c5cd75	0.010963711619047281
117	0x3f7a2ba2615f84aa	0.006389269159599179
118	0x3f3b1f46ae676c92	0.0004138515054401072
119	0xbf70205dba504095	-0.003937116741340803
120	0x3f86bbaa36f4074f	0.011100129892387093
121	0xbf7f868968bad80d	-0.007696663622189359
122	0xbf90552a34d09b8a	-0.015949878190578505
123	0xbf7d499c9f5f23b8	-0.007150279814546794
124	0xbf889b1f8854a39f	-0.012014623973827741
125	0x3f90c141e3f04807	0.016362218415515908
126	0x3f6280b683528851	0.002258640738163322
127	0xbf921875684dc08a	-0.017671427241510197
128	0xbf8e2470d6789288	-0.014717942757735317
129	0xbf97d54b105d01f7	-0.023274586557137735
130	0x3f2d21b0d0b7822e	0.00022225650205511107
131	0x3f662ceef03cf064	0.002706972767468273
132	0x3f6e5f9c39eee4bc	0.0037076998991919224
133	0x3f91fb17dba3e49c	0.01755940702512203
134	0xbf92ab7b2520745c	-0.018232273236311478
135	0x3f83a18d85ac5b98	0.009585481302151241
136	0x3f4d8a42238dd387	0.0009014914459003356
137	0x3f31559323724e03	0.0002645000672114319
138	0xbf85dc0b6141582a	-0.010673607736105668
139	0xbf7ab4c23f140092	-0.006520041251178681
140	0xbf7dcacaa2bb108d	-0.007273475213598013
141	0x3f8a05b0de07d875	0.012706167007291417
142	0x3f69b0599587d7d3	0.003135848015740608
143	0xbf6b3c9a29210227	-0.0033247958135975866
144	0x3f57ffced182a265	0.0014647979460652657
145	0xbf4cc268b1278215	-0.0008776675406885782
146	0x3f57a4bee27451c9	0.0014430870158480427
147	0xbf81343ef7f51b6d	-0.008400432531414837
148	0x3f96d540dc9446da	0.022297872031294165
149	0x3f6e66450076d45c	0.003710875291029354
150	0x3f91c4be1ab5ccf8	0.0173520759394252
151	0x3f8c57d56bdc0688	0.013839404443845696
152	0xbf73082a794fc530	-0.0046464594970399425
153	0x3f95e722cfdb4e8f	0.021389526306690384
154	0xbf938cafe2c75ba9	-0.019091366020656562
155	0x3f89e7245846d178	0.012647899574269358
156	0x3f8b54d1f089a69c	0.013345375207069403
157	0xbf537e9e13c68e4f	-0.0011898559306268324
158	0x3f718894b7cba953	0.004280644349572721
159	0xbf80df88a77a6801	-0.008238856898334037
160	0x3f8ba71c463a0297	0.01350233163179952
161	0x3f7033c8c17a67f9	0.003955635263674034
162	0x3f6ce14bf50bdb27	0.0035253985919284805
163	0xbf004b300c822d28	-3.1077770075683194e-05
164	0x3f83c052686e3178	0.009644168674434836
165	0x3f76563328f58d7f	0.005453300327050824
166	0xbf8a988112489744	-0.01298619114920608
167	0x3f8ad041e89eca4e	0.013092532073504828
168	0x3f8639e8a6c5bdd8	0.01085263976048527
169	0x3f54e646716ffb3f	0.0012756050034565395
170	0xbf72800f4d7fc163	-0.004516658569614004
171	0x3f4b096caa6f4e11	0.0008250980944190541
172	0xbf73b64d60c1c8c1	-0.004812528855938137
173	0x3f8b34753f2951ed	0.013283649435074952
174	0x3f731155178355ca	0.004655201330213863
175	0x3f790b9e51571550	0.006114595822002869
176	0xbf952b917d1f4fde	-0.020674012433872117
177	0x3f85bfa55d3e6a2e	0.01061944189841765
178	0x3f81fa392566da6a	0.00877804417983193
179	0x3f828bf9cd029268	0.009056045121107206
180	0x3f89d33c0a393030	0.012609929143899107
181	0xbf56ddcdaeb5b476	-0.0013956555001997362
182	0xbf826e30b7dc1448	-0.008999233828499112
183	0x3f81cc36ca26c019	0.008690288585825144
184	0xbf853a4913d0a052	-0.010365076939777538
185	0xbf7eae650e845c55	-0.0074905345466254785
186	0x3f9085bde546df16	0.01613518440146241
187	0xbf74b0e578e6cf4a	-0.005051514030515689
188	0x3f8c232aeaf75cee	0.013738951964951753
189	0x3f85fbfb2ea41905	0.010734522209997719
190	0x3f8d908d3ea00b6e	0.014435866807621624
191	0x3f7134bcfb2b0fc6	0.004200685699007728
192	0x3f6cb7d55d00ec20	0.0035056273700582313
193	0x3f783e7de297a83c	0.005918971766258049
194	0x3f930f4e2c66118e	0.018613072833902282
195	0x3f7faffe7e93ce8a	0.007736200446050065
196	0xbf9412ddb6880cd8	-0.019603218332133604
197	0x3f8ae9b299d6a151	0.013141055412078247
198	0x3f760f77246dc229	0.005385842704399604
199	0x3f75dda52523b887	0.005338330362276384
200	0xbf44b833a845980a	-0.0006323101265877107
201	0xbf94db0e5f0bbbbc	-0.020366882849824228
202	0x3f606fa5ef5cfd55	0.0020063630026069625
203	0x3f940a3bef2d2d55	0.019570290063069724
204	0x3f8fa346bcc2fc70	0.0154481436114777
205	0x3f83741be1849ed5	0.009498803920521418
206	0x3f91d4380cd03335	0.017411113531170492
207	0x3f8e14089a68e29b	0.01468664857121498
208	0x3f7c09f1b9a9e8e5	0.006845421065572154
209	0xbf876cd83efa5d0c	-0.011438073560653204
210	0x3f88defca30089ec	0.012144063686780414
211	0x3f6f7cbabda4c049	0.003843655326953442
212	0xbf5f97192daf7e40	-0.0019281144984616555
213	0xbf804cd00ddeefb0	-0.007959008620552627
214	0x3f84c1ff31133abb	0.010135644612458852
215	0x3f5897f65e483aa9	0.001501074403794137
216	0x3f0323ac5766cf18	3.6505410139579624e-05
217	0x3f682a3b2d38c8d5	0.002949824885740341
218	0xbf959aab70eac1b8	-0.021097830550105917
219	0x3f73d718ef2199c8	0.0048438047398122255
220	0x3f96b4d84dfc39f1	0.02217424369796989
221	0xbf89a25ff66a001b	-0.012516736705265477
222	0x3f812e1f6afad944	0.008388753368632103
223	0xbf8063fb64f808de	-0.008003200548959585
224	0x3f54dfb0623429ac	0.0012740347381759816
225	0x3f648b4411f9141f	0.002507813405630901
226	0x3f50428588992db1	0.000992422489065042
227	0xbf716b8e9d2aea58	-0.0042529650551679996
228	0xbf886eed34ebdd01	-0.011930325677424582
229	0xbf94a916b62baed5	-0.020176272267163526
230	0xbf812d2f799d10e0	-0.00838696565518443
231	0x3f516d3f6a1cb299	0.0010636443407278427
232	0x3f6ad30653b02e68	0.0032744525501636097
233	0x3f829e62c340b50c	0.009091159423486171
234	0x3f8e605731fe8173	0.014832192624283569
235	0x3f84d0383983231c	0.010162772421965331
236	0xbf90be9306e0607a	-0.016351983351427603
237	0x3f4cafcfd834c448	0.0008754505983345007
238	0xbf7779f636006abe	-0.005731546174525702
239	0xbf8b90dbe7bec136	-0.013459890374946864
240	0x3f7e59d12a7b8745	0.007409874968034751
241	0x3f4bbe3792041cf8	0.000846650251362129
242	0xbf7cd27c82a99dfa	-0.007036672943832917
243	0xbf6283685a35abc3	-0.0022599256641817347
244	0xbf810346bb2444f3	-0.008307030283079863
245	0x3f68fdf1d08cca53	0.003050777715907041
246	0x3f8b8c534966a5a7	0.01345124309303254
247	0xbf64137f1de630e9	-0.002450702929485006
248	0x3f776012c2c28c7e	0.005706856998730745
249	0x3f54c841f3c4d5d8	0.0012684482636137109
250	0xbf76d57728e67898	-0.005574670284117421
251	0x3f6200aa470ab164	0.0021975827915722713
252	0xbf88c9bd96b3c29e	-0.012103539620939071
253	0x3f32114705eb816d	0.00027568801844603843
254	0x3f85b60cc7125b3a	0.010601138901888175
255	0x3f966092387a88d1	0.02185276479452442

b1 f8 [1, 50]
0	0x401ae0900fb5ca7e	6.719299550505296
1	0x401ae0f246fc1479	6.71967421449255
2	0x401ae07b352eb955	6.719220000244907
3	0x401ae0a54d043e96	6.719380572685301
4	0x401ae0cf8b3967a5	6.719541716936793
5	0x401ae0f548d22aed	6.719685685947053
6	0x401ae1209f7d67b1	6.719851009396664
7	0x401ae14d22f0710d	6.720020814824477
8	0x401ae0daa43aec24	6.7195840512240785
9	0x401ae1543cab2a99	6.72004790110318
10	0x401ae1070477046d	6.719753331913222
11	0x401ae12b744f07ca	6.719892327617297
12	0x401ae137ef0f897a	6.719939933131508
13	0x401ae0f8e61d8aa3	6.719699473908494
14	0x401ae1575780b7e6	6.7200597450555275
15	0x401ae12fe04de7c7	6.719909195666282
16	0x401ae1186ce3e76d	6.719819737825543
17	0x401ae089cdfbb18c	6.719275682913928
18	0x401ae0cf10e61660	6.719539894145413
19	0x401ae0c088aa1e89	6.719484458335168
20	0x401ae0f8fc6edb46	6.719699806467196
21	0x401ae110818e50d5	6.719789528189911
22	0x401ae0c960b7d904	6.719518195363211
23	0x401ae15085b2baa7	6.720033730539092
24	0x401ae0ee63621a69	6.719659378874533
25	0x401ae0e9d24ce3c3	6.719641958182311
26	0x401ae0e69da6d313	6.719629729563866
27	0x401ae06245ab990b	6.719124878500462
28	0x401ae0e6d0f7fa97	6.719630494246892
29	0x401ae0791cf8a2b1	6.719212010074146
30	0x401ae0cd6844a9fc	6.719533566656988
31	0x401ae10b3f707b4e	6.719769469490371
32	0x401ae0d3c5b4e412	6.719557847181038
33	0x401ae0d5c82bc6ce	6.719565513297949
34	0x401ae0e167a83a8a	6.719609851496566
35	0x401ae0841d1ed96e	6.719253973968405
36	0x401ae08983d0e490	6.71927457773667
37	0x401ae08dd7da0b01	6.719291088755882
38	0x401ae0d1e48dbfe8	6.719550677444182
39	0x401ae0ba98052c74	6.7194617989690535
40	0x401ae05bbc214915	6.719099940806946
41	0x401ae0c2897fee04	6.719492100175106
42	0x401ae0e2782b6272	6.719613912246688
43	0x401ae10437bbe3fe	6.7197426517896
44	0x401ae0fbf85505d6	6.719711189450626
45	0x401ae0b75054abcb	6.71944928662101
46	0x401ae0b5b58e3f9e	6.719443165595207
47	0x401ae12c55c25096	6.719895687088998
48	0x401ae1a2d45fc788	6.7203477080783
49	0x401ae0f9023dfba8	6.71969989302935

W2 f8 [50, 10]
0	0xbfa94fded085344e	-0.04943748755850007
1	0xbfc26645cf80fc6a	-0.14374611503623963
2	0x3fa7cbbdc1371d4e	0.0464762972219953
3	0x3fb51ad2d0ca649a	0.08244054410387705
4	0xbfc2a40c98b57471	-0.14563138443455473
5	0x3f761c28660ef1e0	0.005397947127616182
6	0x3fb0fc0ad5dfe1ec	0.0663458606867448
7	0x3f9d2241adc4cf18	0.028450990897183365
8	0x3fb835b9629c7fa3	0.09456976563933366
9	0x3fa4d15a6eb86daa	0.04065973855559986
10	0xbfb11003522a1772	-0.06665058856932918
11	0xbfc1d8b596d358dc	-0.13942594399003994
12	0x3fa14115a8ccecc2	0.033699681144264484
13	0x3fb31b42f1aac504	0.07463472747874184
14	0xbfc47f3eec6ccfdc	-0.16013323349181874
15	0xbf8fc9866323be70	-0.015521097088338126
16	0x3fb192a92013cf3a	0.06864411385668925
17	0x3fa4577b824aa568	0.0397299381778094
18	0x3fb707b0eae1aeb0	0.0899611066285455
19	0x3fae2f9d0e89bc21	0.058957012200032695
20	0xbfaeda3dba21707f	-0.060258797617934505
21	0xbfc32429bd8fda46	-0.1495411086650213
22	0x3faedbdbd07086fa	0.060271138376505065
23	0x3fb0d8e6574e3a13	0.06580962783321125
24	0xbfc391f7227f15a8	-0.15289200958629334
25	0xbf90b43d449a0e74	-0.01631255847179465
26	0x3fb2381d2234bdc6	0.0711687286864083
27	0x3fa1498f0aa08563	0.03376433377003243
28	0x3fb85ce3fb2454e0	0.09516739732164892
29	0x3fa600e65aaeadff	0.04297561509096325
30	0xbfaeedb95d4b731e	-0.060407440794483444
31	0xbfc27410d8dfac8e	-0.14416704740083158
32	0x3fa5820b69a80abc	0.04200778641463418
33	0x3fb156bec00fcca0	0.0677298754597353
34	0xbfc39549d887d92b	-0.1529934222487069
35	0x3f81dded3b90f018	0.008724072819056558
36	0x3fb439874d222a4e	0.07900281556263986
37	0x3fa54b84f89a2d18	0.041591792437509933
38	0x3fb0bfbf25f6fc1a	0.06542582203745476
39	0x3fac20685954dd0a	0.054934750466083385
40	0xbfa458d1d4e21940	-0.03974014018699501
41	0xbfc2104072d2102a	-0.14112096411202063
42	0x3fab787625eea48c	0.05365342343368082
43	0x3fb0b508951e1c62	0.06526235237662228
44	0xbfc3ea24db069bc5	-0.1555830068075165
45	0xbf91047d0b26b734	-0.016618684583298918
46	0x3fb445c298313abb	0.07918945518143065
47	0x3f9a004ae0b6a336	0.02539174076597136
48	0x3fb43b618192d999	0.07903108037394303
49	0x3fac57b38538c825	0.05535660744898533
50	0xbfa18f3ae8778006	-0.03429588401536425
51	0xbfc2909cf1b394d1	-0.14503824045019667
52	0x3fa249ac0d3d11f6	0.03571832334140261
53	0x3fb17da12e1cf452	0.0683232057171648
54	0xbfc4904736fc1070	-0.16065302071376975
55	0xbf8824b8ba52b6a0	-0.011788790880326971
56	0x3fb20d7e6ff7a554	0.0705184005124882
57	0x3f9eb536d879ed50	0.02998815246836034
58	0x3fb46bbff4677912	0.07976913182162473
59	0x3faa1a80ac282b6f	0.05098344899678053
60	0xbfa9de833eb99a6d	-0.05052576199232282
61	0xbfc05691ce405969	-0.12764189310901067
62	0x3faab0552e28b6ce	0.05212656200852238
63	0x3faf8f333b9627a0	0.061639405273197
64	0xbfc49f4c06b76712	-0.161111357955456
65	0xbf9f28dd100f017c	-0.03042931948198334
66	0x3faf6d920791fc53	0.06138283102426869
67	0x3fafc1781f64b043	0.06202292807788059
68	0x3fb2eabffede1bd6	0.0738945004687673
69	0x3f99096b97a2c1b6	0.02444999802600175
70	0xbfb000fad8e640c6	-0.06251495166202678
71	0xbfc0df640dca6007	-0.131817347272545
72	0x3fa4dd58212d1472	0.040751222657981936
73	0x3fb20748eed09313	0.07042365866125193
74	0xbfc51b7071df8d4d	-0.1648998790761688
75	0xbf875338046e0eb0	-0.011389196047964262
76	0x3fb32cbd785f252d	0.07490143002282386
77	0x3fabab9c1f4e3e0b	0.05404365427159171
78	0x3fb33a082718bb3b	0.07510424570567135
79	0x3fa56f4e018505af	0.041864812551021806
80	0xbfaa3da50e5ffdc3	-0.051251562123066495
81	0xbfc078891a7130bb	-0.12867845336075398
82	0x3fab8dbc934c9271	0.053815739613388376
83	0x3fb5ae9e4acd14a1	0.08469571424673684
84	0xbfc25b296adc6c4c	-0.1434070369512902
85	0xbf807be51d6468a0	-0.008048810920218863
86	0x3fb1df38da69a242	0.06981234867419864
87	0x3fa2887e3220f3f5	0.03619760858462221
88	0x3fb4ad737050231d	0.08077165119187808
89	0x3f96fc7e81056444	0.022447563767262105
90	0xbfa9969ed1e04079	-0.04997726737940495
91	0xbfc110d2f20eca50	-0.13332592791774056
92	0x3fa86d992ec7149a	0.04771116920486769
93	0x3fb4a2c55e354cc1	0.08060868787770216
94	0xbfc3b46c44231e76	-0.1539435703946201
95	0x3f6e1161b1ef0540	0.0036703975779067977
96	0x3fb05a65911a57ec	0.06387934486914987
97	0x3fa71d77068d4b25	0.04514667468051518
98	0x3fb3c3ab296240aa	0.0772044158968607
99	0x3fa145bf23c1f7ca	0.033735249628974964
100	0xbfadf742d1f440c3	-0.05852707684437199
101	0xbfc15dfb40fa7bcc	-0.13568058655525161
102	0x3fa5e60c1792f9c4	0.04277074611444534
103	0x3fa9a84ddf4e348b	0.05011218405625425
104	0xbfc2e24c9ada749a	-0.1475311046714623
105	0xbf8c4d9c1aef6d10	-0.013819903919218862
106	0x3fb6aace8b9d342e	0.08854380520388425
107	0x3fa60645a52f3932	0.04301660195743508
108	0x3fb1b812801bc30f	0.06921496989867769
109	0x3fa06affde38f4ae	0.0320663412826233
110	0xbfb0b388bec18bc5	-0.06523947388772829
111	0xbfc15f97ae27aa12	-0.13572975162181017
112	0x3fa6cf118d6d5fcf	0.04454855777174737
113	0x3fb04b1d18b39733	0.06364614346565815
114	0xbfc2e54cc7a021c1	-0.14762267825450517
115	0xbf806c7c18840810	-0.008019418237839943
116	0x3fb53f7d7ee0cf29	0.08300003383265832
117	0x3fa7ded98aeb9bb9	0.04662208386235229
118	0x3fb778bc271964ff	0.09168601946420905
119	0x3fae56edbc5f2a52	0.05925696300945006
120	0xbfacc497244268ac	-0.05618736569995639
121	0xbfbbce7536e18042	-0.10861904706826045
122	0x3fad517d048bba64	0.05726233177653198
123	0x3fac00775d3c1e3a	0.0546910573303276
124	0xbfc20c53f6227a6a	-0.14100121992392484
125	0x3f42cbd4be6c1680	0.0005736149585977152
126	0x3fafe1de58931c3b	0.06227011519654765
127	0x3fa0468478308322	0.031788005515642107
128	0x3fb342a208b32243	0.07523548805614504
129	0x3fa9f8316ee8a3f2	0.05072168806902501
130	0xbfa997b4d6cc2b6a	-0.049985552997972985
131	0xbfc2fa9511e3082e	-0.14827216504460367
132	0x3fa5d98dbcb844ee	0.042675427710614375
133	0x3fadecd5eedd014f	0.05844753781139166
134	0xbfc2e20e5c7f4173	-0.14752368465861884
135	0xbf858f9998943820	-0.010527801483956323
136	0x3fb3a86f63314b98	0.0767888657731376
137	0x3fa58ea6ea4bcbfc	0.042103973484607565
138	0x3fb3b6410b0f18e4	0.07699972648615333
139	0x3fa27d14de8533d1	0.03611054626762889
140	0xbfb28de994bd6c28	-0.07247791177125917
141	0xbfc2416ac47367e9	-0.1426213702423518
142	0x3fa48f5b48582458	0.04015622385129153
143	0x3fb014762bfda23b	0.06281221937172969
144	0xbfc1de7e401967dc	-0.1396024525627685
145	0xbf953a47c8fda258	-0.020730134623052926
146	0x3fb0165ac446e132	0.06284110347667562
147	0x3fa4da13ac022d7e	0.040726294276363526
148	0x3fb0fba67eb2ec18	0.06633987992511015
149	0x3fa039b483da85b3	0.031690255256090614
150	0xbfaea982bb7d77c2	-0.059887013804412983
151	0xbfc052d6283da236	-0.1275279709327763
152	0x3fa9b9f264c8b87c	0.050246786883108435
153	0x3fb2b6644e980a64	0.07309557837292285
154	0xbfc2c329871c0b1b	-0.14658087823053098
155	0xbf986d429dccef68	-0.023854294663791548
156	0x3fb28bba4ad0bd02	0.07244457556292974
157	0x3fa4ffd6d2672465	0.04101439779658093
158	0x3fb52bc6df7ad8c2	0.082699231682315
159	0x3faa5af3bb497b3c	0.051475159275233356
160	0xbfb299124a46c43e	-0.07264818490399791
161	0xbfc14b407a16e7a4	-0.13510900460624697
162	0x3fad075f112040e1	0.056696863976073215
163	0x3fb386eb4f8cb603	0.07627745334749396
164	0xbfc248e1cea9cf2e	-0.14284918395025542
165	0xbf925f5edc95c9d0	-0.01794193478912992
166	0x3fb1e28c32cb08b8	0.06986309280458414
167	0x3fa1d364c2e4a702	0.034815930166884015
168	0x3fb52409ee2479dd	0.08258115829492092
169	0x3f97e5526be81c00	0.0233357313500413
170	0xbfb0c5c0a487a676	-0.06551746384470811
171	0xbfc2dcc9cb578a8f	-0.14736292294317763
172	0x3fb0c5f7ce7a7896	0.06552075186707138
173	0x3fb6f1bd6e0e6189	0.08962615906637529
174	0xbfc5002b4ce37540	-0.16406766180345222
175	0xbf99bbca8ec4e78c	-0.025130429233491777
176	0x3fb5957b1fb1c507	0.08431214832105037
177	0x3fa5e2eb96be5ede	0.0427468892586924
178	0x3fb40afdaa4e6d5c	0.0782927075182917
179	0x3fa658017d20d3fb	0.043640181087916084
180	0xbfaa7bac6375c25c	-0.051724803105461986
181	0xbfc2fb269b7b44d3	-0.14828951446410218
182	0x3fa24ddcc8e9326c	0.03575029327894161
183	0x3fb2cfd6539c7573	0.0734838441971613
184	0xbfc04660fbfc386e	-0.12714779190031628
185	0x3f6ae856d60a1b20	0.003284616090528117
186	0x3fb22d2eb787c3fd	0.07100193005295803
187	0x3fa90ffa45664b40	0.04895002457774078
188	0x3fb60033978bd29a	0.08594057512147871
189	0x3fb205db015fd0d0	0.0704018476824928
190	0xbfae8b733287d7b3	-0.05965766898945848
191	0xbfc359806e630a81	-0.1511688746450837
192	0x3fa1f0a3af24b09e	0.035039057855415154
193	0x3fb4d461ea427457	0.0813656994746038
194	0xbfc37cf76ffe78ae	-0.15225117653330272
195	0xbf646693b0357d00	-0.002490318731062424
196	0x3fb4ceb22aba1977	0.08127893012178854
197	0x3faa6236ae4dc4a2	0.05153056028110227
198	0x3fb367a4f5a1c75f	0.07580023762582531
199	0x3f9fdfbcf61f3126	0.03112693073471564
200	0xbfa82e186f65917f	-0.04722668037246346
201	0xbfbe94cbd5031b52	-0.11945795011989205
202	0x3fa9bc28246c3100	0.05026364750492185
203	0x3fb01899bc9687d0	0.06287537435721835
204	0xbfc1fae14f2f3d7f	-0.14046875349457008
205	0xbf94610f4df23764	-0.01990150368924705
206	0x3fb22fed5d3cd940	0.07104381109534064
207	0x3fa292632869dd58	0.03627309673623341
208	0x3fb605c4bd33d3e0	0.08602552050781709
209	0x3fa76579488a517a	0.0456960583734682
210	0xbfa83b9c1c58482f	-0.04732978673941123
211	0xbfc24410933f7f2b	-0.14270217122884196
212	0x3fa40293e443849d	0.03908216630385051
213	0x3fb303c511402455	0.07427627249866593
214	0xbfc20bbf027f0e17	-0.14098346349611354
215	0xbf7841d48f82c880	-0.005922155680467722
216	0x3fb113b7db6e7647	0.06670712573255698
217	0x3fa0d7c96b017e57	0.032896322548137284
218	0x3fb18b9f98c984fd	0.06853673439174553
219	0x3fa7954ef464c602	0.046061007817467484
220	0xbfa430af7fb7c31b	-0.03943394121222906
221	0xbfc1cd932dae0d4f	-0.1390861485525456
222	0x3faa9b5bf5548fa2	0.0519665467238888
223	0x3fb48b20209b534f	0.08024788662016856
224	0xbfc29b3d57a41de6	-0.1453625371870963
225	0xbf70d2ad54d140e0	-0.004107167315922505
226	0x3fb28347a5720c8e	0.07231567181774975
227	0x3fa0f133648248f6	0.033090215701251965
228	0x3fb8debb8eca8f38	0.09714863048662614
229	0x3fa41f63e9cfbb69	0.039301988879620726
230	0xbfb3c5837ccfb864	-0.07723256871369838
231	0xbfc231ec10873ed0	-0.14214850241704946
232	0x3fa8f9e630317330	0.0487815793828531
233	0x3fb47bcdef0c7be9	0.08001410566474444
234	0xbfc2ae3e6af7b197	-0.14594249938035084
235	0xbf9316c0c065f7a8	-0.01864148306184857
236	0x3fb3d1f41b3476a0	0.07742238678153024
237	0x3f9eb312370b03da	0.029979977235374246
238	0x3fb4f1cc121b462c	0.08181453172735392
239	0x3fa3a0d3fe2d3bb8	0.03833639600508526
240	0xbfb203fc91984a38	-0.0703733306366211
241	0xbfc11c8ed7a80739	-0.13368402032943452
242	0x3fabf4593c030d9c	0.05459860665862523
243	0x3fb40c96c4f3b7f8	0.07831709202193327
244	0xbfc466ba783ea9d4	-0.15938502188994497
245	0xbf8a23b914484ca0	-0.012763448649854958
246	0x3fa779ba83d163ec	0.045850590315872214
247	0x3fa2edf59a0d0c07	0.03697173600678388
248	0x3fb199158913acc0	0.0687421283397951
249	0x3fa3f51d302647ca	0.03897944653284886
250	0xbfa80008d20b7f0d	-0.046875262871024594
251	0xbfc1a4929bde2276	-0.13783485995033445
252	0x3fa85c12f12e3add	0.04757746881579348
253	0x3faecfd5353d50ba	0.060179388760532374
254	0xbfc25a0c6914a34e	-0.14337306147469991
255	0xbf86b9ef90a32eb8	-0.011096831895336265

b2 f8 [1, 10]
0	0xbfb00a563adf5b6d	-0.06265772759739514
1	0xbfc15d9d454ae4c2	-0.13566938289094393
2	0x3fa7b35c3361e7ed	0.04629028441645731
3	0x3fb34a1bfb025b8f	0.07534956815866976
4	0xbfc2b41bb7f89c10	-0.1461214683815517
5	0xbf888c56e6063318	-0.011986426253110902
6	0x3fb2e8c53b7e1c05	0.0738642950292246
7	0x3fa4d9d3167c5dcc	0.04072436952099742
8	0x3fb3ecc2f52995c6	0.0778314446011655
9	0x3fa5b22e831be494	0.04237504339648371
