experiments/exp_batch_20250114_141918/exp_h25_lr0.1_run3/model/weights.npz (npz, 160046 bytes, 4 tensors)

W1 f8 [784, 25]
0	0x3f783621903e5e17	0.005910998446686764
1	0xbf944170a6e7a32e	-0.0197808839674593
2	0xbf8a4bd942947bf3	-0.012839982361183977
3	0x3f87a879806c4c96	0.011551808578167216
4	0x3f7bf24c4a57bc96	0.0068228702634619744
5	0x3f83dfe539cec9dd	0.009704390360501353
6	0x3f8cbf7ae3406b45	0.01403709417359312
7	0xbf89a2767b5b91d3	-0.01251690448720747
8	0xbf90eecf1d19cf9a	-0.016535984183476772
9	0xbf74b884b10c1641	-0.005058782888914205
10	0x3f828817a0e68f5f	0.009048637960240745
11	0x3f67f830ca037157	0.0029259636795428245
12	0xbf3b9ff5c8afb19a	-0.00042152166923761227
13	0x3f83af8ce71c4b3a	0.009612179568227231
14	0x3f94e4a72054ba5a	0.020403491352391924
15	0xbf80123548be3505	-0.0078472292732621
16	0xbf9131439a81f326	-0.016789490037342557
17	0xbf5ba8df2affcc07	-0.0016882113814034054
18	0x3f9004f50cd081c7	0.015643910319455914
19	0x3f863cfda834e24a	0.010858518310315497
20	0xbf811a5f708af5c8	-0.008351083395036776
21	0xbf8d85c20525578c	-0.01441527918056431
22	0xbf80d2bb6cb3ef58	-0.008214439635132173
23	0xbf7d8507ee1c46da	-0.007206946351077293
24	0xbf673973314cae07	-0.0028350114684110336
25	0xbf8752188f513bba	-0.011387054322907864
26	0x3f96cec3fa04443e	0.022273122916036885
27	0x3f81757d62ddf2e7	0.008524875240021724
28	0x3f91861d2fb14208	0.017113166843332223
29	0x3f90e1165e8a301a	0.016483640213252305
30	0xbf4670c902752e7f	-0.0006848317615690407
31	0xbf45d5fcbc7f8a3f	-0.0006663784088199522
32	0xbf71a2af51d0e8d7	-0.004305538980640309
33	0x3f6665381ed38f6e	0.0027338119603985056
34	0x3f9535c5cb6414aa	0.0207129388227442
35	0xbf73bd7a329e965e	-0.004819371542827603
36	0x3f7255be6431a682	0.0044763028300650615
37	0xbf95d2fa4d95262c	-0.021312628731982183
38	0x3f86b789ab42a1cd	0.01109225801367666
39	0xbf859c3221fa342a	-0.010551826154619876
40	0xbf88a5b3ff22739f	-0.012034803603734377
41	0x3f81e7c474135898	0.008742842476220411
42	0xbf834cf4d8c19e23	-0.009424126496198565
43	0xbf80d086b3a22c19	-0.00821023212144749
44	0xbf735998d27870af	-0.0047241181960339515
45	0xbf6198c79ad03769	-0.002148046353346912
46	0xbfa0eb234f8acad5	-0.03304396005605318
47	0x3f51ef7df17865d4	0.001094696990440948
48	0x3f967e205651c729	0.02196550871707995
49	0x3f3a94f3c6a73fde	0.0004056067615723062
50	0xbf7450820030f9f7	-0.0049595907358352875
51	0xbf602d67c26ce358	-0.0019747759392000734
52	0xbf30a2639a3b10a3	-0.0002538197679593601
53	0xbf718d9080c23b8f	-0.004285397019102257
54	0x3f702236827f7510	0.003938877991428016
55	0x3f86898260a16115	0.01100446565048733
56	0xbf66db5a6439ab7a	-0.0027901425799447517
57	0x3f57d95761b226a0	0.0014556268058946512
58	0x3f7343e1e69f60fb	0.004703409600516513
59	0x3f79a3be46858d8a	0.006259673369956595
60	0x3f7cf944c1fce09b	0.007073658547419505
61	0x3f6cc93a8ab543f0	0.0035139220614515063
62	0x3f9410ebe0161575	0.019595799972667877
63	0xbf8a3f7e5df699c3	-0.012816416971713878
64	0xbf5b9a0a54f32011	-0.0016846753022026243
65	0xbf6ac82918db73d8	-0.003269272105951942
66	0x3f6917ed4eba4904	0.003063167086858278
67	0xbf81b9ec517f2075	-0.008655401455954096
68	0x3f2d732c75eb07da	0.00022468488437793374
69	0xbf79add5ebf74fa1	-0.006269298202329938
70	0x3f9122957ef490ee	0.01673348986982231
71	0x3f6cc93b36981845	0.003513923312087138
72	0xbf5d794bfc5b6a93	-0.0017989389465841484
73	0x3f7e8e58106445f8	0.007459968567006474
74	0xbf70f945ecd06555	-0.004143975395913675
75	0x3f5b30488c7a1478	0.0016594608768241408
76	0xbf55027f8ffc1843	-0.0012823339201886309
77	0x3f85ae5d89740fbe	0.010586481816524326
78	0xbf88bf64704a86d5	-0.012083801915028594
79	0xbf87fcd55a56872a	-0.011712710208317729
80	0x3f83210b96cb8a61	0.009340372599983828
81	0x3f6cc2bd0d869669	0.003510827297037268
82	0xbf954d8bf4c9b978	-0.02080362969939517
83	0x3f9285da41f5f7e5	0.018088732028893068
84	0xbf895ee7500074bc	-0.012388045433960541
85	0x3f3ad0785bff0af0	0.00040915430508563135
86	0x3f840fb1c1cb72f5	0.0097955596224266
87	0x3f50ea325bab899c	0.0010323993471322629
88	0xbf71a747aaf6646a	-0.004309921219282401
89	0xbf88e0392f02e4f8	-0.012146422145053112
90	0xbf8d0d47a34e8bf1	-0.014185485526303028
91	0x3f8af460a9ee3b5e	0.013161425767774734
92	0xbf80c810e1070aff	-0.008194095485014595
93	0xbf75eb6e3dce3e7c	-0.005351477270678747
94	0xbf8752316c963804	-0.011387239576631465
95	0x3f9e5e20dee8a858	0.029655946355127888
96	0x3f6bef1b67f4466e	0.0034099135660959267
97	0xbf3be2687227ac7f	-0.000425482272617024
98	0xbf51dbe0d19084b1	-0.0010900207037212557
99	0xbf85d48829ca1691	-0.010659278655349243
100	0x3f6d66f93fd56b8e	0.003589140715729972
101	0xbf7ad15df405e4ba	-0.0065473241851289835
102	0x3f350073625bf07c	0.0003204614352936353
103	0xbf957fe3b5bc42e4	-0.020995672194717666
104	0xbf878bc51812e15b	-0.011497058674976903
105	0xbf7ac988d9b5a540	-0.006539854595169203
106	0xbf7b694a233a7e18	-0.006692208862346692
107	0x3f4dc4d031f0892d	0.0009084717347643039
108	0x3f85543d9556ed8d	0.010414582366925962
109	0xbf77082e26b2d1cd	-0.005623035696022472
110	0xbf4b985e17edfed2	-0.0008421382370755409
111	0xbf67929e09a40ca5	-0.0028775297806774174
112	0x3f8c477b9fd19551	0.01380821782567901
113	0x3f82e34392891113	0.009222534093290357
114	0x3f6c99ca3b50dd84	0.003491301521105052
115	0x3f7c7d2b5291c695	0.006955308178577054
116	0x3f86ab33465ec9c9	0.011068726143865686
117	0x3f5959a0f396bc72	0.0015472480575729167
118	0xbf77d9a29b764432	-0.005822787460958033
119	0x3f96f3424024b7a4	0.022412333645824525
120	0x3f716af934ae2add	0.004252408466423244
121	0x3f8e2ca9e1a8a63f	0.0147336265554997
122	0x3f6fd13ece1e8dcc	0.003883955637279368
123	0xbf8d6122aeb5090a	-0.01434542747177094
124	0xbf63c9c1eaeaae7f	-0.0024155414060567644
125	0x3f4afa72cefdd644	0.0008233128155398857
126	0xbf7a425515e02289	-0.006410915722888996
127	0xbf49497215ffe043	-0.0007716948566658461
128	0x3f6f365a0dc75d73	0.0038100966323601436
129	0x3f7547d06ace8a40	0.00519544041609038
130	0x3f85a2a0c64e7a33	0.010564094592891404
131	0x3f7f4e3bd55f979c	0.007642968868799029
132	0x3f92520a99711c57	0.017891088118883704
133	0xbf6752af832de74f	-0.0028470447518288765
134	0x3f8069423cc470c3	0.008013265113327233
135	0x3f606d87c666ac3b	0.00200535315089703
136	0xbf84c8720cf416e4	-0.010147944469746269
137	0xbf75d6762c2fbcfc	-0.00533147965596403
138	0x3f95d4a7af2d9a84	0.021319027010941585
139	0x3f904ccc44a8c6ba	0.01591796082556727
140	0xbf8989b5c4d11ded	-0.012469692295907964
141	0xbf91171c77c14f5b	-0.016689724740288053
142	0x3f86b5d438769eb8	0.011088998768925648
143	0xbf9192efd735486f	-0.017162082205068815
144	0x3f77de56174cf37a	0.005827270787276068
145	0x3f73b360b8b2487e	0.004809739893191998
146	0xbf2279aec85660c2	-0.00014095552994031728
147	0x3f40e88062cd2902	0.000515997589539269
148	0xbf697ec780c7bbd5	-0.003112210897817639
149	0x3f65140105c21bb8	0.002573015210205889
150	0xbf861d30f245fa9f	-0.010797865289302875
151	0xbf829809cd60d566	-0.00907905252470682
152	0xbf712bd0b5f99dae	-0.004192176129073228
153	0xbf7b4cf62374dcb7	-0.006665193060420175
154	0x3f807581e8bbb86e	0.008036627688366074
155	0xbf3f2d024bd0321c	-0.00047570520456544237
156	0x3f82434d9ac0eb2c	0.008917433057026601
157	0x3f7e9087f526803b	0.007462054333160546
158	0xbf79279554cac8c4	-0.006141265225482143
159	0xbf5415c8dff2e15b	-0.0012258969943968665
160	0xbf416b1e0bff95e4	-0.0005315682137704805
161	0x3f4976ae9cd07090	0.0007770874595993838
162	0xbf9099a34c1adb52	-0.016211082000803963
163	0x3f6d4f79aef6fd7b	0.003577935851097611
164	0xbf6e1861b5ecdbed	-0.0036737354670566187
165	0xbf503ec148cc0533	-0.0009915244619949747
166	0x3f921d1eefc00d57	0.017689212210837493
167	0x3f74d5dce30443f2	0.00508676799678741
168	0xbf79d72757cb0650	-0.006308702166906224
169	0x3f49df84fec5b0b7	0.0007895850554127314
170	0xbf8d71ac6d81bcc7	-0.01437697133243744
171	0x3f8dd7f7bd78cc53	0.014572082013819243
172	0x3f6909fb8234326c	0.0030565178182143018
173	0xbf44b27c749c8861	-0.000631628770154668
174	0xbf894079594d48b0	-0.012330005681779305
175	0xbf8dc4dbcab5be7b	-0.014535634158817637
176	0xbf680a11f98f3575	-0.0029344893523332535
177	0xbf94eae0c11d5583	-0.020427238261012014
178	0xbf6a798fd06c5983	-0.0032317932958775843
179	0x3f51b29f49a848ba	0.0010801845115833556
180	0xbf7aca072f91ef78	-0.006540325231181636
181	0xbf69a44055606d30	-0.003130078936931867
182	0x3f7cbe75ee570b91	0.007017574947385878
183	0x3f5aaaf063adb812	0.001627669100993771
184	0x3f7a15b028375412	0.006368339646958725
185	0x3f769ff22b7bb464	0.005523630119324972
186	0x3f95975683136f12	0.021085120916594376
187	0xbf8287969c0d9b91	-0.009047676694263792
188	0xbf84c2a3927a5409	-0.010136869342469284
189	0xbf70a193d12fb458	-0.004060342226677248
190	0xbf7d782b82e1e62d	-0.007194681135041442
191	0x3f88b314479542be	0.012060316500226317
192	0x3f91ba65cc907d73	0.017312613115902886
193	0x3f8d1e6ac6cc7ced	0.014218172256333672
194	0xbf77a30734b7cc20	-0.00577071013275357
195	0x3f8bfaf485b0e87e	0.013662252740790356
196	0xbf63dcb6b0b9518c	-0.0024245803995574574
197	0x3f3acb7a65baeb3b	0.00040885675637596417
198	0xbf6120c0388e5a1d	-0.002090812140930666
199	0x3f85ce58e90cdb85	0.010647482502106129
200	0x3f8264c3f56f9827	0.00898125736962292
201	0xbf7b6dd49ee50c17	-0.006696539449253989
202	0xbf75d4466047a116	-0.00532939425145453
203	0xbf714ff00b944485	-0.0042266251341668325
204	0xbf7f55ce5e2f1bb3	-0.007650190472253837
205	0x3f70b6be14774c87	0.004080526828562309
206	0xbf8a0c2385e34cc1	-0.01271846535056509
207	0xbf811ffa353d4041	-0.008361773252232864
208	0x3f914542f3dc8d24	0.016865774282576088
209	0x3f3e2fea219bd4b1	0.00046061960311700583
210	0xbf90d26853d8de61	-0.016427641027091492
211	0xbf7d25de40205c75	-0.007116192022315383
212	0xbf7407379968138f	-0.0048896953435403475
213	0xbf746c9dd68b111e	-0.004986397318763628
214	0xbf73fca893914cc5	-0.004879625798895397
215	0xbf8669e01549feec	-0.01094412865609181
216	0xbf862b34c0e394be	-0.010824596535210392
217	0x3f979dc7e00e5b00	0.0230628233435608
218	0xbf80fdcc54febeed	-0.008296581596226338
219	0xbf751f79958331c0	-0.005156969964627611
220	0xbf8715f67835bd52	-0.011272359412685038
221	0x3f62bbe4f9ec7636	0.0022868606751121024
222	0x3f4fde2781b1e965	0.0009725277808592501
223	0x3f78defabff24dad	0.0060720248140059664
224	0x3f73c3be41a9d6c5	0.0048253471273846426
225	0xbf87e14c8ed161a0	-0.011660192593056007
226	0x3f8904b6440c0aea	0.01221601863062945
227	0x3f5e3aa1d02c3135	0.0018450336653500047
228	0x3f80ae66a871d4ee	0.00814514352371495
229	0x3f669c1f47dd3aed	0.002759991736560044
230	0xbf85f3848a9df6f3	-0.010718379478699335
231	0x3f928f23ba3a97aa	0.018124159089573467
232	0x3f893f76a17a844e	0.012328078082022877
233	0xbf8262a04d88705f	-0.00897717701541739
234	0x3f5fa00a0880fc1f	0.0019302461605688115
235	0xbf8a70727f7a14c3	-0.012909788623128532
236	0xbf854853e4cd24be	-0.010391860408747507
237	0x3f6eecd5de4dc2f9	0.003775041305225432
238	0x3f939e6aad405c52	0.019158999275614548
239	0x3f76ac334817a99a	0.005535316771310051
240	0x3f736de82d601c31	0.004743487303136938
241	0x3f767887c12c0741	0.0054860403931814026
242	0x3f88c4edbb45c107	0.01209436156997913
243	0x3f533354ba7ff66c	0.0011719062258629632
244	0x3f8b691541d10daa	0.013384023734153445
245	0x3f6436fdfee90d3a	0.002467628560482685
246	0xbf7e093e0c5f9bdb	-0.007333032966903875
247	0x3f594d279d2e3284	0.0015442740302404065
248	0xbf7505fb8728e495	-0.005132658511279993
249	0xbf341ce8240828ef	-0.0003068987607838377
250	0x3f6f06a666fed985	0.0037873506589349315
251	0xbf793b6309f710df	-0.006160151358418824
252	0x3f91dfa115982da0	0.017454640334148785
253	0xbf75149c024d57e8	-0.005146607790114978
254	0x3f741051fab7ae02	0.004898376685996466
255	0x3f7fc690e18b6ec5	0.007757726613558173

b1 f8 [1, 25]
0	0x3fd7d2e2f1f16c02	0.3722464907384052
1	0x3fd7d307617acafc	0.37225517768381144
2	0x3fd7d5850045de1f	0.3724071982064476
3	0x3fd7d6c97d3c6818	0.37248456220697923
4	0x3fd7d4a3cd5613cf	0.372353506587669
5	0x3fd7d37ea5b506dd	0.3722836130365133
6	0x3fd7d46a18cfcfd5	0.37233974860214164
7	0x3fd7d39c8bbc764d	0.3722907414065489
8	0x3fd7d34c524ae923	0.37227161442173634
9	0x3fd7d5108dbc61c6	0.3723794349803281
10	0x3fd7ce5039cbc333	0.3719673695004985
11	0x3fd7d6b5773b4c17	0.3724797882434258
12	0x3fd7d751e08b0d97	0.3725170796207861
13	0x3fd7d30bd0ef7eae	0.3722562351594928
14	0x3fd7d5b990e8dafc	0.37241973067595757
15	0x3fd7d56d41832eae	0.372401536919578
16	0x3fd7d4b9b8d2dd3d	0.37235873269260705
17	0x3fd7d25c837aa4d6	0.3722144397712105
18	0x3fd7ccfc2d0b5028	0.3718862953076063
19	0x3fd7d5c9b012fce0	0.37242357439749973
20	0x3fd7d59c6bda9516	0.37241278202630335
21	0x3fd7d36a0d120e72	0.37227870251101713
22	0x3fd7d460711b5965	0.3723374466475405
23	0x3fd7d346523a8413	0.3722701838506179
24	0x3fd7d05018f0d37b	0.37208940921419015

W2 f8 [25, 10]
0	0xbf88f3c6585b14c7	-0.012183713504223438
1	0x3f92cd1d57292930	0.01836057514655315
2	0xbf8851773b67dd14	-0.011874133587282766
3	0xbf791b3fa121ef78	-0.006129501869619129
4	0xbf836a5808a69e3f	-0.009480178607943588
5	0xbf5a0b4a17bb4db4	-0.0015896056710758945
6	0x3f7dcf348093bdc2	0.00727768429463488
7	0x3f92ee874c78bf1b	0.018488039057216726
8	0xbf83cb0fd8ac4f35	-0.009664653587186581
9	0x3f93ed5142223709	0.019459981595495033
10	0x3f8ac7ffcdcd8861	0.013076780765633513
11	0x3f777d9889bf69e9	0.0057350119131691435
12	0x3f93ec74bd34feb7	0.019456695602683562
13	0x3f901b9dd0272d4d	0.015730348424580588
14	0xbf893ba577f7a493	-0.012320797656643989
15	0x3f8bf4059869ccca	0.013649028505119527
16	0x3f603a84b2e3fa50	0.0019810287259354534
17	0x3f768152cb02739c	0.005494426164799029
18	0x3f8b5f16813acd4c	0.013364959543969455
19	0x3f7b9e899815efd3	0.006742989994901155
20	0x3f807ee38c84f641	0.008054521299182162
21	0xbf99553317a69115	-0.0247390731034481
22	0x3f5f3a6215e91134	0.001906009470659842
23	0x3f85102d512ea144	0.01028476146696334
24	0x3f70ed28ee51d856	0.004132423292608397
25	0xbf801268dcc3b254	-0.007847613560863533
26	0xbf8398ad02be5810	-0.009568549772478036
27	0x3f87bed6b69d5087	0.011594464729263855
28	0x3f718e008fb7ee6c	0.004285814469308851
29	0x3f949714fd5eaad1	0.020107582058396304
30	0x3f7f936bd72a8196	0.007708951236651626
31	0xbf85aff9764d1198	-0.010589550898324515
32	0x3f84743904064cc2	0.009987302241631805
33	0xbf7118a26161275c	-0.004173883722680429
34	0xbf9d65e91b662253	-0.028709070489215737
35	0x3f6d37c7a0c3b8a1	0.0035666369423018184
36	0xbf8aea8e36caf1bd	-0.013142691657201827
37	0x3f9989711038b3a5	0.024938360800820587
38	0xbf834bc2e523f82f	-0.00942184697896317
39	0x3f9ba9ed7d95a77d	0.027015410223078618
40	0x3f571b67d9d9ec0c	0.0014103426141491874
41	0xbf70501ae8623a24	-0.003982644184488158
42	0x3f82324b3b1f6955	0.00888499044588246
43	0xbf5aff90b9a8e9ae	-0.0016478455860481178
44	0x3f876636bc44fe71	0.011425426121262934
45	0x3f843056b16e7961	0.009857823648243782
46	0x3f81269c233c376c	0.008374423814099884
47	0x3f937f3c47102e88	0.019040052258829238
48	0xbf9ee2596fed8720	-0.03016032930043544
49	0x3f9356e1db4aed52	0.01888611699062654
50	0x3f5afe8c13a5d220	0.0016476028382302957
51	0xbf756e88dbcf7c55	-0.005232367137948908
52	0xbf34840a10ac0f20	-0.00031304593782998
53	0x3f8176813053c922	0.008526810920078069
54	0xbf9385a56576f51f	-0.019064506833946667
55	0xbf72ad665dd6239b	-0.004559898251849238
56	0x3f99f6bf9a00a2f2	0.02535533311325628
57	0x3f8a2599947e84d3	0.012767028659995827
58	0xbfa3c98e8bcd286c	-0.03864713150558505
59	0xbf702558377a8c24	-0.003941864582574648
60	0xbf6024040d13b370	-0.0019702986834232925
61	0xbf915b32aa80d663	-0.016949454933828167
62	0x3f66a934df7faeaa	0.002766230838451585
63	0xbf77a89b657898bb	-0.005776030556751073
64	0x3f49ea95385346ec	0.0007909039128668172
65	0x3f81614ddd7cfe8d	0.008486374208245518
66	0xbf9f51d4aebed80a	-0.0305855971962146
67	0x3f96096c5c97f50c	0.021520321990455435
68	0x3f61f205b1bdc7c2	0.0021906005112492808
69	0x3f7d04eaaa1e5cfa	0.007084767015747001
70	0xbf922e931ac58dcd	-0.017755793103231988
71	0xbf6745fb5a95f4ac	-0.0028409871344466566
72	0x3f833887e1d4f56c	0.009385167674390536
73	0x3f850e7374f6a46a	0.01028146935171233
74	0x3f71f6ac2ad45f7d	0.00438563588001972
75	0xbf51f3ce8f8671e8	-0.0010957257455635975
76	0xbf985848f8fe3eb5	-0.023774280736289472
77	0x3f94d7eb4cf8cf15	0.020354916165344756
78	0xbf819895ca641dc6	-0.0085918142690521
79	0x3f71bd88a3510fc7	0.0043311440868513745
80	0x3f6f16c4eb64ff64	0.0037950368961502823
81	0x3f924a269e13db9d	0.017860988043107196
82	0xbf5df2a723947670	-0.0018278724877015783
83	0x3f8c1bbbfafd0813	0.013724773976381532
84	0x3f5949ddff328695	0.0015434902132160134
85	0xbf6931ecd54c2286	-0.0030755639694500262
86	0xbf531cecb9ffdd5e	-0.0011665641577545886
87	0x3f9f8956cca915e2	0.03079734443806171
88	0xbf9d72c47cbd1865	-0.02875811587662049
89	0xbf86d91483f05fd1	-0.011156235004861433
90	0x3fa3ff357d9a87cc	0.03905646475074284
91	0xbfa60a0bc8104276	-0.043045395061317146
92	0x3f794ef806e4d19d	0.00617882619399204
93	0xbf84e9755ee20cae	-0.010210911710834072
94	0xbf7fb26caecc9f85	-0.007738518278337274
95	0xbf84a74e6d1298d5	-0.010084736541398001
96	0x3f9a28e5a21d5d5a	0.02554663469285621
97	0xbf48468d1be5a254	-0.0007408322342544273
98	0xbf80fa229343932a	-0.00828959476388887
99	0x3f941a238dde8c33	0.0196309619274297
100	0xbf9849f9bed4aab6	-0.023719694397338308
101	0xbf7beac2ac23b931	-0.006815681876317024
102	0x3f7aebedf350c3a6	0.006572656148862521
103	0x3f830df0a1b4f51f	0.009303932127859014
104	0x3f089a491c880a9c	4.6925884422695604e-05
105	0x3f768fc55bf8169c	0.005508204397761365
106	0x3f4b637510dd16a2	0.0008358308420859004
107	0xbf97349cb55ab69a	-0.02266163689517118
108	0xbf5f984412c43294	-0.001928392865980265
109	0x3f5e7c222f692982	0.0018606504287555785
110	0x3f98d5bf53db4327	0.024252881520456484
111	0xbf9408141b80f6e9	-0.019562067202278852
112	0xbf62c13027a49dec	-0.0022893848919414064
113	0xbf8eb8ea13dbcedd	-0.015001133662259242
114	0x3efa1fc558e9d800	2.491388800725941e-05
115	0xbf9a5e43a65eec66	-0.02575021460482354
116	0x3ef231e9223c8700	1.7352069462301355e-05
117	0x3f7bcd464f4f72ae	0.006787562034301571
118	0xbf9985b75565d319	-0.02492414911963001
119	0x3f913bc4ab98693d	0.016829560254430154
120	0x3f9c9ff5e007003b	0.027953950689834733
121	0xbf9d3fa63ebd5d48	-0.028563115672424005
122	0xbf8aa16b87ae7976	-0.013003196790859244
123	0x3f86fc3c3b7d7284	0.011223288121692272
124	0x3f8be80d676ca728	0.013626198500407208
125	0x3f5cee2ee57e2c18	0.0017657716725547664
126	0xbf9989e8d680c816	-0.024940145580508576
127	0xbf5af2d45319c8cc	-0.0016448091013470554
128	0xbf93584c382dcc83	-0.018891516617668202
129	0x3f8ad352eb66981b	0.013098380860196148
130	0xbf81bbf8affc2060	-0.008659308310157765
131	0x3f5c9b76a108febb	0.001746049736666962
132	0xbf887e562c0f87ba	-0.011959717959999828
133	0x3f5379f57780ca58	0.0011887452256017696
134	0xbf8e664cf15bec49	-0.014843560329145815
135	0x3f71d7e4d6bb7aa8	0.004356283093982206
136	0xbf877c7518fc12e9	-0.011467852425548002
137	0x3f919e553c2fb976	0.017205554769981167
138	0x3f8712531961a6be	0.011265420162277603
139	0xbf6b287814e6c595	-0.003315195593324114
140	0x3f94b7348a641cf4	0.020230122515411744
141	0xbf53870d57385763	-0.001191866901426996
142	0x3f9a27e478c584d3	0.025542802687941468
143	0x3f66118e7652b50b	0.0026939184632143224
144	0xbf7f94945106fe0c	-0.007710055695894901
145	0x3f75ba3190da6f27	0.005304521194968526
146	0xbf77a9a2c29fc932	-0.005777011663655339
147	0x3f4f7c92c67304c0	0.0009608952213044017
148	0xbfa85b69027362db	-0.04757240443149665
149	0xbf793be1aec53db5	-0.006160623143230228
150	0xbf7f74f55e54df7b	-0.0076798996645307495
151	0xbf864c8996a82ee1	-0.010888171110330304
152	0x3f909362369e5cbe	0.016187223991064974
153	0x3f661a2f931329a8	0.0026980332555457016
154	0xbf843377c12d5286	-0.009863792021556305
155	0xbf9f21ad8683fc46	-0.03040190824048874
156	0xbf7ffec9397f96ce	-0.007811342271428946
157	0x3f98bd85e14088f3	0.024160472749039163
158	0xbf764424844b2c5d	-0.005436079639092287
159	0x3fa0b37eefdfa405	0.03261944463867653
160	0x3f8fc7a47ebcdf95	0.015517506711702636
161	0xbf59169060d6bbef	-0.0015312585777384998
162	0x3f74bddd4dc570da	0.0050638813666774255
163	0x3f9b25ee4614cd30	0.02651188185445824
164	0xbf979905db2c0c54	-0.023044673444939726
165	0x3f8fa79146b12874	0.015456328363274908
166	0xbf9d37e1440c592f	-0.028533477571806628
167	0x3f964d9740b1b3fe	0.0217803605304887
168	0xbf27bc810e7fd6f8	-0.00018109393499770427
169	0xbf903483b7ff984e	-0.015825327020046402
170	0xbf727a78816a69c8	-0.004511328434683333
171	0x3f898f19c9293a96	0.01247997422356421
172	0xbf80b40ece6d17bf	-0.008155933069826092
173	0xbf7ad435667c84cc	-0.0065500341368373675
174	0x3f6538488f7195ce	0.0025903145975003433
175	0x3f8634d68691f9b1	0.01084296796966275
176	0x3f8cda6f98e3f52f	0.014088508466097409
177	0x3f98ff1dc8b1dbba	0.024410691618381476
178	0xbf95405f94f4f412	-0.020753377405743186
179	0x3f8df5231c1dcc1c	0.014627718253654769
180	0xbf95d1171e39e594	-0.021305428714617117
181	0x3fa574621b439d2a	0.041903558567179935
182	0xbf811107cf44057e	-0.00833326436304804
183	0x3f99750b1ae3b08f	0.02486054755802108
184	0xbf652eff3118a629	-0.0025858864035128892
185	0xbf61a27e9b15a8de	-0.0021526787538067435
186	0xbf7454f78d7ee1cc	-0.0049638433483143
187	0x3f03ea69d823d480	3.798614035758433e-05
188	0xbf73b9ba90517336	-0.004815796627636362
189	0x3f7c9dbdc1522c54	0.006986371260732833
190	0x3f896b87c176e06f	0.012412129012645516
191	0xbf5b659cd5702a41	-0.001672175558044345
192	0xbf7f50560a2fab95	-0.0076449738435070596
193	0x3f76e0c0b7fe521e	0.0055854347300692535
194	0xbf8ce882c87c2850	-0.014115354293171262
195	0xbf8724a57330b796	-0.011300365999058742
196	0xbf8fcaabb9b068fa	-0.015523282627374336
197	0x3f7e3b03c549b1e0	0.00738049958145523
198	0xbf92e084f8b9a543	-0.018434598618488406
199	0x3f99f0d302ff87ee	0.02533273416327824
200	0x3f7a846a3fe5550a	0.006473937070343947
201	0xbfa631b5baea8328	-0.04334800631227714
202	0xbf60fd888fa0bd32	-0.0020740191657961033
203	0xbf706d851ca6c2c5	-0.004010696381030858
204	0x3f8a403a6a4a6f30	0.012817818039642853
205	0x3f4690c06a69a750	0.0006886424569760661
206	0x3f65313f53854402	0.0025869595375884744
207	0x3f9bedf82cab8816	0.027274968840068047
208	0xbf9024158c75ef8d	-0.015762650201835583
209	0x3f74da628b037b8f	0.005091080602339994
210	0xbf8b98adf66a37de	-0.013474806864248675
211	0xbf9d0569432fb399	-0.028340954519012838
212	0xbf9917b812ec675d	-0.024504543452258932
213	0x3f81fdfeef03be3a	0.008785239857814198
214	0x3f717d895363e961	0.0042701114928099535
215	0x3f8570e3609b8e32	0.010469223390322833
216	0xbf9169747926c138	-0.017003841299527894
217	0xbf61c0cf9060bbad	-0.0021671346649081076
218	0xbf71de62e52c9b7a	-0.004362474736615657
219	0x3f7277a1ab433f94	0.004508620757590526
220	0x3f946640549f9b7d	0.01992130772114419
221	0x3f8322f8c3bff1fa	0.009344047044572246
222	0x3f58d876d680a1c4	0.001516452839505176
223	0x3f65bec2103e3836	0.002654437093901253
224	0xbf808f6e018a0e3b	-0.008086070463156783
225	0x3f8110a3de2f621b	0.008332519739199509
226	0x3f74e7bdb4f38c0c	0.005103817980145042
227	0x3f950fa6f81f3382	0.020567520994336792
228	0xbfa1aaf7cab87ad5	-0.034507506843728976
229	0xbf62be1eb367a324	-0.002287921869755032
230	0x3f699232db7f626d	0.00312147076691032
231	0x3f85cc20d494e32a	0.010643249976611441
232	0xbf769d9c97369250	-0.005521403963403573
233	0xbf86357252b9e6da	-0.010844128751375793
234	0xbf90c11add36e517	-0.016361636878831378
235	0x3f7b0ce2ada9015f	0.006604085409492504
236	0xbf837fbea64c3bd3	-0.009520997476583226
237	0xbf8f6d9d5932b69a	-0.015345792088136623
238	0xbf96a3b3d3d0705f	-0.022108850291360557
239	0x3f8baca88ac1e279	0.01351291345075477
240	0xbf29cd07361803a4	-0.0001968451788769951
241	0x3f723006924235c7	0.004440332097272521
242	0x3f770054823fd895	0.005615549194763277
243	0xbf93ef4ac7d90dde	-0.019467514465089646
244	0xbf7dcdb54898928f	-0.0072762566938179415
245	0x3f95c21066a2ef29	0.021248108162338717
246	0xbf74393ac1346afc	-0.004937390814371719
247	0xbf7b23872694f377	-0.006625678951704176
248	0x3f87de8051c9ff9b	0.011654856201175614
249	0x3f8a4b18db066836	0.012838548835862534

b2 f8 [1, 10]
0	0x3f8b9feaf0b32e66	0.013488612623766726
1	0xbf7869be5784396a	-0.005960219881912069
2	0xbf654217c922e664	-0.0025949921192392356
3	0x3f7dfe6797faf57a	0.00732269731787249
4	0xbf81dbbe963fea04	-0.008719910583740116
5	0x3f751eb31fa5b58b	0.005156230641984459
6	0xbf895c40607f43ee	-0.012382986969813072
7	0x3f8d66118bcc46cc	0.014354836539073011
8	0xbf98e1acdfe8b513	-0.02429838291771087
9	0x3f8bec33fc4ba5f6	0.013634115349719683
