experiments/exp_batch_20250114_141918/exp_h100_lr0.5_run2/model/weights.npz (npz, 637046 bytes, 4 tensors)

W1 f8 [784, 100]
0.014692302759452996 0.004560078131016949 -0.012526111566980176 0.00465386511868146 0.008400947001270401 0.0008404323003194687 0.013977896919120181 0.010517650849418286
-0.008713970757158853 -0.010337420512572455 -0.0029819453182975907 -0.01297850369041114 0.002646334577756932 0.0010560336319330973 -0.024722266186896026 0.0019807764954368552
0.002527443678696904 -0.0032942673394315155 -0.017104743037017717 0.009671180435128162 -0.00566872607960941 0.004787843741929283 -0.02294055703791452 -0.014486990102655101
-9.122634864708349e-06 0.004858049880008522 -0.004410080045012337 0.007504042277890305 0.0050599595918684225 0.009699324804501464 0.01203028955193112 0.007267570672685689
0.017596157348559856 0.019708695909531945 -0.01210731809337355 -0.005978550541401455 0.013382820891740681 0.009932786401124596 0.0019041469287497676 0.0071395273509976065
-0.00848280613249503 -0.0019812146298667766 -0.0081347179815527 0.014225368381146835 -0.003745805197254451 0.005429178338702523 -0.0017779860907836437 0.003437610233928908
0.006509399880270651 0.015641074327504424 0.0121671801822277 0.007462651742522049 0.0031223781349069652 -0.012816108969009574 -0.005789488138069205 -0.01038244018586017
-0.0018560868081729754 0.00585483917927138 -0.009779386302274488 0.008308963169230752 0.007282481904393901 -0.0027915962239094335 -0.0035635783807392313 -0.008870988044910084
-0.010669238049899233 0.0039060602089174908 -0.009776711990910973 -0.0242633975299371 0.0029401806799549735 -0.007505057377962695 0.01111844883811437 -0.0023277082226677887
0.016805422700766248 -0.012230053393339213 -0.007187991063478186 0.012772216749487496 0.014432193797171812 0.0040511062092393356 -0.005759720217517983 0.014696532138426102
0.003862139178020728 -6.908426517312481e-05 0.007721581187891266 -0.016128977133570716 0.027593462357875596 0.007811626134650738 0.0132396983016902 -0.00036467344151552275
-0.0024204743393488144 -0.005532634150764041 0.017292767998519216 0.002999900894757917 -0.0070576340102459206 -0.0016162085941009122 -0.006264278012668271 -0.004073182271523963
0.0022112664782437843 -0.008211975768082087 -0.011191970408374535 -0.026014996562239663 -0.0041027266054890045 -0.0046189968994510226 0.0047425689791326595 0.001503397295237881
-0.007130677415498376 0.008569406618309084 -0.0016722043029137432 -0.0077617584220968355 -0.0009257713468688164 0.006086987396841715 -0.0028465940718653995 0.002226856231778946
0.010370621646968732 -0.009144658014277702 -0.0012017868998689934 0.0013119135336322886 -0.00036343807405767536 0.005067308488637023 0.012815608717696922 0.00516165317736015
0.01166657461679553 -0.0015563069929190772 -0.026965776135582886 -0.0029961648482386004 -0.004853686095468459 -0.007137320107031239 0.007174857920516454 -0.0013560891249692353
0.018491260922963795 -0.0033332512328944053 0.000733342348834981 -0.02299755147153296 -0.02015278829783364 0.0029117488440064737 0.005888832306420126 0.0061225779947177515
0.009902713350728632 -0.012781837596541315 -0.010620338363057796 -0.005444501463825746 -0.015679455469271537 -0.012409071765898337 -0.011167853438542553 -0.0045941041682097
-3.627026615606689e-06 -0.003845961126878611 0.007331956175284335 0.012264760795706245 0.010541782774917505 0.007638342560582149 -0.004771425909476414 -0.007410266399814131
0.011788614970958013 0.00370589086391474 -0.00831479909742987 0.010662862600280116 0.015197105382254654 -0.0006557588178651071 -0.0008093913624639919 -0.00883345873345248
0.0026964228866478168 -0.008731996770504992 0.014804230585961092 0.007059896862394264 -0.018600488333066444 0.006133476409991471 -0.022155842357720026 0.01329730060578976
0.010516822466638907 0.0049650938811102215 -0.018450149462451774 0.0027575727405734357 0.0034079667635794177 -0.0023014690583499408 0.007878184038695977 -0.0016657260582568253
-0.011762964717611797 0.0052856924170372145 0.0012633741350943372 0.007331605481631878 0.0031927976702923358 -0.005712515577758217 0.005933540229109336 -0.00019807499796588426
-0.011710016583482705 0.013001826814296975 0.0005822504707487711 -0.002463780613865209 0.010044258680754118 -0.004191786033054787 0.01986019055989396 -0.001616948641628565
0.015018504529681015 0.010152291734330026 -0.006316452340291525 0.010463031593381876 0.013035015401707088 0.013829587949621755 0.019779427793011537 0.005003772161817875
0.0035689756670642335 0.008544463278359352 0.013910302759362956 -0.012644874272632842 -0.0010863133809235726 0.009639690934042234 0.005211551186612424 0.012319095786651187
-0.00397970326013718 0.012546150175838154 0.012207802459177344 -0.01489026826989315 0.004656170774520421 0.005075678031704346 -0.0024172556173384396 -0.005772084508769414
0.008610726478388332 0.0085150290153995 -0.0011508684685298959 -0.00981059564247931 -0.009851593560583308 -0.018528154184165313 0.015270989581681252 0.013925433973064125
0.014865204187974643 -0.0058305801296201975 -0.0010497938052150422 -0.01390275170376314 -0.014029153673947007 -0.008854483969854615 0.008865832216161012 -0.006796892240745464
-0.0018187520205110192 0.012114774110265186 -0.003962425853047727 0.0027168737275843264 -0.0025519328716993033 0.00248993456559422 0.009388078302632774 -0.0028198462605886817
-0.004756886912592929 -0.005638244802747687 0.0025984944101627118 0.007483679215264307 -0.0016423918497661563 0.0012715779441330186 0.004119741442625332 -0.005993778151285054
0.009701255215019045 0.008342057787703706 0.004298306289524579 0.004290912402671945 0.0069290520536327265 0.005748728132094484 0.00602983697210188 -0.005395252175535519
00000000: 8397 d67e ff16 8e3f 48ec 09a7 96ad 723f
00000010: 97b6 353c 4aa7 89bf 5f76 c167 ee0f 733f
00000020: 55d0 0105 8434 813f 1ba7 479f 0e8a 4b3f
00000030: 6d6a 1391 71a0 8c3f 9696 6e33 478a 853f
00000040: 01c5 5c5b a1d8 81bf b744 3618 c92b 85bf
00000050: 7388 dbb3 976d 68bf 1ced 3547 7994 8abf
00000060: 8e57 e70e c4ad 653f 6f82 687a 534d 513f
00000070: cadc 0533 cb50 99bf 5143 9848 fd39 603f
00000080: 96d6 28fe 6eb4 643f 23a5 964f 94fc 6abf
00000090: 4549 cddf e783 91bf 03f2 75dd 7bce 833f
000000a0: 5a52 f311 1738 77bf e19c a304 6b9c 733f
000000b0: dc61 ebb8 ba7d 97bf cac2 aae5 5aab 8dbf
000000c0: dcac 8263 ad21 e3be aa29 b6d5 08e6 733f
000000d0: 9f9f 0ed9 4d10 72bf 3acf bd02 8fbc 7e3f
000000e0: 6560 758f c0b9 743f 1a01 a156 3ddd 833f
000000f0: 15e2 7e21 56a3 883f 04d4 c4a5 99c4 7d3f
00000100: b2ab 6321 ba04 923f 9f53 8331 842e 943f
00000110: 98c6 06ba b8cb 88bf 4547 d8f0 f67c 78bf
00000120: b64c 77d0 7368 8b3f bb03 0206 a457 843f
00000130: 83e0 4932 9232 5f3f 49f2 b347 563e 7d3f
00000140: 63c8 56f7 6e5f 81bf fb11 5581 e83a 60bf
00000150: 682a 8b5d efa8 80bf 76be c39f 3022 8d3f
00000160: 3a7b 38da 85af 6ebf a7c4 8af6 e73c 763f
00000170: 92cc 3507 6a21 5dbf 78ee fef0 3029 6c3f
00000180: 7538 a3b9 99a9 7a3f caff d7ba 3604 903f
00000190: 2dd7 bc47 1beb 883f 1522 cf52 2891 7e3f
000001a0: 9699 34ff 1994 693f 9829 1207 553f 8abf
000001b0: 61da 6ae3 b7b6 77bf 2a56 6888 6343 85bf
000001c0: 6cdc ef08 fe68 5ebf c5e0 c56c 3efb 773f
000001d0: c2e9 be02 3707 84bf 65a7 9a28 4a04 813f
000001e0: c130 cf59 3cd4 7d3f d1ce 87cf 66de 66bf
000001f0: 84a5 4393 5d31 6dbf 97ec 49dc f32a 82bf
00000200: a7fe fae3 c0d9 85bf 11ef 4f1b 9aff 6f3f
00000210: a963 1b12 d005 84bf bc11 860b 81d8 98bf
00000220: 4dee ab7b 0116 683f fc22 e37f 9fbd 7ebf
00000230: e7b6 22f1 44c5 863f c993 1cd6 8e11 63bf
00000240: a3bb 94d3 7035 913f e061 d2fa 110c 89bf
00000250: d04e aaa8 2771 7dbf 8c4b e4e9 5128 8a3f
00000260: e174 f242 a08e 8d3f 93a0 e68a e497 703f
00000270: 4d5c 7e1f 8197 77bf 2877 3127 3719 8e3f
00000280: 4a56 ca2e 7ea3 6f3f 5db6 6aa3 2a1c 12bf
00000290: 2372 ce2a aaa0 7f3f 15fa 3955 1d84 90bf
000002a0: 9655 a4e9 7541 9c3f b132 6e6c 15ff 7f3f
000002b0: e3a2 b739 6a1d 8b3f 9893 4981 34e6 37bf
000002c0: 561e 1b44 1ad4 63bf 37ee cf2b 63a9 76bf
000002d0: e537 0b04 32b5 913f 58c8 7e87 3f93 683f
000002e0: dea4 2d34 77e8 7cbf 7207 88c3 de7a 5abf
000002f0: 04ce 2853 92a8 79bf 6e77 598a 0aaf 70bf
00000300: 2717 9ea6 5c1d 623f 042b e0ba 70d1 80bf
00000310: 96dc 0dd7 d0eb 86bf d2f0 c2dd aca3 9abf
00000320: 4d23 8549 05ce 70bf 1ab9 f989 5eeb 72bf
00000330: b860 a1aa f16c 733f 88fc d18d b4a1 583f
00000340: b329 c4a4 0e35 7dbf 87c5 5f49 d68c 813f
00000350: b286 c4b2 bb65 5bbf 1e57 5129 cbca 7fbf
00000360: 78a5 45d4 ee55 4ebf 4141 cf3c abee 783f
00000370: 2760 328e bd51 67bf a83e 0756 0e3e 623f
00000380: 64dc 8046 313d 853f d7dd d538 6fba 82bf
00000390: f8f2 a0db a8b0 53bf be62 376e 907e 553f
000003a0: 5c26 67a4 7ad1 37bf 0c8d cc43 75c1 743f
000003b0: f814 91e2 113f 8a3f e9de 70b9 6224 753f
000003c0: 38dd 7b23 a5e4 873f d0a1 c6e8 9f7f 59bf
000003d0: d34f 749a ea9c 9bbf e1e7 2bc1 698b 68bf
000003e0: 1cad b870 75e1 73bf d671 0dc7 053c 7dbf
000003f0: 27fa f341 6263 7d3f 8512 4d9c d937 56bf
00000400: 9727 b483 5fef 923f fbb6 1ba1 554e 6bbf
00000410: cca1 d7b3 b807 483f 694f d58d ab8c 97bf
00000420: 054e a6ba eea2 94bf 0ec0 e441 61da 673f
00000430: 05e9 ae62 e31e 783f aa85 1204 fd13 793f
00000440: 2745 ddaf df47 843f d5ee ad33 5d2d 8abf
00000450: d6c7 88af 1dc0 85bf c0b7 ae3b f94c 76bf
00000460: e5a3 d671 460e 90bf bf18 446b ed69 89bf
00000470: 47ce 47ea 2bdf 86bf 7392 8272 44d1 72bf
00000480: c012 14f8 fa6c cebe da47 5fa8 9081 6fbf
00000490: 571b d1ff 1c08 7e3f 7529 1654 441e 893f
000004a0: 9815 1422 ee96 853f f7bd e4f7 6149 7f3f
000004b0: e8a7 c8e3 338b 73bf 0737 783d 3a5a 7ebf
000004c0: 618a 1f1e a124 883f 4c94 0402 d15b 6e3f
000004d0: d9f6 9171 5907 81bf 2a16 3331 69d6 853f
000004e0: 1c9c e2f4 a81f 8f3f b531 a156 e77c 45bf
000004f0: dbad 39b7 aa85 4abf 9f48 f7c2 4617 82bf
00000500: c5a8 a803 cf16 663f 54fb 76c4 14e2 81bf
00000510: a354 ac31 ae51 8e3f f1a0 31a2 d6ea 7c3f
00000520: d312 52a4 010c 93bf 519b 7789 6a1f 793f
00000530: d7f0 5d69 05b0 96bf 1eca d079 9d3b 8b3f
00000540: 529a 6a04 d889 853f 867b 743d 4756 743f
00000550: f1ae 3092 98e4 92bf 205b 9697 0c97 663f
00000560: 9a26 7439 06eb 6b3f 0aeb d3ca 87da 62bf
00000570: b271 62f6 6f22 803f 0e8b 6fbc 8f4a 5bbf
00000580: 6410 2166 2e17 88bf db13 1641 73a6 753f
00000590: 8521 f1a5 f9b2 543f d020 55dc be07 7e3f
000005a0: e7eb 7332 c827 6a3f 0f8c 59b9 0166 77bf
000005b0: a784 bc93 c44d 783f 2ed2 de46 4bf6 29bf
000005c0: 85e9 17d2 6bfb 87bf ca31 a5a7 b3a0 8a3f
000005d0: b1e3 6e5d 4514 433f 047c 2725 ec2e 64bf
000005e0: 8f08 5f94 1592 843f 63e2 c7fe 672b 71bf
000005f0: 5fcd c9d3 3a56 943f 8a2e 3f62 f97d 5abf
00000600: c386 518e 05c2 8e3f a3c2 d387 b9ca 843f
00000610: 6918 a7c3 47df 79bf 2cb0 1554 a46d 853f
00000620: 5c54 d326 1ab2 8a3f 05ae afdf af52 8c3f
00000630: 19b0 04ee 0e41 943f d891 aadc d57e 743f
00000640: b3f9 a538 af3c 6d3f 084a bd72 c27f 813f
00000650: e56e 6e3b 017d 8c3f 0534 b44b 8ee5 89bf
00000660: f1fb 6e1c 54cc 51bf ad2b 716a f9bd 833f
00000670: fbe1 861e b558 753f dedf 280c c13a 893f
00000680: f4e6 9975 054d 70bf 7f43 91c5 cbb1 893f
00000690: dba9 8b82 6700 893f c19c fbf9 c97e 8ebf
000006a0: 90ef 3753 5912 733f 4e4c 6bf2 3bca 743f
000006b0: 4541 523a 5acd 63bf f25c 1e23 78a4 77bf
000006c0: 7ab1 f424 80a2 813f 1341 2ad9 5370 813f
000006d0: c51e cc9b 17db 52bf 3784 82db 9317 84bf
000006e0: 48e0 3f81 122d 84bf 80dd 1a61 0bf9 92bf
000006f0: 35a3 a586 6546 8f3f 05b0 f91b f084 8c3f
00000700: 788a afee a571 8e3f 5727 936f cee1 77bf
00000710: 4779 e683 2733 51bf 1af6 22bf 0b79 8cbf
00000720: 95e3 c221 51bb 8cbf a37d 96b8 4c22 82bf
00000730: 09a4 5cdb 3f28 823f b00a 37de 0ed7 7bbf
00000740: 0df3 a51c 66cc 5dbf 03ee d074 a1cf 883f
00000750: f704 3a97 e73a 70bf edb2 d579 b241 663f
00000760: 0197 3787 cae7 64bf 18b6 e870 c565 643f
00000770: 00bb 418a 0e3a 833f 8cda 016f a519 67bf
00000780: 1b95 861b f57b 73bf 1ee6 8dd0 2018 77bf
00000790: 36ea 5510 7049 653f a9a8 bbd7 34a7 7e3f
000007a0: ceac 0bd2 b0e8 5abf 04a8 cc6b 62d5 543f
000007b0: 3c8e 39ac dcdf 703f ca5c 3a92 ee8c 78bf
000007c0: ed7c 076f 40de 833f c746 090b a415 813f
000007d0: 2733 11cf 199b 713f d018 0807 5993 713f
000007e0: 1ef3 663f a361 7c3f 0193 2275 fa8b 773f
000007f0: deb6 8609 beb2 783f 9f8f 5cfa 5419 76bf

b1 f8 [1, 100]
7.393157323953088 7.392986687880539 7.393260902923715 7.393200575685783 7.393209141684347 7.392957032354015 7.392786846337565 7.3935119689752336
7.392845645627079 7.392732621497693 7.393006922169316 7.392986264887732 7.393298571046977 7.392605656149062 7.393089298144031 7.393711225273154
7.393177401875722 7.393086197251545 7.393178058980059 7.392644144732165 7.393077284711953 7.3932359341255856 7.393044590406343 7.392857137776597
7.392894802559926 7.393106014038293 7.393206937914944 7.392729529138803 7.392726400512645 7.393004956133065 7.3927926155569645 7.393262257983915
7.39305929452622 7.392804752272562 7.39275016569424 7.39276546465834 7.392978615859986 7.39279136191102 7.393451164454283 7.39272265825978
7.3929816510810555 7.39288137204668 7.392717276994571 7.392850546789214 7.39280573864227 7.393401467672763 7.393068471208908 7.39321256392377
7.393095631721706 7.392708419159555 7.392936093756823 7.393391767169698 7.393130905354189 7.393192943258098 7.393070902314146 7.39334694505864
7.393470436354235 7.392834695108127 7.393096027478769 7.3930606274999 7.393056852601571 7.393201940500122 7.393360757838685 7.393097252487017
7.393157536542103 7.393194801340668 7.392930029771288 7.393368042041689 7.393298265963927 7.393338154989282 7.393235276172427 7.393308099364716
7.393153412170779 7.3932038299771 7.392974860189208 7.393395994292413 7.393020029788138 7.393239124648136 7.393191722878196 7.393187395117637
7.393421373459369 7.393221605802843 7.392972782027404 7.393124791172709 7.392891975781237 7.39335886702497 7.392702332093317 7.392932125634272
7.392884996369104 7.3932961395135255 7.392963891469276 7.393277111360419 7.393068551226944 7.393348160021588 7.3931357911915185 7.39285677962794
7.393102318317625 7.393024041215982 7.39329961342601 7.3931823406977815
00000000: dd3e 62d5 9792 1d40 52d7 301a 6b92 1d40
00000010: 4169 73fc b292 1d40 f15a f52b a392 1d40
00000020: 0a17 d06a a592 1d40 5bc6 0a54 6392 1d40
00000030: 7946 0db7 3692 1d40 3155 35cd f492 1d40
00000040: 9360 0121 4692 1d40 a89e 1580 2892 1d40
00000050: 7b46 1768 7092 1d40 48e1 cdfd 6a92 1d40
00000060: 59d7 50dc bc92 1d40 148a 9537 0792 1d40
00000070: adbe 3f00 8692 1d40 1377 1209 2993 1d40
00000080: 7454 ca18 9d92 1d40 4cd1 2630 8592 1d40
00000090: e44b e344 9d92 1d40 b65c 824e 1192 1d40
000000a0: a38d 0ada 8292 1d40 c1b9 d270 ac92 1d40
000000b0: eba8 f647 7a92 1d40 aa00 3b24 4992 1d40
000000c0: 940d df03 5392 1d40 1d9f 0862 8a92 1d40
000000d0: b59e ebd6 a492 1d40 6e4c 8fb0 2792 1d40
000000e0: 12e9 99de 2692 1d40 9b07 27e4 6f92 1d40
000000f0: b9b5 373a 3892 1d40 0a2b 6357 b392 1d40
00000100: 0b84 bd22 7e92 1d40 6ae5 b268 3b92 1d40
00000110: 129f 7419 2d92 1d40 c1d2 261c 3192 1d40
00000120: 7e95 7cfc 6892 1d40 8d3c 16e6 3792 1d40
00000130: f79d afdc e492 1d40 ea7e 76e3 2592 1d40
00000140: ed48 2dc8 6992 1d40 a797 907e 4f92 1d40
00000150: 3c10 557a 2492 1d40 9ab3 ea69 4792 1d40
00000160: 4499 e4aa 3b92 1d40 6369 97d5 d792 1d40
00000170: 52b9 938a 8092 1d40 32b7 7950 a692 1d40
00000180: dfc7 49a9 8792 1d40 d99d e427 2292 1d40
00000190: 086a e0d6 5d92 1d40 ba09 9a4a d592 1d40
000001a0: 262c 76e8 9092 1d40 fe3e c12b a192 1d40
000001b0: 3bcb b92d 8192 1d40 9208 a48a c992 1d40
000001c0: 5056 00ea e992 1d40 e7e4 2042 4392 1d40
000001d0: d8d5 d8c3 8792 1d40 49d4 317c 7e92 1d40
000001e0: dc91 dd7e 7d92 1d40 e2af 8c87 a392 1d40
000001f0: a7c9 9929 cd92 1d40 1851 0e16 8892 1d40
00000200: 3d7f a6e3 9792 1d40 8edc 72a8 a192 1d40
00000210: 9bef ed3f 5c92 1d40 4371 6f12 cf92 1d40
00000220: e78d d7c7 bc92 1d40 b2ca bf3c c792 1d40
00000230: 292d ab44 ac92 1d40 ef17 c05b bf92 1d40
00000240: 5456 dece 9692 1d40 84a7 5906 a492 1d40
00000250: baa6 7200 6892 1d40 0974 4766 d692 1d40
00000260: b673 bad7 7392 1d40 537c ef46 ad92 1d40
00000270: 6c47 dbd9 a092 1d40 31eb 6cb7 9f92 1d40
00000280: b938 720d dd92 1d40 e803 44af a892 1d40
00000290: 751a fc74 6792 1d40 9f55 254e 8f92 1d40
000002a0: 6d5d 2b46 5292 1d40 feda b5aa cc92 1d40
000002b0: 6b9d 658f 2092 1d40 7d96 94cc 5c92 1d40
000002c0: 3ffa c971 5092 1d40 226a 2339 bc92 1d40
000002d0: 4d7a 5920 6592 1d40 c03b 2e3c b792 1d40
000002e0: 5d6c f28f 8092 1d40 1ff0 2cdc c992 1d40
000002f0: f837 5830 9292 1d40 370e 320c 4992 1d40
00000300: ba9f 046a 8992 1d40 f241 eee4 7492 1d40
00000310: d1c6 4422 bd92 1d40 95a5 3a64 9e92 1d40

W2 f8 [100, 10]
-0.18517167628200487 -0.21905761269586954 0.059051342795826425 0.09365689544360531 0.10475568665817447 0.2162610078382246 0.24576568912549862 -0.2143909191955126
-0.06612907584344778 0.004612235748883142 -0.1710726240629888 -0.23904001462863106 0.021612528312893047 0.07517912488625944 0.10419496469335372 0.21038024871613187
0.24260205868612095 -0.23351039976474586 -0.0742318584277432 0.0015307135865315347 -0.18515011313782828 -0.2214716335653602 0.03448549815353187 0.07872718468457009
0.11073834565997207 0.22002504845005527 0.2461283324497281 -0.21077842720950807 -0.07472772920337911 0.017300761841379714 -0.1760184940450304 -0.22782637947513962
0.046622383732648785 0.08327918852764485 0.11457200753950847 0.21114296386293563 0.22403350102963843 -0.21394949106297942 -0.050630008384545885 0.006893705770227965
-0.16484006239050517 -0.2137643573516097 0.04634526622136321 0.06128571646753417 0.11730530036267847 0.22743158491672744 0.2196402309267637 -0.20538959810900498
-0.05289811982646761 0.0056004063829857564 -0.1856983606748999 -0.23402643702611306 0.04132210838306556 0.09552739003542439 0.12305015781453062 0.22105756956981293
0.23873211304313702 -0.2101970502859447 -0.06223942784488479 0.01897715128639413 -0.17924331552678377 -0.2286499684869691 0.037902962795893426 0.07952728964503931
0.11176992184216383 0.22962634654983996 0.22467514832317598 -0.21631395931305553 -0.05290793283889454 0.004576005280938891 -0.19566492941675467 -0.2254319912206844
0.018382774728787278 0.07435795137536462 0.10473116671159326 0.21978817514893037 0.23081442410845762 -0.20860728098538117 -0.07326818489283365 0.001843770066771666
-0.17912889681022767 -0.2246976028395541 0.0331017376438189 0.06960060005635745 0.10961837287075012 0.22686050155549614 0.2240180095821383 -0.1995901426519389
-0.06263181194109288 -0.0034630571450657427 -0.17995186360921073 -0.2284260767523 0.03057180747003493 0.0748293760627943 0.10013135185625452 0.2127697405179545
0.2358776688982947 -0.2186690213472578 -0.040371108876973004 0.009104059574341183 -0.1824558253330041 -0.23098824976155527 0.038577516138042056 0.06621424231866355
0.11913708065370257 0.213160778628462 0.23654446221108288 -0.21989707696716204 -0.04736816620380821 0.009302906707635575 -0.18812343297719394 -0.24238029838135378
0.04399248395384584 0.0851159724888034 0.09403927716407319 0.22915959551005943 0.24519624386398775 -0.22127107588699646 -0.04906965723499138 0.021544760990302295
-0.18232444109790913 -0.24323783195839624 0.04100232119085527 0.08898057187271385 0.11683177393249886 0.22167496703803305 0.23583777592849323 -0.23304971474451266
-0.08105150254318808 0.01588807914883203 -0.1841878921429425 -0.23369591454459696 0.04481334841590734 0.08002323475591774 0.11966840609785599 0.2167292599340673
0.2394180972484074 -0.22564387587010865 -0.0368794086917303 0.00020631418533074986 -0.17466680274209195 -0.22005037676601935 0.04463121553500628 0.09061492660339264
0.10123607134500413 0.223840716246956 0.22904809788647884 -0.20496465733510033 -0.06554624182491992 0.0053570861790153135 -0.18625259474000128 -0.22421939401781654
0.03890201573845118 0.07754934905835176 0.11353329264587594 0.2225447773469203 0.23295366904355375 -0.2036093578723212 -0.07389170946404881 4.457731783592822e-05
-0.17674224269036523 -0.23903574837829483 0.04402625332880526 0.07968151861827295 0.12470902273042199 0.20950392777463225 0.23274023805236613 -0.230564915083792
-0.061512725200290455 -0.002237112865893995 -0.17489977042469637 -0.22912079291406418 0.049745508326188854 0.09243583002714813 0.10952006132927342 0.21962506097525408
0.21922267163351378 -0.21964770979264148 -0.04154432264956384 -0.010117599226008564 -0.19021703659871597 -0.23319155051432144 0.04233101450263632 0.0866708830804657
0.12078574554384319 0.22836969559300702 0.24478620937352963 -0.21606481274326197 -0.05267512571667009 -0.006345152348295746 -0.17818210641069204 -0.2168389855879765
0.03712528401982193 0.08110167628918649 0.10936446439180787 0.213145784037702 0.22827001929381283 -0.21102531455486712 -0.043644527693380564 0.007661013218151838
-0.18250528216738446 -0.2295498220915166 0.048835796376840816 0.09023086381412192 0.10363602323611427 0.2192496072194648 0.2204644856613731 -0.21802882235011845
-0.053487860893504796 -0.007311305316184485 -0.1753060070843727 -0.23803783065925666 0.03475023168718446 0.10142268471753389 0.12208401372028967 0.22168305688138415
0.2290321506477494 -0.20171391375314668 -0.071303427772718 0.011381507814526806 -0.19738336538692225 -0.22401050232728623 0.05621903404405361 0.08555355155492157
0.10567593958140514 0.2224167691197061 0.22442144447221357 -0.22669757925412234 -0.04650561257950805 -0.013594921510740349 -0.17631719695331888 -0.2329666801663236
0.04870391161740285 0.06599700551043415 0.10918332323825455 0.21930939614695844 0.23046290022279914 -0.22440908737878543 -0.037143157472974406 -0.003270073261448958
-0.17768423428915 -0.230277820118613 0.04798631566654213 0.08074171832598735 0.11867756095662424 0.2227922705733797 0.23125193338586025 -0.21595237091846597
-0.05546594905170233 0.00041418127475134625 -0.16994133393977856 -0.22303164246909093 0.05641698833605027 0.09668242845534783 0.13731025057722382 0.21753241359052866
00000000: 3a6b e39a b4b3 c7bf e4fa 3b71 140a ccbf
00000010: 6a98 2f44 fa3b ae3f 26a5 f9f6 e5f9 b73f
00000020: 7052 44c8 44d1 ba3f a257 08d2 70ae cb3f
00000030: 06ef a206 4075 cf3f 8586 4061 2971 cbbf
00000040: abf3 0fca d5ed b0bf 000f 3f9b 47e4 723f
00000050: 4ab4 cb2e b5e5 c5bf 66f6 a1fa dc98 cebf
00000060: dba7 2639 9821 963f 6077 ba6a f03e b33f
00000070: 5d0d c46d 85ac ba3f 9ee5 fa6f bded ca3f
00000080: 8ce4 ff91 950d cf3f e8fa 2135 abe3 cdbf
00000090: bbb9 44ec db00 b3bf 80e9 cb32 4714 593f
000000a0: c58a 63b8 ffb2 c7bf 5ad4 93b7 2e59 ccbf
000000b0: 82e9 824d 15a8 a13f e1c0 86fb 7627 b43f
000000c0: 36d1 0525 5959 bc3f 2268 b2e1 c729 cc3f
000000d0: e8cb 3e19 2281 cf3f 7e98 c899 c9fa cabf
000000e0: 5869 0841 5b21 b3bf d8eb 3779 4ab7 913f
000000f0: d610 b525 c687 c6bf 0083 8130 6a29 cdbf
00000100: 2b5d c99a e3de a73f 2ae5 29ef c851 b53f
00000110: 4054 6b51 9754 bd3f 5831 498e bb06 cb3f
00000120: 1aba 1038 21ad cc3f 6b40 8e69 b262 cbbf
00000130: be68 6a2c 2dec a9bf 8050 4d0d 933c 7c3f
00000140: 43d7 84aa 7a19 c5bf 5814 f065 a15c cbbf
00000150: b986 7d15 91ba a73f 1846 e167 d760 af3f
00000160: 6e85 b45c b807 be3f b8bb a569 7a1c cd3f
00000170: f6b0 5bcc 2b1d cc3f 968b 68d3 344a cabf
00000180: ec60 595d 7615 abbf 00d2 25a4 73f0 763f
00000190: 397f 02c1 f6c4 c7bf 7d99 b60a 94f4 cdbf
000001a0: 2acd 36e0 2b28 a53f d50a 13a8 7b74 b83f
000001b0: 8dbf 9413 3780 bf3f a8f4 ea4b 9d4b cc3f
000001c0: 583b 031d c68e ce3f 70ce 58a8 bce7 cabf
000001d0: 0027 3ba6 d8dd afbf 88d1 9510 bf6e 933f
000001e0: 1d69 1be9 71f1 c6bf ee04 71f4 6644 cdbf
000001f0: ed7d 4263 0468 a33f 093b 2a84 e65b b43f
00000200: e812 fd1e f49c bc3f 9da2 5d68 6564 cd3f
00000210: 92d0 22bf 27c2 cc3f 0c7c 7502 2db0 cbbf
00000220: 96e9 7ba2 bf16 abbf d081 7210 4abe 723f
00000230: 96d8 6864 8c0b c9bf 7aeb e19a f4da ccbf
00000240: 8a5a 1421 efd2 923f d9d0 5a69 1f09 b33f
00000250: 8bf1 e567 a9cf ba3f 61f5 27d8 0422 cc3f
00000260: cbd5 7eb9 538b cd3f b814 c5b4 a4b3 cabf
00000270: 64b6 f329 b4c1 b2bf 0017 d708 5535 5e3f
00000280: 2bc4 c818 b2ed c6bf dcbd d71b e4c2 ccbf
00000290: 57f0 3d01 b6f2 a03f e526 064d 58d1 b13f
000002a0: 6546 851e f30f bc3f 82ae 77d1 c309 cd3f
000002b0: f265 6f44 9fac cc3f 81a3 a577 2b8c c9bf
000002c0: 4ee9 f96f a308 b0bf a0e1 d4a5 8e5e 6cbf
000002d0: de24 87a4 a908 c7bf 1534 9ad0 103d cdbf
000002e0: f7ba 0d45 374e 9f3f f243 f89a 0428 b33f
000002f0: bee1 8651 35a2 b93f c82f 8df2 093c cb3f
00000300: aa2f e34c 3d31 ce3f aada aab3 58fd cbbf
00000310: abe2 a8a0 85ab a4bf e0a0 0f31 26a5 823f
00000320: 6d8d 6265 b65a c7bf 7b3a 3ee1 0591 cdbf
00000330: b0fc 58a4 6ec0 a33f 8ebf 49a5 6af3 b03f
00000340: 7a08 2689 c47f be3f d2e3 7f36 da48 cb3f
00000350: 9a8d 9fc4 1647 ce3f a2ac 0761 9625 ccbf
00000360: cc06 6fe9 a340 a8bf 0849 8900 670d 833f
00000370: 29c8 1fbc 6d14 c8bf b40e 5f4f 5106 cfbf
00000380: 5501 b4cf 2e86 a63f c6e6 340e 29ca b53f
00000390: 6d8c f543 f512 b83f aae0 2304 1a55 cd3f
000003a0: 24ba 3f2c 9762 cf3f 1021 3e51 9c52 ccbf
000003b0: 25b6 197a a81f a9bf f4f7 696f d40f 963f
000003c0: ac74 e343 6856 c7bf 05a4 b4d2 6a22 cfbf
000003d0: a64d 2699 41fe a43f fc34 2c46 6ec7 b63f
000003e0: be7a 2ce8 afe8 bd3f e596 e266 d85f cc3f
000003f0: c51a 63a7 ee2f ce3f 5dbc 95b3 92d4 cdbf
00000400: 8af3 b690 cabf b4bf 38aa 5cf1 f644 903f
00000410: c85b 8906 7893 c7bf f1c3 166b bfe9 cdbf
00000420: 10bc bd73 c6f1 a63f 4e61 3218 677c b43f
00000430: 5703 8eb2 96a2 be3f a765 c0cd c8bd cb3f
00000440: 8650 e090 40a5 ce3f 7ed0 b305 e6e1 ccbf
00000450: 1a1f 749c dbe1 a2bf 001a 7e5b c10a 2b3f
00000460: 8ab1 bc56 7b5b c6bf 305d d759 9c2a ccbf
00000470: 5208 3516 e7d9 a63f bf7f 4a32 8a32 b73f
00000480: 5931 9a6f 9bea b93f 409e e505 d0a6 cc3f
00000490: 5814 d1b4 7251 cd3f 7a88 0b2a 483c cabf
000004a0: 5c84 0375 a3c7 b0bf 0035 0ddf 4ff1 753f
000004b0: 8e0a 9a01 20d7 c7bf 28bd 379a 38b3 ccbf
000004c0: 3db4 b00a f7ea a33f 181e 082e 46da b33f
000004d0: 06d6 eb92 8410 bd3f 42e1 4ce6 587c cc3f
000004e0: 143c 0303 6dd1 cd3f 9e4f 9c16 df0f cabf
000004f0: b3f7 972b 91ea b2bf 0088 5dfa 105f 073f
00000500: d5a1 1664 7d9f c6bf 6209 ee30 b998 cebf
00000510: cedd 6cec 9b8a a63f 15a4 8f0c 0266 b43f
00000520: 33ae 2436 eeec bf3f c979 1653 06d1 ca3f
00000530: 25f7 729f 6eca cd3f 5ee8 f1b0 2683 cdbf
00000540: 7ad1 0b8e 987e afbf e053 16d3 9053 62bf
00000550: 3fa7 069d 1d63 c6bf a022 3384 d453 cdbf
00000560: 818b c446 3e78 a93f adf9 f1e2 dfa9 b73f
00000570: da46 aab9 8109 bc3f 06a7 228b ac1c cc3f
00000580: 8a95 9a0e 7d0f cc3f 58b0 1989 6a1d ccbf
00000590: ec8b 3a26 4c45 a5bf 1864 512e 89b8 84bf
000005a0: cab0 aa27 0859 c8bf 32ce 9481 38d9 cdbf
000005b0: 0068 ca25 69ac a53f 1296 5820 1030 b63f
000005c0: 7c0c ef8a d0eb be3f a016 fcda 373b cd3f
000005d0: 02b4 e28d 2755 cf3f f53a 4604 03a8 cbbf
000005e0: 2e15 88ec 3bf8 aabf c061 2fdd 5ffd 79bf
000005f0: 9616 e2d7 abce c6bf fb90 cc3f 61c1 cbbf
00000600: bc8f 70d1 1502 a33f ee15 5057 14c3 b43f
00000610: 7d49 e83d 4fff bb3f 5871 dc6d 5c48 cb3f
00000620: 7b19 c3b5 f337 cd3f 0a15 52a4 e002 cbbf
00000630: c053 2f56 9358 a6bf 1075 9e93 2761 7f3f
00000640: 1fca 2045 555c c7bf 6ec4 5779 e361 cdbf
00000650: 3713 a068 0101 a93f 57e6 2bb1 5e19 b73f
00000660: 4592 7cf2 e387 ba3f aa8f 5502 5f10 cc3f
00000670: e02a ec25 2e38 cc3f ac21 ca52 5ee8 cbbf
00000680: 248c 8aca c262 abbf 60d8 9593 75f2 7dbf
00000690: f31f 9c5f 6d70 c6bf ac36 f20c 0678 cebf
000006a0: 4bf0 3f49 c8ca a13f 0f30 ef49 d6f6 b93f
000006b0: f105 4bde e540 bf3f 5101 b143 1c60 cc3f
000006c0: 5cdf 61ee ec50 cd3f 1ee5 5bf3 c2d1 c9bf
000006d0: be63 6002 f140 b2bf a890 bd1e 304f 873f
000006e0: 6c3d 8ead db43 c9bf 9f65 ba4a 60ac ccbf
000006f0: 228b 43c1 bdc8 ac3f 752b fc69 d6e6 b53f
00000700: b4e8 7910 940d bb3f 50be b916 2778 cc3f
00000710: 0cbe 4386 d7b9 cc3f 174a 7d20 6d04 cdbf
00000720: a307 386a 95cf a7bf b016 3e7a a7d7 8bbf
00000730: ca85 51d9 8f91 c6bf 649f 2f28 dad1 cdbf
00000740: a104 2b17 b8ef a83f 7d1e 4d04 2ee5 b03f
00000750: baaf 9332 70f3 bb3f 940e 148e 5412 cc3f
00000760: 50f9 b2ed ce7f cd3f 99c9 9bdd 6fb9 ccbf
00000770: 66b3 3b8d 6d04 a3bf 808f d436 d7c9 6abf
00000780: 9fb2 a463 5bbe c6bf 9da9 335d be79 cdbf
00000790: 44fc e290 a991 a83f a309 a23f 7dab b43f
000007a0: 44e7 1313 a761 be3f 1c06 f505 7584 cc3f
000007b0: 98b7 83d1 a999 cd3f 1453 4bc9 53a4 cbbf
000007c0: b1f4 6f6a 0866 acbf 00a0 9807 cf24 3b3f
000007d0: 7e46 c13b a3c0 c5bf 5d5f 3005 4d8c ccbf
000007e0: 342e afff afe2 ac3f b246 50fc 2dc0 b83f
000007f0: 353f d1dd 6193 c13f 6c7b 1825 1ad8 cb3f

b2 f8 [1, 10]
-0.1835949281167003 -0.2289425754825236 0.026460066341163786 0.08316770859667565 0.1156403600678748 0.23243336541787965 0.2372738506413301 -0.2167137189961047
-0.0609263536211441 -0.0047977748483742505
00000000: 6481 fce1 0980 c7bf 7802 2e85 fd4d cdbf
00000010: f555 57fe 5818 9b3f e787 819c 7a4a b53f
00000020: efd4 964c 9b9a bd3f 8908 7c63 60c0 cd3f
00000030: 08aa 5952 fd5e ce3f 1c66 d76f 46bd cbbf
00000040: 74e1 8830 bd31 afbf d0d1 13e1 d4a6 73bf
