experiments/exp_h100_lr0.5_run2/model/weights.npz (npz, 637046 bytes, 4 tensors)

W1 f8 [784, 100]
0	0x3f54bb8aa02058e8	0.001265416504343581
1	0xbf657cd6a731b5e6	-0.002623004192676903
2	0x3f7b8eb4b68ae7d2	0.0067278918365278485
3	0x3f8b5f279370b97d	0.013365086733838844
4	0x3f847530ba7aa50f	0.009989147845163275
5	0x3f8cb72319a0d2ab	0.01402118131600479
6	0x3f69efab31a1649b	0.003166040766740053
7	0xbf88e1fa9d879be2	-0.012149770672250374
8	0x3f7254c83314bfb8	0.0044753856939649325
9	0xbf909638f322181b	-0.016198053207084322
10	0x3f6c960d074375d0	0.0034895185909664464
11	0x3f76d24ac43fa7ef	0.005571643883721208
12	0x3f86ec723309b885	0.011193172628932277
13	0x3f5e558948c4610c	0.001851448122641544
14	0x3f85cd4a54051372	0.010645466507989563
15	0xbf5e5497bab6394d	-0.0018512231571069127
16	0x3f7428444e200b5d	0.004921213929267446
17	0x3f99a01e12f37d76	0.025024862200436947
18	0xbf7ee11c04554873	-0.007538899842375202
19	0xbf548f84819ff413	-0.0012549203879637135
20	0x3f19f96b4041ad04	9.90840636078579e-05
21	0xbf744a4f939844a8	-0.004953680845134624
22	0x3f81ea7e8d0c67e8	0.008748043708283817
23	0xbf81c08d313f2253	-0.008668044152629372
24	0x3f787cd0cd6c7b43	0.005978408464925536
25	0xbf43929bdb5213fb	-0.0005973111170908258
26	0x3f5f49d952d51fff	0.001909696798366056
27	0xbf80c820e05785ba	-0.008194214674349765
28	0x3f953e1063f7fc3d	0.020744567967991612
29	0x3f8b939790fbcf3c	0.013465103256272586
30	0x3f8f379deff35e2d	0.015242799649441608
31	0xbf7589e457adb480	-0.005258457148426321
32	0xbf7214b3847b08ac	-0.004414273491138026
33	0xbf75ac13002968c0	-0.005291055890291385
34	0x3f60f508e0f9219f	0.0020699666418162034
35	0xbf4547dc303a3a8e	-0.0006494355333915445
36	0xbf455cef6d139ce1	-0.0006519478867205408
37	0x3f70ed1b2e688643	0.004132372071155968
38	0x3f5d2c27387a85a9	0.0017805464757788359
39	0xbf7e66eb1dbc8e11	-0.0074223694062172255
40	0x3f8dc58f7623d62b	0.014536972802015566
41	0xbf8aee8d18edb1f7	-0.013150312731988285
42	0xbf939cb7fc0a7fcf	-0.019152521856653778
43	0x3f7583bfe0294092	0.005252599252870154
44	0xbf86ab0100506a20	-0.01106835157593361
45	0x3f70db72f0a5296d	0.004115532860235011
46	0x3f8be44296d9317f	0.01361896536686724
47	0x3f887646cd89a4a5	0.011944344661247117
48	0x3f78c358038408c9	0.006045669368406511
49	0x3f98d5c805b4c196	0.0242530110819544
50	0x3f903531f3aee1da	0.01582792329620184
51	0x3f79bfb26c01bd87	0.006286332092812492
52	0x3f8611d8395551ea	0.010776223420784842
53	0x3f61019d94272adb	0.002075965662901564
54	0x3f9b3f0a3004ef89	0.026607665234436282
55	0x3f69689475c96898	0.003101625405446628
56	0x3f7256df6bd4b37a	0.0044773795500930805
57	0x3f864793f9e37579	0.0108787117609903
58	0x3f8aae785364936e	0.01302808765883309
59	0x3f90e8644a6762b4	0.016511504212618447
60	0xbf726bf0cb3b8e6e	-0.004497471428951278
61	0x3f90351cc70b3525	0.015827607773464387
62	0x3f5c92fd0c5d07bb	0.0017440291571379901
63	0x3ef486b3d34f5f24	1.95752920325302e-05
64	0x3f8648bd2a5a4d80	0.01088092599392243
65	0x3f7269c586255e4c	0.0044954028874922385
66	0x3f90a1f4d36d0b6d	0.016242814449707255
67	0x3f7fd26a75bcd902	0.007769027575525779
68	0xbf707f5c7a26b510	-0.004027711142424964
69	0xbf0f3847b36e2f2b	-5.954712690145325e-05
70	0x3f66b2e941f7e4c9	0.0027708583654627345
71	0xbf90501ddc362d13	-0.015930620732928235
72	0xbf47c673c0db6fe9	-0.0007255616380592553
73	0xbf6c722f7e01a8db	-0.003472416647174998
74	0x3f83e24e38383c99	0.009708987322510064
75	0xbf85bfc5d0af2214	-0.010619683676751847
76	0xbf628773fcc73d3d	-0.002261854684753621
77	0xbf8196470ee288dd	-0.008587412969351888
78	0x3f6a7c1e320bbdd3	0.0032330121761032587
79	0x3f7397d5f5414dec	0.0047834737525422714
80	0xbf8bd3c81836c7c3	-0.013587535132362554
81	0x3f59300797135446	0.0015373300669143815
82	0x3f7dd71ec4d5fd60	0.007285232726075591
83	0x3f85b6140d4f006e	0.01060119310011506
84	0x3f684ade77427b14	0.002965387824658614
85	0xbf7889eb45024595	-0.005990904828779083
86	0x3f8387ab04687b01	0.009536109993005139
87	0xbf826d4bfd2850aa	-0.008997529662373733
88	0x3f9420fe5a14af29	0.019657110450835766
89	0xbf639209f1e332ff	-0.002388972686367174
90	0x3f9223f22295e6da	0.017715247498449972
91	0x3f7fe44eb9977c1a	0.007786090392499135
92	0x3f4bd481b3167cf6	0.0008493073748247193
93	0x3f88cd3c7bd2cece	0.0121102071082996
94	0xbf8a0fe4c6730255	-0.012725627237501739
95	0x3f759a18e3e1abb4	0.005273911692806377
96	0x3f7b754f6a60bc6e	0.006703672615954932
97	0xbf90cfc9cac66eb1	-0.016417649270450144
98	0xbf888070a4b53a4d	-0.011963729883658259
99	0xbf8125412cb4edd5	-0.008371838738290652
100	0x3f65e48fcdff5233	0.0026724632916546253
101	0x3f7b94e725935760	0.006733801762683317
102	0xbf7f1c78ad9a1ee2	-0.007595511816937269
103	0xbf88a348cc9547d4	-0.012030190223104066
104	0xbf7184a10edae2d6	-0.004276875622672724
105	0x3f7c36c3961afb17	0.006888164529015104
106	0xbf796dd3e3c42da8	-0.006208255476177461
107	0xbf2c3a3c8bfe5490	-0.00021535863015445912
108	0x3f61ce5f34d33c21	0.002173601102732473
109	0x3f77b1e92f65ce9b	0.0057849034113705245
110	0xbf614941e6b810b1	-0.002110127175685227
111	0x3f73d93f80589a45	0.004845855762630584
112	0x3f716e33b54ba34c	0.004255487427806081
113	0x3f97adee89c6c2ad	0.0231244346229597
114	0xbf59a5728e75708e	-0.0015653246608371726
115	0x3f6202037e9e3d0b	0.0021982258085199206
116	0x3f9075558f414120	0.016072594517312244
117	0xbf80a04aa6826f3e	-0.008118231970278719
118	0xbf95135452a800ab	-0.020581548256814724
119	0x3f807a0c6cbfa390	0.0080452891051708
120	0x3f829913aebd2f90	0.009081033487426088
121	0x3f8c1c4a2a396d4d	0.01372583333357249
122	0x3f7788b1f1eb32b8	0.005745596978795113
123	0x3f8998019668fbca	0.012496960070277913
124	0x3f5c5d39c46359db	0.0017312111026989072
125	0xbf8608cf76469114	-0.010758992001520563
126	0x3f8591551e105d03	0.01053110597608376
127	0xbf94e588fcd250ce	-0.02040685694790128
128	0x3f75a8df2dffde06	0.005288001819273363
129	0x3f7e796558716e36	0.007439990883621619
130	0xbf63f1426fda8fa5	-0.002434377441049978
131	0xbf337023ee8a9f89	-0.00029660107842709914
132	0x3f80ba2b96feae42	0.008167591615197204
133	0x3f7c0bad8624db30	0.006847074344753776
134	0x3f7060dd9ea40c00	0.003998628332058551
135	0x3f814c5953c446f0	0.008446405285698927
136	0x3f5c7d052a6b849e	0.0017387915083236015
137	0x3f93f4c824396f2c	0.019488455973586102
138	0xbf8dce811b2abf17	-0.014554031983919509
139	0xbf51475b02d88f17	-0.0010546101360739463
140	0xbf7c052ccb42644a	-0.006840872742167889
141	0x3f7e1e85093846b4	0.007353324577268051
142	0xbf74519de4230e46	-0.004960648310035126
143	0xbf84bb2e100f0e71	-0.0101226423884164
144	0x3f895450c286c850	0.012367850243070105
145	0xbf524576f169e88b	-0.0011151944687797534
146	0x3f72ae315f77732e	0.004560654509501201
147	0xbf7658ef37f6ba0e	-0.0054559082486052134
148	0x3f784372bde7a98b	0.005923698625773697
149	0x3f6080b035721f71	0.0020144883706655838
150	0x3f75890800cf78f5	0.0052576363204634895
151	0x3f847858079423bf	0.009995162707598369
152	0xbf90a89d939bdc62	-0.016268217214897247
153	0x3f5846fec79eef25	0.0014817703326874346
154	0x3f8a79a195a16fcf	0.01292730558287039
155	0x3f9b2f982d9e3c5e	0.02654874590330924
156	0xbf6247680e972f69	-0.00223131488448829
157	0x3f52a36f183e2fd9	0.0011375985058945574
158	0x3f86eabeb5ab00ca	0.011189927977625653
159	0x3f8e654ff81bc0c9	0.014841675528686331
160	0xbf76443bbdb30be6	-0.005436166156132826
161	0xbf70558682fa2f04	-0.003987813411764799
162	0xbf86f7a27281b6f6	-0.011214512938944914
163	0x3f8899f1dc0a4a99	0.012012376334756868
164	0xbf6d3e265d5207a8	-0.003569674425819753
165	0x3f5e39db0373d026	0.0018448485187123691
166	0xbf55d126dcb0a0dc	-0.0013316039574054394
167	0x3f6300de9c473c81	0.0023197505817971757
168	0xbf6fdf8692a8e501	-0.0038907650353193772
169	0xbf7d26d5c0431b57	-0.0071171140336393135
170	0xbf6a0b4a77e517fe	-0.0031792120418314687
171	0x3f7e4444f3646190	0.007389325465077326
172	0xbf76eecfe3d85575	-0.00559884268797838
173	0xbf77e15708c4a043	-0.00583013532403959
174	0x3f80aec77b1cf5e8	0.008145864910711745
175	0x3f910d5b817957ce	0.016652517106500224
176	0x3f868968233b92e0	0.011004270148484208
177	0x3f6ede025f140d68	0.003767971641197288
178	0x3f840f1541b889ef	0.009794393604413336
179	0xbf6fcb6a8aa478dd	-0.0038811760797577825
180	0x3f6424c517b074db	0.0024589395011519305
181	0x3f5d1185592b9768	0.0017741968373967357
182	0x3f85f3b3682ba42c	0.010718728653460095
183	0x3f7897441f3697a3	0.006003633595730226
184	0xbf7ffba237dccc8f	-0.00780833593835263
185	0xbf8047d536449577	-0.007949510306000758
186	0xbf4705fe3274ca0e	-0.000702618713069038
187	0xbf85da21b16e3a80	-0.010669959285022346
188	0xbf807199c76b1dc1	-0.008029176138179108
189	0x3f84d496ba281d45	0.010171105915118725
190	0xbf5b1925f8914559	-0.0016539450464459675
191	0x3f48cc87b109c0f5	0.0007568037563725748
192	0x3f7e9eb9ffae0134	0.007475592191326808
193	0xbf6713a065f59a6a	-0.0028169758585819176
194	0x3f7fdd49516fceb5	0.00777939453017822
195	0x3f82e7097342e412	0.009229730443950177
196	0x3f9cbcc81d1d88af	0.028063895012913672
197	0x3f8c78dcc4231469	0.013902401672007696
198	0x3f7d179eaf7d6fdc	0.007102603783859931
199	0xbf793919c47592b6	-0.006157971052151259
200	0xbf49489276abcfed	-0.000771590724382152
201	0x3f84789809458c8a	0.00999563959402951
202	0x3f5fc7cec8d21376	0.001939727724022703
203	0x3f4847bfbb5331f7	0.000740975016606137
204	0x3f85a2d9806197e2	0.010564517240890529
205	0xbf869c1fa43ae748	-0.011039969634441996
206	0x3f972c6f4bc67e8c	0.02263044261928697
207	0xbf8aca72be6d39e6	-0.013081451832161538
208	0x3f6d4ec78feb9090	0.003577604074381631
209	0x3f5cc16d1071f812	0.0017551007347544928
210	0x3f2928c379c7b3d0	0.00019194971254368623
211	0xbf793e3eb32791d5	-0.006162877007657793
212	0xbf64b6866d291192	-0.0025284410014895864
213	0x3f4ac5a941e9595b	0.0008170200779414148
214	0x3f87b98d73585a0a	0.011584382135919408
215	0xbf8ae21787abd3a1	-0.013126548602920897
216	0x3f5c8e91714ba6d7	0.001742975267172422
217	0xbf716363ddbee1a8	-0.004245176412887387
218	0xbf82475073fdfae2	-0.008925083675192128
219	0x3f83cea3993a24f2	0.009671476472492977
220	0xbf6597362c63bcfc	-0.002635579879203596
221	0x3f7bda97d141de0c	0.0068002634399060395
222	0x3f83ef65c7dd9d4b	0.009733958398739381
223	0xbf850505bd292562	-0.010263485751368765
224	0x3f8497dfbdc76a97	0.010055301646322774
225	0x3f7b878274367dd5	0.006721028886573295
226	0xbf5d5b536097955c	-0.001791793273122031
227	0x3f78d076574e74e6	0.006058180112544087
228	0xbf83f75198e9fd4c	-0.009749066809716787
229	0x3f6264a3c1a88cbc	0.0022452543610299285
230	0x3f8917683ac191a6	0.012251676838965175
231	0xbf87b95335b1689a	-0.011583948207931894
232	0x3f48724ba13996f1	0.0007460469518718299
233	0x3f6fa1a7e140f357	0.0038612631706470934
234	0xbf7f21deb02bd715	-0.00760066020551677
235	0x3f479122be4467dc	0.0007192058224376702
236	0xbf606da73ec96c0d	-0.002005411768818194
237	0x3f8e6a72ba2da160	0.014851471239766212
238	0x3f606eb956b50aee	0.002005922307632849
239	0x3f86f1bbe5548a20	0.011203258453467646
240	0x3f6a5e6887cd6e40	0.0032188455210595823
241	0x3f8cdba2f6776454	0.01409079851775822
242	0xbf66686ebe9174aa	-0.0027353442169855873
243	0xbf7c0ce34fa7a686	-0.0068482283918257555
244	0xbf6c7a0b65908636	-0.0034761641113767684
245	0x3f6798485080676d	0.00288023113172369
246	0x3f64d9689ae52343	0.002545074755435557
247	0xbf91eb8d14fd9dfb	-0.01750011864296928
248	0x3f8415218658d5e2	0.009805929100461467
249	0xbf85db66401389c8	-0.01067237742467321
250	0x3f7eebc2f69ab9c7	0.007549058509239654
251	0xbf8cae8ea06437a9	-0.014004816312560413
252	0x3f90bf1d7324de20	0.01635404601367274
253	0x3f633ee0106ca464	0.002349317193325139
254	0x3f7c09dda083a642	0.006845346193793457
255	0x3f8df56603b1e103	0.014628216731793936

b1 f8 [1, 100]
0	0x401d9546c9593a6e	7.395777841635761
1	0x401d954bfbe82ed6	7.395797668501208
2	0x401d9544f4fd1979	7.395770862529724
3	0x401d9545f23053f5	7.395774635505394
4	0x401d9550649e2776	7.395814487603152
5	0x401d9535f912f0ac	7.395713702946676
6	0x401d954976cc8799	7.395788055642606
7	0x401d954289ef970e	7.395761637924592
8	0x401d953d39e0c223	7.395741371482049
9	0x401d95682fd68d1d	7.395905253858726
10	0x401d955cc96c8ef6	7.39586176610077
11	0x401d9550b047fdcb	7.39581561507607
12	0x401d9563560c54b1	7.395886749746908
13	0x401d9519a54b2757	7.395605642997757
14	0x401d95493e4d0d60	7.395787213757416
15	0x401d95466d2ff6bf	7.3957764683270275
16	0x401d953301efef43	7.395702390927741
17	0x401d951c45157350	7.39561565345214
18	0x401d9555b8150d2d	7.3958348048065945
19	0x401d95813653ae81	7.3960007179808835
20	0x401d9558ff6ecb19	7.395847312104501
21	0x401d953f810cdfac	7.395750061426877
22	0x401d9545e71edb9f	7.39577447057573
23	0x401d954efdb39418	7.395809139333345
24	0x401d956fd522b7d8	7.39593441986468
25	0x401d955f6ff3524d	7.3958718769323015
26	0x401d9591849fd318	7.3960629198598085
27	0x401d954290f55119	7.39576174256606
28	0x401d956b9c7e4547	7.395918317038485
29	0x401d952ca97bb497	7.395678184676533
30	0x401d9550e743b16a	7.395816434389738
31	0x401d9528a6842c47	7.395662881676862
32	0x401d95508c4c4b25	7.395815078884685
33	0x401d9553a5608362	7.395826896682452
34	0x401d95390dbcccea	7.3957254549488685
35	0x401d954a7ec7905d	7.395791989260116
36	0x401d95465586a22e	7.395776115743997
37	0x401d9558f4efe6c2	7.3958471557068055
38	0x401d956f2e1ae4ca	7.395931930915319
39	0x401d955cd74e3460	7.3958619729502
40	0x401d95180e72286e	7.395599580495498
41	0x401d9534c0e20234	7.395709050936194
42	0x401d9563287d5088	7.395886070870013
43	0x401d9551b0fbdee4	7.395819440243688
44	0x401d9548f93ed935	7.395786184750524
45	0x401d9525a152d621	7.395651360207496
46	0x401d951997d433d8	7.395605442358793
47	0x401d956e17571336	7.395927776994361
48	0x401d95406769cf48	7.395753494103538
49	0x401d954142a4a3f6	7.395756760882241
50	0x401d9559c20273b4	7.395850211524635
51	0x401d95346091c68e	7.395707615754544
52	0x401d9556dec30d13	7.395839195876095
53	0x401d95733d6716f8	7.395947417656991
54	0x401d9524bad2c246	7.395647925485326
55	0x401d9514ee77bd20	7.39558765989139
56	0x401d9565423e52c4	7.395894084028161
57	0x401d955d77d133b6	7.395864364761044
58	0x401d953e8e988a2a	7.395746448574338
59	0x401d952b37d81e63	7.395672676626051
60	0x401d957fccc49eac	7.395995330334397
61	0x401d94f15c6a3a67	7.395451969131137
62	0x401d955115790c78	7.395817122948863
63	0x401d9543f60f519f	7.395767063794124
64	0x401d955d4fcb6bf2	7.3958637683781365
65	0x401d952825a7d21a	7.39566096150204
66	0x401d95782d08fb8c	7.395966247246985
67	0x401d95381093ba44	7.395721682564332
68	0x401d950e25dd1833	7.395561782474078
69	0x401d955cbeeeb227	7.395861609762995
70	0x401d952f2b716fdd	7.395687750624316
71	0x401d955c00ac86e0	7.395858774690822
72	0x401d95338e0d2dc5	7.395704478792543
73	0x401d956547d55ed0	7.3958941673260625
74	0x401d9544024f58bb	7.395767246334965
75	0x401d952740573827	7.39565754444451
76	0x401d95358b97c7f1	7.395712071551302
77	0x401d95408b5ad0d2	7.395754029672576
78	0x401d955649a494c3	7.395836973829492
79	0x401d951483b6db03	7.395586069141021
80	0x401d950f9807c0be	7.395567298386764
81	0x401d9549a4872e98	7.395788737059455
82	0x401d9528ee0f39f3	7.39566394775328
83	0x401d9535a920cfb1	7.395712511661189
84	0x401d9550363bf8b7	7.395813796434758
85	0x401d95496de47451	7.395787922924755
86	0x401d9558555a3194	7.395844777708039
87	0x401d951f9eac6037	7.395628432532297
88	0x401d95542c691eed	7.395828908840241
89	0x401d951f1ed6848c	7.395626527636647
90	0x401d9545f37f5009	7.395774655004069
91	0x401d95693d363175	7.395909267838182
92	0x401d9558a7e0767c	7.395846007418751
93	0x401d95755538c406	7.395955401982979
94	0x401d954ff9fd64b8	7.395812898722561
95	0x401d95451530d5bf	7.395771342378281
96	0x401d9550161c8346	7.395813317766459
97	0x401d9500d89f54d4	7.395511040425124
98	0x401d9546ba285334	7.3957776152718
99	0x401d954c5a1e17f2	7.395799072348369

W2 f8 [100, 10]
0	0xbfbe98d396bbb381	-0.11951944761285739
1	0xbfc5bf443da88604	-0.16989949236544544
2	0x3fc0f666b464573f	0.13251956756783476
3	0x3fbc92bf694bd720	0.11161419220647106
4	0xbfc0bf74d0700920	-0.1308427827608023
5	0x3fcce768882479ed	0.2258120217092733
6	0x3fa2732a0a91983a	0.036034883298996026
7	0xbfc47f29c815efa0	-0.16013071317490546
8	0xbf93895328767ef4	-0.019078540177019
9	0x3fa3eec730d7c258	0.038931107246644
10	0xbfb6c0ca54b94ee1	-0.08887924736455545
11	0xbfc409b665c58748	-0.1565464016849154
12	0x3fc1f1a2298945e3	0.14018656757484313
13	0x3fc145be2bb5b3a9	0.13494088300958865
14	0xbfc14200e4b13345	-0.13482676664934892
15	0x3fc8cc9f6ddf0572	0.19374459137729222
16	0x3f92917ee19a22d0	0.01813314678159622
17	0xbfc4b8470d8436c0	-0.16187370452865046
18	0xbf7c4e08f45b50f0	-0.006910357454860114
19	0x3fa02ac997c5ba0f	0.03157644250574176
20	0xbfbc14d272523ed4	-0.10969271937414798
21	0xbfc40186c354b196	-0.15629658258093276
22	0x3fc2cf3f2d4012cb	0.14694966992842348
23	0x3fbedf364ec3b052	0.12059344695052346
24	0xbfc0cd9936f852aa	-0.13127436813433252
25	0x3fc8eb6d693fc313	0.19468467368235362
26	0x3f8794e9c0b0352b	0.011514497940903276
27	0xbfc30272ec6068f8	-0.14851223508669142
28	0xbf63929ed5dd2c00	-0.0023892500165962893
29	0x3fa3841fb97a8ac6	0.038117400542679244
30	0xbfbae7e2a6a498e2	-0.10510078972274386
31	0xbfc539f3bd7b2fa0	-0.16583105804454323
32	0x3fc1bea485619e1e	0.138630452277753
33	0x3fbc020d69e4a8e8	0.10940631709368953
34	0xbfbe00fc0407a333	-0.11720252130875224
35	0x3fc8102ff731b5dd	0.18799399919536955
36	0x3f9aec91a6a985ea	0.02629306392407741
37	0xbfc3c216fd5098cb	-0.15436065071953062
38	0x3f2589455e547400	0.00016430827887684019
39	0x3f998256e647b68f	0.024911268048461607
40	0xbfbde5a7f55c07f7	-0.1167855237981995
41	0xbfc48270380f240a	-0.1602306627012527
42	0x3fbfcc0b4708e0f8	0.12420721515889344
43	0x3fc0797d525d8b98	0.1287075664687023
44	0xbfbfd408d882e977	-0.12432914052889098
45	0x3fcb584d189b5b33	0.21363223744875767
46	0x3fa32301732eeea1	0.037376447020020416
47	0xbfc58d2a8b5902fc	-0.16837055019461633
48	0xbf8ff33ab27edb28	-0.015600641796351747
49	0x3fa90d7402e77bfe	0.04893076453640076
50	0xbfb9ad0ec69274ca	-0.10029690120650794
51	0xbfc5a134c90f9d9c	-0.1689821225875051
52	0x3fc11f50b2429beb	0.13376816467390937
53	0x3fbf3b7eddd680aa	0.12200158039059042
54	0xbfc1981cd54bd3d8	-0.13745460905889106
55	0x3fcb4d118f0ef4cb	0.21328944669031666
56	0x3fa3958e830b6e48	0.03825040197054058
57	0xbfc7f0eb1e1527ef	-0.18703974694136558
58	0x3f60ba387a643900	0.0020419219100694663
59	0x3faf3dd639dd6427	0.06101865249974763
60	0xbfba3c3471891cc3	-0.10248115321984401
61	0xbfc3b2a8876cb4f8	-0.15388971912890503
62	0x3fc2d5be4672a5ee	0.14714792671047355
63	0x3fc0251a40a47684	0.12613227993363207
64	0xbfbf1250f55508df	-0.12137323369555329
65	0x3fcb392669cc6948	0.212681581172385
66	0x3f99ef2b0fa4e0cd	0.02532641680701957
67	0xbfc2cd838037dda1	-0.1468967796388201
68	0xbf84ae1e9d4d1e38	-0.01009773175759597
69	0x3f9f48c4cf06c587	0.030551028381244485
70	0xbfb877a24b8160f6	-0.09557546943085868
71	0xbfc3f65954979b5a	-0.1559554732368394
72	0x3fc2809728ce9d27	0.1445492696050021
73	0x3fbe8efb9fb7bc14	0.11936924599989168
74	0xbfc0af1c82a476d4	-0.13034397486710836
75	0x3fc8c75c1f047d22	0.19358397974517866
76	0x3f9080dc26395278	0.016116561730387308
77	0xbfc4158e28666aff	-0.15690781567248988
78	0xbf8a675bab08b8a8	-0.012892452389760514
79	0x3fa2e816d18bb43a	0.03692694957667482
80	0xbfba63f3d3bd5246	-0.10308765334532052
81	0xbfc4e0e99e4a7f54	-0.16311378697445866
82	0x3fc240308e0a0453	0.14258391318802185
83	0x3fc0120aa47bc403	0.12555058509272507
84	0xbfbcbf1f6d923e7e	-0.11229130196647394
85	0x3fcb6283ddcaf7f6	0.21394394235352338
86	0x3f9b4c9f597e982f	0.026659478986083392
87	0xbfc49663510fd08b	-0.16083947618574643
88	0x3f63055e52faf520	0.0023218958156962094
89	0x3fa76e2cf810ca66	0.04576244857925786
90	0xbfbe30eb5916e674	-0.11793394970927712
91	0xbfc552e1f4267262	-0.16659187718768736
92	0x3fc2897d958bf391	0.14482087900242083
93	0x3fc00c79b476f3fd	0.12538071929694175
94	0xbfc0bdf62c1ae002	-0.13079716828883653
95	0x3fcb538cefce91b9	0.21348725995370701
96	0x3fa6372364093e43	0.04338942142623783
97	0xbfc46610f3a68961	-0.159364813776004
98	0xbf53eecb0d58e540	-0.0012166006976158245
99	0x3fab61470f718738	0.05347654403227725
100	0xbfbb79f2ad17fea5	-0.10732952810212255
101	0xbfc3fa5816471026	-0.15607739532254178
102	0x3fc0e9d74f9bd021	0.13213626277104232
103	0x3fc05a1559de1b0c	0.12774912727419296
104	0xbfbfaf40b88d6b82	-0.12376789575266225
105	0x3fcd46475a2bd1b4	0.22870723631753054
106	0x3fa4a9d71d9080eb	0.04035827861685156
107	0xbfc3a45b3e5f045b	-0.15345325990168387
108	0x3f8e062ea2c9fe90	0.01466022905628897
109	0x3f9b8297e77db133	0.026865361694420286
110	0xbfbc1f1bf80c40b3	-0.10984968953948986
111	0xbfc4aa04cab68410	-0.16143855951398267
112	0x3fc1a04f7ae3d512	0.1377047872589761
113	0x3fc01b6b1d93f4b2	0.12583674377666437
114	0xbfbd2f1335178a01	-0.11399955793562101
115	0x3fcce2744afc9480	0.22566083585221364
116	0x3fa5ba15c2bc63ee	0.04243534090182509
117	0xbfc2cd313019682d	-0.14688696716876973
118	0xbf74b8992bfcad10	-0.005058859183729739
119	0x3fa3473e83a19923	0.037652925079600295
120	0xbfbacffac01f2569	-0.10473601522894217
121	0xbfc394bb2f8b439c	-0.15297641583904642
122	0x3fbd00180a0c958b	0.11328268285122627
123	0x3fbd2c9d2fd126c9	0.11396200578124217
124	0xbfc05b38e3aa9c68	-0.1277838813450416
125	0x3fcb8e11464a55d9	0.21527305538317767
126	0x3fa16ca61eb00455	0.03403205036739424
127	0xbfc455c4d7c0e321	-0.15886745962941354
128	0x3f83dff65572dbc8	0.009704517824827522
129	0x3fa71baed53065c3	0.045133079074911396
130	0xbfb8df61fa76fc98	-0.0971585499273594
131	0xbfc40be931c3b326	-0.15661349229721927
132	0x3fc042652f222a8f	0.12702622224272317
133	0x3fbc045c8ae63502	0.10944155112357026
134	0xbfbf9424c886983c	-0.12335424323700378
135	0x3fca99e4805da454	0.207821428946121
136	0x3f962555cded5d72	0.021626797384070647
137	0xbfc50c48f8ffa964	-0.1644374099553928
138	0x3f8d78364f3f5128	0.014389442723690651
139	0x3fa19c54ce7bacbe	0.03439583797975264
140	0xbfbd37b78be32c69	-0.11413142361850394
141	0xbfc36832e40fc5c0	-0.15161739478894098
142	0x3fc1a063469c2511	0.13770714709998136
143	0x3fc149edcdf79d96	0.13506863171572253
144	0xbfbb065ec6cf4814	-0.1055659518599728
145	0x3fc9b0f548a537fc	0.20071283385408367
146	0x3fa2fdb391a8acca	0.0370918383890398
147	0xbfc30364c4f01af2	-0.1485410653696913
148	0x3f90b0fe50f751b4	0.016300176326539975
149	0x3fae37e2b0b8525d	0.05902012259699483
150	0xbfb5f89079096896	-0.08582404093741255
151	0xbfc6698de4817b32	-0.17509626061925015
152	0x3fc27b82328d9c69	0.14439418285766983
153	0x3fbcfb7ea8bf373b	0.11321250552938704
154	0xbfc03176862e4cf4	-0.1265094905071248
155	0x3fcdf448c0128088	0.2340174615719699
156	0x3f9b9f02cc1374cb	0.026973766046343422
157	0xbfc491aebcb87b16	-0.16069587912439748
158	0xbf78a54fed958040	-0.0060170290174426655
159	0x3faa602d84339995	0.05151502836979486
160	0xbfb974a58c80017a	-0.09943613701034862
161	0xbfc4e300d3f33796	-0.163177588931316
162	0x3fc16d24ffa1c425	0.13614332658792808
163	0x3fc1e0896fa73b80	0.13966482116526535
164	0xbfb9ba7c8f15c6d2	-0.10050180905616493
165	0x3fcae17871ddf0ab	0.21000581321630327
166	0x3fa158ff7cfd5281	0.033882125861656405
167	0xbfc4893bb4551186	-0.16043802552497882
168	0xbf59def2ee4d2fc0	-0.0015790340778094464
169	0x3faa7abd76932ffa	0.051717682575684834
170	0xbfbf430e5710ca3e	-0.12211694360375078
171	0xbfc358b51bb20402	-0.15114463665307204
172	0x3fc1a0fded080631	0.13772558282657735
173	0x3fc02b2d5e6c1752	0.12631766424618235
174	0xbfc12b978795f2a9	-0.13414281959912458
175	0x3fcafd013f6b65f6	0.210846096006932
176	0x3fa5771745ab925c	0.041924216513312657
177	0xbfc568128f672062	-0.167238540669362
178	0x3f888cae5ecd6e20	0.011987077968732385
179	0x3fa2b8cbbe5901e6	0.036566130624581736
180	0xbfbbcde713525c1a	-0.10861057492944362
181	0xbfc44ef9f6557a68	-0.15866016891500867
182	0x3fc2df64aa0c8927	0.14744242003605132
183	0x3fbd7d74dc8a8acc	0.11519556412035142
184	0xbfc1c7906c02b3fe	-0.13890271448090624
185	0x3fcad8d979aeacbf	0.20974272195357987
186	0x3f92776daf04f92b	0.018033708388650965
187	0xbfc38b35544d8345	-0.15268580070826424
188	0x3f8e0867f82d7d18	0.014664470921785397
189	0x3f9c8001a5db4395	0.027832055805280104
190	0xbfb7887376c06d76	-0.09192582749567699
191	0xbfc3cd2e2cbf6276	-0.15469910798016756
192	0x3fc1a4759f27f684	0.1378314044122143
193	0x3fbf30bd009fc83d	0.1218374372981836
194	0xbfc004c2a77ee676	-0.12514527491093802
195	0x3fcdc9a5c119ec15	0.23271629265568153
196	0x3fa289b6a7b155c3	0.03620692059545718
197	0xbfc65c50d5aa46ab	-0.17469225342624858
198	0xbf75374baffb6980	-0.005179687170051017
199	0x3fb0724b7975a7e8	0.06424400058099844
200	0xbfb9bfbc97434e2a	-0.1005819196027963
201	0xbfc4794f282e2590	-0.15995206319739141
202	0x3fc196a06a4c3190	0.13740925970376994
203	0x3fbc7b27f6b02368	0.11125421307236893
204	0xbfbe1d3029a8b06b	-0.11763287560523998
205	0x3fca64c539f5f1a1	0.20620026903260416
206	0x3f92415af76cfa41	0.017827435828843944
207	0xbfc5ca24d5b09b8c	-0.1702314418227754
208	0x3f844f9e7cb7be20	0.009917486363490602
209	0x3faafa0b635d0c13	0.05268893802578858
210	0xbfbe754f5c2804a1	-0.1189775085440652
211	0xbfc4ab45d5d282b4	-0.16147683086912468
212	0x3fc219caaa56fe38	0.14141209905027252
213	0x3fbba088c4d3e265	0.1079183083092033
214	0xbfbe2f50ee7a7bad	-0.11790948698261046
215	0x3fcb112d9220326e	0.21146173129126872
216	0x3fa0c1fdeaf6a181	0.03273004048543538
217	0xbfc37b59c8fdecd5	-0.1522018653302896
218	0x3f35b7790f049700	0.00033137040647300553
219	0x3faa3d539b6d0b56	0.05124913475312691
220	0xbfbf0ff03bfd5167	-0.12133695091808293
221	0xbfc3dfb42fe5695c	-0.15526439989737184
222	0x3fc1548c0b3d99c2	0.13539267109736214
223	0x3fbd7428f6ecf8e8	0.1150537112089044
224	0xbfbd1040c4fa3b6c	-0.11352925118465657
225	0x3fc9c9160c871b24	0.20144916164118698
226	0x3fa45997b8eb1fcb	0.03974603779130311
227	0xbfc4de96adcb0708	-0.16304286466589013
228	0xbf75962a78d56480	-0.005270162493013264
229	0x3faa55c0f61f8495	0.05143549923355654
230	0xbfb71d2154fdb2f0	-0.09028824162460203
231	0xbfc4bad6c5c1bc80	-0.1619518724068918
232	0x3fc26d084df1b699	0.1439524059855344
233	0x3fbfad546aab4ca4	0.12373855213381774
234	0xbfc2019717665f36	-0.1406735290772702
235	0x3fcbb717fa28ab24	0.2165250750998321
236	0x3fa6bb9a9f802e87	0.044400054903317936
237	0xbfc62fb41f7c995a	-0.17333079850613836
238	0xbf94197b2d158b4c	-0.019628452898710777
239	0x3fa0eebcd977ccb4	0.033071424051649784
240	0xbfb96c1428671495	-0.09930540071862233
241	0xbfc39ae2dd2abb7a	-0.15316425131956263
242	0x3fc1b4b4492423bb	0.1383271557936306
243	0x3fc08b9f91169c15	0.12926096519842703
244	0xbfbe003ae65dfb4b	-0.11719101070592079
245	0x3fcd1d90bf27b5ea	0.22746476491685935
246	0x3f95829669f1dab4	0.021005964485506026
247	0xbfc3f6c00af2a3cc	-0.1559677175003159
248	0xbf8ce224446d9708	-0.014103206003436522
249	0x3fa25a929c084c9f	0.035847264811445394
250	0xbfb7206ef7e3e88e	-0.09033864547737577
251	0xbfc716bf1804aef4	-0.18038166687744417
252	0x3fc209a607118b08	0.14091945023673014
253	0x3fc15173966a46f7	0.13529820293893355
254	0xbfbf5a88431aba07	-0.12247516287127534
255	0x3fcb89dce0398b41	0.21514473865962638

b2 f8 [1, 10]
0	0xbfbbd8e853d0039a	-0.10877849622921901
1	0xbfc4f7ddccc90010	-0.16381428241038565
2	0x3fc295c68db28e25	0.14519578856298768
3	0x3fbecb7656aebea2	0.12029208771013569
4	0xbfbf3c1cd35000c6	-0.12201099547383185
5	0x3fcc181019b79722	0.21948434119911392
6	0x3fa2b2f6b42f9bd1	0.03652163457427771
7	0xbfc5567dfbbd7a3c	-0.1667020301055845
8	0xbf627b87cf1b5200	-0.0022561695594538467
9	0x3fa589f3ee1629a8	0.04206812173204649
