experiments/exp_batch_20250114_141918/exp_h25_lr0.1_run1/model/weights.npz (npz, 160046 bytes, 4 tensors)

W1 f8 [784, 25]
00000000: 4396 a3a4 6ee5 933f b369 436d b1c8 78bf
00000010: a816 37ba 24a7 69bf 418a 26b8 3b87 68bf
00000020: c098 0ea4 5fbc 76bf b7de f903 89f8 92bf
00000030: b363 5c18 1821 8d3f a3dd f768 f706 6e3f
00000040: 4edc 30be 20bc 443f 7505 f6bf 994e 753f
00000050: ef2c 56f3 bb3c 843f 6744 231e 04ec 843f
00000060: ff40 d351 6501 8bbf 4d4b c24c bc37 79bf
00000070: ef90 4ed1 f919 843f 0159 8bde c511 943f
00000080: 3b37 ee46 d6af 85bf 2061 49c5 68ce 72bf
00000090: e156 8cae a421 3ebf 5f57 0fd3 172c 7abf
000000a0: 0462 0786 48cb 7b3f 1cd4 af3a 8764 913f
000000b0: 94d5 5ee1 74e1 803f ca72 6c57 6735 543f
000000c0: 6ff8 7e75 635b 72bf 23e7 e53f 043d 35bf
000000d0: 9c23 a290 c5de 64bf c778 fdcd 883d 6abf
000000e0: c782 c329 e0dd 8a3f b110 ddb2 23c7 16bf
000000f0: 19e4 e57b 69a8 70bf e8ed dc4b ee86 6ebf
00000100: 3ccc adac 33f5 8f3f b069 46ab 72d0 3dbf
00000110: eee7 0e23 3a56 6cbf eca6 3d54 7a43 8c3f
00000120: d162 4b58 94f3 7bbf f67b 3094 e9d8 8b3f
00000130: 3259 f023 da2e 773f 89a1 e1a2 32c9 78bf
00000140: d7dd 4e82 c232 7e3f 8186 485e ec4d 803f
00000150: 0143 424f e959 84bf 41b6 4cb6 b1d5 703f
00000160: 76b1 0b05 fbb3 95bf 9e54 4b72 6449 703f
00000170: 430a 1070 4b1f 7cbf 9547 540c bf15 873f
00000180: fa4b 104c 1d0e 8d3f fc9e 34a0 aded 59bf
00000190: c1ec 2a00 4d8b 763f 3a1e e606 8149 73bf
000001a0: 2e30 6039 56bf 75bf 6e38 ba98 447e 87bf
000001b0: 679b de1a 82d2 86bf e1d9 9123 0b59 58bf
000001c0: 0822 ee7e 0196 8f3f dc9b 7407 edb8 67bf
000001d0: dedc e1fa 11e5 803f 5c2d 8d27 0966 773f
000001e0: aea7 7b0f a4ed 62bf d30c a044 11de 91bf
000001f0: 4aeb e723 6fec 523f 60e8 0d80 a961 79bf
00000200: b8da f655 6a4d 8abf f23a bed2 1d7e 763f
00000210: 4a6e 9e88 b0df 713f 8e1e 7d33 3404 46bf
00000220: 770a c0cb 6629 63bf 0c55 2e46 7532 62bf
00000230: 36f5 76e0 a808 8b3f 076b cfb4 d882 2f3f
00000240: a73a cb3a 0cac 62bf 1bc4 b848 30b9 823f
00000250: e7f2 bf37 3ebb 76bf e807 ab24 80a6 693f
00000260: 2d02 c33d 3400 973f 8ddf 69f2 81bb 8c3f
00000270: 2fe2 626b 3d60 65bf 5235 ae2f e229 933f
00000280: eadf 00e8 4079 453f cd27 a0d3 1c32 5c3f
00000290: a434 56d5 6767 62bf 5b58 1b81 4a8b 783f
000002a0: c910 16cb 4e88 96bf 61b7 0420 8da3 90bf
000002b0: e04d 01a3 ce9d 75bf 7a50 484f 79d3 7cbf
000002c0: 1b58 7b4b a0fc 763f 1657 007d 1218 72bf
000002d0: b78e 21d7 4d64 943f 158c 79f0 d002 873f
000002e0: 97d6 30c7 d92b 41bf e075 0007 246d 6ebf
000002f0: 0fb3 5560 7980 84bf 1ffc bda4 834b 863f
00000300: b27a 97bc af01 74bf b9ab 4713 5aba 923f
00000310: e813 90a5 459a 783f 45a6 1c66 cedf 81bf
00000320: ec73 8363 f614 7b3f 7ad4 a2d4 b247 753f
00000330: f854 9f44 751a 5abf 5c79 a99f bb8e 773f
00000340: 914a 7d5f ae05 8f3f de4c a8d4 b6fd 7d3f
00000350: cc28 0cfa 8a7b 63bf ba19 9455 1da1 783f
00000360: fcc6 3b04 e688 86bf da35 5275 d523 8f3f
00000370: cc50 9269 2fe3 93bf 0169 7ff6 ef61 873f
00000380: bb2d d166 d8d6 65bf 685e 9c97 31bc 743f
00000390: 72e1 3928 5de1 87bf 9523 2cfb 34ba 873f
000003a0: c9c0 d271 cf03 64bf ee01 02f6 8b1b 593f
000003b0: 9214 d9eb cc29 853f b8c6 9a9c 689e 6ebf
000003c0: 7391 573f 9abd 84bf d826 4e4d 6477 7bbf
000003d0: b30c 8783 2492 78bf 450b f716 88f7 67bf
000003e0: 173a 838e 623b 473f 7103 cab9 7052 6dbf
000003f0: c6ba c5c5 f8ee 61bf 87d7 65ad a63e 903f
00000400: 68d1 49f6 c3c1 91bf c04f a84c 9881 7cbf
00000410: 0555 34ac c56c 83bf bc62 8c37 48ca 8dbf
00000420: eea9 49da c755 45bf cfc1 3093 36d4 513f
00000430: 57cb 24db ffc3 6b3f 4c1e 3fea 6ec7 7cbf
00000440: 9a32 5aeb 5710 8d3f 3554 03c7 028c 48bf
00000450: 8365 ab57 84af 7dbf 816c 2f65 f864 65bf
00000460: 4e8a cd01 f848 1fbf 23b9 0a01 2c2b 89bf
00000470: d0cd c229 b7e2 6cbf 33c1 9c38 50da 6cbf
00000480: 0ca9 d928 cbe8 8b3f 550d f9d1 2ef7 8f3f
00000490: 2f59 d377 9dbc 833f ead3 41fe 55e5 1dbf
000004a0: 68df 0ef1 94b3 61bf c0fa ee17 5424 5d3f
000004b0: 87f9 bb05 a076 82bf 00e4 9fac 84ce 6dbf
000004c0: 8904 441a 47fd 8fbf 0910 f6d5 c95d 853f
000004d0: bb10 f74a f2ba 6abf 403a 6750 a84d 8a3f
000004e0: 251f b7f5 4096 73bf 48ba fe14 f348 85bf
000004f0: 0546 7a19 52c3 3bbf 48d1 2c25 c82d 95bf
00000500: 3512 b8d2 423f 84bf 91bb 2cb7 ecd2 803f
00000510: ec1b b281 11fb 80bf 57f3 6482 6f6c 433f
00000520: 0eb8 a3a9 ed08 5a3f 93a0 e539 350a 7d3f
00000530: a355 e32b f834 80bf 0c3a 2eaa b78b 8abf
00000540: 637b ead3 1ae7 84bf 8576 2398 7313 543f
00000550: ed12 4d9c f6ad 913f 87aa 8f4d ecc4 5e3f
00000560: 3876 9c86 596e 95bf a32f ac2e 14d5 6f3f
00000570: 38e9 c17f d5d1 74bf 5e1e 1df2 59e1 6b3f
00000580: d397 dd76 874c 8abf 0ef2 a5b4 a58c 45bf
00000590: 4ebf 8b3a 09e0 8a3f 7844 443d 95ba 7a3f
000005a0: c94b 440b aa02 7cbf dec6 fca7 db84 853f
000005b0: 3b48 c6c1 95f2 723f 5557 199d 548b 613f
000005c0: f500 eeab c3cb 883f 8dd2 3e6a f161 563f
000005d0: 10fc 98a6 18b7 91bf 3b46 76b5 f074 4dbf
000005e0: db63 39dc f321 76bf 555e f003 5c4c 71bf
000005f0: 7541 a436 17ac 76bf f5d3 8bd0 f3af 6dbf
00000600: 8158 f702 f72e 6d3f 2d3c 11c2 db78 86bf
00000610: e361 eeb3 8d27 7bbf c385 57fd 7c9f 97bf
00000620: 98c1 f8e2 122f 5dbf ec98 2478 b6bf 7fbf
00000630: 137c cb1b e3ee 93bf b8fe 396e 661c 94bf
00000640: 384f f7ea a6ee 78bf 96fe 2c2d 6d1b 673f
00000650: cea2 4a8d c1cc 763f da5c c692 6ffe 8c3f
00000660: b16f f566 bdd5 8abf 2055 3094 fbd9 81bf
00000670: 9380 bbc4 5832 84bf a4fe 6a31 c94a 813f
00000680: e427 3d0f e881 94bf d231 ef8d 77fe 733f
00000690: cb3e 7855 c1e7 60bf 5324 29dc a8fb 743f
000006a0: 43f2 af56 0266 6c3f 1fec 584d ba0e 923f
000006b0: 3a5e e155 2a1e 7cbf fe3a c9fd 0944 913f
000006c0: 5b29 9b4f 45d9 8e3f 37bc 3f7d edfc 59bf
000006d0: 96d9 bfdb 167a 753f 80f8 31ac 7c97 713f
000006e0: e508 c5c8 2ec1 68bf 0e57 c5ab 5ba6 7a3f
000006f0: f3c9 a6ef 0e18 8bbf 6dfd f7e7 847c 7dbf
00000700: 7bdc 4399 b4f7 723f 7255 971d 5069 6dbf
00000710: 1cc1 c30f 29d6 723f e127 38eb 4807 01bf
00000720: f3ff 5614 200e 52bf 2507 8834 7487 5e3f
00000730: 3a50 9bb9 0c7e 92bf db99 42e7 2e98 803f
00000740: 8e0f 4f12 0e1e 91bf 68cc e70d 23fe 973f
00000750: fc73 b3fb a29b 943f 76f1 67a0 90fc 1ebf
00000760: 9b69 2816 e082 77bf 97b8 e089 5ddb 55bf
00000770: 08a6 f6bd 1664 8e3f cd17 f157 d30b ef3e
00000780: 95f9 2acc 27a5 7bbf 33fd 161c 8261 71bf
00000790: 4e2f 118c 12e7 6cbf 6795 90e5 712c 92bf
000007a0: 80ad b79f 2384 68bf ac9b 8eb1 c429 703f
000007b0: 367d c2d2 4475 913f 325d e105 a49e 883f
000007c0: 77d4 322b 24a6 92bf 8532 0a6a ec70 913f
000007d0: a980 4342 38c5 8c3f 239c 1831 9621 8b3f
000007e0: 81c5 f640 f3ad 81bf e70f 0e2c c30f 53bf
000007f0: 0255 52f4 7830 83bf 168c 49ca e03e 8dbf
0.019429901884811206 -0.006050770829654817 -0.00313145802803912 -0.0029941717522928017 -0.0055507408114065515 -0.018526211612395396 0.014223278277812534 0.0036654312350454395
0.0006327781560519026 0.0052019124844958535 0.009881466258568198 0.010215789956790467 -0.013186255988700156 -0.006156669183968355 0.009815170002021449 0.019599048336055528
-0.010589288749340056 -0.004591378460269163 -0.00045976896812881084 -0.006389706672924904 0.006785662932508266 0.016985047299346787 0.008242524268875319 0.0012334355539628688
-0.004481686126324032 -0.00032407144308131875 -0.002547632092561659 -0.0032031700101660984 0.013118506693389332 -8.689074885831722e-05 -0.004066860243590952 -0.0037264494157207458
0.015604404170266865 -0.00045492934739290846 -0.003459085034106294 0.013800578780962046 -0.006824092361704629 0.013597321352845509 0.005659916029819011 -0.006051252172348484
0.007372627068370239 0.007961126925752684 -0.009937117320335089 0.004110044658586499 -0.021194383795703563 0.003976242417327884 -0.006865782431307257 0.011271946491010524
0.01418707741144053 -0.0015825458111268778 0.005503941329773444 -0.004708770762938347 -0.005309426129326096 -0.011471305762168007 -0.011143700070375307 -0.0014860733774902867
0.01542283218965769 -0.002895796725755668 0.008249416798419448 0.005712543258435811 -0.002310581617952465 -0.017448682607221166 0.001155003104598778 -0.006196653471187558
-0.012842970608159518 0.005491367814001379 0.004363717636717343 -0.0006718878639526292 -0.0023390777332690754 -0.00222132592302649 0.013200110769384748 0.00024041076031163669
-0.0022793043957343886 0.009142281741420224 -0.005549662626432839 0.0031311514661362845 0.022461715955389195 0.014029517374396306 -0.0026093673323795068 0.018714460525690875
0.0006553236889947887 0.0017209321508766418 -0.0022465732569743758 0.0059922132802140106 -0.022004347939870415 -0.016248898581742725 -0.005277449774513582 -0.007037614694599731
0.005612016822587075 -0.004417488307827863 0.01991387963825161 0.011235840166767411 -0.0005240262384009373 -0.003714151731414303 -0.01001066994896285 0.010886219468146106
-0.0048844208444893 0.018289000918155305 0.0060065002990130414 -0.00872765778656793 0.006611788230853382 0.0051953301973998115 -0.0015932221599446721 0.005751355080603506
0.01514755467329579 0.007322038824457892 -0.0023782457723245717 0.0060130258436913945 -0.011003300670811005 0.015205066340309981 -0.0194213302789457 0.01141726943017263
-0.0026659227938005937 0.005062288016936735 -0.011660316267111812 0.011585630335973632 -0.002443223157193673 0.0015324465566949291 0.010333634326466421 -0.003737644500540007
-0.010127263124510155 -0.006705657772622074 -0.005998747474623633 -0.002925649452408948 0.0007089835389935709 -0.003579349677523096 -0.002189145931132816 0.015863994916308435
-0.01734071913456728 -0.006959528846454732 -0.009484810178529654 -0.014545978732301783 -0.0006510949938960933 0.0010881932219143247 0.0033893582523431376 -0.007026131879633701
0.014191328878291377 -0.0007491124688622288 -0.00724746414444988 -0.0026116229505369075 -0.00011934293475016866 -0.012289375097080118 -0.003526075115667139 -0.003522068674009082
0.01362761228957201 0.015608182700026655 0.00963709852150582 -0.00011404359207907414 -0.0021608265892289376 0.0017786809182635394 -0.009015321898456786 -0.0036385146422586168
-0.015619807709756255 0.010432793466641515 -0.0032629711419947783 0.012843432382308895 -0.004781965016668531 -0.010393046453683344 -0.0004236293257032511 -0.02068245627306567
-0.009886285834917444 0.00821480688099799 -0.008291374941348871 0.0005927605132352948 0.0015890427517280012 0.0070898131510618466 -0.00791353115020394 -0.012961802369116725
-0.010206422416840949 0.0012253407335757482 0.017265179910526497 0.001878004803297502 -0.020928763237966858 0.0038857835946881233 -0.0050829257780782774 0.0034033543351233283
-0.012841280283918543 -0.0006576356038717217 0.013122627352884966 0.006525595632653418 -0.006838478311936799 0.01050731283575906 0.004625878322615458 0.0021416332827283537
0.012107399639490238 0.0013661248749318484 -0.017300019424734414 -0.0008989501319993162 -0.00540347345266753 -0.004223212657073446 -0.005535212209239017 -0.0036239397053301433
0.003562433666711107 -0.010972706661190735 -0.006629518057615222 -0.023069336855660937 -0.0017812427939923655 -0.00775119092057806 -0.019465969630683654 -0.019639587857908508
-0.00608697130470031 0.002820695147789663 0.005566364347637088 0.014157172838891108 -0.013102988915015464 -0.00871655031191182 -0.009861653808400461 0.008443424053779687
-0.020026803903682736 0.004881350526329391 -0.002063634495932697 0.005122813805948106 0.0034666104961600676 0.017634306879909297 -0.006864705441408209 0.01686111079680596
0.015062848560223932 -0.0015861815672868604 0.0052433865457629705 0.004294859888544278 -0.003021804214001655 0.006506307687535585 -0.013229481400093035 -0.007198828854142786
0.004630761588706562 -0.003590256191027202 0.0045987705200192484 -3.247920303912889e-05 -0.0011020005489257273 0.0018633494202053371 -0.01805896647313452 0.00810276644945145
-0.016716213099939696 0.023430392955514995 0.02012495671521107 -0.00011820442896487933 -0.005740046823598989 -0.0013340390646692562 0.014839341804719033 1.4803978727450426e-05
-0.00674930139456222 -0.004243381730190609 -0.003528152680280095 -0.01774766887333126 -0.0029926963595607314 0.003946083387666482 0.0170489076268698 0.012021333150342348
-0.018211903702383538 0.017032331440122412 0.014048041841704455 0.013247655270857866 -0.008632564945261436 -0.0011634260156094757 -0.009369797664741334 -0.014280086682623188

b1 f8 [1, 25]
00000000: d88c 1f31 b6a7 d73f ec55 720b c8a8 d73f
00000010: b632 d6a8 0ca6 d73f 8811 d2b6 06a6 d73f
00000020: d1be f696 17a9 d73f ad06 1493 57a9 d73f
00000030: 26a3 8c83 c5aa d73f b982 96a8 0da4 d73f
00000040: 4ffd c15b fba6 d73f 79ac 9c0a c7ab d73f
00000050: d5fb 2197 69a9 d73f 35b2 5506 beab d73f
00000060: f7e9 e615 efa5 d73f 06fd f24a 52a4 d73f
00000070: b5a4 429f 26a4 d73f 22c7 29dd 5ba4 d73f
00000080: 26f1 706c 05a6 d73f b269 db43 e7a3 d73f
00000090: 389b a7bd 48ab d73f cd15 35c5 57a7 d73f
000000a0: f915 3851 36aa d73f 68e9 e6c4 3ba9 d73f
000000b0: ea48 c5f0 3ba5 d73f 03d3 8ce4 aea8 d73f
000000c0: 2874 72f7 dea7 d73f
0.3696113090247315 0.36967660062631924 0.36950985420188986 0.3695084367139079 0.36969556562961 0.36971082079990475 0.3697980675374758 0.36938802207627536
0.3695667644569384 0.36985946689919263 0.3697151161103965 0.3698573171484754 0.3695028032194893 0.3694043857503434 0.36939397385374245 0.3694066676899742
0.3695081290241141 0.36937886835735434 0.36982935448616017 0.3695887971738017 0.3697639268069391 0.36970419148169364 0.3694600917125529 0.3696706039366264
0.36962103047136674

W2 f8 [25, 10]
00000000: 12b5 16fb 974e 823f 8e44 ad33 3a94 81bf
00000010: 2284 a857 391f 8f3f a8f4 973e 84ad 763f
00000020: b626 8ef4 b4cd 92bf f4c2 b7d0 62cd 9b3f
00000030: cdb7 de97 606e 6a3f 58fb 5604 1eb4 9bbf
00000040: 0860 26f3 39e6 953f 1eee 74f3 a15b 73bf
00000050: eaf9 9e24 69b4 973f 880b 8e11 1fac 443f
00000060: 7c88 f3a1 aec1 8d3f 12d5 84bf 8eff 86bf
00000070: 2f7b db66 32b4 90bf 0e7a 30a3 a847 92bf
00000080: 3e02 a263 4cc0 673f eb9c 3fe2 dc09 7abf
00000090: 66a3 0545 7c5f 51bf f640 1b13 b202 70bf
000000a0: 03bb 0257 72bc a73f 0496 7de1 9989 8abf
000000b0: d0eb a4c3 7afa 303f 4040 e1ed 9505 89bf
000000c0: 1cd6 0f22 6684 823f d963 bb29 5792 723f
000000d0: 9b9a da43 7796 6e3f 886a fb3f 8ee0 94bf
000000e0: e8df c11c c10e 60bf 241a bfb5 153b 7b3f
000000f0: 7817 6582 fd67 5a3f f8f1 7479 8668 703f
00000100: a498 7328 804b 8b3f 122f bb61 0ed8 45bf
00000110: 7019 141d 634f 44bf d004 1fef 8b01 77bf
00000120: 77df 1534 8f9c 58bf 00e5 bc44 82ab 25bf
00000130: ce0f a873 0290 8fbf 8306 d87f d3c2 82bf
00000140: 963d 2d14 3b6e 9cbf 311f 3f7b 2015 913f
00000150: bbd9 135a 47c0 a23f a063 f087 2716 823f
00000160: 0419 ec74 6071 89bf faf2 0de0 f755 783f
00000170: 582a d0b3 3f87 6bbf 2386 6e38 1f26 9bbf
00000180: a2ad 5351 acc9 743f c26d 2966 7264 88bf
00000190: 4fde 54cf 70c1 78bf 6954 c40e 86ac 993f
000001a0: 0669 8814 fc87 773f cc2b 00e9 a266 a0bf
000001b0: a8e6 81dd fb7d 89bf 0e29 912b b484 8b3f
000001c0: 4548 dc4a 5351 843f 6ea4 d05d ad1b 97bf
000001d0: 828c 66b8 0462 6bbf bcb9 80bf e833 61bf
000001e0: be36 e840 bead 3fbf 5e5d e090 7252 903f
000001f0: d3df a944 e8e8 903f d3e2 d779 dedb 94bf
00000200: baf6 5e3b b7a6 963f 310a 39a9 4ccf 84bf
00000210: ac53 42d4 aea1 9d3f 1a3a 9e17 4def 93bf
00000220: 934b 0b25 8b85 613f ee21 25d5 3d94 86bf
00000230: 79c7 9ade 32c8 8bbf d8b1 3370 c6ea 923f
00000240: 480c 6a76 af1b 733f 5848 b053 4176 95bf
00000250: e214 d49c 77d7 683f addf ee29 82a1 7ebf
00000260: b19e 4231 3085 9b3f 55fe 2084 5886 853f
00000270: f262 54e9 f4b2 67bf 6d6e 7b78 b5c5 923f
00000280: 284a 8a72 264a 8abf 50ee 83d7 9fb7 9b3f
00000290: 3e3e bfb7 56f7 843f ec14 b2ff 2d70 7cbf
000002a0: 40c5 4e48 faaf 623f 90ff d4ea b246 74bf
000002b0: 09b4 d023 7822 5a3f 0ab8 6ac4 e921 86bf
000002c0: a503 6649 473d 65bf 16bf 66c0 fa5a 7c3f
000002d0: 90f1 715c 1cda 8abf b2b3 93d9 5e0d a03f
000002e0: ae52 1582 338e 9b3f 6bf2 16e1 8d81 97bf
000002f0: 3ef8 869b c67b 62bf cced 6936 cd9a 8abf
00000300: 5774 9cdd a15d 4ebf 8c03 1d06 6dd0 9cbf
00000310: 341d 9cdb edd0 89bf 8803 628d 4f62 7bbf
00000320: ee32 2bfa 2293 91bf 9328 41b9 84b8 aa3f
00000330: 12b3 1362 7b9a 943f 0317 860c ae66 8e3f
00000340: 2739 cbc9 b1a9 97bf 00da f071 2557 4d3f
00000350: 3a45 7ece b49a 783f c804 cc81 ac51 8fbf
00000360: d325 0bf6 f260 933f 72cb c7f5 1850 91bf
00000370: f8c3 8d62 58e0 973f d523 2daf e845 713f
00000380: 863a 5b29 7259 a03f b86b b9a0 b665 91bf
00000390: a04c 84ab 913c 90bf aebd 955a 84b5 93bf
000003a0: 6436 990e 165a 5fbf ecc2 ec28 ec89 a1bf
000003b0: 94e9 91a0 fcd5 84bf 8217 b4aa 455f 83bf
000003c0: 704b 7e1f f30e 90bf fce8 c6d4 97b1 543f
000003d0: 3072 72b5 dee3 853f a209 8503 d906 8bbf
000003e0: 641e 56c2 b008 6a3f 0264 05da d37c 80bf
000003f0: 6856 4d8d 3530 7a3f fb98 600e 01e2 74bf
00000400: 3164 9faa 3c7a 71bf 3e6b c739 2f0b 7cbf
00000410: 255d 023d 129b 803f a432 fe1b 37e2 603f
00000420: 449b 52f7 19d3 62bf f175 3d64 ce31 95bf
00000430: 7487 66f9 8ee5 923f 1a3d 4af6 631c 883f
00000440: ceca a2c9 3d7d 75bf ff87 36da e6e5 953f
00000450: 59d9 e1a0 f4f9 82bf cc4a f0b2 66d9 53bf
00000460: b0b9 f711 35cb 7e3f 1410 eb87 d719 7b3f
00000470: 1a8b 1351 51ee 80bf 293c 6737 cce5 72bf
00000480: 137d e38c b5ba 8cbf 6f7d 2c86 39ec 8c3f
00000490: 1013 0c24 c5da 8cbf d510 5142 bee8 6a3f
000004a0: 226d 43a5 db5f 443f c4a1 bf7a 4103 93bf
000004b0: c747 4a27 15c0 9abf 102e 985f c5ac a43f
000004c0: b4c5 373e c610 883f 4d91 deaf 46aa 803f
000004d0: 0af3 400a ea48 8dbf 7ab5 e34e e088 81bf
000004e0: 0cca 9cf4 610b 98bf 0bf3 c475 12ab 603f
000004f0: 4490 6215 b7a4 80bf 7520 5463 ce51 823f
00000500: d411 c107 b97d 79bf ba87 d6dc a600 91bf
00000510: 617a a5a6 d80a 77bf eadd cf57 999e 96bf
00000520: 911b 7dd3 eabd 60bf ee02 cafa 330b 7b3f
00000530: ec26 e8db e14f 853f 8861 386f ec4a 6fbf
00000540: e972 f744 7571 77bf d2f8 f532 ce6e 5abf
00000550: e09d e485 ea26 893f 6497 7db8 37d8 6d3f
00000560: 7e6a 7cc1 4f7d 99bf 906e 39f1 45c1 81bf
00000570: c058 f8e7 2243 42bf 56fb 15bc 1636 963f
00000580: 0bcc df0c 6942 91bf 4050 f5bf 2341 373f
00000590: 50b0 6863 eda1 493f 9d86 fea0 9297 83bf
000005a0: 0bfc 99c3 d881 9d3f 54a7 27b9 d87c 6d3f
000005b0: c6c0 5390 bc4c 923f 0c96 0e52 243e 77bf
000005c0: 0a4c 6e96 4523 90bf ae45 a800 17c6 83bf
000005d0: 3bd0 7801 e5ff 963f 8003 dd76 b19a 8cbf
000005e0: 0438 4f16 b934 5fbf 9b3a ae7a 58d4 91bf
000005f0: 71a3 ae76 7e11 723f daa7 0986 adbe 943f
00000600: 0005 230a a43b 823f 72dd dd4c 9774 5d3f
00000610: 4e20 0bc1 903f a1bf e069 0ed4 c491 453f
00000620: 152f 690a 1a6c 80bf 385e d671 d7b4 82bf
00000630: a852 c94e 5ac2 92bf c068 ed0d 2f11 9abf
00000640: 1fc5 8e38 4fdb a53f cf9d 29a4 89ac 7dbf
00000650: 8e33 8cff 975b 973f 723b 640c 276b 89bf
00000660: e61b a733 b75e 92bf 04a3 311d bb2d 61bf
00000670: 94b5 632a b730 7cbf baf5 fe54 ad4e 95bf
00000680: e8c6 22c2 2527 9c3f a6a6 bf9c c55b 74bf
00000690: 8ba6 ccf7 b76b 953f eda6 eb97 8096 9f3f
000006a0: 1244 6b68 1314 86bf ea4a 43d9 439d 78bf
000006b0: 5450 3e03 fa59 8abf 6af7 a1bd 0f62 643f
000006c0: 92c8 6dcf 02d5 7bbf de61 8c36 d6cd 92bf
000006d0: 7c51 0284 6c36 823f a88e a59f a77d a1bf
000006e0: c4e5 c2fe ae0d 94bf b5cb 9be8 519d ab3f
000006f0: 38ed 8ff6 710f 813f faca b82c b29f 7e3f
00000700: ec67 1a15 cb56 84bf d4af 70f4 2f0b 693f
00000710: 2ca0 c834 b2ba 853f 0a17 11b5 07db 803f
00000720: f0ac 201e 988c 673f 4c0e 1fb0 801b 5abf
00000730: 61ba 95ed 8d1d 8cbf b858 1f78 ae74 53bf
00000740: 3287 e384 fedd 9a3f bbb0 fcd6 9a0d 94bf
00000750: f252 64ad a0fd 89bf 875d 992f 726e 81bf
00000760: 346c c13e 1f67 753f e833 b974 3562 6abf
00000770: f2b2 ba9c fb70 433f a034 5711 411b 48bf
00000780: ae73 8fa8 20aa 8b3f 00a8 082d abe9 783f
00000790: 6291 303e 3886 863f 9231 a600 17db 89bf
000007a0: 1e61 2d11 55dd 93bf 30fa 4347 06f3 3a3f
000007b0: bc86 d742 72ba 7f3f 6216 18be 5c7c 64bf
000007c0: f626 133d f505 793f 721b 7ff4 d7ba 5bbf
0.008938968038672477 -0.008583502485324492 0.01519627379190253 0.005536572055914103 -0.018362834383458725 0.027150672902226128 0.003226460131336295 -0.027054280295256333
0.021386056390468894 -0.004726059552293131 0.023149149761360656 0.0006308700277347515 0.014529575650559894 -0.011229624957744853 -0.01631239655295785 -0.017851481399811013
0.0028993122078307112 -0.006357062175062138 -0.0010603631563645632 -0.003908820728341525 0.04635960876600189 -0.01295776576416597 0.0002590703694697579 -0.012217685052888894
0.009041593470082758 0.004534092407731693 0.0037338570972054847 -0.020387861876637575 -0.001960160419965707 0.00664814453552379 0.0016117072751326827 0.004005933085235551
0.013327599749072334 -0.0006666250441979846 -0.0006198152497354625 -0.005616709344338847 -0.0015021704169537445 -0.00016532864753474735 -0.015411395220333104 -0.009160663928017293
-0.02776424704216892 0.016682155153630866 0.03662322020129546 0.00883131869891135 -0.012423280304130653 0.005941360724020179 -0.003360390108814653 -0.026512611216850012
0.005075142970990683 -0.011910337202769909 -0.006043854392650496 0.02507218804483494 0.005744919479662386 -0.03203305334326209 -0.012447326371545955 0.01343670614200623
0.00992074081617401 -0.022566517687810643 -0.003342637271275318 -0.0020999475346094847 -0.000483378361338587 0.01593951234107515 0.016513470831767862 -0.02036998385117068
0.02212034511443648 -0.010161017336149577 0.028937083916918446 -0.019467548910649148 0.0021388738317482197 -0.01102493578641003 -0.013565442484239064 0.01847372112108467
0.004665074730499326 -0.020958920224139227 0.003032430284863539 -0.00747824521288713 0.026875260359388423 0.01051015046334595 -0.0028929503847731014 0.01833232448448856
-0.012836742754449196 0.02706765892888391 0.010237386209978824 -0.006942920382362088 0.0022811783150805953 -0.004950236221077278 0.001595132183193517 -0.0108068717066452
-0.002592696411000311 0.00692270231085936 -0.013111325808716129 0.03135200887650259 0.026909642042783836 -0.022955147612935194 -0.002256286530808032 -0.01299057314212506
-0.0009266891822538131 -0.02813883161366308 -0.012605531944713456 -0.006685553313332877 -0.017162844199264997 0.052189014066770366 0.02012055193056301 0.01484428382606096
-0.023108270589369397 0.0008953984105407042 0.006006914401852465 -0.01529249926670885 0.0189245188401282 -0.016907110215423633 0.02331674672626957 0.0042170609693323495
0.03193241839254761 -0.016989568290550955 -0.015856052487902006 -0.019247119931092342 -0.0019135680580747655 -0.034255390163144245 -0.010173772478300681 -0.009459060928303623
-0.01568202857704243 0.001263044617287933 0.010688533699345276 -0.013196654720222526 0.003177972061795308 -0.008050589648222587 0.006393632113789495 -0.005098346830015861
-0.00426696489190541 -0.006846603846919317 0.008108274924139078 0.002060992846912706 -0.002297926631018939 -0.020697808139962196 0.01845382115573764 0.011772900537180098
-0.005246392591447614 0.021384818142571756 -0.009265814933524895 -0.0012115004462926347 0.0075180123380804015 0.006616441648194655 -0.008267054831269816 -0.004613683433901485
-0.014027994501189888 0.01412243786540898 -0.014089145815441323 0.0032848087307987086 0.0006217787254415889 -0.018567107312181155 -0.02612336208637325 0.04038063804554437
0.011750744603861253 0.008137275926693244 -0.014299229085844373 -0.00856185189010249 -0.023480921320876688 0.0020346985385500996 -0.008126669254416304 0.008945095449704102
-0.006223414206094142 -0.016604048947222096 -0.005625578205892796 -0.022089382156961358 -0.0020436846206481414 0.0066024809317475185 0.010406269572757997 -0.003819906030695989
-0.0057234364353149015 -0.0016133321440459547 0.012281257830706716 0.003643139676500805 -0.024892088112304915 -0.00866942064674639 -0.0005573196830848323 0.021690707425928345
-0.01685489789083409 0.00035483477400544486 0.0007822426912915768 -0.009566445863870949 0.028815638483589406 0.003599570548648604 0.017870851811438347 -0.005674497487154106
-0.015759551340647028 -0.009655170161780937 0.022460535254325214 -0.01396692890159712 -0.0019046599857008859 -0.01741159676344726 0.0044112148270095556 0.020258628183377293
0.008902818259573397 0.001797816995773829 -0.033688090863109296 0.0006582461429503438 -0.008018687670435601 -0.009133990441838255 -0.01831952196001177 -0.025456176018771925
0.04268882336999468 -0.0072446228610724825 0.022810339901343783 -0.012411408486995266 -0.017939436462054113 -0.0020970015116755798 -0.006882396212160375 -0.020807941735019965
0.027493085836517134 -0.004970333025974638 0.020918726443744744 0.030847558281414434 -0.01078047907268068 -0.006009354623716526 -0.012866929267865292 0.0024881656109404975
-0.006794939973462049 -0.018363329963081536 0.008892867830845523 -0.03416179488956789 -0.019583448695561292 0.05393463100872201 0.008330240571004496 0.007476516718770249
-0.009931170064465498 0.0030570923440986584 0.01061000083525706 0.008230266774386336 0.0028746577309185437 -0.0015934712141508931 -0.013728245556845655 -0.0011874870110566826
0.026237465725791505 -0.019583148357171547 -0.012690787593365258 -0.008511440351113076 0.005225297976802646 -0.0032206577359716777 0.0005933025908767249 -0.0007356708253439988
0.013508086341909333 0.006082218795691929 0.010998191259269322 -0.012624911982833695 -0.01939900319425291 0.00041121390610490954 0.007746168453623244 -0.0025007068040874695
0.006109197581460659 -0.001692496198289564

b2 f8 [1, 10]
00000000: ca38 511b c6a6 603f 0095 80a3 ddf8 953f
00000010: cad0 a471 1c04 923f 6178 ebb4 ed66 88bf
00000020: 3e03 d098 cd61 76bf 8096 5c48 b32e 35bf
00000030: edae 6a02 05d8 773f 9c17 6907 48c3 90bf
00000040: 9491 6596 be9d 63bf 7f7c 5262 5e60 85bf
0.0020326489707605854 0.02145716009558374 0.017593807636516336 -0.011915070613607694 -0.005464366066917857 -0.0003232181264699388 0.0058212466889633165 -0.016369939281751664
-0.0023945543681966417 -0.010437714934879104
