experiments/exp_h25_lr0.01_run3/model/weights.npz (npz, 160046 bytes, 4 tensors)

W1 f8 [784, 25]
0.002138670861855643 -0.0023831278983536125 -0.011129434208394537 0.02222845872717736 0.001062060201378676 -0.0034727081570861363 0.012047852870769135 -0.02078501125190039
-0.00678790481729088 -0.005219653215832516 -0.009584307833800204 0.0015143983851168548 0.00585481572175936 0.010018360748752656 -0.002820733162248648 -0.010071052812940023
0.010638875713741912 -0.007834357378559639 0.004750856823008431 0.0018287839346785254 0.00684413314969633 -0.001523029660630862 -0.0034082484495326464 0.002634074385923802
-0.019046111379571493 -0.001853493359202157 0.008975777699227009 -0.004180535851121728 -0.0015551202121033172 -0.0032622710196732094 0.012921449438446832 -0.0059985904308183565
0.009737382864322712 0.009094214810197305 0.024903037348826408 0.015574206302191857 -0.0060357095261072335 0.005036023936955658 0.004587651705033444 0.015566005202462825
-0.012179882852543133 0.00634686245420884 -0.011442728798079872 0.004815057966749966 -0.013588169981578864 -0.009963816074894745 0.011045386590719618 0.006495452083704229
0.012542082096715373 -0.015306832933083539 0.011336003438362757 0.007357157110868292 -0.004215970515436219 0.011052122128362193 0.03348299328634309 0.009509306965507693
0.018034125662829744 0.004018524122133649 0.004381166972281884 -0.005849084620792689 0.0019338488551694513 0.009710645600181882 0.01890147219253754 -0.010688764021205036
-0.013891089724691058 -0.007122849322304667 0.011527127799106572 -0.0014006188738341456 0.008789883988115916 -0.0020895687516816917 0.013315849965258413 -0.003976401131573255
-0.003009020551843663 0.0027405583463146125 0.00995955560607933 -0.0019342305097034263 -0.02492346743330411 0.002056672673526984 -0.007386523906737943 -0.005001813951530777
0.0036604818291693063 0.011005222985073436 0.0090572371318476 -0.0007323584290725685 -0.0022100404316550905 -0.002789369320438613 0.019936199714881697 0.005445838334705052
0.007219352459734539 0.0027246201250661936 0.010859774990404414 0.006370794436965264 0.005129459624967647 0.006575761699508874 -0.010120691125738438 -0.015836156283967916
0.015973459666233966 -0.008344599714569634 -0.007364980425082628 -0.0025221200982929026 -0.021025310085503065 -0.004302679856546563 -0.011991669165195168 -0.016678999547035472
0.0002442543899626363 0.00747392264849833 -0.010005915328067654 -0.01678514641840871 -0.00257364951098709 -0.01138889591940114 -0.0057188713662253065 0.015172236925682455
-0.0014839917113215262 0.004642903939914406 0.015433220300603045 0.008754996390113621 -0.017510170455075174 -5.8857432366916794e-05 -0.013145897220357902 0.005295298991682217
-0.0016747248244601562 0.008035889641253431 0.00022358378460787584 0.015221763456221444 -0.020237551081890327 -0.010140738817973088 -0.0015488746504237012 0.00458693116630982
-0.004948266321993431 0.004494823932391979 -0.004099824400228726 0.017567154524721566 -0.00011721216254371989 0.010088317315687144 0.008762424949833644 0.014025611822822113
0.0035512407151973057 0.005614791041464141 -0.00788981661471062 0.018902543759419674 7.772791507042042e-05 0.006787030149512681 -0.012818553884158231 0.001765101490070121
-0.010504722433810613 -0.014743367800706505 0.017422582990418514 -0.005110756646168529 -0.0003080978983738759 0.01722893822561694 0.0036312942312164433 -0.02037042183041786
0.007852951320711857 -0.008197644402010132 -0.014249239011721959 0.002094970565427907 -0.008300293485512781 9.780307580305358e-05 -0.028496249891789234 0.0071651663053306685
-0.014696737676934241 0.004777943572775338 0.016155736703418733 0.006034816168902737 0.006198420504754735 -0.011115364285319349 -0.00524608653720891 -0.008471027685248714
0.015202917529100404 0.008506884015866262 0.010306538852796148 0.001615117946458488 -0.01566209034038504 0.006934707048797184 0.009636665151223755 0.0012791136487891198
0.0017067501727984129 -0.018706141590075744 -0.0022262994546093456 0.004254133146281613 -0.01822170697415695 0.014667853782739501 -0.00927911447504698 0.00384998011633729
-0.0023133560461529082 -0.004476813602337688 -0.008271645571239179 -0.006996146893294406 0.015571243096980315 0.004866632717517509 -0.006648302590260864 0.0008768589526084421
-0.002458668270762803 0.018713356550736637 0.0008376658055111054 0.01877442864747951 -0.02134429540939371 -0.0009141273564202038 -0.011084787506747155 -0.0031785500587157324
-0.006298228513001819 0.015474935781204627 -0.0035010979276293474 0.0005204727453195707 -0.007880229959794097 -0.013682282921552168 0.013417500781559066 0.01853613038780763
-0.0068820292746680535 0.0060281842038366305 -0.0009477551285102333 0.0019342975083627197 -0.010781481450084094 0.001427653104348129 -0.005473518673399339 0.005926219269754553
0.006802293383028644 0.011714192443707036 -0.009163130324890799 -9.319582328550863e-05 0.004376226137863337 -0.005178811932827668 -0.005074914238835601 0.009092871067649229
0.003506424019346589 0.008362983320398927 0.02018361251596778 -0.00832533254250314 0.00016227825715043432 0.0007247176927480247 0.008381292649112639 0.004711166180746111
0.0064358638406135 0.0024788685738764745 0.0011699816753251906 0.002392365869455303 0.007800601640727823 -0.004013226292734757 -0.0004887863858396783 0.009373366351701084
0.021357825062056614 -0.0074676005732803655 -0.0003015442596020073 0.013069408647985278 0.010740185604772216 0.0007469416871376505 -0.008004838033275907 -0.002336033630073164
0.000768710180597819 -0.004607235594708826 0.0025890019338963848 0.002643256651975247 0.002727714535946008 -0.005776977148435037 -0.00662479249016768 0.012270576872813733
00000000: 6c12 132d 1e85 613f 20f3 560c c885 63bf
00000010: 0b95 955f 07cb 86bf 1a48 189d 0ec3 963f
00000020: 2818 3475 9a66 513f 36d7 d2fe cb72 6cbf
00000030: 3829 8970 8bac 883f 8aad 4b7e aa48 95bf
00000040: 9a91 2d53 a2cd 7bbf 8842 bcfd 3361 75bf
00000050: 5d95 9b05 f0a0 83bf fe5a 61e2 d8cf 583f
00000060: 60f6 c820 38fb 773f d510 349e 8184 843f
00000070: 39dd d795 811b 67bf a330 bed3 21a0 84bf
00000080: 8cc8 0dba d5c9 853f 3e08 cfa5 750b 80bf
00000090: 59bf ec6a a275 733f 6d9d 37cc 79f6 5d3f
000000a0: 7336 c200 9808 7c3f 74ed 53a5 0cf4 58bf
000000b0: 988a 1374 9deb 6bbf 3501 f8ea 0d94 653f
000000c0: c905 f7e5 d280 93bf 18b2 1c57 1d5e 5ebf
000000d0: 950f 657d e461 823f d048 2a0c 9c1f 71bf
000000e0: 4e03 f39c a57a 59bf abcb e26a 7ab9 6abf
000000f0: ee55 0a96 8f76 8a3f c635 8f5b fa91 78bf
00000100: cf6f 9b67 31f1 833f ea6f 8ad9 fc9f 823f
00000110: 0ae6 ef8b 2e80 993f 3d23 d595 5ee5 8f3f
00000120: 1755 5d70 e6b8 78bf 660e c761 a7a0 743f
00000130: 3dee 9d60 80ca 723f 6409 31da 11e1 8f3f
00000140: c690 2a34 c4f1 88bf b9c2 c4ea 2aff 793f
00000150: 14cf b70f 496f 87bf 7cb6 ed47 f4b8 733f
00000160: c48a 774d 1dd4 8bbf 11f2 7ac1 e867 84bf
00000170: f937 6eb1 f69e 863f 471d 5ba4 f99a 7a3f
00000180: c3e0 6ec3 a9af 893f bbcc d256 3059 8fbf
00000190: 96e8 47a0 5437 873f a364 ecd2 8922 7e3f
000001a0: 8e53 c1f7 c344 71bf 98e0 bdb8 7ea2 863f
000001b0: f228 46d2 ae24 a13f 0e56 6593 9d79 833f
000001c0: 2f38 bcaf 8977 923f 748c ec5a ba75 703f
000001d0: 9e08 d48d fcf1 713f 7484 86b2 35f5 77bf
000001e0: 01b0 a765 26af 5f3f 09e5 34ca 2ce3 833f
000001f0: 771e a753 e85a 933f 15f3 3e9f fde3 85bf
00000200: 6338 9680 ee72 8cbf 7d53 4c4e d92c 7dbf
00000210: 39d2 4fe7 889b 873f 2b3e 7710 9ff2 56bf
00000220: 5de2 1d42 6e00 823f 665d 70ae 241e 61bf
00000230: 9c2d f420 5745 8b3f eedc 0d0d 8f49 70bf
00000240: 9202 9f9b 5fa6 68bf 2fe3 0b0f 5e73 663f
00000250: 4ded e2ec ac65 843f fbf3 0d32 c0b0 5fbf
00000260: 45a8 1d96 8985 99bf 6a4e e2bb 27d9 603f
00000270: 43dc c4e9 5441 7ebf 8ee2 7a35 c87c 74bf
00000280: b8e6 cd37 96fc 6d3f f9d8 7206 e889 863f
00000290: 89ed 2fca 998c 823f e486 3bc0 77ff 47bf
000002a0: 31b7 0e6c ca1a 62bf 107c 3f40 bbd9 66bf
000002b0: 40b5 20b7 276a 943f a2f1 bf18 604e 763f
000002c0: bedc 672b 0a92 7d3f 870c 994a f151 663f
000002d0: 60d8 6753 a63d 863f cbd2 191c 4318 7a3f
000002e0: 4dc0 5dd5 a002 753f 5881 2197 2fef 7a3f
000002f0: c207 2f2b 28ba 84bf b600 5675 5a37 90bf
00000300: 3c57 7bbb 585b 903f e071 fa36 f916 81bf
00000310: 1f89 fbe0 bd2a 7ebf 1c0f d7ea 44a9 64bf
00000320: 2f6d d2ac a887 95bf a4ed 4dd4 af9f 71bf
00000330: 9d99 1c97 168f 88bf 688b 56b6 4c14 91bf
00000340: 6335 e69d e801 303f fdf4 91d5 f99c 7e3f
00000350: 1c05 ce38 fb7d 84bf 2cda b31b 2030 91bf
00000360: 70cf 648f 5515 65bf 2b4c 17bc 0f53 87bf
00000370: 17b8 ced7 ab6c 77bf 3148 392b 9f12 8f3f
00000380: 1fc2 87f7 4f50 58bf 8753 4909 7004 733f
00000390: 5355 b4c3 739b 8f3f df88 60b9 23ee 813f
000003a0: 9bc7 cea5 2fee 91bf b9d0 25fa b5db 0ebf
000003b0: 58a7 1a75 3cec 8abf 657b deff 85b0 753f
000003c0: 846b 7416 4e70 5bbf b1a9 a0d9 1e75 803f
000003d0: adc3 ea15 3a4e 2d3f 5df8 da81 962c 8f3f
000003e0: 2aff 3010 27b9 94bf 90ce a4ec aac4 84bf
000003f0: 27ef 067e 7360 59bf 05a7 92f5 bec9 723f
00000400: 97d3 6520 a244 74bf 8188 a71c 2a69 723f
00000410: 8f42 7e3b faca 70bf fe79 abc8 1ffd 913f
00000420: f6cb 889e f9b9 1ebf f955 8a07 2fa9 843f
00000430: 5eda bec4 08f2 813f 72ec aec0 75b9 8c3f
00000440: 0a83 6cd7 7d17 6d3f 1bf5 59fe 88ff 763f
00000450: 2628 a742 8928 80bf 3c1b 083d 305b 933f
00000460: 95db b069 3b60 143f a249 7788 b7cc 7b3f
00000470: d13d b72d 9d40 8abf 9e5b 224b 5feb 5c3f
00000480: fc45 74fa 7f83 85bf fea3 4b54 c531 8ebf
00000490: 176e 9fc0 39d7 913f e021 734a 04ef 74bf
000004a0: 8763 c165 0631 34bf 7033 e578 76a4 913f
000004b0: 0326 e33e 60bf 6d3f 6cfc 44de fbdb 94bf
000004c0: 48da cb48 3515 803f 5510 e334 edc9 80bf
000004d0: 13c8 627c b42e 8dbf 8f2a 11c2 7829 613f
000004e0: 8f32 8a88 beff 80bf 8394 4f0c 74a3 193f
000004f0: a221 60f5 1e2e 9dbf d58e 3aaf 3859 7d3f
00000500: 7d4d 71bd 5219 8ebf 45fc 3176 0992 733f
00000510: 1dc9 2223 218b 903f d02f 53a1 f6b7 783f
00000520: 112b add5 8363 793f c565 b5f0 a6c3 86bf
00000530: 6caf bfa1 eb7c 75bf a225 f916 4259 81bf
00000540: 7bec ba0c b522 8f3f aab1 1ca5 0e6c 813f
00000550: 2332 763a 981b 853f 6417 97b0 4b76 5a3f
00000560: 4720 3217 b909 90bf 8df6 b53f 9167 7c3f
00000570: c608 564d 63bc 833f c8cc 85d2 fdf4 543f
00000580: d9d5 2c0b a1f6 5b3f 3773 74e9 b327 93bf
00000590: 9323 286b e33c 62bf 591a c72b c86c 713f
000005a0: e70c 200e b6a8 92bf 451f 6502 2e0a 8e3f
000005b0: e13a a6a9 ed00 83bf e0d0 1356 fe89 6f3f
000005c0: 0bcb fd91 75f3 62bf 2e7f 3280 4756 72bf
000005d0: ca5a b379 b9f0 80bf f1e5 ace1 fda7 7cbf
000005e0: fa73 e0de d0e3 8f3f eb68 d0c5 08ef 733f
000005f0: 2171 2f23 403b 7bbf e8fe 2743 a0bb 4c3f
00000600: 0b86 117a 3324 64bf 3003 8919 9829 933f
00000610: 91c6 ac9e d972 4b3f ac04 2b94 9a39 933f
00000620: d341 f56a 47db 95bf a779 d38c 41f4 4dbf
00000630: cfc1 98fe 9eb3 86bf 48d5 a011 e709 6abf
00000640: 3af9 c6d7 2bcc 79bf c22b b4b8 52b1 8f3f
00000650: 4a26 2da3 55ae 6cbf bead b5b5 0a0e 413f
00000660: 42bd b28f 8223 80bf 0624 76ed 7405 8cbf
00000670: 6024 6878 a27a 8b3f 5877 3da7 22fb 923f
00000680: e413 a3aa 5430 7cbf 5ce7 2760 02b1 783f
00000690: 4e69 0aa4 580e 4fbf 1878 8122 08b1 5f3f
000006a0: 5226 d8f1 9914 86bf 4352 2ad9 0264 573f
000006b0: b706 247b 666b 76bf 7586 3d5f 1746 783f
000006c0: 97f0 e2b9 b8dc 7b3f a5e4 8e4b 9cfd 873f
000006d0: bf5a 9888 1ec4 82bf 9c46 730d 446e 18bf
000006e0: 59ba 4542 ceec 713f 9058 23be 6036 75bf
000006f0: 3d0d f9ea 6ec9 74bf 84fc e57e 489f 823f
00000700: 83e8 a50f 81b9 6c3f 2467 dd9e 9c20 813f
00000710: be53 af4e 03ab 943f 4dac fc37 df0c 81bf
00000720: f220 589d 2745 253f 7a06 0465 5fbf 473f
00000730: 61f1 9b0e 362a 813f abd8 c10a 044c 733f
00000740: 359a 780b 7e5c 7a3f 0c95 966e 904e 643f
00000750: 5983 1342 422b 533f 9789 6ba5 2799 633f
00000760: 810f fa0e 86f3 7f3f bb21 dc3a 2c70 70bf
00000770: c65a 5dc5 3c04 40bf 13cc 78ef 5732 833f
00000780: 9af2 9e60 d3de 953f 2889 dec3 5896 7ebf
00000790: ffb4 b8bb 12c3 33bf 9eed c455 22c4 8a3f
000007a0: 0f5b 674f f3fe 853f e6a4 230f cd79 483f
000007b0: 4667 802c d764 80bf e684 6481 0423 63bf
000007c0: f481 fa8a 6830 493f c192 4463 09df 72bf
000007d0: 81ea 54d4 8735 653f 9d60 019c 4fa7 653f
000007e0: 0ed7 3097 6e58 663f e79b c17e 99a9 77bf
000007f0: 06ae 6831 9922 7bbf 7a6c f9f2 5021 893f

b1 f8 [1, 25]
0.0033572957394419206 0.003273748913794414 0.0032361639379948743 0.0033635989835342234 0.0032069576266110307 0.0033479505474075617 0.003275094741255973 0.003323662466536575
0.0032923646518263185 0.003385671956220049 0.003267960586239878 0.003309918370285889 0.0033289792025088965 0.0033287173232744256 0.003377826403156277 0.0032785972273699057
0.0033490571251268797 0.003248610271533611 0.0033272568650235417 0.003256958012493814 0.003252514783204664 0.003297681754869375 0.0032990236069125175 0.0033238978743309086
0.003300211316810945
00000000: 60c6 ec6c c280 6b3f 2e5a a490 8cd1 6a3f
00000010: 1bdf e648 ba82 6a3f 0449 3274 fa8d 6b3f
00000020: d1cc 0744 7a45 6a3f 16ff 8243 296d 6b3f
00000030: f186 c219 5fd4 6a3f d84e 18b3 393a 6b3f
00000040: 9af9 31d0 96f8 6a3f b45e 76ca 44bc 6b3f
00000050: c4e6 f5fa 68c5 6a3f 94cc e3e4 661d 6b3f
00000060: 650e b919 6045 6b3f d6a0 5081 d344 6b3f
00000070: aa21 dcbd d0ab 6b3f 1932 c97b b7db 6a3f
00000080: d737 655a 7b6f 6b3f 793d f55b d49c 6a3f
00000090: e51b 766d c341 6b3f fc48 bd04 56ae 6a3f
000000a0: 1cb3 f493 04a5 6a3f 67e0 4569 bd03 6b3f
000000b0: 5e73 03d0 8d06 6b3f 87bc 4b15 b83a 6b3f
000000c0: 5573 9e75 0b09 6b3f

W2 f8 [25, 10]
-0.013478613699105347 0.000732617930059575 -0.019396836633363043 -0.012662128481754277 0.014985900940752424 0.01997311792055377 0.010865684395220579 -0.009945284694109371
0.00015359538675802743 0.0017680776206083903 0.0034975345598220655 -0.004710920154250173 -0.0006201044007798392 -0.0015528919035834642 -0.02335209723725578 0.0008321817625166381
-0.012789514551571957 -0.011603496986912484 -0.0030603704205209824 -0.0013691705144327105 0.014449972742759741 0.0010826905349494715 0.0027735244532169625 0.0098730275775037
-0.002294007943015958 -0.008332679032899198 0.0046069095184501805 0.0055998579298853265 0.004270169285626029 -0.0013595354605396505 0.001875652941273055 -0.003851827569169177
-0.01708767219039854 0.005655927194848399 0.004621435287754833 -0.0012851352788656443 -0.014037425916569715 -0.0029478132089419884 0.013291722551192538 0.00044839831110330666
-0.0009131024920216687 -0.009828136470180458 0.01615678975626924 0.012135869659200674 -0.01002944084079933 -0.0054819277874137195 -0.0230849800164395 0.007675148769232643
-0.012330658029533174 0.0027147688339349213 0.010135503911314495 -0.017111596378425395 -0.009608805796584676 0.00985143745892637 -0.0016870148810103802 -0.004971806601265668
-0.00509746921247265 -0.02207760507990796 0.019455809375272637 -0.0032736589805810747 0.005918649258578913 -0.004917422251151903 0.014312612106606764 0.004204916827059011
-0.0005555974690305401 -0.0030787943288376014 -0.005047028094590197 -0.01733248171690308 0.005676793783384811 -0.026060531126626107 -0.008339041877152635 0.010391237046334694
-0.004798112986799058 -0.0001230728967895517 0.002725719321192438 0.0051578972778372105 0.0068216468340178155 -0.009722059585072438 0.002145543096813563 0.007643844110615679
-0.011126966540934733 -0.0037355436810436625 0.004412323489783784 0.002673784275018496 -0.013289049157554064 0.009803645430990118 -0.006556048019556583 -0.007104452134119951
-0.0014545318060489522 -0.004919547654186732 -0.0025517690956252457 0.012486454972636176 -0.006780033106813477 -0.0014634264893269482 0.001687473222988593 -0.012422395165036657
0.011888002805570225 -0.018483193331486375 0.02173239762350999 -0.010919595793002081 -0.016264671231008977 0.005401256729999317 -0.01060927016520894 0.0072567146103246355
-0.004284944229074628 0.00027826260338110933 0.008224723055123888 0.0009415318362823204 -0.009212696357618472 0.0020694020359457305 -0.015938597242592393 0.007964849626880894
-0.0027158330607290385 0.004727135808345144 -0.0038145834857305455 -0.006379357820231086 0.005174292012153273 0.01317986115021789 0.008978204248372843 0.02103932430372072
0.0052820922781238455 -0.004672571549305356 -0.003973019462052437 -0.004653599141082544 0.011547004142359199 0.005807855256078726 -0.024550690888961325 0.004903895571762242
0.0021244112291421615 0.0012291859034476705 -0.003321994656849722 0.011671807205438915 -0.013135676145865804 -0.0003481064526136993 0.005620721383939037 -0.004401473477675059
0.006076838447028416 -0.005912693316462268 0.001442099226977073 0.006967553188622024 -0.012611051060798293 0.014972223279875626 -0.006689501464467183 0.013336860603759387
0.0065052392701069935 0.013532819282822219 -0.008041498660171792 -0.008811207264219375 0.005857154873752929 0.009954446400509414 -0.011251657330066432 0.0039678013871371695
0.003576313939141101 0.017937388505165047 -0.0029724103118291744 -0.007033141145407682 -0.01094252073892156 0.012626856453410813 0.0008985608995251443 0.0013886240416521123
0.0054004242669542886 0.004638676168795767 -0.012683889159957176 -0.0037457799635192313 -0.005620103959853142 0.01562190035289294 0.0007340943909256987 -0.012270996813251944
0.006887824013388685 0.006511225900546472 -0.006479092001729545 -0.007235182892414465 0.018402767023164946 0.000716134825561262 0.002062680480350875 0.007336858176131689
-0.005913812687471886 0.017655473665225786 0.0038804782318148916 -0.0002912946640238885 -0.006689844322252824 0.005565647700155228 -0.0011702501129340862 0.009095583242413677
-0.0006945703568638609 0.02211894559263542 0.006116108408254184 -0.00407777243816878 0.008557573373087008 -0.007472187727456394 0.006196685189435667 0.010067208221893992
0.004168009103665818 0.000958885184249279 -0.0043051975117597355 -0.0027574753208479013 0.007693296614916698 0.009265544641007466 0.004434114028783358 -0.007283504372993491
0.009890503316760158 -0.020985239286489595 0.004272906203750396 -0.020301144096186663 0.008851120876885249 -0.00875893931971445 -0.00524646009937686 -0.010317865007274763
-0.003813272489057934 0.011455427492884099 -0.009826890615709568 0.008622150521338846 -0.012611036793291796 0.0011373878838820905 -0.006843855320928904 -0.009121112352915654
-0.002115311612123665 0.0051972380044408946 -0.0037219080901982025 -0.0016222388838073917 0.00394681814134335 0.01609878029069135 0.007893819946222501 0.009011786378984817
-0.0013285567743355907 -0.0018048361669674709 -0.01642013256450811 -0.0083393348989499 -0.0027814875630140182 -0.00024457068957392514 0.01935900545507715 0.017877817645088417
-0.0025394408734984823 -0.00896491341764675 0.008850204137274664 0.003687905642715195 -0.013663274012286024 0.007663523473746738 0.0019057168189251352 -0.008101717809767737
0.014770953541898852 -0.004715141577115056 0.0034627021242013235 -0.0010463504723724328 0.004755365105174489 -0.007805872336559714 -0.010092894562672823 0.0266700809532176
0.021001668756837687 -0.0030576713729903687
00000000: dabc 43e8 ac9a 8bbf f8a9 6806 a501 483f
00000010: 0cd1 f1ab c3dc 93bf f4a8 d01d 9aee 89bf
00000020: e473 8893 edb0 8e3f 3c5c 1241 d573 943f
00000030: 6850 0279 bf40 863f 3bba 1584 315e 84bf
00000040: f228 6d53 ce21 243f 3dd8 aae3 daf7 5c3f
00000050: 2c54 a291 dca6 6c3f 3df5 f1ff c14b 73bf
00000060: 1cd7 8b0f d051 44bf 99d4 2afc 4c71 59bf
00000070: 2e46 b5b7 9ce9 97bf a2b3 27ba d844 4b3f
00000080: 8082 d895 6331 8abf deca 9f00 93c3 87bf
00000090: f843 d5db 0f12 69bf 4db7 41a5 b76e 56bf
000000a0: 4caf dd82 f297 8d3f 0370 1d1c 22bd 513f
000000b0: be75 479a 80b8 663f 268c 7654 4f38 843f
000000c0: 41cf f122 e2ca 62bf 6395 793f b910 81bf
000000d0: d35d 7adb b1de 723f 46d7 bc6a e0ef 763f
000000e0: 52e2 e1d6 987d 713f 622d cf15 4e46 56bf
000000f0: d286 a602 0fbb 5e3f 6bab 0f2e de8d 6fbf
00000100: 03df e344 6e7f 91bf e871 4965 ab2a 773f
00000110: 8769 be16 eded 723f fa2f 987f 3f0e 55bf
00000120: 2880 da69 a7bf 8cbf eec9 772a 0326 68bf
00000130: 5eab 51cd b038 8b3f 96e6 ee14 e062 3d3f
00000140: de1e aaab a8eb 4dbf 8ca9 c225 c620 84bf
00000150: 6633 72ce 678b 903f 88b8 5bda b0da 883f
00000160: 2667 44c3 508a 84bf 653c 0ec9 3774 76bf
00000170: 1235 ccc8 96a3 97bf 41e9 4a0f fa6f 7f3f
00000180: 4fcf cce7 d040 89bf b254 746b 483d 663f
00000190: 15e0 9e4e ecc1 843f bc8d 4fcb b385 91bf
000001a0: 1b17 3315 c8ad 83bf 462e a38d fd2c 843f
000001b0: 52bb 796f daa3 5bbf 3c52 122c 515d 74bf
000001c0: 6780 f578 15e1 74bf 9d38 2bff 829b 96bf
000001d0: 509f ef43 39ec 933f 03b6 5048 5cd1 6abf
000001e0: a890 0850 273e 783f 1937 fd7b 4a24 74bf
000001f0: 567e 5847 ee4f 8d3f e4ea 12c4 2c39 713f
00000200: 73ef c77a b034 42bf d6ce 821e b338 69bf
00000210: d66c bb49 31ac 74bf a9cc 8728 9bbf 91bf
00000220: fc16 55ba 8c40 773f a3f9 9ea3 9caf 9abf
00000230: c985 2341 0f14 81bf b65f 3b3a 0048 853f
00000240: c6e5 c5a5 2fa7 73bf a41a 2b22 a421 20bf
00000250: a68d f66a 3f54 663f f5b2 fd81 7220 753f
00000260: c257 e9e0 03f1 7b3f ffbe bdbf 28e9 83bf
00000270: cee9 daad 8793 613f ef76 88c7 264f 7f3f
00000280: d20e 2d2b bcc9 86bf e6ec 2bbe 009a 6ebf
00000290: 566c 6811 a812 723f c884 9100 55e7 653f
000002a0: 588a 36fc 4937 8bbf c8bb 0f04 ef13 843f
000002b0: 1b2a 5cbd 83da 7abf 2316 27d9 8e19 7dbf
000002c0: 6222 6ea2 bfd4 57bf c4d2 9204 8526 74bf
000002d0: cf42 019a 72e7 64bf 61eb 009e 7f92 893f
000002e0: cd5c 5a47 61c5 7bbf d443 5a3a 0efa 57bf
000002f0: 7824 8f93 c6a5 5b3f 124a c6a7 e970 89bf
00000300: bd10 1eba bc58 883f b89a 891b 42ed 92bf
00000310: c300 3a84 0441 963f 4e28 8856 035d 86bf
00000320: eaca 119c afa7 90bf 4fcd 33d0 a01f 763f
00000330: f4e9 2623 50ba 85bf 1010 d87e 37b9 7d3f
00000340: dad3 43f5 168d 71bf ee24 fec7 783c 323f
00000350: bcc4 52a4 1fd8 803f 23f4 f438 24da 4e3f
00000360: 0af8 822c 1bde 82bf e019 22c2 d9f3 603f
00000370: e1ac 9a27 3552 90bf 6af1 5105 e04f 803f
00000380: 8bd7 abc5 833f 66bf eba0 35db c25c 733f
00000390: 77db 35ea c23f 6fbf c767 51d3 3d21 7abf
000003a0: 9def 8d6f a331 753f 151a d904 0bfe 8a3f
000003b0: 1212 fd2c 2a63 823f eaf6 4127 558b 953f
000003c0: 2087 6cd9 aca2 753f 9539 e1df 8b23 73bf
000003d0: 1583 7e4a 0346 70bf 010f ea01 a70f 73bf
000003e0: 3b03 44a9 f4a5 873f edf9 2746 fac9 773f
000003f0: 9d63 d9f9 d023 99bf 42d4 a871 1b16 743f
00000400: acd4 1398 3667 613f fb7f 6250 9423 543f
00000410: 60b6 134d ba36 6bbf 7c51 dc71 63e7 873f
00000420: 60a2 a89b e0e6 8abf 2445 5ad4 41d0 36bf
00000430: 3a15 62e8 c005 773f 84d2 408a 4707 72bf
00000440: e1fb 49e6 06e4 783f 7ec7 ce86 e837 78bf
00000450: e8f4 1d41 9aa0 573f 429a 4051 028a 7c3f
00000460: bf98 fe9e d2d3 89bf de0d afca c1a9 8e3f
00000470: cb4c 4360 7366 7bbf 83e3 fe20 5b50 8b3f
00000480: c629 afde 3ca5 7a3f 346f f041 18b7 8b3f
00000490: 03d5 0cae 0f78 80bf 4b07 4e38 9c0b 82bf
000004a0: fa04 160a acfd 773f e376 eb2d ff62 843f
000004b0: d945 11e2 1b0b 87bf 18cf 1d93 8a40 703f
000004c0: 8c37 15ed 124c 6d3f 4875 05c4 2d5e 923f
000004d0: 2e14 8ca2 9859 68bf 24a6 5273 c8ce 7cbf
000004e0: 88fe ac45 0869 86bf d744 26fc 1bdc 893f
000004f0: 1a79 a5d6 ac71 4d3f a9f8 19b6 4fc0 563f
00000500: eb09 c759 c11e 763f 0441 1127 0100 733f
00000510: e85b 06c9 02fa 89bf 295a 1f4e 78af 6ebf
00000520: 0fb2 522b 1b05 77bf d5b5 eff8 5ffe 8f3f
00000530: fc9d 5ab3 070e 483f 0095 0450 8921 89bf
00000540: d6ba 0c2e 6836 7c3f 37a2 cbe4 83ab 7a3f
00000550: 5750 1504 d289 7abf 2cbb 749e a3a2 7dbf
00000560: ede3 14ca 2cd8 923f e145 e1d3 5f77 473f
00000570: 3109 9126 c1e5 603f da00 c0de 400d 7e3f
00000580: 4cd5 6501 1539 78bf 1d3c f3c7 4614 923f
00000590: bcc9 26e3 f3c9 6f3f f80f 340e 1d17 33bf
000005a0: 7240 4569 cf66 7bbf 8bce a62d 01cc 763f
000005b0: edf0 a47d 622c 53bf c881 8384 b4a0 823f
000005c0: 6915 d77b 7ac2 46bf 4afd c44f 59a6 963f
000005d0: 1ad3 7959 340d 793f 990e 33b4 dab3 70bf
000005e0: 2a0b 2a0e a286 813f 0237 b41e 289b 7ebf
000005f0: be3a b703 b261 793f 7db7 99d0 1d9e 843f
00000600: 3782 a26c 7912 713f 2361 e440 b66b 4f3f
00000610: 88d5 40a8 53a2 71bf e57b 524a d896 66bf
00000620: 8a7d c095 0183 7f3f f6b8 b359 d0f9 823f
00000630: 0583 d86b 8129 723f dd04 51d1 4ed5 7dbf
00000640: daad 4ae2 7841 843f cfa0 bc91 277d 95bf
00000650: 5db7 7686 7780 713f 40a7 dbb7 d2c9 94bf
00000660: d0e3 9755 8920 823f 6415 68ef 34f0 81bf
00000670: cdd7 bee8 4f7d 75bf da92 2a66 8821 85bf
00000680: f31e 3314 033d 6fbf 4891 8c73 f175 873f
00000690: 1ed8 86ee 1e20 84bf fa2c 1574 7da8 813f
000006a0: 4648 c4b4 d0d3 89bf 66ac e7f0 8ca2 523f
000006b0: 00d9 826c 4d08 7cbf af41 12fa 16ae 82bf
000006c0: 3ec9 3c46 2154 61bf cb3b 23f4 b249 753f
000006d0: b8f7 d530 687d 6ebf 98b3 f1bc 2994 5abf
000006e0: 06fd 71ed 892a 703f 4381 6adb 327c 903f
000006f0: b988 1394 a22a 803f 44d1 357e c574 823f
00000700: 42b9 62f9 5ec4 55bf fced f313 0892 5dbf
00000710: 3833 7171 70d0 90bf 4582 4a95 3614 81bf
00000720: 348b c1c3 33c9 66bf feed ff1c 3707 30bf
00000730: 3725 40dd d8d2 933f 7822 7008 904e 923f
00000740: 58c2 0ef0 97cd 64bf 55a9 854f 325c 82bf
00000750: 80ff a84a 0e20 823f 67cb 0944 1936 6e3f
00000760: 29fc 4f98 7dfb 8bbf dce6 116b c963 7f3f
00000770: b403 6ada 2739 5f3f 7265 4628 a297 80bf
00000780: 4a41 25d3 3b40 8e3f 805e ea2d 2f50 73bf
00000790: 36b0 220c d05d 6c3f b98d c643 b624 51bf
000007a0: 7d5a b799 5c7a 733f feb7 6fe6 0cf9 7fbf
000007b0: 849b 8c60 95ab 84bf f028 e7d5 664f 9b3f
000007c0: 335f e321 7681 953f b7a9 90d1 660c 69bf

b2 f8 [1, 10]
-0.0051995880912712 0.005955295468622432 -0.006669912958311228 -0.0038873279365633498 0.0023151605751549863 0.002933380778627573 -0.006507674401752887 -0.005113058943109421
0.015010501219221564 0.0011632242893815574
00000000: 0bf9 dfcc 294c 75bf 3079 6974 9464 783f
00000010: 17ac 5e20 e951 7bbf 3e5b 674b 51d8 6fbf
00000020: b8a5 915e 3ef7 623f d475 59d0 be07 683f
00000030: d11e a88b caa7 7abf f83e 174f 6ef1 74bf
00000040: 4e3d aa5e d3bd 8e3f 5ebc f891 ea0e 533f
