experiments/exp_batch_20250114_141918/exp_h25_lr0.01_run2/model/weights.npz (npz, 160046 bytes, 4 tensors)

W1 f8 [784, 25]
00000000: 0d62 8b58 0052 953f b75e 49fc 393a 813f
00000010: 3723 9ad1 50e7 993f 3c84 bd3d 8953 8a3f
00000020: 10c9 1b73 c126 89bf 9a41 892c afec 61bf
00000030: f524 2162 b255 4cbf 76a9 6f34 5084 6f3f
00000040: 71ed a62a d940 66bf 2110 ce93 66bc 553f
00000050: 1ae0 cf40 e9f2 6dbf 4439 a602 45f6 7e3f
00000060: f7a5 954a 2f47 7f3f c424 3138 9210 893f
00000070: e775 41f0 7efc 5ebf 4a62 0a1b c260 873f
00000080: 01f5 461a 7203 8bbf cd76 67c3 2aa5 98bf
00000090: e758 c442 910e 833f 9860 005a f8b5 2a3f
000000a0: 5a76 f149 ebab 673f a90e b47e 7dde 853f
000000b0: 8675 9d52 c88d 53bf acc5 a0f5 808d 5abf
000000c0: c19b a229 a370 72bf c036 2fb4 79b1 593f
000000d0: c19e 8148 0a8b 773f a4b7 665d 5768 6ebf
000000e0: a829 6b19 e642 66bf e30e 4cb2 a3b2 7c3f
000000f0: 0390 3f7a 30a4 743f 1f37 4267 7c1b 7bbf
00000100: ba27 cc7e 6a56 3bbf 4301 71ad aee1 8a3f
00000110: da26 2571 92a8 833f 8111 87a8 8902 75bf
00000120: 5f1e e32f 6b35 7ebf 2877 0347 73d4 60bf
00000130: 5afb 9bf5 5447 713f a91b 3898 604d 4a3f
00000140: 98c6 e4d2 ac36 8dbf a08e 213e aa7c 72bf
00000150: 297d ccd7 5c8f 7bbf 942d 94d7 ed27 80bf
00000160: cee0 8b4f c80e 713f 70af 68cc 0242 8fbf
00000170: 363c a65b 2037 96bf ed56 e43f 1f8d 663f
00000180: 736b ad37 f858 7c3f 0f8b fc42 5b61 85bf
00000190: 34fb 2027 c303 84bf 80ea 03f8 8821 9bbf
000001a0: 2cd8 503a 8558 523f cef8 4541 0dc1 883f
000001b0: b7d1 af06 2126 74bf 1aca 52b5 aa48 963f
000001c0: 160a 9d08 8ea2 8f3f 4772 28d6 d006 913f
000001d0: a6c7 afb7 203b 60bf ce91 806a 6083 743f
000001e0: f569 b4d1 6592 703f dfb9 99ea 29b6 88bf
000001f0: a9fd ef1f 0606 853f 45bb 5315 39ef 903f
00000200: cdf2 7965 3202 7cbf a705 6f83 1ffd 6b3f
00000210: 894f 3f3d 614b 853f 651c b7e4 654f 6dbf
00000220: e101 749a e599 853f 61f7 2434 1a7b 73bf
00000230: 0dc6 ead8 a6cb 753f 157e 8732 4acf 83bf
00000240: 7b1b a9cb 883b 6c3f e3aa 8059 81f4 683f
00000250: f8ff ae86 da65 783f 1557 27c5 4edf 803f
00000260: 8cd1 6165 be36 95bf 5a31 2926 9c04 953f
00000270: 3235 8d0a 014c 79bf f43b 936e bf69 333f
00000280: 548c dd8c 7c6c 40bf e080 e8cc a9c1 62bf
00000290: 667f b6d6 8840 80bf 1f95 7b1c 1803 8dbf
000002a0: baee 7eb0 38f9 68bf 4810 8d14 5080 7dbf
000002b0: ce67 254d 0967 623f 96d9 598a 1a0d 6c3f
000002c0: a0ca 1551 200c 81bf a4c7 2147 632f 5a3f
000002d0: 2a18 17a3 ebe4 85bf ec82 d957 9038 8a3f
000002e0: 1e2a 3915 f78b 7a3f 6ce5 8aa6 93df 8f3f
000002f0: b964 e14a ca14 7f3f a12a c8cf f9de 9a3f
00000300: ba0e 8cc7 6af0 96bf 0f17 1d10 dc59 813f
00000310: ff36 f61c 8f97 703f b25b 6fe0 e09f 883f
00000320: e4f8 eb30 92a7 8d3f 5167 8365 2591 683f
00000330: 1edf c3a5 348a 713f f1ee cd95 6644 813f
00000340: 3889 d117 6c39 8bbf 4806 2856 0f33 7fbf
00000350: d6e2 3cba f86e 91bf 8132 ca8e f185 97bf
00000360: f650 a14a 9827 31bf 31b7 c8b4 4ec1 57bf
00000370: 8412 52c4 1c1c 653f 1745 6f1f 08e3 6d3f
00000380: 44a4 7705 bf9f 833f 5826 f027 03c4 8bbf
00000390: 11df e5cb 544c 293f 8454 c249 6e99 473f
000003a0: b6bb ec7b 96fe 80bf f50d 53b8 115d 81bf
000003b0: 6bd1 49ba 17e1 82bf 9258 af78 f5c4 77bf
000003c0: 0d20 d7b1 93c5 673f bfe4 f0d7 8b9d 79bf
000003d0: 8c88 81e9 1fec 7ebf 3635 6435 7a45 813f
000003e0: 7678 7b85 4669 5e3f d70d dfbc 6e51 853f
000003f0: 0d26 1458 12b8 82bf 1571 7689 3949 873f
00000400: 0eed 4189 7c8a 72bf ace8 1c47 4a80 723f
00000410: c137 193d b9ef 903f 57b1 8925 51ab 8d3f
00000420: 58cb 4079 bb19 77bf e069 a7ef 2011 6dbf
00000430: dee9 a9ac 0528 8bbf 1e0d f623 3821 61bf
00000440: c06e 0a79 e763 583f 27cf 60d6 f3cd 8b3f
00000450: 4d36 e133 9ac7 79bf 5c21 1772 299c 74bf
00000460: 51af 05c8 6d8b 81bf 0217 4dff 3935 80bf
00000470: 26ff 0c1f 4261 90bf 97bd ffe9 4abe 7e3f
00000480: ed45 63b1 a6ed 4e3f a0a2 25aa 6fa8 70bf
00000490: 0ce9 59ff 7bf6 6bbf 2abd 98cd f45e 913f
000004a0: c064 8122 53a8 99bf ec3a 2a23 db14 193f
000004b0: ef8e 1b03 f3ce 863f 71f3 92b2 b938 7abf
000004c0: ac78 b9e9 c4a3 7a3f bb75 e182 9b28 7e3f
000004d0: da2d d657 3cd0 84bf deba e899 402a 653f
000004e0: 9bb8 36b9 7d61 7b3f 9b38 1e5e 9033 76bf
000004f0: 067e c158 51b5 90bf f4d9 a82a 1ce2 823f
00000500: 83da 4fc9 3bec 4dbf 3fe6 286b 1813 733f
00000510: 4a4e c305 ebee 5cbf 51e8 fd0a 3f8f 8ebf
00000520: 9333 00dc 68f6 8abf 6c54 86df 2187 79bf
00000530: 9996 9d8a e906 733f 8074 4bfd 9d95 66bf
00000540: 80dc caab 640f 983f 1884 f505 18f6 60bf
00000550: 0374 0334 e703 88bf 7a90 c502 fdd1 763f
00000560: e102 8d94 fa8c 6e3f 4ef7 9fa9 c062 93bf
00000570: 318e 987e ad0a 72bf 3793 0d03 f3df 883f
00000580: 43d1 6637 a5b8 863f 5c86 867b 6829 2e3f
00000590: 8f84 171d 5d3b 843f 0e3d fb67 9f48 93bf
000005a0: e7ca ff94 baee 8abf 8306 b796 a786 813f
000005b0: ee32 f86f b0f1 62bf babe 33c4 02de 5fbf
000005c0: faf2 9eb8 8c18 8abf c438 41e9 19f7 76bf
000005d0: ad46 94a8 b665 7ebf b84d 57f2 9d4a 72bf
000005e0: 804a b943 bd69 7c3f d7a9 09bb 5d54 7c3f
000005f0: 5055 11c3 d0b3 8e3f ae93 9e65 bd89 713f
00000600: bf41 2666 a6e2 4a3f 7363 e02c 2a64 8dbf
00000610: f78f 1174 7f1a 4cbf 764d b130 56c3 773f
00000620: 06ec 5005 e68f 92bf f43e 12e7 ed89 823f
00000630: 6865 f218 bd47 84bf a3c9 ae74 9328 913f
00000640: 1efa e5a8 8ba6 923f 715c d07b 7b15 67bf
00000650: 9355 8746 e11f 743f b05f fd11 bea7 4ebf
00000660: 1b90 9d24 5bd5 91bf ac0d ccab e312 90bf
00000670: df22 e45d a543 9bbf 69b2 4e1b 43d4 69bf
00000680: 658f 4122 5efb 8e3f 1630 c981 cbe6 8a3f
00000690: 3f7f d9df 2ded 653f 01fa e1a9 d897 803f
000006a0: 923d 18c1 1fd0 783f 045c 13b4 adb3 88bf
000006b0: d84c cbde 7a9d 673f b671 264c b7a1 6fbf
000006c0: 2f34 a58c a44c 823f 5c67 0f71 4375 663f
000006d0: 9148 65d7 30bb 65bf 3c38 aa77 4abb 79bf
000006e0: 2de2 606c 0fed 5ebf 60b0 a55a 8fff 3b3f
000006f0: 0796 f4ef 0982 8f3f f3e3 3549 fcc2 57bf
00000700: bd9a c195 27b6 50bf 8039 f711 74cd 6b3f
00000710: de64 269c 88bd 933f a140 b18d 9462 273f
00000720: a08e c441 d712 7cbf c979 eb79 6702 3b3f
00000730: 8d09 ace0 7f0d 833f 03ba 7872 ba3c 803f
00000740: 4e38 66d8 a518 663f ffcc f55f aea4 77bf
00000750: 298b 65b0 b8f7 80bf fc2d be25 cdaf 593f
00000760: 097b e998 4a2f 82bf 5540 5c8c bd22 813f
00000770: 44cb 519c a1ed 833f 500b c055 b224 7abf
00000780: bc6a 7510 f247 8dbf d583 80c7 9cfb 783f
00000790: 1ae7 646d 4bf1 82bf 3ce5 45e4 1727 843f
000007a0: 45e2 05ab 0ea0 913f 521d 63d8 d1f4 7b3f
000007b0: f503 7dce ff45 803f cf12 821c 8614 90bf
000007c0: dadb 05ae 16cf 633f c8f0 47eb a15e 8abf
000007d0: 1eda 05eb 0d1d 6b3f 2006 00d5 4b24 813f
000007e0: 9c9d d1bd 9d04 84bf 5314 fd1d 30cb 8dbf
000007f0: e900 1c52 d65d 863f 1b25 14e2 14c2 943f
0.020820622829747438 0.008411839496303626 0.025296461861702837 0.01285464496294441 -0.012280951810201418 -0.0021880551687802454 -0.0008647080433174236 0.0038472715855181706
-0.002716468957456968 0.0013266565067349206 -0.0036558681226743885 0.007559079715419085 0.007636246425457119 0.012238638248293639 -0.0018912543901231595 0.011415020418369743
-0.013190165926852961 -0.02406756227161715 0.00930512890822084 0.00020378739009241776 0.002889594601170481 0.01067827265661177 -0.0011934715534701336 -0.0016206511850323886
-0.004501950601627892 0.0015681923402896397 0.005747833412989401 -0.0037118631691645688 -0.0027174467207704174 0.007006301345203278 0.0050393956807717214 -0.0066180095201511515
-0.00041713809950804823 0.01312576739121652 0.009598869398036159 -0.005129373290803208 -0.007375162791681682 -0.002054429198422709 0.004218417999935687 0.0008026811269140527
-0.014264440713847734 -0.00451342106871136 -0.006728518169239175 -0.0078886586584506 0.004164488281041835 -0.015262624610009573 -0.02169466552146223 0.002752839121181397
0.006920785522050876 -0.01043959901978078 -0.00977280104791376 -0.026495113504078294 0.0011197377255150005 0.012086967043384435 -0.0049191751559089425 0.021761576954938723
0.015446767461644344 0.01662756259075795 -0.0019813193334749677 0.005008103013129218 0.0040458657561210825 -0.012066199752749305 0.010265395974783003 0.016537563254071647
-0.00683803258982314 0.0034165969368309015 0.010397681886310088 -0.0035778989892807805 0.010547441268955406 -0.004756071432266613 0.005321170565979039 -0.009672717730551597
0.0034463569438999953 0.003046276699042992 0.005956510179146328 0.008238425628330806 -0.020716643274185695 0.02052539809146601 -0.0061759987518830595 0.00029622005110935203
-0.0005012138515038214 -0.002289611474466921 -0.00793558984042848 -0.01416605793878972 -0.0030485255446971145 -0.007202446759780719 0.002246397177413129 0.0034242170684663604
-0.008323910212060526 0.0015982121954291962 -0.01069053737127142 0.012803199463804892 0.006481137435523835 0.015563157577491459 0.007588186459622275 0.026241210276604424
-0.022401493482006464 0.008472174875020081 0.004050787959739343 0.01202369389458888 0.014479772680257637 0.002998898544416408 0.004282193807959604 0.008431245276134787
-0.013293117977984367 -0.007617053898231037 -0.017024885527663645 -0.02297189172763803 -0.000261759453342294 -0.001449896680365947 0.002576881585414194 0.0036482962272904695
0.009582035402632035 -0.013557457596124298 0.0001930097113917941 0.0007201946750848985 -0.008298087746508514 -0.00847829669726872 -0.009218392727441146 -0.00580306899333584
0.002901829210461676 -0.006253763450382254 -0.007549404770630496 0.008433298830392216 0.0018561543164916905 0.010409226550001911 -0.00914015132231596 0.011370133883979375
-0.004526602239020917 0.004516878268811347 0.016539472917706414 0.014486917455734867 -0.0056397746266608415 -0.0035482066425462783 -0.013259929973391257 -0.0020910355085007734
0.001488662765189483 0.013576416950037263 -0.00629387126362031 -0.005031740090494754 -0.008566720644658384 -0.007914021590873958 -0.01599601091879701 0.007505695946732691
0.0009438575678137308 -0.004066883268344285 -0.0034134313416959213 0.016963791893599346 -0.02505617044548525 9.567821033782856e-05 0.011136911899888939 -0.00640175378901807
0.0065038387216117925 0.007362945047217402 -0.01016280310684341 0.00258362405227018 0.0066847716401935665 -0.0054202689515376 -0.016316672365404038 0.009220333148829397
-0.0009131709981591993 0.004656882653358673 -0.0017659468785965631 -0.014921658060974037 -0.013165301526919559 -0.0062323878450075525 0.004645263930660137 -0.0027568898898225336
0.023496220574739102 -0.0020704716877593225 -0.01172619464380809 0.005571354220908481 0.003729333319285253 -0.018931398728447228 -0.004404714310598788 0.012145899325057037
0.011094370606635656 0.0002301158945217538 0.0098788523200162 -0.018831721040268916 -0.01315065161904756 0.008557614600138713 -0.0023125120203587512 -0.0019450213447348833
-0.012742137321646297 -0.00560674783271348 -0.007421220311941629 -0.004465691546517041 0.006936778368599961 0.0069163953163333325 0.0149914083032551 0.004281749564971555
0.0008204758162709199 -0.014351205343744877 -0.0008576509791393673 0.005801521950235302 -0.01812705428549679 0.009052141775355939 -0.009902455638711685 0.01675634765315127
0.01821344583867745 -0.002817860774040386 0.0049132156204526765 -0.0009355238034727178 -0.017415451154548216 -0.015697057114278642 -0.026625236373578495 -0.0031529722859516174
0.015127883358395608 0.013135518930674588 0.002676572416746042 0.008102123913201533 0.006057857551709305 -0.0120614595966071 0.0028827094850868255 -0.0038612918880984405
0.008935246984629412 0.0027414624423557753 -0.0026527360852606837 -0.006282130135003835 -0.001887574254864198 0.0004272198663304357 0.01538474811111269 -0.0014502967577227882
-0.0010199915477870213 0.003393866252486777 0.01927770093025038 0.00017841399571461462 -0.006853905532156951 0.00041213060641878387 0.009303092044778772 0.007928330057521476
0.002697299877758608 -0.00577228655980666 -0.008284991152952852 0.0015677932160284005 -0.008879263679032261 0.008367043348272466 0.00973058946894912 -0.006382652874892994
-0.01429738152244419 0.0060993313018408895 -0.009249295497841415 0.009840189603652953 0.017212132633604566 0.006825275142723202 0.007946012963317964 -0.015703292360302264
0.002418083473624472 -0.012875809662539331 0.0033097526394911944 0.008370010793444627 -0.009774429660139465 -0.014547706523112469 0.010921167736797037 0.020271612452266923

b1 f8 [1, 25]
00000000: f776 96fa 4fae 6b3f 0c8e e844 a750 6b3f
00000010: 006e ff76 9ddb 6b3f df79 0158 b994 6b3f
00000020: 6fdf 6031 bbd1 6a3f 60f3 0c67 e49d 6b3f
00000030: 0969 9f06 806c 6b3f 862a 1412 3def 6a3f
00000040: a181 fe7f cc5a 6b3f 788d 6802 b469 6b3f
00000050: 427b c317 8d5c 6b3f 2211 a251 eba7 6b3f
00000060: cd5b dd95 0437 6b3f 715d b762 9b34 6b3f
00000070: 97a2 08fb 4053 6b3f e1e7 5f83 5bb0 6b3f
00000080: f843 810e 38fd 6a3f 02f0 6756 eecd 6b3f
00000090: fbcc cf8c 48f8 6a3f f07d ad5e 47fd 6a3f
000000a0: 33e0 2165 e496 6a3f 5491 088d b3bb 6b3f
000000b0: 1566 cd22 83f0 6a3f 7308 3b5f 9b89 6b3f
000000c0: 683f 882c 8575 6b3f
0.0033790170752600007 0.0033343569732708963 0.0034006190762576605 0.0033668155665928924 0.0032738357649825726 0.00337118730422363 0.003347635317351498 0.0032879059587050423
0.0033391946926288473 0.003346301632761669 0.003340030261923672 0.003375968558488777 0.003322133022190843 0.0033209833979800864 0.003335596957431196 0.0033799922339285836
0.0032945723396911007 0.0033940939931635947 0.003292218875225237 0.0032946008627019394 0.00324577911765902 0.0033854014257192287 0.003288513302703642 0.003361514531065751
0.0033519364408291404

W2 f8 [25, 10]
00000000: e619 7518 581d 923f 45b0 748c 7437 7a3f
00000010: b8ca c404 2409 94bf 5895 1483 4896 82bf
00000020: b86f d210 23bd 593f bb6b f555 ca85 65bf
00000030: 1105 b7aa 97dc 7ebf 15dd 147b e5fd 933f
00000040: ae40 ced6 1548 803f a743 f4c9 ec5a 71bf
00000050: 8d91 2eeb 9a08 823f bb21 30f9 db35 943f
00000060: 7ea2 b8da 643a 993f b40a b4e3 7894 953f
00000070: f52d 3c99 882c 5e3f db42 0932 9149 14bf
00000080: ec47 1fdc a167 71bf 111e b4a8 fbf9 64bf
00000090: 2c95 c91f 3683 723f e8d8 697a 5b5a 72bf
000000a0: df4a 1628 f617 6e3f fbe2 235e f6f4 803f
000000b0: a1eb 7f31 aae8 82bf 1669 f3f9 f4bb 813f
000000c0: fc5c 8ba0 ba29 613f f657 ded1 23fe 793f
000000d0: 35de 99bf 9c71 7dbf bcb7 8793 1029 6d3f
000000e0: c558 5f16 df16 87bf c959 fe0b 8994 9a3f
000000f0: 750d 9343 a71e 8abf ec3d 1679 06a8 943f
00000100: b0c8 1e2b 5f77 73bf 62f2 8440 067f 833f
00000110: ad41 01d5 a93f 913f d5a2 e98d adc2 62bf
00000120: 4967 3271 6649 84bf e2eb e17a 7b8d 57bf
00000130: 98a0 7b24 d2d4 6fbf c53e 0c57 99b5 73bf
00000140: db7b 2b56 d63d 593f d4c2 43b7 d840 823f
00000150: 8935 fa51 98e7 83bf 5a8c 6c15 c7b3 77bf
00000160: fb92 de2e 55c7 80bf cb11 9e99 d59f 873f
00000170: 3dc8 05a0 e673 73bf 6c54 9d2f ffaf 8abf
00000180: f90d f34f 5b26 72bf e7d8 8f7a 78d9 92bf
00000190: b9e1 48c0 55e2 523f 2dbf 87a2 ed6c 903f
000001a0: 4ba5 1b75 cd99 51bf 3e6c 0fa0 f41d 223f
000001b0: 116b d962 2a98 65bf daa0 7e42 9bdf 9bbf
000001c0: 5875 ff04 39fa 803f b1a0 5c59 0ae0 7d3f
000001d0: da70 99cf 1d23 85bf 434a c1ce 1ce7 803f
000001e0: 80ae 11b9 c3e7 783f c142 e49a 6b84 863f
000001f0: 0905 562c 32f1 8d3f 8724 1c68 5ad0 863f
00000200: bfdf dd7e 1fb8 86bf 0bf1 5e75 fbd3 94bf
00000210: 2f04 ce5e 8b33 433f 2b7c 1ace 3f82 553f
00000220: bc70 1d60 db40 743f 8820 0179 71e2 743f
00000230: 8b4f 3d7e 9f9e 7c3f 37e8 baed dca3 65bf
00000240: 05e2 a15c 2656 853f cb10 788c 341e 98bf
00000250: 3ddd d09a 7970 53bf 065f e2f1 0bc8 8bbf
00000260: abc5 ac96 b302 74bf 4164 057a 0966 743f
00000270: 25b8 a703 6772 90bf 6779 1bc0 2890 783f
00000280: 6122 c917 3d24 7dbf 2160 0575 f4bf 8d3f
00000290: 0327 1ea7 d726 8e3f eed2 20f0 7cc2 8c3f
000002a0: 4318 9eb3 24e8 87bf dffb c18f dcd8 79bf
000002b0: 8d2f dd50 2cb9 6abf dbae d08a 21da 78bf
000002c0: 22b7 50c7 502c 7fbf 166f e650 e1bd 32bf
000002d0: 18aa 2e8f e4d7 4f3f af98 2f35 42e1 743f
000002e0: b402 073b 4d8a 7c3f 0cd9 ae8b 2610 853f
000002f0: 31a1 9d10 50c0 5ebf 8305 cb26 eacb 573f
00000300: 4323 d4d0 32e4 86bf 783b d39d e7f5 813f
00000310: 99f5 de11 61db 873f 5187 7d43 1475 7e3f
00000320: 1885 dd30 dbe9 973f 2404 fee4 348e 7a3f
00000330: 96e9 94ee 8b70 8a3f b978 cddd 4525 61bf
00000340: 452b fec8 3669 86bf bc2f 2c27 2f27 5c3f
00000350: ccea c49f fe74 6ebf 33fb ba4e 058f 5abf
00000360: 8284 699f ea16 5fbf c619 f77d 22e3 933f
00000370: 609e 6939 76eb 74bf b266 4a9c 0668 863f
00000380: 3e1a 8d36 2faf 763f 776a 8ecc 180f 70bf
00000390: e346 fe68 908a 953f fc47 1feb 427f 88bf
000003a0: b2f9 91d7 8004 90bf 9779 217e 069c 823f
000003b0: a167 491f 3a36 573f 2b63 ecd0 4c84 753f
000003c0: de01 ac7c 633a 90bf 5cb2 6b03 67de 72bf
000003d0: 04af e027 7b17 7dbf 2c9b 3c8b f03f 623f
000003e0: bf5b 3669 84bb 90bf 81dc 7781 8a60 92bf
000003f0: 84b0 5da5 1a16 88bf 9c28 86e9 b485 78bf
00000400: 2094 2828 2d37 8a3f fccf f2bc 44a0 6a3f
00000410: 5d79 1970 ffe1 82bf bc57 5b57 6a58 8e3f
00000420: 784a efaf a7e0 64bf b04e d1ef 15b2 81bf
00000430: ad8c 36bf 641b 213f 3018 6c66 2178 993f
00000440: 1863 bcf5 17d1 73bf b37d d3f4 7f76 963f
00000450: 86a6 b3c0 9095 79bf 2c4f f7f5 4f37 85bf
00000460: bfb9 7f8c 7a17 84bf 9079 ab5c dde5 58bf
00000470: c6d9 39b8 f418 77bf 6e72 b81d ca0c 7abf
00000480: e6df 8a26 c731 48bf dfa7 d51c b29f 89bf
00000490: 125b 743f 4c7b 86bf ffc4 e328 8f60 7ebf
000004a0: 6ada 4094 3a41 523f 685b 83bd 79d3 913f
000004b0: 796c d6f3 a79e 943f 21fa 690a 154a 8b3f
000004c0: c68a aa4b d132 88bf 072a 8f5a cbe3 86bf
000004d0: 5cf0 fe72 762f 49bf 8942 961a 87c5 83bf
000004e0: 937c 3eaf 25eb 90bf f7eb b497 7ef9 73bf
000004f0: 4909 d2b5 10eb 963f 99bc 022d 387a 89bf
00000500: f289 d64e 510a 843f 7f44 c36e 87db 873f
00000510: 3e4c 210d 2127 863f a9fe 16b5 c275 803f
00000520: ad1f 33d8 3b15 983f 9493 675d ad38 6d3f
00000530: 1035 7f1e 3ef6 7ebf 1089 00dc 079c 89bf
00000540: 6109 aa5f dd05 2ebf 4e3a 4350 ce5b 71bf
00000550: 0952 ba44 c31c 853f 6722 6b14 5e07 703f
00000560: ac56 dd31 7e7d 8e3f 60cb 2afe 0d42 58bf
00000570: 5437 1a04 6989 51bf 8f13 8648 c9e7 8bbf
00000580: 342c 28e7 bacd 87bf 2dcc ec25 75e0 893f
00000590: 08a1 342a 0c17 223f faaf 0809 8846 953f
000005a0: afa4 5afe 1891 543f 9780 3ece 2d0a 833f
000005b0: 94f7 1540 0795 80bf 08e3 38ff 8f90 82bf
000005c0: 8478 ef1b 10b0 8abf cbbc 3bdb 8101 44bf
000005d0: 0e9c e853 8f17 853f 237d 408d e79c 753f
000005e0: 7f34 57ec 9724 85bf d1de 6c54 684a 6a3f
000005f0: 876e 819a a204 863f 2c21 0802 ab07 7f3f
00000600: aea8 2381 f8b7 6d3f bfd0 3cb0 9011 863f
00000610: 0d90 d9f5 4c19 90bf af5e 7e60 b45d 82bf
00000620: 74aa 44a9 b49f 943f 9ac8 4879 6390 883f
00000630: a924 2cfd 11a1 83bf 5f0c 6d7f f477 8a3f
00000640: d43f bca5 6ad1 64bf a762 1580 3a48 633f
00000650: 8859 2f21 2a40 623f f062 51c3 f73c 5a3f
00000660: 93c1 18e1 f373 623f b953 9b9b 8503 953f
00000670: 3702 ca67 ad9d 703f d2fb 9410 f70c 76bf
00000680: 85e7 b7c8 ab25 6dbf 9aba 1cc7 ce02 833f
00000690: ee2b 9493 617d 63bf cb84 115b 1cba 7d3f
000006a0: e67c ea23 d33c 6cbf efcb ed97 ba35 7cbf
000006b0: a5a3 eb75 aabb 80bf 8412 d412 3ca7 7abf
000006c0: d6ed bf79 cc53 97bf 2e7f eb94 d8c2 43bf
000006d0: 1e9c ae65 0a5a 6d3f 937c d577 48d4 81bf
000006e0: 7a8f fb50 4c50 98bf 5643 d047 5184 673f
000006f0: b98c e88e 295b 8bbf 3d76 a3e3 8bbd 70bf
00000700: 5bd2 1504 8cf1 81bf 5ddb 69c6 496a 9cbf
00000710: 02a7 17ce 12c7 4abf a110 f222 f85f 89bf
00000720: 5a7b f0d6 ea76 76bf ec73 fd8e 2910 8cbf
00000730: a58b bd74 0bce 833f 6a08 1a45 0b1d 54bf
00000740: d05c 5d8b 5cde 7e3f c47a b5db e332 863f
00000750: 2865 2da3 40e2 833f 3310 eb5d 8288 6dbf
00000760: 67a3 c965 cb69 8bbf a138 a62a f344 923f
00000770: a169 09d9 bba4 7bbf 99ad 192a 1790 383f
00000780: 45ae 73ad 1a5b 913f d6c3 d080 7c22 943f
00000790: 2b00 3842 49b3 57bf a196 229f 29ab 8e3f
000007a0: 050c 22d8 a702 813f 7e93 1d34 2e90 913f
000007b0: 3b4d e216 84dc 5cbf 5198 e0b3 b0d9 913f
000007c0: 9efc b63e 4e35 823f 6b02 443f dead 7bbf
0.017690063946497768 0.006400542514978074 -0.019566118994769538 -0.009075705051666702 0.001570972675188449 -0.0026272727842928368 -0.007534592102673502 0.019523225438402642
0.007949991815422965 -0.0042371034208067765 0.008805475523168816 0.01973670681403104 0.024636817788776792 0.021074189088731557 0.0018416723223165764 -7.739018156739266e-05
-0.004249222054527362 -0.00256060745380516 0.004519664213693358 -0.004480702721244102 0.0036735351320172772 0.008279728649072995 -0.009232835422144538 0.00865928066052794
0.0020950932560982443 0.006345882340516687 -0.007188427256202658 0.0035596202617318145 -0.01127409255051893 0.025957242352512986 -0.012753779172618643 0.020172215595776352
-0.004752513648712917 0.00951962360761022 0.016844419122493615 -0.002290095303852583 -0.00990562470387925 -0.001437540613123949 -0.003885660585968575 -0.0048118581623978795
0.0015406220560902825 0.008912747471613448 -0.00971907615828617 -0.005786683722166586 -0.008192697041360377 0.011535328627140814 -0.0047492035667904805 -0.013030999794560759
-0.004431111038857954 -0.0184077095800256 0.001152595273323438 0.016040528340396754 -0.0010742670460167243 0.0001382218470372415 -0.0026360347608663866 -0.02722017854071699
0.008289761986754726 0.007293739725163715 -0.010320885560922855 0.008253312167800014 0.006080402891807446 0.010994759239595255 0.014620201089885503 0.011139589597876544
-0.011093374308742797 -0.020339898146390072 0.0005859785575098637 0.001312792119655413 0.004944664893482716 0.005098765614157348 0.006987212200176072 -0.0026416125309341137
0.010418224050440914 -0.023552723954723114 -0.0011864841028577787 -0.01356515247270763 -0.004885388868204481 0.0049801225835262595 -0.016061410520642156 0.005996855908703891
-0.007114637989226042 0.014526281186292124 0.01472252348664283 0.014042831495410604 -0.011673247081272936 -0.006310330933159996 -0.0032621255440172304 -0.00606740095558297
-0.0076106219685650196 -0.00028597594146061286 0.0009717813503489795 0.005097635864308155 0.006967832261978547 0.010284711015498015 -0.0018769056209411823 0.0014524256359183813
-0.0111774415950251 0.008769807342472666 0.011648901327016502 0.007435874132939294 0.023353028161527595 0.006483275050301027 0.012909978121219006 -0.0020929684236952986
-0.01094286728745931 0.0017183266142550687 -0.0037178967596934506 -0.0016210128623439068 -0.0018975535619108201 0.01942113775091927 -0.005107366384073581 0.010940601009952065
0.005538162637839293 -0.003920647498399369 0.021036392601280773 -0.011961481857643001 -0.015642178685533366 0.009086657261090631 0.0014167373275513 0.005253124297063742
-0.015847734913224325 -0.004606630702920524 -0.007102471425280536 0.0022277544138832508 -0.016340321466113524 -0.017946399833786323 -0.011760910197800685 -0.005986887634558038
0.012800553119698022 0.0032502501049638238 -0.009220119102960106 0.014817076483648488 -0.0025485301152710603 -0.008640452748444133 0.0001305160982215439 0.02487232387195365
-0.004838079064733568 0.02193641597557212 -0.006246152344127181 -0.010359406179226115 -0.009810407078444492 -0.0015196477640341023 -0.005639034210267407 -0.0063598532829273035
-0.0007383558668925233 -0.012511626725160539 -0.010977359472730739 -0.007416304795911487 0.0011141845761934118 0.01740827769466638 0.020136474855104034 0.013324894314107162
-0.011815676805161057 -0.011176670743130236 -0.0007685974469420309 -0.009654098032826812 -0.01652201540093452 -0.004876608373986172 0.02238107785934432 -0.012440146325700051
0.009785304277845495 0.011649187152587224 0.010816820347974706 0.00803711047308238 0.02351850039556751 0.0035670648605780706 -0.007559054043622795 -0.012504636193686497
-0.0002290566188386063 -0.0042379435655691255 0.010308766875177804 0.003913276194631088 0.014887796303507748 -0.0014805924080689356 -0.0010703588053817175 -0.013625690961598184
-0.01162286775526953 0.012635150165442333 0.0001380159711541556 0.02077686839236035 0.001255297096046253 0.00929675851494975 -0.00809674896549576 -0.009064793564094412
-0.013031125881692647 -0.0006105312408787531 0.010298843143642624 0.005276588915904132 -0.010323702716869441 0.003209308404077273 0.010751028385292528 0.007575672149421824
0.0036277631380602004 0.010775690439551842 -0.01572151423023631 -0.008967789835693322 0.020140478926956765 0.011994149340442118 -0.009584560908040567 0.012924108637554164
-0.0025412638623336457 0.0023537771782396635 0.0022278616756736293 0.0016014499244844625 0.0022525561587586978 0.02052124750374038 0.004056622853227546 -0.00538345822979998
-0.0035580020100924336 0.009282699061796951 -0.0023791223326319255 0.007257567181200029 -0.0034469722589417382 -0.006887177353621417 -0.008170444224974658 -0.006507143652247142
-0.022780604296697003 -0.0006030614402696471 0.0035829737730242025 -0.008705679089585671 -0.02374381298331183 0.002870711089152082 -0.013357472108572176 -0.004087015573728756
-0.008761495470687544 -0.02774920724410933 -0.0008171884366536544 -0.01239007813115506 -0.0054845021650454465 -0.013702702213487648 0.009670342922339101 -0.001227627759732753
0.007536279202972909 0.010839252607806833 0.009708886127259023 -0.0036051317432299833 -0.013385380786716984 0.01784114787874869 -0.006748899250477087 0.00037479939974246476
0.016949097477591008 0.019662804949067546 -0.001446553746859545 0.0149749042214567 0.00830584648452338 0.01715156739318812 -0.001761559480233667 0.017431984881249033
0.0088907349480663 -0.0067576104668210886

b2 f8 [1, 10]
00000000: a020 1781 5114 673f 5eae 0f87 0c8f 8c3f
00000010: f2e9 9beb d6a0 74bf 0068 2061 10d8 713f
00000020: 9e98 2d02 410a 6abf d11e d07a 307c 76bf
00000030: d54a 437a cb01 91bf d337 1ea5 26b9 7a3f
00000040: a662 5c0c 5429 6bbf 4da6 d401 8784 783f
0.002817305744177004 0.0139447191922592 -0.005036201031311626 0.004356445295366385 -0.0031787175843645673 -0.005489529966332633 -0.016608409249623108 0.0065242299623502085
-0.0033156053131161043 0.005985762950595564
