experiments/exp_h100_lr0.1_run1/model/weights.npz (npz, 637046 bytes, 4 tensors)

W1 f8 [784, 100]
00000000: be7b c323 9b2e 76bf 1436 fb05 7505 74bf
00000010: bd35 ce2e e377 8a3f c94e e2cf 6abd 75bf
00000020: 0947 d125 b7e1 953f a48c 9d7d 06b9 7fbf
00000030: ad5b 3161 ad95 82bf 0d78 33c5 ef2f 82bf
00000040: 5856 3704 3011 733f f40f ea42 693c 56bf
00000050: 6a34 271f 7d69 903f 5748 7986 8c01 7e3f
00000060: 722c 67a0 b472 953f bbb0 8c0f 914a 733f
00000070: 2bc6 a4dc 5297 80bf 3294 2b03 1167 853f
00000080: cded 99d9 ebad 213f 6721 b645 f44c 52bf
00000090: fce4 9a2d 0123 7b3f 5e55 a580 58d2 92bf
000000a0: e63e 7771 cbb6 8c3f 6e64 6016 fa9e 713f
000000b0: c8d4 991b 26f9 763f d30e c04c d2d0 73bf
000000c0: 1b79 5aba cc5f 6d3f d567 27c8 a413 79bf
000000d0: 08f5 3c2c 5b50 703f 1ddb b631 b4d2 97bf
000000e0: b852 5e06 9232 7f3f 6fee 7c9d 4312 25bf
000000f0: 2dd1 ee13 b3f0 7e3f b334 edfa d6f8 833f
00000100: e7bb 8d87 906d 79bf 112c d9b2 12b8 883f
00000110: ba05 e82b 54ea 413f 5de4 fb2c 932f 763f
00000120: faab c69b f6be 74bf 71ea d848 dee0 583f
00000130: bae8 ce14 d0de 71bf 65ad 4b35 1284 7d3f
00000140: e7f1 fa7a 8ca5 51bf fd13 4e39 1b24 8bbf
00000150: 0ba3 9907 7666 403f 5b60 6d82 cd5d 7b3f
00000160: 1530 ec1d cb7d 4cbf 8167 08be 8bc7 8f3f
00000170: 7dd1 052d e1ea 64bf b1d2 cb47 8ea5 723f
00000180: c10d 0007 6bf8 4f3f 1d54 2f4a a7b8 85bf
00000190: b76c a032 80d1 64bf bc63 1ec9 6b08 47bf
000001a0: 0d3c 1982 d205 8ebf fd31 c841 e6c0 973f
000001b0: ad1e 8d9d 7d78 6ebf 23f2 9652 2c51 7cbf
000001c0: 9ac1 fa3a 939f 7fbf af4c fc6f e3f8 263f
000001d0: 822f 275a 8713 72bf 1a0e 08d4 5a4e 84bf
000001e0: 7f22 32ba 2861 723f 9d27 a76b 45bd 8d3f
000001f0: 7a0b 7415 8144 713f 761d a364 512f 68bf
00000200: d49d baef 70d3 93bf 06e0 4c16 5184 743f
00000210: 966b 639c 70fd 8bbf 51b8 7a83 7b19 8bbf
00000220: cee7 23e0 b9d5 743f 011f 0af8 9994 6d3f
00000230: b6ff 0b13 fd45 913f be49 354d dede 793f
00000240: a28c 75f1 88d3 8e3f 8201 3c3c 8220 83bf
00000250: 23fc 0be3 a79b 7f3f 1730 8de9 0e69 8b3f
00000260: 654c 337f 8a77 943f 58cf 4a7e 0809 8cbf
00000270: 5350 72e4 f879 6e3f a309 c1e8 b8b6 8e3f
00000280: 19d5 1d0d c9d8 80bf be69 9508 01c7 80bf
00000290: a809 5502 6d72 8fbf b4d3 0c50 b2b0 793f
000002a0: bc38 57f5 ff06 883f 1340 d207 7363 7f3f
000002b0: a10c bbb5 48bf 7bbf b5be 6bd0 fb0b 68bf
000002c0: 26f9 f636 33cf 633f 8080 8fd6 778b 353f
000002d0: c9fc 22c8 1584 77bf 7c0b 0e59 41da 88bf
000002e0: 8076 de02 c3f6 713f 5135 b481 fcca 773f
000002f0: cbdf 7eb3 fab6 6cbf 467a 783a 7364 683f
00000300: 6d54 c066 3a5b 8ebf d02b 382f 3d19 83bf
00000310: dc88 b200 b812 71bf 562e 826c e3e8 62bf
00000320: 44f2 cee3 f72b 7abf 87db cd90 c110 86bf
00000330: 0b4b b2d7 93ff 883f fdad 72fd 8174 72bf
00000340: 25f1 5f50 3eef 813f 4d51 03cc 6bab 853f
00000350: d85e 1498 18e1 853f 0f43 188c 11f1 6e3f
00000360: a978 dbb2 4455 92bf 5960 67ae 999c 7a3f
00000370: f26f 250d 3de9 6b3f 9fbf f618 5432 62bf
00000380: a6b5 d495 993b 943f 5358 6ba0 a3fe 703f
00000390: c7d3 612a c517 88bf ee90 769f 7e9a 50bf
000003a0: 20e0 2fa2 d67f 883f c8d5 e1c5 e405 7e3f
000003b0: f910 fe7c 1e9e 843f 13e8 fb3d d3e5 7bbf
000003c0: deb1 21a8 ce22 89bf 16bf ea8e 7967 69bf
000003d0: 71c2 224a 65f8 56bf 07f7 f13a 2f45 593f
000003e0: a1d8 e1cb 7d79 843f 5d08 a331 142a 5fbf
000003f0: 2a1f 8737 24d0 633f 0510 103e 2cb5 8a3f
00000400: c4d8 04ab 774e 94bf bafa 000e a6c2 73bf
00000410: 5c66 a646 f2b1 6c3f ebae 478a 9f3a 8cbf
00000420: 4bcd 7d99 c9cb 503f 9a1b d527 f4e6 96bf
00000430: 1cac b34d 5f2b 83bf dcfe 214b 9c2e 613f
00000440: 791d 75c8 8c67 87bf 9aff 7f26 a7bd 8e3f
00000450: 2383 20ed 4195 77bf 0101 f2cc 8ac7 73bf
00000460: 42dd dba5 7603 94bf b38c a7bc ddfb 7e3f
00000470: 0edf 87e1 5a06 903f bbd2 02d7 4960 733f
00000480: 9e16 e7c4 e411 893f a2f9 b940 4053 8ebf
00000490: 53a2 5a95 ce07 823f 3ff0 6a8e 6d58 8dbf
000004a0: 0f92 b23a 5bf8 903f 50be 44e1 22f9 923f
000004b0: bb88 9949 cab8 78bf 88a7 cbd5 33fc 7f3f
000004c0: cb0b 343f ed43 7e3f 971c e526 62ac 7fbf
000004d0: cac5 952e 1bb9 823f c44c 5d53 eb87 563f
000004e0: 96ec 6f89 d538 733f e2c7 7552 f7d3 693f
000004f0: 8ee3 29a1 957b 82bf d476 fe46 7ae2 90bf
00000500: 5cb6 0eb3 3225 3abf cf62 bb15 a258 883f
00000510: 123b b246 8640 713f faec d6eb f653 74bf
00000520: b3bd 8585 c6c9 863f b305 37a2 d5a6 64bf
00000530: f45c 20e0 8971 723f 245c 541a c268 65bf
00000540: 7291 8090 ef19 913f 2d7a d7d5 7bfa 7e3f
00000550: 8bd3 b938 996a 7dbf fa69 1f30 6fa6 843f
00000560: 69cc 21d0 90d5 88bf 7353 314b 1c88 773f
00000570: 670e 75ef dc60 723f f6b3 90da 93c3 82bf
00000580: 8b4b 7440 db89 873f 2444 bc22 33a8 94bf
00000590: 1724 3d9c 868f 7ebf c173 afe4 a846 5d3f
000005a0: 2c0a 97e0 2a2e 743f de11 3469 5185 55bf
000005b0: 71fb ffdb c4a7 473f 2b5d 9647 f604 813f
000005c0: d51e 1dd6 963e 893f c772 fe32 c4c6 84bf
000005d0: b34d 4159 cf7c 8f3f 18c1 e170 47ef 983f
000005e0: 7804 13c9 5e8a 8d3f 6cb8 665b a014 8abf
000005f0: 1f22 c061 5780 8e3f 5cc3 8dc0 cb26 853f
00000600: 1273 ef0b b74f 86bf 9e4d 693a 0ee5 a03f
00000610: 3681 fb0c f6e5 823f e2ed b9ee 7bc7 903f
00000620: f6d0 014b d115 82bf 1fc3 4cf6 f4b5 6bbf
00000630: cce3 c08d 86eb 82bf e400 9409 195c 673f
00000640: 2bf9 a0ec 3bf6 97bf 5520 f642 f1a7 8dbf
00000650: 4be6 3a39 7cb6 893f bf69 cb04 3712 88bf
00000660: 276a 6187 7431 7bbf a2ad 133b 27cf 423f
00000670: e426 b1a8 88d0 70bf 8b99 0e10 d5d0 943f
00000680: 5e0c ed02 3a49 7a3f 6ce4 e2cf 1b2a 82bf
00000690: d4a4 1f7b be83 763f 6786 49f9 d779 913f
000006a0: c1e4 05e1 7183 823f 8f68 343c 5ddb 1f3f
000006b0: 2566 1934 86b1 673f 835f 7bf8 6f44 8f3f
000006c0: 6829 23c1 3590 803f aa74 7048 2fe1 87bf
000006d0: 884f 02e6 c11c 833f 4e76 f12a 5214 82bf
000006e0: 36c3 f513 f9f6 74bf 2d12 d384 cedb 57bf
000006f0: 6d5d 6d09 8ca6 663f 10c5 b69a 8426 88bf
00000700: 8b17 847d 0ae3 603f 5a94 1f71 119b 6ebf
00000710: 9d8d 99d8 d084 81bf 4dc8 e86a 4da5 7b3f
00000720: dd31 ceb2 9aa3 793f 735e 7f7a d33a 803f
00000730: be83 c598 d18f 93bf bb43 cf3e 4124 77bf
00000740: c20c 9971 3f58 7dbf 6a82 757d 4b17 773f
00000750: 783f 9e77 8e66 753f 6095 f391 f16a 783f
00000760: 49b7 3c5a 51ae 79bf 12fb cc36 8d8e 65bf
00000770: 77b2 eaf8 bfaf 74bf 43e5 308f 2522 773f
00000780: 1d84 ed50 0296 8d3f 1984 e3c4 31fb 81bf
00000790: 1e0f ab70 ece6 893f bbbf 160c dcf4 87bf
000007a0: eee7 c8c6 3efa 82bf bea6 bda8 ebbb 46bf
000007b0: 155c 06b4 61ae 82bf 4b6d 7a34 1587 7fbf
000007c0: 6e00 c242 9be3 82bf 1450 abfc 6b88 83bf
000007d0: 81a0 5e74 09a4 6bbf b590 0e2a 9d98 743f
000007e0: b31d 795d ec5d 853f 41a3 6280 5a0a 813f
000007f0: bfa0 f972 5d06 793f 9513 cede 9041 8b3f
-0.005415540708979925 -0.004888016817586233 0.012923979631319743 -0.005307595476682977 0.021368848498531743 -0.007744813303221996 -0.009074549225415252 -0.008880494313810794
0.0046550632136664535 -0.0013571765845492552 0.01602740767139147 0.007325695921808948 0.020945379533980853 0.004709784167783389 -0.008101127012738981 0.010450489911315673
0.00013488296535855843 -0.0011169801208286924 0.006625179865005434 -0.018380530216139383 0.014020528221322558 0.004302002815188206 0.005608700617462499 -0.004837819560637962
0.0035857199280392555 -0.006122249297243661 0.003982883590478943 -0.023264709028548148 0.007616587075877028 -0.00016076159840304772 0.007553767702962494 0.00975196793811004
-0.00620800453985646 0.012069841464059679 0.0005467329972931791 0.005416464715147643 -0.005064929308370653 0.0015184565303473475 -0.004362881486423992 0.007206030965544262
-0.0010770675543617604 -0.013252461134252153 0.0005004955593906636 0.0066812541689032735 -0.0008694879323640792 0.015517322289315906 -0.0025534055677615673 0.004552417548201391
0.0009756586641746433 -0.010606104804461275 -0.0025413040030009787 -0.0007029081627819493 -0.014659542651456215 0.023196790471091678 -0.003719563810964241 -0.006913350234239365
-0.007720542067247394 0.00017526413284283312 -0.004413155288101824 -0.009915074916540912 0.004487189379809408 0.014521162364775903 0.004215721353150731 -0.0029522504529244055
-0.019361271507163227 0.0050089995827917785 -0.013666991970628744 -0.013232197713787171 0.0050866375697697485 0.0036108977513470424 0.016868547713783953 0.006316059461214994
0.015051908367871573 -0.009339349234779307 0.007716804321488832 0.013383976461817366 0.01998726273889097 -0.01368910441792763 0.003720270269306916 0.014996952632036214
-0.00822598525312883 -0.008192070078327226 -0.01535496867530102 0.006272026571242973 0.011732101130203502 0.007663201654523294 -0.006774219534864263 -0.0029354017491341707
0.0024181366240717704 0.00032874751792456164 -0.005741200528233744 -0.012135038881529552 0.004385720980193519 0.005808817247509993 -0.003505220080082671 0.002977585845442196
-0.014822441349716631 -0.009325483325502676 -0.004168242226258747 -0.0023083154556553893 -0.006389587707357484 -0.010774147254535084 0.012206225414308066 -0.004505641721304962
0.008757101848452973 0.010580866015893387 0.010683242932415224 0.003777059814418122 -0.017903397957404952 0.006497001950684555 0.003407115212366912 -0.002221264126738689
0.019758605737640565 0.004149092833094131 -0.011764088016414832 -0.0010133968879495986 0.011962582420878276 0.007329839367334619 0.010067213239161254 -0.006810975231696065
-0.012273420816392763 -0.003101098459715855 -0.0014019955784016181 0.0015423737748103143 0.009997351440898252 -0.001902122231101553 0.0024185855256496818 0.013040872234348919
-0.019830579579512855 -0.004824303294354843 0.003502820201174468 -0.013783689887496084 0.0010251492257936253 -0.022365393572978932 -0.009360069807788966 0.0020974209410836563
-0.011427974574543797 0.015010171759058544 -0.005757577442665948 -0.004828970136373068 -0.01954446208307315 0.007564417037858084 0.01564924241571846 0.00473049968438904
0.012241160639756384 -0.014807226157469714 0.008803953106807294 -0.014328819187873985 0.016572404344190213 0.018528504370975363 -0.006035604653876254 0.007808878403673954
0.00738899874272909 -0.007732757001867394 0.009142124518549805 0.0013751791097618574 0.004692873123526861 0.0031528311262087752 -0.009024781208823798 -0.016488943656091617
-0.0003989456918656925 0.01188780430622796 0.004211925998915305 -0.00496288732159233 0.011127043676167547 -0.002520959141947465 0.004502810073993436 -0.002613429171684627
0.016700499720302138 0.0075630986516146805 -0.007181738397424984 0.01008307328804835 -0.012126094199834197 0.005745039484357106 0.004486907032802279 -0.009162097079832048
0.011493409065712409 -0.02017288112171313 -0.007461095639720325 0.001786866125932138 0.004926841248961849 -0.0013135237721267827 0.000721903918019835 0.008310245570824456
0.012326410683854242 -0.010144741827212823 0.015374774848317374 0.02435027719951774 0.014424076567936192 -0.012734654225678287 0.014893229170426512 0.0103279035699601
-0.010894231845605815 0.03299755538014469 0.009227678557579649 0.016385971494384928 -0.008830676175627588 -0.0033826622406184638 -0.009238291932080055 0.0028515328418735487
-0.023400245969463256 -0.014480481010437677 0.012555094238780337 -0.011753492196864166 -0.006638961020224466 0.0005740109974374139 -0.00410512335208477 0.02032788191322647
0.006417490584513434 -0.008869378358541812 0.005496734682290245 0.01706635912922252 0.009039773635537764 0.00012152439653726115 0.002892267338023629 0.015267252703253359
0.008087558704933343 -0.011659974477931396 0.009332194167917654 -0.008827821670077143 -0.005118344269576627 -0.0014562145982363148 0.0027649626821745683 -0.011792217227454077
0.002061386574612583 -0.003736051622569775 -0.008554107294179764 0.006749441540295176 0.006259540835241909 0.007924701858356564 -0.019103312444147973 -0.005649809708260396
-0.00716423781119885 0.00563745010671877 0.005224758637169084 0.005961364396374819 -0.006269758017692536 -0.0026314504706584996 -0.005050420658034064 0.005647799221202124
0.014446275801391956 -0.008779896565501532 0.012647483051643923 -0.011697501295969795 -0.00926636737959893 -0.000693788593236287 -0.009121669107839772 -0.007697184402469868
-0.009223187422549208 -0.009537547729827657 -0.003374117341952199 0.005028356478678987 0.010433050730297965 0.008320529025085956 0.006109585796004235 0.013308650779217316

b1 f8 [1, 100]
00000000: 12a0 d9d8 a123 db3f 4237 b2ae d51f db3f
00000010: b729 94a6 6f1b db3f 8f34 4fc6 5714 db3f
00000020: 6c2c f9e1 7c18 db3f 42ce 552b 891a db3f
00000030: fdbb f03a a119 db3f a04b f5c7 d90d db3f
00000040: 4c77 057e 6a0d db3f 7f85 a2dc ab20 db3f
00000050: e3be f1fb d80b db3f b690 9441 531b db3f
00000060: c039 f759 8719 db3f d46e 8d98 8710 db3f
00000070: 2b98 976a 6415 db3f 0484 525e 291f db3f
00000080: 1505 8849 5316 db3f f57e 55ca 7f03 db3f
00000090: 2ce5 b0fa 3e1d db3f 1ae2 e00d 570f db3f
000000a0: 2c1c 6608 9815 db3f c43e 5a78 fc21 db3f
000000b0: d720 36ed 3016 db3f 15de b93f 021b db3f
000000c0: 674f be9f 391b db3f f4ae 51f7 9815 db3f
000000d0: 9b3a d563 3c19 db3f 4356 be1f f21a db3f
000000e0: 3512 ded2 c10c db3f 1158 5de1 8017 db3f
000000f0: 19d9 cfd1 530f db3f b0d7 6af5 bf1e db3f
00000100: f191 0fec bb1e db3f 7e9b 5c36 a41c db3f
00000110: 0798 75d2 161f db3f 4cab 0b04 cf17 db3f
00000120: 8943 bbe7 1c1c db3f 0c2c 7701 581a db3f
00000130: 0ea6 890e fa1d db3f bd9d 307d 581a db3f
00000140: 3d93 3402 1a0d db3f 4e78 9e28 9c15 db3f
00000150: e45b 9703 6209 db3f 7154 e5b7 3816 db3f
00000160: f95a f43f ea11 db3f c734 5e76 710f db3f
00000170: 1516 559c 8013 db3f aec1 be8a 7c11 db3f
00000180: e569 4fe5 ba07 db3f 964b ae75 7715 db3f
00000190: 13c2 cffd 7820 db3f 1f80 93dd f91a db3f
000001a0: ad6a 20bd bc17 db3f c934 a254 ea0f db3f
000001b0: df87 ae3c d11b db3f b8a3 93aa 6a1f db3f
000001c0: 2281 9a22 631f db3f 1241 00f3 db0f db3f
000001d0: 04be 58f0 dd14 db3f c489 0c89 ee15 db3f
000001e0: 6bfe b890 6716 db3f ba88 578a 200d db3f
000001f0: b9e9 ab8d 0c09 db3f 1bb2 2a2d 4b20 db3f
00000200: 361b 812c 3c0f db3f 4ca6 4658 0d21 db3f
00000210: 8c2d a479 f821 db3f 8131 fc51 781f db3f
00000220: 9303 4d75 5e1c db3f 678a f6e9 1e12 db3f
00000230: b453 8f1e ae17 db3f 3c75 2f77 eb21 db3f
00000240: ffc6 97ca 7a19 db3f ca27 169f fb19 db3f
00000250: ae82 bb85 841d db3f a438 288d a20c db3f
00000260: f041 c718 ba17 db3f c0d8 ba08 9b15 db3f
00000270: f2aa ef8d 1e16 db3f d66e f923 4822 db3f
00000280: b714 ff3c bd1c db3f 3c6f 80ce bf15 db3f
00000290: 3cc6 4fb6 961f db3f 4029 790b ae22 db3f
000002a0: 899b 4fa7 be1b db3f a3da cece 1b19 db3f
000002b0: bfdb d99e 6a22 db3f 3b29 fa32 751d db3f
000002c0: e498 e07f 461c db3f 4b6b 5745 b312 db3f
000002d0: d623 3ce3 bb1c db3f 511f 393d f320 db3f
000002e0: 861b 33f2 3a1b db3f 1fa2 1ed8 8e0f db3f
000002f0: 202d 3738 e61c db3f e214 81a6 d516 db3f
00000300: da99 27c5 2814 db3f ae7b 1186 7b08 db3f
00000310: ec56 fbed 1715 db3f f207 2540 3111 db3f
0.4240498178173776 0.4238180356995721 0.4235495688195913 0.42311663023139884 0.4233696181078759 0.4234946177668669 0.42343931918998107 0.4227203800884869
0.42269384676716437 0.42386910005924244 0.4225981197732677 0.4235427990372601 0.4234331492015393 0.42288389108374 0.4231806794108503 0.4237769528500055
0.4232376306609507 0.42208857306648834 0.42366003495733895 0.42281128268544566 0.4231929857273282 0.4239493537252026 0.4232294384496646 0.42352348540541246
0.4235366878503925 0.4231932082391119 0.4234152769976533 0.4235196409220842 0.4226536330463973 0.4233095360590378 0.4228105114883803 0.42375182119883004
0.42375085881056324 0.4236231356502954 0.42377253105803486 0.42332816500736636 0.42359087591199135 0.42348289626232893 0.4237046377153043 0.42348301148964734
0.42267465796821907 0.4231939694090031 0.4224476847716103 0.423231296144258 0.4229684471660416 0.4228175788819723 0.42306533114273864 0.4229422907765422
0.42234680551123766 0.42318521969098677 0.42385697160992314 0.4235214866475889 0.42332380742451897 0.4228463961124587 0.42357283521607586 0.4237925210750819
0.4237907255101324 0.4228429673248836 0.4231486174712418 0.4232136095398824 0.4232424653346018 0.4226762152667437 0.422427309371098 0.4238460484582746
0.42280487390637533 0.4238923418111866 0.4239484012511745 0.4237957764278449 0.42360650496635194 0.42298100326494253 0.4233203218876114 0.42394529952237625
0.42343015465222317 0.4234608701304948 0.42367661533175294 0.42264617714762154 0.4233231775260995 0.4231937012913356 0.4232250581832623 0.4239673949539172
0.42362910229378364 0.4232024685495508 0.4238030224215412 0.4239916908305936 0.42356840456925987 0.42340750881286676 0.42397561562341574 0.42367296198121424
0.42360079277058404 0.4230163743174457 0.4236287802783044 0.42388611773320856 0.423537003062329 0.4228245840591018 0.42363887300298764 0.42326871166399205
0.4231054234827788 0.4223927315960577 0.42316244354638743 0.4229243399059889

W2 f8 [100, 10]
00000000: 8e69 986b 9266 84bf b0c7 5b80 ecf4 24bf
00000010: ad5e e4d5 c2e8 a03f 4a97 3b4a e84e 943f
00000020: 0847 5e75 6ccb 75bf 058f bef1 1e20 8a3f
00000030: 943f 66c2 3120 7ebf 108d 6909 4e3a 503f
00000040: 3952 fcff f332 9fbf 1eff 7add 84a6 79bf
00000050: 4f58 572e 819c 93bf bf2c 40de ef9c 603f
00000060: 7f39 c3f6 68e0 a43f 579c 865d 0e56 9c3f
00000070: 588b 0cd6 cfa4 93bf 075d 1d43 83ce 8b3f
00000080: 86f4 efe5 2c91 8c3f 31ed 30c4 ba0d 8dbf
00000090: 7a8a b969 f5b9 a2bf 8f9b 02fd 1c5a 993f
000000a0: f68c ac1b c62d 86bf a626 5088 5576 b33f
000000b0: 8181 b6b9 89cd a0bf a2ad a602 8fae 863f
000000c0: b0d9 a3ff 6301 92bf 59c3 75be a73e 9ebf
000000d0: a979 de2a cafe a53f 7cf8 9c8b adf6 923f
000000e0: a09c 3e60 23c3 aebf 2cc1 4c3c c70a 9cbf
000000f0: 95a3 a86d 48d4 7e3f 5438 54b1 ef2e 893f
00000100: 2137 6a85 1ae2 833f 620c 8f10 3e7a 99bf
00000110: b638 3797 c6fd b23f 0ea8 db9c 1133 a2bf
00000120: 4017 2b95 dae5 a8bf 203c e3ab 32cf 5cbf
00000130: c0f4 5afb 6add 8f3f cbb2 3d10 4531 a03f
00000140: d893 d159 55f2 95bf 7339 c469 412d b43f
00000150: 936e 033e 1048 a2bf bc4e 5051 5b01 a73f
00000160: c7ed 2dfb 6df3 96bf bdf1 e18d d84e 9dbf
00000170: 23fa 4886 01a8 a3bf a71a d673 23c3 a0bf
00000180: 5c78 d669 b28b a13f 8085 d22a aa97 4abf
00000190: d9d1 7ec6 6a22 b13f 7f77 8a90 b526 93bf
000001a0: 35b5 c54e 4f06 95bf 86e5 c62c 8bb1 56bf
000001b0: 0b1b c539 b5d4 8b3f 9d90 7a7a d191 7abf
000001c0: 8e1b f0ee 9a79 943f 4b04 18a9 3d06 993f
000001d0: c0c5 b9d5 bfb8 a3bf b234 0dfc 8d5d 87bf
000001e0: bf7e 41d5 131e 8bbf 0faf f9f6 73b3 a73f
000001f0: 1cd1 cd1c 5212 a23f a246 6f7e b7c4 853f
00000200: 62f3 6b65 b150 9cbf 65d8 dd4e 94ea a6bf
00000210: 2424 3b25 5967 853f 9f45 b5bc a315 a3bf
00000220: 986a 9d93 baff 843f 1727 739c 2d9b 823f
00000230: 6aea 0040 11d6 a2bf 549f 5a04 d695 85bf
00000240: 7a59 13ce 0291 69bf e6ad 3690 42db 88bf
00000250: 8685 d82e db65 b2bf 7223 81d5 578a 8d3f
00000260: 8b51 7e6f 1477 9e3f 1b5d 6008 ae03 a33f
00000270: 4436 0b50 447d 803f 16ff 7cbb 1e0c b03f
00000280: 1823 95b7 517b 69bf 84b5 a62e 4903 56bf
00000290: fa42 6df9 d86f 95bf 3fd9 99fb 6fed 9c3f
000002a0: 54de 8e7a ca40 b23f 18ff cd65 d62c 9f3f
000002b0: 08ee 7275 ed78 8ebf 6f1e 9566 b01b b7bf
000002c0: 06ba f7ae 006e a53f 7817 b80c 6fe9 a5bf
000002d0: 690b f20a 94b8 923f 6c92 d02b f57e 923f
000002e0: 513a 2945 c817 a5bf 9e5d 3dcc d7b4 b13f
000002f0: 49fd 34d0 fd06 92bf 4f1e 3b96 52cc a1bf
00000300: d809 cb27 d7ac 92bf 52d5 1ab4 687f 833f
00000310: 7b73 935a f44b 8abf b416 441b 05bb 96bf
00000320: 8a73 5050 11bf 82bf 28ab a650 13f2 8c3f
00000330: 9714 7db7 deef 92bf c25a 5bd6 902e 9bbf
00000340: cac3 f7cc 3e05 b2bf a18b fc2f fcc0 b73f
00000350: 1422 fdc8 ff65 a73f 9ea9 1c81 f9d8 84bf
00000360: aa20 ee12 134f 833f d4be 2a48 7804 89bf
00000370: 965f a797 c31a a4bf e3f9 a2df 0607 813f
00000380: 3ede a4a5 434f 7c3f ee63 bf4b be31 913f
00000390: 2e9c 6afe 6345 ab3f 1cc2 44d2 9b26 9b3f
000003a0: d454 d6bd 27bb 9abf 7067 b894 ded3 653f
000003b0: 8534 17e6 6ecf b1bf 42d2 d281 9057 9d3f
000003c0: 4f8b b6ab cd6c a4bf 22d3 fd99 f236 b33f
000003d0: 6e5b e154 12fc 793f 5947 b037 379f 8e3f
000003e0: 2869 4c87 c471 a0bf 14e1 3ef6 7741 833f
000003f0: 7dd0 e566 f593 9abf 3f15 a725 3dd1 9bbf
00000400: 6468 69ec 93bf 9c3f a400 d39a aa90 5f3f
00000410: 52fe e877 d51f adbf 3eed eba1 31f1 8ebf
00000420: 384f 1ced 5769 83bf 3405 16dc bf64 923f
00000430: 1da7 c520 d7e6 a5bf 1855 66f4 54f7 903f
00000440: b472 ef9e 3b26 903f 7e13 ced6 6da6 a03f
00000450: 2e95 1744 0fd4 aa3f fe15 f631 1334 8fbf
00000460: f86a 7387 80a1 993f dd6e 3f9b c545 ab3f
00000470: 44bc 1e63 5d39 96bf beb8 7973 d469 9e3f
00000480: c273 69c9 3e16 84bf b18a cbdf cfaa 9d3f
00000490: 1814 dbf4 a5f1 b0bf 5401 d0a0 c7b8 75bf
000004a0: ba75 2ccf 4f6a a53f 63f4 cbd6 1547 b1bf
000004b0: 11e8 7b03 765a a0bf 9618 1a63 1092 883f
000004c0: 6553 27aa e20d 583f 6a1f cc64 148c 883f
000004d0: 7c22 831c be58 843f 1891 9ff2 b8b4 7abf
000004e0: 7671 4ca1 afe6 96bf a98c 01a4 c496 773f
000004f0: bc43 3790 c05d 923f 17d5 86e4 6314 923f
00000500: e9b4 9f04 e32d 9cbf fced 021c 46a6 85bf
00000510: a022 13cf 179f a4bf 94ee 42cc e7b1 87bf
00000520: cf59 8dad 38b0 ad3f d57b 5e03 0f9d 823f
00000530: f9e0 3dcd d3db 72bf b0d4 7ed6 eef4 5e3f
00000540: 1ebb 741b 06db a23f 9754 6d7c 52f9 7d3f
00000550: f075 4563 1efe 8ebf 9ab3 422a a291 96bf
00000560: da22 a0f9 5523 b23f acf2 fcc3 1ee3 a6bf
00000570: 4c78 bb5e c54e afbf 5aa0 ab65 52f3 aa3f
00000580: 1afa e5d3 b161 9f3f 3c73 7937 534c a83f
00000590: 9729 f212 5e8c b8bf 6516 419b e2c0 a0bf
000005a0: 4ec0 1fdb 17bf 923f e362 7143 6b3b a73f
000005b0: eefc db9c c24a 8a3f 3d09 b448 62d8 733f
000005c0: 00a2 d0f9 41c6 36bf b1e2 9467 4682 91bf
000005d0: ec41 a00b 344c 6abf 9c91 4403 00db a33f
000005e0: 4cdb 180f ddf1 b5bf 2fc6 9d1c f5b7 953f
000005f0: 98b3 d315 51fb a0bf d6c9 724b 01ce a33f
00000600: b944 884a 5718 99bf 6882 d856 b9bd a3bf
00000610: 6f81 d980 e92e a1bf 5980 44b8 3758 a73f
00000620: 056b 046e 4f62 993f 01cf b538 8825 a93f
00000630: a5fb d313 5e0e 793f d48c 4526 05ff b2bf
00000640: 1a5d a1f6 6114 6d3f 67c0 6908 dcf1 90bf
00000650: 0006 8339 f21a a83f 646f 2555 65b5 a9bf
00000660: 6061 27ad 2105 8a3f 81d2 34fe 8bc5 913f
00000670: f856 1d4f aad9 883f 1428 f5a7 8eae 80bf
00000680: 88b7 5915 083b 643f 9e17 48cd 9074 813f
00000690: d3c1 d116 4ec3 973f e00d be53 65a5 6a3f
000006a0: 74aa 38b7 7012 90bf 0069 d1a1 2c51 9a3f
000006b0: 1d43 9251 9ab1 9b3f b5c6 969f 531c 9bbf
000006c0: 16f7 7057 8f21 a5bf 12c6 8d26 3a29 81bf
000006d0: cdd2 844d 483d 92bf 0614 0891 c2b7 85bf
000006e0: f734 ddcc a765 a63f 1658 1e95 46d8 923f
000006f0: a7f4 a6b2 4b40 9bbf 4c23 b39f 3e16 56bf
00000700: 3635 f751 03f8 a8bf 6933 e60e 09b8 a93f
00000710: 0115 6ed6 efc4 73bf 6c33 5327 002e a9bf
00000720: c02c 5e51 1eb1 923f 6273 d954 5613 983f
00000730: aaa4 8ae0 0f9c a83f 056e cae1 eca8 92bf
00000740: 2d22 3d7a 8bd1 a3bf 64b2 540b bbad 8c3f
00000750: dc13 c3bb 7f01 93bf b55f a15c 5d84 9f3f
00000760: 83a6 8e08 d274 96bf 5859 6cb9 f4df 703f
00000770: a148 a53a e9ac 933f 1807 a30a 86b4 8dbf
00000780: 6927 8d29 e5e4 9d3f a4e4 5404 ff02 763f
00000790: 845c 0318 9776 88bf 848c 02e0 5b98 7c3f
000007a0: ad23 301b 4294 943f 3ed2 4ca4 d47b afbf
000007b0: 2404 c31f 2750 7abf 42e3 0cd1 6ded 953f
000007c0: 1230 211e be39 7c3f 03a6 a7aa ea0f 733f
000007d0: a674 c949 5bd9 a93f 4540 f7eb 2584 8c3f
000007e0: 0d36 133b c3a7 8c3f bae0 313e edef 87bf
000007f0: ec91 5fcd 5fbc a03f 7e18 37eb ba18 a7bf
-0.00996126547675116 -0.0001598871896742438 0.033025826082107336 0.01983225777703205 -0.005320953050515838 0.01275657820935506 -0.007354921696233325 0.0009904634549904902
-0.030467808245776083 -0.0062623205228076444 -0.019151705220643852 0.0020279583859569013 0.04077461254347536 0.02767202802501986 -0.019183394851221308 0.013577485547712443
0.013948775069360996 -0.014186343300130662 -0.03657500186524927 0.0247578172135508 -0.010829494208854911 0.07602438524204533 -0.032818130416901965 0.01107513167229152
-0.017583429792432603 -0.02953588581061992 0.042959516270673355 0.018519126554786144 -0.06008253621922077 -0.02738486581364545 0.007526667521724391 0.01229655513682474
0.009708602138995883 -0.024880380402248277 0.0741848105601289 -0.03554587402125274 -0.048628645619415156 -0.0017583842123263319 0.015559039874796787 0.03162589858297834
-0.021432241065116958 0.07881554443540555 -0.03570605046271882 0.04493222587202925 -0.022412985282682898 -0.028621085796190594 -0.038391158716411654 -0.03273878850000261
0.034268927974367286 -0.0008115368742844103 0.0669314131362805 -0.01870235151965671 -0.020531882460479173 -0.001385103142736406 0.013589301896570946 -0.00648671939385195
0.01999513705598193 0.02443786949698205 -0.03851890071826913 -0.011408910040382334 -0.013240961976577535 0.04629099263988056 0.03529602624522196 0.01062911371801373
-0.027651569190300214 -0.04475844824530454 0.010451027344418114 -0.03727447203221889 0.010253389005517463 0.009085041367501696 -0.03678945452016509 -0.010539695747254697
-0.0031209044251269665 -0.012136955286073236 -0.07186670201965314 0.014424024775637288 0.02975112848760512 0.03713744976283292 0.008051427548163244 0.06268493726110722
-0.0031105609929550464 -0.0013435568495013548 -0.02093447706585303 0.028249501925949657 0.07130113117352127 0.030444478953994908 -0.014879088541753141 -0.09026625160651645
0.04185487876735654 -0.04279658346426535 0.018282235305842862 0.018062430190314435 -0.04119706959010173 0.06916569458313979 -0.017604795296617657 -0.034761982763993
-0.018237458995608552 0.00952035712848934 -0.012840184225234577 -0.022197799481566263 -0.009153495086190028 0.014133597277426427 -0.018493156384711353 -0.026544821818641713
-0.07039253715608065 0.09278846904321238 0.04570006683804109 -0.01017947125690882 0.00942816640396445 -0.012215556814538266 -0.0392666933655043 0.0083141839025957
0.006911529775883772 0.016791318295734152 0.053263783270545026 0.026514467915321402 -0.026104565583939657 0.002664503792186794 -0.0695714294190158 0.028654344486044765
-0.03989260407549599 0.07505718478735138 0.006343909843130697 0.014952117335301262 -0.03211797858803528 0.009402215196914677 -0.025955042271974527 -0.027165370391022178
0.0280745614094048 0.0019265810072255718 -0.056883498084513776 -0.015108478311495529 -0.009478270457783475 0.017962453659042768 -0.042776797056673234 0.016568496148086614
0.015770846915858797 0.03251975295191921 0.052399136602426885 -0.015236043894002013 0.02503014399267564 0.053266692353387525 -0.021703204321678507 0.029700583980621025
-0.00980805446777733 0.0289719086021118 -0.06618725994037822 -0.0053031728721183065 0.041826719321970754 -0.06749092573223119 -0.03194016258744637 0.011997344993926167
0.0014681542894454333 0.0119859307537948 0.009934888119816458 -0.006520006611001848 -0.022364372463117253 0.00575901806596161 0.017935761263121228 0.017655907462274713
-0.027518794209687867 -0.010571048478928972 -0.04027628329055699 -0.011569796486916396 0.057985087571683296 0.009088628092113563 -0.0046041749482059685 0.0018894512559033787
0.036827269412574845 0.007317850314241834 -0.015133130459328265 -0.022039922551516967 0.07085168213246665 -0.04470153944428054 -0.06114784985923957 0.052637648497523684
0.030646112974404095 0.047457314035205006 -0.09589183771655595 -0.03272159714883286 0.01830708765913896 0.045375205977227905 0.01283790627667122 0.004845031663764762
-0.00034751044023775823 -0.01709852225505654 -0.0032101646911615236 0.03878021278277119 -0.08572179430562449 0.021209554549790063 -0.033167394556449625 0.038681068859108755
-0.02450691597374963 -0.03855685410622273 -0.03356103608962512 0.04559492229805135 0.02478908642761281 0.04911447231543598 0.00611721753125397 -0.07420379814498129
0.0035497582767153426 -0.016547620786184682 0.04708058311508623 -0.050212065357043284 0.01270510015176346 0.017355143919490338 0.012133913554559936 -0.008145441532764898
0.0024695546988401963 0.008523112549493391 0.023205967085631784 0.003252694992569735 -0.015695344145721227 0.02570028054865592 0.027044688442916177 -0.026475245109117213
-0.041271666931136305 -0.008379415799683296 -0.017811898928999526 -0.010604400683414294 0.0437443196848139 0.01840315137049949 -0.026612456111014506 -0.0013480769692241932
-0.04876718879277535 0.05023220354914921 -0.004826485505764256 -0.049179081726470425 0.018253778187084846 0.02351126568679563 0.04806565872179054 -0.018222523957417653
-0.0387080752103127 0.014003239901819238 -0.01856040557392534 0.0307783687388505 -0.02193000962475945 0.004119831041654663 0.019214290813871163 -0.014504477691278647
0.02919347826108468 0.005373951110692197 -0.011944942875216087 0.006981238257284809 0.02009681025450376 -0.061491627746736985 -0.006424095943828898 0.021413532146854715
0.0068910051796358274 0.004653851191031236 0.05048642421454845 0.013923927558522684 0.013991856804206138 -0.0116880926709516 0.03268718130110301 -0.04511055108336935

b2 f8 [1, 10]
00000000: 52ce f13c 7bec 703f e6a8 963e 24c1 873f
00000010: 4688 8464 194a 60bf 5b6b 919e 4052 873f
00000020: c861 d0ac 5a89 663f bbb9 ce3a 5fe7 69bf
00000030: b825 5db7 25fb 7abf 2020 17f6 c1a3 603f
00000040: 33a7 d4ce 6496 90bf a555 5c06 5e3c 70bf
0.004131776236238576 0.011598857078599822 -0.0019884582471983185 0.011387352789986307 0.00275104246112454 -0.003162084575215133 -0.006587169007454312 0.00203121073784375
-0.016198706745093005 -0.003963820728832533
