experiments/exp_batch_20250114_143214/exp_h50_lr0.01_run2/model/weights.npz (npz, 319046 bytes, 4 tensors)

W1 f8 [784, 50]
0.0058226912386230446 0.0005806999020190962 0.0015643017338672245 -0.008940545552698532 0.0023222900852171323 -0.001087811798133213 -0.0005573879277904016 -0.014445681185713528
0.003797025984957741 -0.006779473190681764 -0.012270664613389031 0.016340749846394033 0.007832034825381098 -0.003071179807342707 -0.0005461535835398185 -0.00036765341525846847
0.0013071769410348086 0.019815403060398317 0.00481907782111221 -0.0048742950198650235 0.005941236481883191 -0.009680205690758925 0.009244066910002343 -0.011582740740206996
0.0099736751101516 -0.01744497013248285 0.009186364453501062 0.006905388576254487 -0.01488269433471446 -0.001716592638785881 0.01940890695113376 -0.0017920094146419419
-0.015294627278808636 0.0042389462737267855 -0.010116225609274459 0.008495937223612207 -0.011198461309918918 -0.004972916817397307 0.0032733782121922386 0.0014285176446795548
0.0015813992512214434 0.006590933817410847 -3.943576536105141e-05 -0.007626077500069875 0.013305824255915049 -0.005110067141390511 0.0073146600886211674 -0.005551739244852843
0.008403103260417504 0.008739920619091101 0.013921329875519854 0.0022860634050440656 -0.009560979095531712 -0.011906701693444335 0.021650590832555567 0.010200014358789776
-0.005348019246828766 0.002356429562125786 -0.003071528374220742 -0.007190787342389573 0.002303218756834469 -0.0037450179848943495 0.003171873667183297 -0.011077060071273338
-0.013915696148462402 -0.0017525351098053917 0.00487915424090369 0.004768915166019826 0.006801045975417673 -0.0062215273362354944 0.011440283578472186 -0.0036806719369569664
0.019799878134542707 0.00809900985624912 -0.0017060006993581337 -0.004001631629555301 0.012791932130178303 -0.0012733889304426913 -0.0021472718002389824 -0.013289020800371847
-0.0007455927111877859 -0.004530869082010437 -0.014876900175103536 0.00030388099391329224 -0.011651519229085496 -0.006505180945063944 0.005145197912946207 0.0037681673270213625
0.0026258116196456465 0.002955163020384381 0.014682655707788926 0.011981677021604707 -0.010880614922383134 0.0025871617103557704 -0.005715324018657632 -0.009166200718470033
0.007532943805278115 0.004879634248342446 -0.0038855797571805376 -0.0027014835361159257 -0.006181006067637744 0.0001678350124581007 0.008855203640397578 -0.02094949936773669
-0.005436763544863311 -0.004527638887602065 -0.0021842564235181306 -0.008334643763759446 0.0165096292782642 0.007850468683433798 0.006936630739882023 -0.030120901016045167
0.0014642818588832531 -0.01112390787814866 -0.002455761251738413 0.003936944114003652 -0.009161853671427321 -0.019799428957036964 0.007347721648970104 -0.011159920782520923
-0.007495817383406926 -0.014828903188050373 0.00984806427612155 0.01116237618069854 0.0034357968741645373 -0.005594947427305663 0.014462915918433048 -0.004983565717278745
0.015562635703267488 0.015708848523659096 0.005104830060076893 0.00840740591246818 -0.0008946719592114565 -0.011909913003913333 -0.00016615491537416347 -0.007389696785523845
-0.008399298112245853 -0.0044243419008557685 0.013652504106377009 -0.012445502079612054 -0.005115506198685227 0.0045082012623452366 -0.0001603510218075574 0.003699428287896721
-0.011291087561316927 -0.00011383894621148022 0.0026142729624579566 -0.010148298636790728 0.009510487654773213 0.013179310049028182 -0.0015405395376830461 -0.009854040558554456
0.016153722801991666 0.008702349590059905 0.010889703720202551 0.01102253786056388 -0.0009902100231574647 -0.007922807205428156 -0.01782094207866646 -0.009037061453595136
-0.018696793337699132 0.001737610878905639 0.012605522866226198 0.005146437922613135 0.0009947958316719355 -0.0021177864029862416 -0.011950458613933746 -0.0001564686406633851
0.014555551377347665 0.0037509011142618704 0.015303481758719406 -0.0017073483489681526 -0.007691363230328318 0.003727328841909229 -0.004515468969389215 -0.0010320081630224914
-0.008012353711535296 0.005557793691405279 0.0036986052153132583 0.011116394810442605 0.019469055415039273 0.003110969469017213 -0.003226134991000471 0.002150628373770755
-0.0036411340635376637 0.006588856071516946 0.021077200770582075 0.0023617405886770947 0.01150232275794783 -0.0025509960011502702 0.0016587103620473074 -0.004170827885936355
0.0004221665328844538 -0.010362992032919238 0.006222443342018429 0.008282974805304188 -0.005892181286513827 -0.010413296138817267 0.013182500164785449 -0.0013053615932229349
0.012512953769995725 -0.0052375477865610025 0.0049808654677667335 -0.010687280564716599 0.009841675450047497 -0.019665000298103582 -0.009161257904937194 -0.00900192951802459
-0.0013430433766006863 -0.0021824232830253824 0.006474198441769652 0.009070017804007974 -0.004205925143010774 0.015998592788040035 -0.012324735111441687 -0.010522847500762553
-0.004863067044171032 -0.0019452004498961212 -0.001039128312202897 -0.026384287952867198 -0.01402148023113456 -0.011135859361599134 -0.005546771154280885 0.002109942740905551
-0.019393117883123232 0.0032907932254924435 -0.005645374536577317 0.020102031565199026 -0.0005909004352805511 0.007765056611559263 0.013728486399017784 0.019085424607556863
0.016318739526667545 -0.01058452410981866 0.010209097500230545 0.004548426720710432 0.002940664835264938 0.004546803158195499 0.00633585823414211 0.0034274353957128947
-0.008286067146775166 -0.011993186131813738 -0.0069206166724784255 -0.013350013441592952 0.005569411769146036 0.0027222322042235155 0.006480374077369244 -0.007317187346952398
0.012912880549924663 -0.004935107182575067 0.0023495000230395412 0.0026701658115947475 0.00021600492498897845 -0.017348612385334493 -0.0019527831009565984 0.014216602014408367
00000000: 320c 1dc7 88d9 773f 485a 428b 4307 433f
00000010: d02d 6f32 28a1 593f 07d3 0eb6 6b4f 82bf
00000020: 267c f8fe 3106 633f de47 3806 9dd2 51bf
00000030: 53cd e475 b543 42bf 37b2 1682 b295 8dbf
00000040: 8cb7 adcd f01a 6f3f a99a 35fa cac4 7bbf
00000050: 96af b7b9 5c21 89bf aac1 ba28 a1bb 903f
00000060: 8839 7deb 3d0a 803f d040 a51a bb28 69bf
00000070: e7a7 d3e3 77e5 41bf 7678 1165 3318 38bf
00000080: ad9e 8e8d b26a 553f 83e7 6730 7d4a 943f
00000090: 5f86 375a 2bbd 733f fcd5 389b 11f7 73bf
000000a0: 2329 3386 d655 783f d305 e236 37d3 83bf
000000b0: 3ee5 7ba8 8dee 823f a5fa 6a25 b1b8 87bf
000000c0: 912c 5a03 146d 843f cd7a cb20 18dd 91bf
000000d0: 7ae6 2cf7 4cd0 823f 3074 9e21 d348 7c3f
000000e0: 843c 8d6b d17a 8ebf 1ffc 9f4f e91f 5cbf
000000f0: a8c6 6cb2 eddf 933f 7be7 1e75 3b5c 5dbf
00000100: 9966 bc1f ca52 8fbf 81af d779 db5c 713f
00000110: 29d2 34d1 d0b7 84bf 88bb 3164 5166 813f
00000120: e1a4 bb08 38ef 86bf fc0e 8b31 7b5e 74bf
00000130: 553f cd8b c5d0 6a3f 16bc 3324 a367 573f
00000140: 7ff3 3784 dee8 593f 1753 2253 18ff 7a3f
00000150: fc8c 8494 faac 04bf 365d 5a97 853c 7fbf
00000160: 292e 3480 1540 8b3f 85cc 0a34 4bee 74bf
00000170: 21b0 ca1d faf5 7d3f 6c89 e1a7 6bbd 76bf
00000180: 09da 816d a535 813f 333d d449 3ce6 813f
00000190: 7cea 4144 c982 8c3f 90bb f5f1 38ba 623f
000001a0: dcae 43e4 b494 83bf c837 0373 8a62 88bf
000001b0: 1576 428e 922b 963f acc5 b7c0 bee3 843f
000001c0: 4554 37fc cde7 75bf 06f5 f27c ca4d 633f
000001d0: e1fc 4f3d 7629 69bf 2926 7d47 1674 7dbf
000001e0: e770 8e27 33de 623f ffe3 9338 dfad 6ebf
000001f0: f8f1 5cb5 e6fb 693f 9a81 efd5 91af 86bf
00000200: 29a8 de1e d57f 8cbf 1845 d43e aab6 5cbf
00000210: 0961 59fe 29fc 733f 65a8 ceea 9188 733f
00000220: a52c b0e0 69db 7b3f 8779 0b87 be7b 79bf
00000230: 12ae 9cde 006e 873f dfd0 16b3 ed26 6ebf
00000240: f1e8 3554 6b46 943f c158 b3b3 3696 803f
00000250: 630c 7c4d 7cf3 5bbf 3f5b accf 0364 70bf
00000260: d7d1 3611 a832 8a3f adfd ecf3 fadc 54bf
00000270: e976 0bc5 2797 61bf b620 de2d 4637 8bbf
00000280: c39b c427 7c6e 48bf b59e 79e8 f58e 72bf
00000290: 2d50 bebd c777 8ebf 108e 44ee 46ea 333f
000002a0: ce14 4d70 c0dc 87bf a127 9e36 2da5 7abf
000002b0: fee3 478c 2113 753f 2ce6 ee6d 6bde 6e3f
000002c0: 81ca 04e1 b982 653f 565c dc10 6d35 683f
000002d0: bfc3 aab0 f011 8e3f 4c16 ac77 d989 883f
000002e0: 451b 046a 9348 86bf ed22 efdd ab31 653f
000002f0: 2858 f09b f368 77bf 68e4 83a2 bac5 82bf
00000300: 6895 9434 ddda 7e3f 5a8b 35d8 aafc 733f
00000310: 3979 75bf a6d4 6fbf 6d8e 06ee 6b21 66bf
00000320: 1e8c ab2e 4151 79bf ccc0 7dc7 9bff 253f
00000330: 3288 4750 ad22 823f 5aa6 9b1a c973 95bf
00000340: e8bb f019 dc44 76bf d4a0 34cf 928b 72bf
00000350: bb7b f6bc b7e4 61bf 6ffe 1cf3 c011 81bf
00000360: ece3 4677 e6e7 903f 1a6a 0712 e813 803f
00000370: 686b c1a2 9569 7c3f 27ed 2873 03d8 9ebf
00000380: fcbf 8bac a4fd 573f 04ab 52a4 21c8 86bf
00000390: 0a80 6ac8 1a1e 64bf 5105 7463 2f20 703f
000003a0: 8cbb 1d2f 73c3 82bf 1259 662f 4d46 94bf
000003b0: e343 eb02 a518 7e3f be86 4b36 03db 86bf
000003c0: b8dc 4b28 efb3 7ebf 6968 d3b1 9d5e 8ebf
000003d0: da72 f5cf 382b 843f 9f4d 22c5 4cdc 863f
000003e0: 4040 ba66 6325 6c3f 4de3 9143 baea 76bf
000003f0: f2e8 feb6 bb9e 8d3f eff0 5ebc a569 74bf
00000400: 1ead 149b 4ddf 8f3f abf0 aafa fa15 903f
00000410: 0100 8e62 cde8 743f 1a88 81eb e637 813f
00000420: 605c 1967 0d51 4dbf 8ed3 cc76 3964 88bf
00000430: 7c9b eeda 3bc7 25bf 24c2 56a0 a844 7ebf
00000440: 1192 9cb5 a633 81bf b6f5 533c 421f 72bf
00000450: d5c4 2915 d8f5 8b3f ca59 5003 077d 89bf
00000460: 40a2 363d fff3 74bf 35d9 c40f 3177 723f
00000470: cd9f 01ca 7c04 25bf 174f 5570 434e 6e3f
00000480: 473d 7f1e c81f 87bf 6d91 3634 9ad7 1dbf
00000490: d5e4 0c1c 876a 653f 9e5b 0a96 a1c8 84bf
000004a0: 2cf2 910b 3c7a 833f c7c5 270d c1fd 8a3f
000004b0: 88cb aebb 7d3d 59bf cda7 75ef 5a2e 84bf
000004c0: fda3 92fc 998a 903f caf0 1997 89d2 813f
000004d0: a82f bb4a 574d 863f 5654 0afd fb92 863f
000004e0: f4b9 99ea 3d39 50bf 43f7 b72e d539 80bf
000004f0: 5eaa a52d a73f 92bf aa3b 29db 0582 82bf
00000500: 3fb3 b38f 4025 93bf 6c09 7a79 1178 5c3f
00000510: 49e5 aca3 ecd0 893f e8a5 1869 6e14 753f
00000520: ceed 0be4 794c 503f 4856 e7ea 5159 61bf
00000530: 4735 5a67 7b79 88bf 4159 9563 3782 24bf
00000540: 87ad 2009 4dcf 8d3f ad9a b8b3 35ba 6e3f
00000550: f35b 598d 6e57 8f3f 6ab2 9654 23f9 5bbf
00000560: bf1d 9398 fa80 7fbf 6a2b 476f c688 6e3f
00000570: 4e48 cbf8 cf7e 72bf 9cfd cc53 8ee8 50bf
00000580: 7c7f 3de9 c768 80bf e8ae 47e2 c4c3 763f
00000590: ba46 198e 894c 6e3f 513e 4841 31c4 863f
000005a0: 9a9a 2a31 b2ef 933f d2e5 1a04 2d7c 693f
000005b0: 4829 ec08 b26d 6abf c78c ffd0 319e 613f
000005c0: 7cd4 24f7 02d4 6dbf 8c01 8695 eafc 7a3f
000005d0: a4e5 0000 4395 953f e14f e1d2 ed58 633f
000005e0: 835e 96a0 878e 873f f797 b58c d3e5 64bf
000005f0: 56bf 8bb0 222d 5b3f 71a1 e015 6e15 71bf
00000600: 87ab c373 c7aa 3b3f 40f5 f53e 3139 85bf
00000610: 38a0 7b6a b47c 793f 930f 380f aaf6 803f
00000620: 15c7 d75e 6622 78bf 09d6 e0f2 9053 85bf
00000630: a0b9 b238 6dff 8a3f 44da 8c56 1563 55bf
00000640: 7f78 bf39 64a0 893f 4cb3 4587 f773 75bf
00000650: d528 a3e4 d066 743f cfae 1184 36e3 85bf
00000660: a2ff 9051 df27 843f ffee 9fd4 0f23 94bf
00000670: 1444 bc38 23c3 82bf 82e7 0b87 9a6f 82bf
00000680: 0e85 4bd8 2101 56bf 9d4b 0d94 dfe0 61bf
00000690: 7314 3469 b084 7a3f 0a23 bd2e 4d93 823f
000006a0: 86bb 046f 3b3a 71bf 5a03 3a63 ef61 903f
000006b0: 6d50 e2f1 b53d 89bf 6537 03af 008d 85bf
000006c0: 6686 9b9e 4beb 73bf 5f04 4114 c3de 5fbf
000006d0: 662c 8187 6b06 51bf 2512 8b97 7b04 9bbf
000006e0: 311c 4638 4bb7 8cbf 0eda 2abe 65ce 86bf
000006f0: cfe8 4b0b 36b8 76bf a526 32e2 de48 613f
00000700: 794c 4d1c cadb 93bf 3e22 0129 4bf5 6a3f
00000710: 7ee0 21b0 9a1f 77bf 126d 9f80 a095 943f
00000720: 6e74 b905 d55c 43bf 1af9 2b83 40ce 7f3f
00000730: b5e0 db40 ae1d 8c3f 3234 142a 218b 933f
00000740: 09e0 5012 dcb5 903f adc4 29c7 56ad 85bf
00000750: acd1 14df 81e8 843f 8221 3800 5fa1 723f
00000760: 6481 7869 0517 683f 3e50 da2d ab9f 723f
00000770: b212 86fe a0f3 793f 1532 e15d da13 6c3f
00000780: c64b 431b 49f8 80bf ad16 b031 e28f 88bf
00000790: e153 6ce4 ca58 7cbf 91fa 0f79 4057 8bbf
000007a0: f1c6 8096 f3cf 763f fa99 4149 ef4c 663f
000007b0: 8d7d a62b 2a8b 7a3f ee6e a985 a0f8 7dbf
000007c0: 38cc 457d 1172 8a3f 88fe 38bf d536 74bf
000007d0: b357 5938 423f 633f 1607 be5a bedf 653f
000007e0: c551 5d2d ec4f 2c3f e6d0 4dab d5c3 91bf
000007f0: 27ae 81e3 90fe 5fbf 1572 b205 981d 8d3f

b1 f8 [1, 50]
-0.1158626300188989 -0.09307001696562515 0.016438696003280892 -0.10713426080136054 0.0020384445029862945 -0.08581793646113638 0.03018348139376533 0.09142325187447874
0.03188851519359758 0.0762576848777731 0.06251230377167268 0.0006112302472429302 0.050018719599764234 0.1456478819157846 -0.06519754389426112 -0.057030786018813326
-0.04451762147841818 -0.0783841322710187 -0.007518196671548934 -0.030005441689115633 -0.032487322974722996 0.06660629654981495 -0.05359737289405796 0.056513393164347094
0.0953761837926603 0.05325468605338651 0.020402944809306 0.09437880159118585 0.046931547442931223 0.023993123175208856 0.03250846164467827 -0.034684493671447394
-0.06857689358983225 -0.05333178255110709 -0.02497190385166152 0.1141366183317102 0.019162587015715705 -0.11858729721870537 0.10059904703481957 -0.0010494042696782388
0.012721163812047255 0.01751802208517492 0.08244762397259846 -0.02875899572119561 0.07203987432688042 0.017074743880563247 0.07481471878591343 -0.05533111555471421
-0.0617283176963378 0.0003961071481774321
00000000: ec7c c25e 2ca9 bdbf b303 1bc7 6fd3 b7bf
00000010: 2c54 e436 4ed5 903f 4e48 6ca2 266d bbbf
00000020: 0681 338f edb2 603f ebc2 820e 2af8 b5bf
00000030: 76d2 dc25 6be8 9e3f 5715 e5a4 8367 b73f
00000040: 8fbe bf03 b153 a03f ba63 9ea6 9f85 b33f
00000050: 0505 4c6c ce00 b03f b1c6 0bf6 5e07 443f
00000060: f1d0 bcb9 0d9c a93f ecac c7fc 96a4 c23f
00000070: 1f2d ce46 c9b0 b0bf c6c7 a1a1 2333 adbf
00000080: 1de7 b080 03cb a6bf f81d a184 fb10 b4bf
00000090: e265 448d 66cb 7ebf 14f3 061b bfb9 9ebf
000000a0: 6e0b 6cab 2da2 a0bf 369e 6339 1c0d b13f
000000b0: 9e86 7667 1d71 abbf 7d8d dace 52ef ac3f
000000c0: 4eee 34d6 926a b83f 8884 eabd 3244 ab3f
000000d0: d3d0 ca72 82e4 943f a912 458a 3529 b83f
000000e0: 3a0c d66a 6907 a83f 4137 773d a791 983f
000000f0: 24de 36f7 f2a4 a03f 1a8f fe7b 2ac2 a1bf
00000100: 2bc7 3a5b 418e b1bf 47ed c9ab 4d4e abbf
00000110: ab6c 7219 3c92 99bf 29bf 02b3 0e38 bd3f
00000120: fd31 2872 5b9f 933f bc7e 46b3 bc5b bebf
00000130: 07f8 05f1 dbc0 b93f b2ef 2f41 8531 51bf
00000140: 8783 51b4 8d0d 8a3f 7925 c98f 3ef0 913f
00000150: 1360 9898 491b b53f 8f75 5a88 ff72 9dbf
00000160: 40ed 3d88 3471 b23f d3e7 37aa 0a7c 913f
00000170: 43e7 71b2 0e27 b33f 9973 8427 5c54 acbf
00000180: 5059 7ca3 da9a afbf c52a 443f 93f5 393f

W2 f8 [50, 10]
-0.7561413795766787 0.6969511729546486 0.3109404945134367 0.2561507074931921 -0.8381273532590017 -0.7841092810863287 -0.8542494189884017 0.5027803776576774
0.717541430420874 0.6955945030845384 0.5500952437818504 -0.4784425650265264 0.4782925535272928 -0.7967610946777296 0.1405811087535594 0.283006099100836
0.4985743484239732 -0.8217268528268127 0.4158085136982306 -0.30200684777113224 -0.6030706902299157 0.5877603092578373 0.7144338382158721 -0.751730902896442
-0.28594292085585676 -0.502332324235373 0.30191454071968665 0.7002111296945276 0.04135561242175033 -0.1640603833214774 -0.5645586430104055 -0.3766583232318488
-0.0807021760861087 -0.06068648701206958 0.7400925255086772 -0.121469313880665 0.005632121603989117 -0.4834543672731129 0.2501013273400388 0.691887808609514
-0.35696687354479617 0.18814258753319243 -0.6445530778847693 0.052143651268079315 -0.15680810207988854 0.5918697479356232 -0.367986252201472 0.016976782897970527
0.2516945752633765 0.4486562413515564 0.6422563065579808 -0.7038478805291368 0.3836666237930089 0.22729911605296796 -0.5586641457277244 0.48318912245845913
0.19618381919980676 -0.3232872029641396 0.3165085670785391 -0.7006532571878096 0.016250356693218133 -0.018395896613150074 -0.03630623068027922 -0.510405067375179
0.36635184869155796 0.05043092226460054 -0.5939581199537085 0.7511952402057449 0.10707649392071775 -0.13991206088800676 0.7565211224356614 -0.24400670852800826
-0.18559989257880033 -0.5803719872104689 0.42465104086994643 0.07012050003455181 0.3419013378970402 0.3362088684653927 -0.5759849163831917 -0.34304989234082023
-0.5328552617467728 1.0367440523953169 0.18440234216180015 -0.3284451181829562 -0.37543050198488687 -0.18896980156373464 -0.4178899842731289 0.6849675415301936
0.061862035078831625 -0.14194981068409007 -0.5828997849228496 1.1308582030466567 0.011500276895329734 0.23494233008791052 -0.37989962365853397 0.11811001618305564
0.5635218377379797 -0.2744266112994953 -0.3785400886001076 -0.44727438524496155 -0.3418138147863173 -0.12847627208313495 -0.683684007948065 0.5690405307160816
0.4516567590005207 0.4422782162976443 -0.4327359268157516 0.10625666765655638 -0.460494705019794 0.4224900727417107 0.48305819206018946 -0.9009855857688126
-0.4485269265430785 -0.7740995920673374 0.2324039574272506 0.26330188118090314 0.3184981873948155 0.16259103317686294 0.2790632525157712 0.3864067456150195
-0.42258579058486345 1.2210451834841278 -0.2030042109679782 -0.2696982637038387 -0.09233302188340298 0.07975950831659144 -0.013949984521754803 0.15036880805933364
-0.37186626332429584 -0.07622899696856592 0.6457146849019404 -0.23952280500409556 -0.6890535574416318 -0.3586007112533272 -0.020261663042988605 0.7170535614591389
0.6091585024774738 0.4290922080548299 -0.8591327014453632 -0.2383490269806347 -1.1082129518687192 0.07963139113872844 0.2581642260762017 0.3393239004534535
0.24936206105888942 -0.39769065202957715 0.18019834174634625 -0.613767656464384 0.3869318018897922 0.5617939325729315 0.40307218218309476 0.11467963842871588
0.5342911489779109 0.5481524214842793 -1.1701675330529306 0.22775836655681822 -1.0767435805460395 0.3573205439863846 0.6033859609623916 -0.5748569728174272
0.32084633150359054 0.24906616339875517 0.21210774931488552 0.3057447270370495 -0.8703282507702598 0.30324327118083194 0.05206226616353871 -0.6361568066794386
0.46584093801804377 -0.3681043321817744 0.6162727963740544 -0.5319427130646119 0.3211541264919288 0.27050477787945476 -0.1763032277281849 0.3174845567579293
0.42132368564991773 -0.8226847790072297 0.1425902014986832 -0.5702537409946239 -0.5768070758507009 0.33075072787729043 0.6274852481048842 -0.41808567017227943
0.8714058557339386 -0.3301374724625886 0.566517995082242 -0.44636913594430916 0.0368172809294618 -0.6332198299273378 -0.2737939402606516 0.033949155041929774
0.11701842638209821 0.06943529716461945 0.6746136935311295 0.23532789593046416 0.5647034948202361 -0.9577861433583841 0.22832313323059036 -0.6951166698028771
-0.46910904457639746 0.18233812924553625 0.3326989143391469 0.3549089336129871 0.4987678707422152 0.17384316182820458 0.02139188538169053 -0.8658182745280091
0.25679308997861505 -0.5705232448421027 -0.6885046959798042 0.08736355368300906 0.4326001685017977 -0.21271409168843988 0.6066850412185888 -0.6123898476097626
-0.08001226414568055 0.6047714304355297 -0.47777232220568705 0.38026538874836247 -0.752668918463358 0.5065392417523934 0.07551395355901312 -0.569255668251772
0.3551208166644267 0.26027395931310937 0.03610763832036363 -0.7778795746554614 0.8092847961645903 0.08461410542491449 -0.4124538594440918 0.5277274153646657
-0.7694076730793018 -1.078144959688349 0.24639611431436076 0.4682078068816015 0.7247063718252852 -0.17492433019347947 0.4278081035669015 0.005787950052585078
-0.5920998774221601 0.2829409345440553 0.251081414142278 0.8480696403261372 0.029959546878792397 -0.3955324798747929 0.2559934495198561 0.39660788066953
-0.7550806868179907 -0.29493927902133416 0.2806981390784994 -0.6855757486246018 -0.15687509313464124 -0.7239409862744417 0.6227531378732336 -0.23230593713875577
00000000: 9ee4 0d68 4f32 e8bf 43f8 d78b 6c4d e63f
00000010: 5dfc bbf5 72e6 d33f 13f4 e1ef c564 d03f
00000020: a82c 8474 f0d1 eabf f32f d858 6c17 e9bf
00000030: 79d4 a5e0 0256 ebbf 3287 e3df c616 e03f
00000040: cad8 2572 19f6 e63f 99d0 4067 4f42 e63f
00000050: 5f4d 3757 619a e13f 0269 7390 cd9e debf
00000060: bb7b d45e 589c de3f 57b6 8b1f 117f e9bf
00000070: 2a17 44d0 8ffe c13f 5b39 0d9d c51c d23f
00000080: 16c0 4662 a4e8 df3f 785b e41c 964b eabf
00000090: 7cdd ee4f 9b9c da3f 8515 9687 1454 d3bf
000000a0: 18d6 76e7 5a4c e3bf b7c6 44b5 eece e23f
000000b0: a65f 495a a4dc e63f 0da6 6af7 2d0e e8bf
000000c0: cf4f 6689 e34c d2bf 2a11 0a3d 1b13 e0bf
000000d0: 8dfc a45d 9152 d33f a9a9 ca2b 2168 e63f
000000e0: 2e06 b715 902c a53f 13ad 773e eeff c4bf
000000f0: 2eec 8c49 dd10 e2bf d801 0383 2b1b d8bf
00000100: b580 01d7 e5a8 b4bf a04b 0d9a 4c12 afbf
00000110: b05c 2285 d6ae e73f 8bc3 95ea 9c18 bfbf
00000120: b526 8a21 b511 773f 19f8 2296 eaf0 debf
00000130: 6525 67ff a801 d03f b953 cfe6 f123 e63f
00000140: 4c56 e895 8bd8 d6bf f34d 386a 0e15 c83f
00000150: a3a3 c1c6 2da0 e4bf 63e6 c799 92b2 aa3f
00000160: 6629 17b3 4912 c4bf 2c02 5cd3 98f0 e23f
00000170: bb4e a535 168d d7bf 7830 5a9d 5c62 913f
00000180: 578e 5590 c31b d03f f313 f0aa c8b6 dc3f
00000190: f31e 0a19 5d8d e43f ec68 87fd eb85 e6bf
000001a0: 4d7e 7074 fe8d d83f edb8 ed2e 2318 cd3f
000001b0: b825 6ba1 93e0 e1bf 467d af11 92ec de3f
000001c0: 94d8 bb27 8d1c c93f 1490 fcce bcb0 d4bf
000001d0: b964 2026 ad41 d43f ffa3 2e61 c06b e6bf
000001e0: b5cd 2efa eea3 903f 3618 56b9 5fd6 92bf
000001f0: 985e d3f2 ba96 a2bf aad9 0202 3d55 e0bf
00000200: 8366 3d06 4f72 d73f aeca aaf3 14d2 a93f
00000210: 64a2 8c75 b401 e3bf 7606 b399 ca09 e83f
00000220: ba50 8f77 5d69 bb3f cb3b ea6e a3e8 c1bf
00000230: 2405 f3c8 6b35 e83f 7af2 90a0 9c3b cfbf
00000240: 0a2f 62be bcc1 c7bf fcab 1246 6892 e2bf
00000250: 00ec 2f8f 7b2d db3f 0675 6dc6 6af3 b13f
00000260: e17d 2e26 b6e1 d53f 1bc7 ab33 7284 d53f
00000270: 015d 5beb 776e e2bf 5b02 2089 87f4 d5bf
00000280: 6c86 567a 260d e1bf 2fc4 75ee 8096 f03f
00000290: 8f03 72f6 7e9a c73f 101b 48ac 3e05 d5bf
000002a0: 7b8a fca7 0d07 d8bf bfec d296 2930 c8bf
000002b0: d7db f1a1 b5be dabf d132 b60c 41eb e53f
000002c0: d51f 0e73 61ac af3f 24e1 4751 692b c2bf
000002d0: afd9 2273 1da7 e2bf c0fa 67c5 fe17 f23f
000002e0: 4278 4809 758d 873f ef38 161c 9712 ce3f
000002f0: 3512 d882 4650 d8bf ca14 d640 753c be3f
00000300: 7d53 f5f2 5e08 e23f 6cbd 2ba2 3490 d1bf
00000310: 3dcb 3035 003a d8bf a2cc 3dbe 24a0 dcbf
00000320: c901 f50c 47e0 d5bf 285c 7415 e971 c0bf
00000330: b2ec dd48 bde0 e5bf 0dc5 b07c 9435 e23f
00000340: 7c2c 3bc0 f1e7 dc3f 7ad2 ae4a 494e dc3f
00000350: f595 5e07 f2b1 dbbf 1f1d 9110 a333 bb3f
00000360: bba2 82c8 be78 ddbf 18dc 53cd 130a db3f
00000370: 5ba8 3de8 6cea de3f 296c 21b9 dfd4 ecbf
00000380: c92f 3848 aab4 dcbf 43d6 f881 6cc5 e8bf
00000390: d335 4eb2 69bf cd3f a86c 2922 f0d9 d03f
000003a0: 768b ac38 4662 d43f 7f09 0f71 c8cf c43f
000003b0: 2785 c41d 2cdc d13f ffb2 d75b e3ba d83f
000003c0: 263e 9445 a50b dbbf d90a a0ac 6689 f33f
000003d0: 6164 87bf 0afc c9bf 9757 9981 bc42 d1bf
000003e0: 587f 540d 23a3 b7bf f3c9 c37f 1e6b b43f
000003f0: 8fb7 673a cf91 8cbf 0507 7afc 483f c33f
00000400: 36ab dd27 a8cc d7bf c2a3 fc58 be83 b3bf
00000410: c86c c6d7 b1a9 e43f 66c3 11eb aea8 cebf
00000420: bfef cc0b ba0c e6bf bdf1 c965 50f3 d6bf
00000430: 8261 8730 79bf 94bf 8250 7e4f 1af2 e63f
00000440: 2113 c7f8 397e e33f 4d17 242a 3f76 db3f
00000450: 1339 f4dc 037e ebbf d626 f58d 3882 cebf
00000460: f179 1481 3dbb f1bf ba02 ad0c b962 b43f
00000470: daa4 ff3e c385 d03f 32b8 cc97 7bb7 d53f
00000480: 0a38 8e94 18eb cf3f b515 197e c373 d9bf
00000490: d207 4c40 bd10 c73f 4d6d 7b11 fca3 e3bf
000004a0: 5b89 b99a 7dc3 d83f 38be ef44 37fa e13f
000004b0: f9d6 1944 efcb d93f 4185 9110 a55b bd3f
000004c0: 63e0 6cc0 e918 e13f 27f1 6ff2 768a e13f
000004d0: 77da 5497 01b9 f2bf bb3e e0a7 2f27 cd3f
000004e0: 8df8 097a 573a f1bf a211 a7fc 56de d63f
000004f0: 3f5e 2613 f04e e33f f11b 4473 3a65 e2bf
00000500: 245e 360d bf88 d43f 873e 2b69 66e1 cf3f
00000510: 888e 44c3 5826 cb3f d91b e354 5291 d33f
00000520: 1bfb baa1 bad9 ebbf f409 1d77 5668 d33f
00000530: 115c 0ec5 e7a7 aa3f 891c fa84 655b e4bf
00000540: c13a 7b82 56d0 dd3f 2225 0f79 058f d7bf
00000550: bae9 3aba 81b8 e33f 1aa8 7eb9 ac05 e1bf
00000560: af87 9009 ca8d d43f 2ddb 9945 f34f d13f
00000570: 2aca a2aa 1a91 c6bf c6a9 10bf aa51 d43f
00000580: 9661 b99e f7f6 da3f e518 9807 6f53 eabf
00000590: cd5c 154e 6540 c23f 47cb ffc5 843f e2bf
000005a0: 342a dc1c 3475 e2bf 361d d719 052b d53f
000005b0: 4fa7 6af1 5b14 e43f 573c 1466 eac1 dabf
000005c0: f471 7d88 8ee2 eb3f 7e4c daeb f820 d5bf
000005d0: b328 af58 ea20 e23f 04c6 34da 4f91 dcbf
000005e0: e113 0af3 b6d9 a23f 5fee 963b 5643 e4bf
000005f0: 6acc d004 d785 d1bf 448b 439d c861 a13f
00000600: b52a 576a ebf4 bd3f bd94 82fa 82c6 b13f
00000610: 8acc e474 6f96 e53f 8acd 6d78 391f ce3f
00000620: 0013 4610 0d12 e23f c628 4920 2fa6 eebf
00000630: 37a4 1243 b139 cd3f 33a6 7650 653e e6bf
00000640: e4a8 2df1 e105 debf f331 f616 db56 c73f
00000650: fa15 2063 f04a d53f d343 bbf5 d3b6 d63f
00000660: 2089 4813 d0eb df3f 58ba 5723 7e40 c63f
00000670: 75e1 7420 c1e7 953f f70f ac86 c8b4 ebbf
00000680: 0401 d348 4c6f d03f 588c c6f6 b941 e2bf
00000690: 9605 0c00 3b08 e6bf 1f4d ee35 755d b63f
000006a0: 5865 fd9d b8af db3f fb9f 9921 373a cbbf
000006b0: 3533 60bf f669 e33f 035d fc97 b298 e3bf
000006c0: 4adc c809 af7b b4bf dbd2 689d 495a e33f
000006d0: 73ac b35c d293 debf 7865 1ea4 4456 d83f
000006e0: 8b81 b020 dd15 e8bf 09f3 aec8 9135 e03f
000006f0: c778 ede8 e154 b33f 0e87 c6a9 5737 e2bf
00000700: 29f6 6ca9 4cba d63f ec03 d01b 54a8 d03f
00000710: 498a 714b b37c a23f 20e4 abb4 63e4 e8bf
00000720: 81a9 953a a9e5 e93f cc8e 941f 45a9 b53f
00000730: 7bf7 5adf a465 dabf ff33 c69a 24e3 e03f
00000740: 9058 25d7 fc9e e8bf d356 e3ed 1440 f1bf
00000750: 6abb 6b6a e889 cf3f 8774 92e0 1df7 dd3f
00000760: 4528 c66a cb30 e73f 5e54 baa2 eb63 c6bf
00000770: e126 723d 3561 db3f 33dd fc02 1bb5 773f
00000780: 19cd 2f71 7bf2 e2bf cd3f 244b b41b d23f
00000790: 12f8 97c7 b711 d03f bccc 3df1 6223 eb3f
000007a0: 9687 3028 b7ad 9e3f 565a 6476 6750 d9bf
000007b0: 7f64 6b59 3262 d03f a6ef 3305 0662 d93f
000007c0: 022f f7f8 9e29 e8bf edf4 6cff 48e0 d2bf
000007d0: 46f9 d853 f5f6 d13f 8bbf 688d 3cf0 e5bf
000007e0: 91fd 48a9 7b14 c4bf fa0b 8949 862a e7bf
000007f0: 8cb3 14fd 97ed e33f 33bb 5671 33bc cdbf

b2 f8 [1, 10]
0.0023806623755693985 -0.05191679898406758 0.016373718710501316 -0.03361945835175471 0.001774171691158934 0.08040339306004837 -0.03458072082950751 0.03333475122706791
-0.0914071377179734 0.07725741881895602
00000000: 9bea 7761 9c80 633f 76c8 7fb3 d694 aabf
00000010: c384 80a9 45c4 903f 0d92 42d4 9136 a1bf
00000020: a26a 0659 6a11 5d3f d62a ae17 5195 b43f
00000030: a5d6 1172 90b4 a1bf e75c aea4 4011 a13f
00000040: 4aa2 1e4b 7566 b7bf 0b67 3367 24c7 b33f
