experiments/exp_batch_20250114_143214/exp_h25_lr0.01_run2/model/weights.npz (npz, 160046 bytes, 4 tensors)

W1 f8 [784, 25]
000000 7a f3 da d5 ad d8 56 bf 4a 11 89 3e 23 29 7c 3f
       -0.0013944337473923139 0.006875169442143234
000010 a4 7b 13 d1 e5 f7 57 3f ea 7c 9f 46 c4 78 3d bf
       0.0014629120162721132 -0.00044970313922294716
000020 8c e0 d4 d1 b5 9e 8b 3f 68 fc 6f 40 ab f5 90 bf
       0.013486309495974312 -0.01656215267939523
000030 ba aa 1e 0d 5c 73 7e 3f 1a bb f1 3e 99 47 75 3f
       0.007434234214012287 0.005195234886840061
000040 b0 fb 15 ce 71 2d 90 3f 48 e4 07 90 43 40 44 3f
       0.01579835720394457 0.0006180124183280478
000050 b3 63 d2 2f 72 08 93 bf d5 66 bd 0a 80 73 86 bf
       -0.018586906594098184 -0.010962486579660627
000060 d6 1b d1 52 c6 67 79 bf ff df d6 69 2f 58 69 bf
       -0.006202482892212443 -0.0030938077968265527
000070 28 33 be ea 7c 79 82 3f 48 22 9e 42 74 f6 7f 3f
       0.009020782388483875 0.007803396359925836
000080 de 11 37 f4 6c 75 84 3f 16 1c 49 29 f1 dd 8d bf
       0.009989596560338872 -0.014583477089344082
000090 81 88 f2 8d e6 17 6a 3f 8a 18 29 e6 7c 75 49 3f
       0.0031852248208262273 0.000776945100661634
0000a0 45 19 8d de 0b ce 63 3f 0a 5e ee 22 70 b8 83 bf
       0.002417586500459342 -0.00962913138009382
0000b0 e7 bf 74 30 78 e0 94 bf d2 cf 6a 5e c8 1b 77 3f
       -0.020387533147356775 0.00564173001355424
0000c0 2d 7c 0a 29 62 aa 7a 3f 6d 96 ca 2f ac 88 7b 3f
       0.006510146559462843 0.006722138027418373
0000d0 51 ae bf 99 f6 bb 54 3f ef 37 f3 da 2f 40 94 bf
       0.0012655170639800548 -0.019776103724147672
0000e0 41 b7 58 d8 b6 87 34 bf 10 3e 4e 39 ef 0c 83 3f
       -0.0003132649802378603 0.009302014290169885
0000f0 2d 63 6d 3c c3 d4 7a 3f 1b a7 39 57 71 d7 4b bf
       0.006550562516019193 -0.0008496573850156093
000100 49 3f ad 81 ed 5a 77 3f 0b 65 ce be 74 1b 90 bf
       0.005701949844322326 -0.015729736467254656
000110 4c 45 82 ae 85 61 66 3f 43 da 0b 0d 33 39 09 3f
       0.0027320490808696914 4.810988469288295e-05
000120 47 b5 0d ee 7e b6 87 bf 58 b7 8d fb 9e 84 34 bf
       -0.011578551902597168 -0.00031308061038869605
000130 15 db 55 48 a5 21 70 bf 29 ca 7a 3f 72 9b 7e bf
       -0.0039383369779588855 -0.0074724638758874385
000140 59 04 f1 41 f2 53 61 bf 0c 11 9e 52 ab 0a 69 3f
       -0.002115224036544333 0.0030568452975235968
000150 53 2b 67 0c b6 44 7a bf 8c a4 f9 fb 15 58 39 3f
       -0.00641318428683742 0.0003867200539163305
000160 4a ef 4d fa 31 f6 51 bf 23 db 2f 10 ae 08 86 3f
       -0.0010962951721173613 0.01075874316118825
000170 12 47 0f 4c 75 e8 96 bf 77 9e 9c 93 42 bc 82 bf
       -0.022371132628740638 -0.009148140077356743
000180 45 8e 97 3c ac 6b 83 bf b7 83 3e 24 8f e5 63 3f
       -0.009482713317033329 0.002428798268696099
000190 83 5f 54 52 95 b1 79 bf 4d 34 78 ab 8c 30 72 bf
       -0.006272872245311481 -0.004440831653039612
0001a0 5c 37 22 d9 af f6 8c bf e3 3b 09 b4 2d 62 8e 3f
       -0.014142392934697483 0.014835698181881745
0001b0 e3 ff 8c cf 05 6e 68 bf b6 9a ee 3e d6 32 6f 3f
       -0.0029821504107587645 0.003808420609363007
0001c0 42 58 1e ab 7d b4 72 bf 24 bd 87 68 b0 93 6b bf
       -0.0045666607783428365 -0.0033663220858596455
0001d0 a2 dd ff bf e4 2d 84 3f 02 9a 89 a6 17 33 70 3f
       0.009853160008772847 0.003954975495253256
0001e0 ec 95 f7 39 63 ff 79 bf 0d c3 aa 83 53 86 80 bf
       -0.006347072222955923 -0.008068706947001592
0001f0 b3 92 2d f0 59 1c 8f bf 9b af d0 78 72 09 88 3f
       -0.015190794603492241 0.011736769020067863
000200 16 4f d3 2e 46 f4 80 bf f7 06 25 0c 7b e9 6d bf
       -0.00827841596984728 -0.0036513713140785514
000210 0c 14 a8 3f 0a f5 79 bf 0b 45 ec 8d 31 67 70 bf
       -0.006337204011747321 -0.004004663059064893
000220 38 a1 2d bf 47 42 96 3f 31 c8 c0 80 96 17 84 bf
       0.021737214130014254 -0.0098106153528513
000230 e4 bb dc 0b 34 db 83 3f 9f 4c 48 f4 8f 6d 71 bf
       0.009695440876013657 -0.0042548773967780165
000240 e2 13 18 55 cb 1a 90 3f d2 07 3f 08 7c 43 4d bf
       0.015727212017754406 -0.0008930545450243027
000250 47 1b 6b 48 22 7d 8f bf 2f ba 8f a9 cb 7e 65 bf
       -0.015375392756494256 -0.0026239373951206994
000260 ea 44 71 f3 34 1a 73 bf d6 bf d0 d1 28 79 4c bf
       -0.004663664664876091 -0.0008689355196391756
000270 b5 34 d7 80 aa f4 7d bf ac 11 f1 ba a1 93 95 bf
       -0.007313409832432051 -0.021070982966436766
000280 13 23 17 89 36 a1 1d bf bf a9 9b fa 02 15 71 bf
       -0.00011302848203976713 -0.004170428883052356
000290 65 a4 c4 77 7a de 81 bf 6e 14 5d 15 2e 75 06 3f
       -0.00872512510302865 4.2834729056675426e-05
0002a0 73 51 c8 30 e6 bc 40 bf 6c d7 4f 4e f4 22 76 bf
       -0.0005107997872664652 -0.005404428787178488
0002b0 78 49 7f d8 da 27 58 3f 8e 55 4b fd 2b 91 84 3f
       0.0014743458905185063 0.010042518298557093
0002c0 85 91 49 ca 09 8c 79 bf a0 62 0f a4 41 d8 86 3f
       -0.006237066500578319 0.011154663867203596
0002d0 47 4b ff 9f 5d c8 61 3f 91 9a a4 a1 15 00 53 3f
       0.0021707371342726575 0.0011596881145778152
0002e0 84 80 c2 3a 55 91 90 3f cc f3 81 07 87 6c 27 bf
       0.016179401122486073 -0.0001787104445191409
0002f0 88 a2 a9 6d a0 db 80 3f 5f a6 b7 bd 9e 84 70 3f
       0.008231404635084219 0.004032726366384048
000300 ae 23 30 9e c8 af 6b 3f 40 65 bc 79 a0 f0 7c 3f
       0.0033797186201848994 0.007065417153876041
000310 5f 4a ab 85 8b a0 88 bf 2e ce 1d cc 77 51 72 3f
       -0.0120249653022359 0.00447222514945937
000320 a1 26 fb b7 86 d0 77 3f ce 5e 0e 72 4a c9 7e bf
       0.005814100498989256 -0.007516184618814937
000330 d8 30 c2 f6 bc bd 7b 3f f5 93 3c a7 ac ba 3b 3f
       0.006772745266186507 0.00042311396758726245
000340 e8 33 50 bc b4 b8 8b bf 11 5b c7 2d 09 ff 60 3f
       -0.01353589248358307 0.002074735572232263
000350 fe ac 42 f7 9b c2 72 3f 90 6f 18 42 a0 3a 78 3f
       0.004580125085492213 0.005915285118614735
000360 f8 91 0c 24 a6 0b 3c bf 89 f2 69 5c 58 12 68 3f
       -0.0004279404275158434 0.0029384351540200954
000370 21 3c 05 14 8e c4 1e bf 81 d2 cb d3 7c 27 9b bf
       -0.00011736981560271687 -0.026517820765507686
000380 12 a4 d0 60 b0 00 7b bf 8b 77 b5 63 61 60 71 3f
       -0.006592453934936253 0.004242306163488761
000390 bc d5 d2 5a 51 5e 87 3f ea b8 79 98 b0 57 3d bf
       0.01141036566182662 -0.0004477316037768813
0003a0 bf 45 b6 a8 63 4b 6e bf 5f cc 18 10 0c 99 69 bf
       -0.003698057791276382 -0.0031247363665670015
0003b0 23 f3 7d 6c a5 27 75 3f 4e e3 db d0 e0 c4 87 3f
       0.005164762675005349 0.011605984090680057
0003c0 a3 5c af e0 13 ea 8e 3f 07 06 fb 4e be 42 88 3f
       0.015094905180303824 0.011846052918715889
0003d0 17 5f f9 77 27 d4 5e 3f d3 77 fd d5 82 08 79 3f
       0.0018816361843132007 0.006111632421235985
0003e0 14 ee c6 d2 0c 3f 83 3f 01 70 bb c8 62 4d 70 bf
       0.009397602255254468 -0.003980050921850165
0003f0 09 c1 3a 19 db 2b 6b bf 75 0e 5b 27 6f 7b 74 3f
       -0.0033168105381592467 0.005000528520841753
000400 71 b4 a6 68 69 fa 82 3f a8 a3 2d 88 0e e1 45 bf
       0.009266685014916317 -0.0006676979977387936
000410 b2 db cd 58 48 42 86 bf b9 5d ae 70 e3 a1 7f bf
       -0.01086861153610905 -0.007722748220565228
000420 96 05 b0 2b d4 64 87 bf f0 c2 20 26 96 df 81 bf
       -0.011422784407843872 -0.008727238691876832
000430 25 26 68 03 51 62 6c bf 65 c5 c0 3c 3a 48 6e bf
       -0.0034648496905489595 -0.0036965501258456207
000440 4e 04 1e d5 df 14 78 bf a3 76 92 2e d4 55 90 bf
       -0.005879282327328884 -0.01595241102460555
000450 89 98 b7 72 75 10 72 bf 88 22 88 16 c3 4e 7c 3f
       -0.004410227567381971 0.006911050856168395
000460 0a 0e b1 16 d8 84 8b 3f 31 b3 d3 ff 66 f1 81 bf
       0.01343697375535326 -0.008761219675272965
000470 c0 20 1d 99 ad 37 81 3f 9c 9c a5 74 a4 57 7a bf
       0.008406978831445477 -0.006431238560572396
000480 9f 3b f7 83 47 07 73 bf 23 a5 89 af 06 c2 80 3f
       -0.0046456140111804925 0.008182575447067969
000490 dc 76 0f 60 05 ce 63 bf 01 7f 7c ce 5b 43 6d bf
       -0.0024175744042470425 -0.00357215815519385
0004a0 e0 44 1d a7 41 e7 66 3f 9c 62 80 c0 ce 54 92 bf
       0.0027958185463964197 -0.01790164041458074
0004b0 ea ad 54 d3 22 5c 66 bf 1d 8b 45 08 4c 1f 91 3f
       -0.00272948076112355 0.016720951084958736
0004c0 4e 3a dd 39 79 e2 0a 3f 9c f2 51 6a d2 d3 84 bf
       5.127842380990966e-05 -0.010169643277771194
0004d0 35 eb 17 4f 90 31 22 bf ca ab df 01 1d a5 71 3f
       -0.00013880621513336915 0.004307854947891829
0004e0 f5 fc 28 a9 cd 52 85 bf 11 ae 02 40 2f a3 75 3f
       -0.01041184113012015 0.005282578058693158
0004f0 56 97 06 c2 9a 23 20 bf 79 17 47 a7 d2 4c 94 bf
       -0.000123131409975825 -0.01982430597288196
000500 d6 55 e9 36 5b eb 8c 3f e1 52 72 01 09 6d 78 3f
       0.014120781529679254 0.005963359049151435
000510 97 31 28 9b 9d 7d 82 bf 98 b4 96 7c ee b3 83 bf
       -0.009028655335918496 -0.009620536019463707
000520 0d ab ed 58 60 57 9c 3f 7e f8 29 9c f0 d3 72 3f
       0.02767706434989763 0.004596652872917882
000530 95 5f f7 a2 48 67 79 bf fe 50 c1 c0 9e 3f 87 bf
       -0.006202014671963148 -0.011351814515514477
000540 50 21 f5 38 07 f3 7a 3f df e4 82 62 3f 06 70 bf
       0.006579426014760095 -0.003912208172715397
000550 3f a4 56 fb 64 ad 88 3f c8 7e 5a 31 a6 49 76 3f
       0.012049473686447707 0.005441331091475106
000560 c7 82 60 23 dc 52 71 bf 37 c5 55 32 f1 2a 72 bf
       -0.004229411997614014 -0.004435484098722234
000570 16 3d 50 ce 7c 19 8e 3f 7e 88 5f cb 14 a5 51 3f
       0.01469705109232548 0.001076956088120556
000580 09 c3 06 e5 1f 04 99 bf 24 bd cd 5d 18 69 98 3f
       -0.024429796556151327 0.023838406300851336
000590 0d 85 bf 8d 95 02 6d bf 58 18 14 a5 f8 da 8a bf
       -0.0035412713022969834 -0.013112967050357735
0005a0 05 8a ff 62 f7 3e 86 3f d7 b1 db e7 8f 15 6f 3f
       0.010862286289868637 0.003794461313068913
0005b0 c9 fe f8 b5 40 c0 77 bf 7a ae 9f 76 70 3b 78 bf
       -0.0057985809103794994 -0.005916060743384239
0005c0 4a 73 3a 7e 72 a4 81 3f 89 48 78 96 04 84 61 bf
       0.008614439465696972 -0.0021381463627757097
0005d0 f1 21 1a ff 4a 22 7d 3f 7a c9 86 95 32 85 47 bf
       0.007112782435463747 -0.0007177826874367598
0005e0 fb 3e 48 1e 53 d4 8a 3f f7 7d 9c 11 98 3b 6b bf
       0.01310028968967413 -0.0033243150800357185
0005f0 8d b8 8e e5 c8 0a 8c bf 1a b7 ce bb 2b 61 40 3f
       -0.013692445283450172 0.0004998649161415986
000600 84 7c 64 c1 d5 f4 86 3f 37 81 8f a2 c2 9b 95 bf
       0.011209173168536653 -0.02110199086371375
000610 1a 8b 61 fc 2a 12 88 3f 03 d4 c5 1a e0 93 70 bf
       0.011753402545030368 -0.0040472749791336
000620 62 08 08 38 52 2d 83 bf 5a b9 7b 8f b0 99 65 bf
       -0.009363787016813233 -0.00263676151722973
000630 46 75 96 2c cb 0e 80 bf e1 b1 fc 04 0c 7d 67 bf
       -0.007840716646394196 -0.002867244220303031
000640 61 de ed 28 98 cc 7a bf d7 8a 83 4c 62 65 81 bf
       -0.006542772650270119 -0.008494155845658309
000650 46 af 59 4f 54 5a 72 3f de a3 21 d7 4f 3c 85 bf
       0.004480676017560919 -0.010368942024983892
000660 be 34 aa 77 55 3a 9a 3f 56 a6 cb 2c 35 6f 76 3f
       0.025613151005519745 0.00547714969136733
000670 04 59 6f 8c fb e8 61 3f 80 cc 75 00 99 95 73 3f
       0.0021862900789343404 0.004781339324256284
000680 87 74 3c 22 70 80 4c 3f 1f b3 46 64 7b 68 53 3f
       0.0008698031929018781 0.001184578418455824
000690 c0 42 49 90 9e 0c 7a bf f2 cd 56 38 08 48 7b 3f
       -0.006359691037304216 0.0066604920479451536
0006a0 80 65 53 b7 bf 08 86 bf b9 9f b9 3f c4 77 82 bf
       -0.010758874685438569 -0.009017499155746
0006b0 88 35 77 f8 9a 51 85 bf 29 b5 cc 51 b9 62 5e bf
       -0.010409556109972198 -0.0018545923005136111
0006c0 0f 5d cb ef c9 31 80 3f 3a 62 d6 cb 75 d3 72 bf
       0.007907464628643028 -0.0045961953559517325
0006d0 09 ba 62 52 a1 42 52 bf da af c2 50 7f 18 90 bf
       -0.0011145186813724692 -0.015718449882726172
0006e0 bb 74 e8 64 e8 37 8a 3f a3 0b 17 17 44 c2 70 bf
       0.012801948146313405 -0.004091516473127141
0006f0 95 0f 0b 4b 6c 06 80 3f cb df a8 ca 14 60 80 bf
       0.007824750938546102 -0.007995760378534464
000700 d2 62 5c 9a 0d 60 76 3f 26 bf 4f ea 38 ba 70 bf
       0.005462697159395362 -0.004083845448789513
000710 d0 32 60 46 f3 fc 8b 3f e4 38 6b 88 e2 e8 7f bf
       0.013666058144758436 -0.0077904557171690515
000720 dd 62 6b 8e 0c 35 84 3f 98 a4 98 a9 20 33 94 3f
       0.009866808029458546 0.01972628626950676
000730 ff 73 b0 e3 43 0e 6e 3f 57 9c 40 f1 6a 8c 8a 3f
       0.0036689115490973197 0.01296313809150555
000740 68 bf 21 a2 90 02 83 3f 68 a8 27 44 eb 70 51 3f
       0.009282236049528783 0.0010645196458605403
000750 8e 23 ca 2e 96 cf 63 bf 11 64 53 62 1e 9c 81 bf
       -0.0024183209664596144 -0.008598554015792488
000760 ed 4c 0d 0a be a6 74 bf 55 13 d1 eb 7e 85 7d 3f
       -0.005041830387955343 0.007207389627244283
000770 37 37 b9 4c 13 eb 80 bf 7c fe 82 21 0d 86 70 3f
       -0.008260870722689979 0.004034091274831671
000780 38 f7 5a 82 53 46 8b bf c4 25 57 12 6b 12 8d bf
       -0.013317730346325982 -0.01419528627129097
000790 98 99 d9 15 b4 cb 98 3f 7f 0d 67 36 f6 56 8e bf
       0.024214567025774153 -0.0148143039085713
0007a0 e4 4b e0 52 9b a5 87 3f a9 94 03 e9 6c 5b 7c bf
       0.011546338526420237 -0.00692312758494499
0007b0 24 e4 b8 d2 c9 68 67 bf 5c e7 11 34 bc 92 92 3f
       -0.0028575841768341426 0.018137875249954902
0007c0 7d a2 49 d1 8f 7c 42 bf a1 c7 6a 9e ba 32 84 3f
       -0.0005641653284103734 0.009862382850176323
0007d0 2d aa 9b 8d 5b 43 86 bf c7 3c 02 7e 74 0d 8a 3f
       -0.010870661982569885 0.012720975966912807
0007e0 c7 45 17 01 bc 39 4f 3f 74 6f d9 cc 3c c1 90 3f
       0.0009529273976857593 0.01636214256573916
0007f0 c4 37 fa 26 e3 0d 8b 3f 0a ed dc 29 18 08 7f bf
       0.013210081698414096 -0.007576078785685123

b1 f8 [1, 25]
000000 7c 52 ad e1 f6 d7 b0 bf e4 f8 b2 35 53 e7 85 3f
       -0.0657953549355827 0.010695123745219033
000010 13 ef ef f6 87 3e a6 3f 10 51 7a 39 dc 58 c9 bf
       0.043445824521738306 -0.19802429968388724
000020 19 ca bb 76 84 db a5 3f 65 d1 68 f9 c7 23 97 bf
       0.042690410131303654 -0.02259743175291486
000030 9b 72 d2 4e e7 7c aa 3f 8f e4 61 17 95 e3 c5 3f
       0.051734188434442184 0.17100776330679365
000040 62 f0 6a 36 fc a0 c6 3f 8e 9c 36 4c 71 ca 80 3f
       0.1767878785811972 0.008198628557535306
000050 2e ca c6 b5 27 7d b0 bf 5a 71 dc e2 21 41 bc 3f
       -0.06440971553710348 0.1103688410625571
000060 b7 03 f5 bb 55 90 ae bf 43 47 e4 97 ad 21 b8 bf
       -0.059694937890987836 -0.0942638870076538
000070 3d 6c e2 33 49 28 b8 bf 96 ec 43 0b 54 73 c7 bf
       -0.09436471478186177 -0.18320704031052476
000080 06 f8 61 00 40 66 b2 bf 0c bb 9f 3e fa da c7 3f
       -0.07187271127074277 0.18637016351518587
000090 d8 b2 06 45 fa e1 9a bf 63 68 c3 92 67 7b 95 3f
       -0.026252661192915777 0.020978563626023915
0000a0 d2 92 17 5a cb bc c0 3f f6 af 68 1a 8c 9a c2 bf
       0.13076154612567464 -0.14534140862940576
0000b0 9a c3 0f bc c8 f1 c5 bf 38 64 84 29 d4 b0 4d bf
       -0.17144116575903184 -0.0009060893962981103
0000c0 4e cf d2 3c 80 80 a5 3f
       0.041996009278050125

W2 f8 [25, 10]
000000 66 c9 0f 12 95 3a e1 bf 09 fd 78 32 cc 13 d1 bf
       -0.5384011605040484 -0.26683335236516875
000010 df cb 04 89 65 4f f0 bf 2b 5c b8 b6 ba 8c e2 3f
       -1.0193839409155243 0.5796788758042387
000020 7a 2e c5 6c 71 76 af 3f 88 46 4d 12 ad 5c ef 3f
       0.061450523879639854 0.9800629956682352
000030 dd d0 8c 5d 44 7e d3 bf 5f 3e ea 68 94 43 cb bf
       -0.3045817292761635 -0.2129998695640891
000040 04 e7 6f 30 ff 0b df 3f 75 fb fc 2a 04 5f cf 3f
       0.48510722856700306 0.2450871667769793
000050 ac 59 ac 1b e2 0f e5 bf 14 7d d3 4b d2 a6 e9 bf
       -0.6581888714306863 -0.8016139489153908
000060 4a 62 dc ae 1d 5d e0 bf 4f 49 3f 86 b0 37 d5 3f
       -0.5113666930438481 0.3315240202911313
000070 18 a7 bc f5 26 37 ec 3f 2c a4 6d 63 19 d9 d7 3f
       0.8817324447202024 0.37262568197053514
000080 af 86 11 f2 eb f9 f1 bf 22 eb eb f5 67 63 ea 3f
       -1.1235160308646461 0.8246345332293894
000090 cc 00 43 f3 0b 91 c5 bf 0d a9 4d 0f 4d b7 ed 3f
       -0.16848897340788083 0.9286256121534123
0000a0 0c ef a2 9c 33 67 f5 3f a5 01 47 30 b8 8a dd bf
       1.3376957052814218 -0.46159176554285813
0000b0 a7 31 3b 3a 29 55 d3 bf 1e 24 00 b5 5a 51 de bf
       -0.30207281767504884 -0.4737154738982684
0000c0 26 80 72 9b 41 3b e2 bf a6 12 a3 9f 93 56 b0 bf
       -0.5697334323958827 -0.06382105491054321
0000d0 bc d2 ff 3b b8 af c1 bf 2d 42 10 19 b5 3e f4 3f
       -0.13817503862050795 1.2653094271701193
0000e0 a7 eb 41 be 0f ad e7 bf 47 23 4b 90 f1 d9 c1 3f
       -0.7398756710020863 0.13946361108380698
0000f0 66 4f 37 84 08 0f e1 3f cc 96 51 b7 17 14 f1 bf
       0.5330851156563596 -1.067405429924679
000100 89 d2 60 7f 75 c4 ee 3f 30 3c 4b 6f e7 f6 cd bf
       0.9614818084579194 -0.23409741338989098
000110 4f 22 8b d7 6f e6 c1 3f 3e c8 f0 f9 c6 05 e7 bf
       0.1398448755701502 -0.7194552308703874
000120 2f 7a 11 c4 6a e2 b8 3f ee 4f 1b e4 58 20 ca bf
       0.09720485007117284 -0.20411215913793462
000130 d1 da 27 bf 39 56 db 3f 4e 65 c0 ad fd 07 b4 3f
       0.4271377913241113 0.07824693195324992
000140 e4 f8 ef b9 45 01 f0 bf 6b d4 80 12 93 20 ee 3f
       -1.0003106368235928 0.9414763795272284
000150 88 52 3e f5 95 e9 ec 3f c8 87 8d cb 23 28 f3 bf
       0.9035138883505889 -1.1972997618945431
000160 8a 60 0a 47 50 73 cd 3f ae ef 9b 9c 0d 23 ec bf
       0.2300815913083663 -0.8792789515277855
000170 16 f2 7e f0 3f 60 e3 3f 30 36 34 d4 eb b0 a5 3f
       0.6054992386994538 0.042365426687052454
000180 fd a4 f0 af 99 d0 d0 3f 91 2d 91 5f 8e ad ba 3f
       0.26273195439951263 0.10421075661832037
000190 09 c1 a5 d1 82 5f f1 bf 56 a3 82 e1 8e d1 eb 3f
       -1.085818118033844 0.8693308262346402
0001a0 a5 a9 a2 67 9a fd e0 3f e5 dd 19 07 ea 35 f3 3f
       0.5309574150208404 1.2006626393684823
0001b0 57 a2 ce 2b e8 17 e5 bf 9a f8 11 15 0e aa c8 3f
       -0.6591683250054058 0.19268966702287998
0001c0 84 81 83 70 9a 89 ed 3f e0 a7 16 8a e4 6a ef bf
       0.9230472753079515 -0.9817984292069433
0001d0 ec ca 10 dc 55 7d c9 bf 9c f7 96 6a 8f c2 e9 bf
       -0.1991374325312657 -0.80500002687744
0001e0 a3 61 94 0a 1b 98 e5 bf b8 1f 1a aa 83 64 f4 3f
       -0.6748175818093397 1.2745396275149528
0001f0 d6 b6 11 94 ae 07 e2 3f 0f 4d e6 a6 3c 0f f2 3f
       0.5634377376533972 1.1287199515834947
000200 f0 1c 19 da 21 32 d6 bf b8 42 13 d9 e6 0b d8 bf
       -0.3468098287452923 -0.3757264251590118
000210 4c ee b6 e0 b1 51 e3 bf cf dc 87 d4 66 ba b1 3f
       -0.6037225140530125 0.0692505139230548
000220 26 0f 93 8a c4 67 e5 bf c2 58 25 97 80 da d7 bf
       -0.6689169603855347 -0.3727113224062003
000230 68 fc c5 6f 98 b9 f1 3f 9c 19 ae 13 91 c5 f0 bf
       1.1078113905093918 -1.0482340592148836
000240 f0 73 13 53 6a 82 c4 3f c3 f9 82 98 e8 16 d8 bf
       0.1602299600262138 -0.3763982285853695
000250 61 b9 68 25 fb 06 e1 3f 78 ef f8 d1 82 40 dc 3f
       0.5321021776815479 0.4414374399673231
000260 0c 7e bc 46 49 75 d7 3f f1 ff 68 33 a7 83 de 3f
       0.3665335837158359 0.4767854692508982
000270 e8 3b 64 77 e9 5c f2 bf b7 be a9 3e a6 32 e1 bf
       -1.147683588383865 -0.5374327873123182
000280 70 7b 47 67 f1 ff e5 bf 3b b6 c9 08 f6 9d f6 3f
       -0.6874930398151786 1.4135647147444519
000290 df 10 fa f5 f0 f3 d4 bf bd 31 9f 81 86 4d e7 3f
       -0.3273889925114996 0.7282135516812144
0002a0 df e4 9d 71 16 ad ee bf 90 14 27 6b bc b7 61 bf
       -0.9586288661077126 -0.0021628074693774216
0002b0 3f 99 44 ef 78 61 e7 bf 1f 56 22 55 ce 83 f9 3f
       -0.7306484864427957 1.5946791959335156
0002c0 9b df e3 f3 e3 5b d8 bf f5 2b b1 f4 8b f4 e3 bf
       -0.3806085473765905 -0.6236018923895005
0002d0 44 da 6f f5 f9 70 ea bf 06 1e 63 be 96 2c e5 bf
       -0.8262910646142889 -0.6616929739474819
0002e0 0b 4b 01 db ce df d5 bf e7 ed ba 23 c9 86 6d 3f
       -0.34178515803539317 0.003604309893345581
0002f0 52 61 b0 90 1e 99 f2 3f ff 0f e6 b7 9e 77 d3 bf
       1.1623826648629643 -0.30417602499824165
000300 37 7b 60 37 63 ce e2 bf ca a8 78 19 3f 9e ef 3f
       -0.5876937944011392 0.9880671975600077
000310 64 9c 2b fb 62 84 e2 bf c5 e3 26 54 28 ea f3 3f
       -0.5786604791327474 1.2446673667129613
000320 87 9f 2c 87 ea 34 dd 3f 73 7f 39 d3 98 91 d8 3f
       0.4563547439633954 0.38388653399851264
000330 b7 df 1e 02 e0 96 e8 3f 13 f3 fc dc 21 3b e4 3f
       0.7684173623483649 0.6322182956861034
000340 5f 84 e6 de 9d 54 f5 bf 95 7c 00 a9 72 da d5 3f
       -1.333158369736587 0.3414580011758031
000350 93 a7 e5 a8 34 26 f2 bf 51 ec 08 c7 c6 06 9f bf
       -1.1343275640051373 -0.030299287698863534
000360 a0 6b ca 99 91 7e e6 3f c4 ba 6d ed 6e 34 e8 bf
       0.7029502872204496 -0.7564005505826903
000370 a4 9f 95 19 d4 25 d4 bf 17 9b 8d 38 22 ee d4 3f
       -0.31480886934741137 0.3270345260884126
000380 65 55 88 6e de 79 d2 3f d8 ef fb 21 cf 1a dd bf
       0.2886882857722724 -0.45476129835856005
000390 93 8a ba b8 bf 41 d1 bf c6 a1 be 99 85 3e db bf
       -0.26963799514684544 -0.42569103254438934
0003a0 f5 16 5d 09 a3 1e e0 bf 10 97 de 1b 2e 65 f4 3f
       -0.50373985127291 1.2747021759655048
0003b0 20 46 b4 31 bc 77 e4 bf d5 cd 99 c5 36 04 e7 3f
       -0.6396161051545199 0.719264398516709
0003c0 d0 1f 70 0b f0 81 e3 3f 10 63 29 1d 8b 61 ef bf
       0.6096115325353768 -0.9806571549953293
0003d0 31 cd 42 f7 1e f5 f0 bf 7e 9e ca f8 91 47 d9 3f
       -1.059843984473286 0.39499329849284226
0003e0 2b e8 9c a4 47 57 a0 bf bc a0 fc ba e2 ff dc 3f
       -0.031915892452574056 0.45311802158768066
0003f0 ba f7 a0 7d 7e a2 f1 bf 65 71 03 ac f0 fd db 3f
       -1.1021714122175426 0.4373742751902426
000400 6f 4c 22 82 eb 3f e2 3f bf eb 69 2a 80 6b e6 3f
       0.5703027288131021 0.7006226375955221
000410 40 e9 1f 60 84 d2 ee 3f 5b 01 cf 7a d2 77 e9 bf
       0.9631978871760012 -0.7958767317395926
000420 d1 88 25 70 69 2c d3 bf 3f 60 1a 01 95 c6 ec 3f
       -0.2995856852704835 0.8992409726661278
000430 24 96 e2 93 1c 0c d4 bf 6e 6b c4 49 4a 59 ed 3f
       -0.31323923532395015 0.917149681164444
000440 47 1b 2c 1a 28 43 cd bf be 88 61 60 42 5d e0 bf
       -0.22861195829337985 -0.5113841898385301
000450 34 b5 6e 96 ce 61 d3 bf 2e 12 af 9c 09 ca d5 bf
       -0.30284466448468383 -0.3404563932529382
000460 6e 9d c3 3e 16 ab ed 3f 1c 46 64 91 b4 ab e2 bf
       0.9271346307622659 -0.5834601249391116
000470 d8 a6 58 5b 8d 76 e1 3f c9 9b 2a a4 38 e2 d0 3f
       0.5457217010600415 0.2638074496448409
000480 92 80 3e ea 8d 4e ee bf 44 a1 68 0e 89 e5 eb 3f
       -0.9470891547280351 0.871769455091489
000490 d8 b5 40 18 9a 22 f0 3f 17 0a 5b ca 47 bd ef bf
       1.008447737443353 -0.9918555214174515
0004a0 44 ed 39 f3 9e 7c a7 3f fe 94 e8 51 29 85 f1 bf
       0.04587265700407753 -1.0950101089050004
0004b0 e7 19 18 43 06 f2 e1 3f fb a8 f4 01 40 33 e9 bf
       0.5607940016205334 -0.7875061071584065
0004c0 6e 41 e3 39 da ae da 3f 67 37 b7 c0 03 61 f0 bf
       0.4169221463498819 -1.0236852195698363
0004d0 ee 40 b2 87 eb ca af 3f c4 95 cf a8 be c5 ed 3f
       0.06209503203820242 0.9303887650573235
0004e0 b1 f4 2e 60 2d c5 e7 3f 69 0b 09 ca 01 43 f1 bf
       0.7428194883902021 -1.0788591281895725
0004f0 9f 3f da a3 1c c6 ef 3f 84 9f 21 99 15 48 e9 bf
       0.992933578514556 -0.7900493613096704
000500 e9 67 35 6f 1f eb f0 bf 4d b5 4f b0 b5 a8 e1 3f
       -1.0574030250631898 0.5518444484311346
000510 f6 1c 68 1f 41 59 e3 3f 68 49 26 c7 9f 79 c9 3f
       0.6046453107273055 0.19902417396640293
000520 00 64 41 ed fc d2 e0 3f e5 57 13 53 36 ba e9 bf
       0.525755370511547 -0.8039809820718317
000530 b3 cc 00 28 4f 1e e3 3f e9 0f eb 8b fd 42 ea bf
       0.5974498540221219 -0.8206775410440034
000540 42 c1 69 ca e5 66 de 3f d5 12 8c 5f 31 d0 d1 bf
       0.47503037230400846 -0.2783320839956052
000550 1b dc a1 c9 22 8e e3 bf 3f d9 17 8f 8d c6 c0 3f
       -0.6111005724077389 0.13105935561152113
000560 2f 25 77 6e e3 35 e6 bf 29 99 a5 af e4 04 d9 bf
       -0.6940781743552743 -0.39092366364492875
000570 c6 59 2a b6 0e 17 f4 3f 11 d7 5c 98 d5 38 db 3f
       1.2556292644345475 0.4253438938061303
000580 11 b9 e3 e0 dc e9 f1 3f 69 76 64 3a c6 9f d5 bf
       1.1195954117534408 -0.337876851104602
000590 76 f6 b4 8c 78 00 ec bf 13 f2 31 e2 ca 5a 8d bf
       -0.8750574825459825 -0.014333329227377544
0005a0 17 29 7f a0 6f 7e f2 3f ba 10 6e b0 bb bc e9 bf
       1.1558681744959978 -0.804288715924961
0005b0 fb 3c 0d ac 36 99 f0 3f 1c 49 71 d6 07 1e e6 bf
       1.0374056549806585 -0.6911658466654305
0005c0 24 b3 a5 26 ff a9 d7 3f 98 51 b9 a0 2c 48 dd bf
       0.369750774136991 -0.457530171353278
0005d0 03 3d 91 3f 8c 3c e6 3f f0 20 20 32 6f d4 d5 bf
       0.6948910943555408 -0.3410909642702924
0005e0 90 b1 24 2c 63 ce e5 bf 8f d0 cc 44 10 ff cd bf
       -0.6814437734770298 -0.23434642180803109
0005f0 98 47 eb 18 5a 92 ed bf e1 0c 9a db 89 5f ea 3f
       -0.9241152273846067 0.824162415418325
000600 50 74 ca 35 d6 c5 d3 bf ea 96 45 1b 87 9d e8 bf
       -0.3089499974537988 -0.7692294628766068
000610 27 0f 0c 15 96 e6 e2 3f 7c 7c 75 ad 62 89 d9 bf
       0.5906477366520207 -0.3990103429732199
000620 89 1d d3 d1 b7 fe e9 bf 94 b4 50 74 41 73 dc 3f
       -0.8123435114038539 0.44453464850341473
000630 04 39 1c 07 20 ac e7 3f 2b 56 37 84 a2 e5 e3 3f
       0.7397613657829258 0.6217815954539153
000640 fb 44 d4 bb 30 cb df bf 23 ad 0b a3 58 cf d2 bf
       -0.4967767557401001 -0.2939054100267688
000650 c5 cf c9 1c 5b 30 d0 bf 4b f8 da 2f c5 c6 e2 bf
       -0.25295141040191665 -0.5867639479327037
000660 f9 79 bb c9 bd 69 eb 3f 87 2e c4 2d 03 0b e0 bf
       0.8566578807911461 -0.5013442891954164
000670 4b e7 76 20 93 8a f1 3f 57 35 3e 82 e9 83 e5 3f
       1.0963317173140747 0.6723525565918561
000680 07 22 8b 5c 42 72 f0 bf 40 b0 a2 5c 0e 7a e1 3f
       -1.0278953185062407 0.546149426392283
000690 c1 9a 33 7b e3 12 d9 3f 6b 10 e0 b0 fd 56 ee bf
       0.39177786857036884 -0.9481190161318528
0006a0 56 ce 3b 5b 13 14 e3 bf 51 1c e7 1f 8d 2f a5 3f
       -0.5962006360918604 0.04137841238439733
0006b0 d2 a0 c7 57 05 30 e4 3f 5e be 3d d4 6e 93 d6 3f
       0.6308619226884054 0.352748591677459
0006c0 a1 ff ca 97 1e 03 d4 3f a5 a9 eb dd 03 bc f3 bf
       0.31269039939433624 -1.2334021252414484
0006d0 94 ea eb 8d f0 52 e1 3f 92 16 dd 65 ab 53 e1 3f
       0.5413744708924519 0.5414635648273409
0006e0 8e 30 c3 a3 94 6b e6 bf b1 6a 0d 5f e2 d3 e5 3f
       -0.7006324003682651 0.6821147781841629
0006f0 aa 59 d0 5f 94 20 f3 3f 2a 9e 27 3b 64 62 f1 3f
       1.1954540007333017 1.0865213690502835
000700 03 cb df de 6a 3a eb bf cf 0c ed d3 53 e9 e0 bf
       -0.8508810379993011 -0.5284823550395233
000710 a1 ec 00 fc 9a 98 e9 bf e8 e4 86 e8 17 92 58 3f
       -0.7998785898156663 0.001499675128896089
000720 e8 af 32 d2 1a b7 de 3f 43 64 8d e4 8c 6f e0 bf
       0.47992582823894603 -0.5136169876015021
000730 aa d5 ee 08 68 10 a0 bf 22 06 e9 65 81 52 c3 3f
       -0.03137517079396031 0.15095536686026018
000740 e5 b1 23 6f 30 89 e9 bf f1 7a f9 b8 04 0e e2 3f
       -0.7979967280094199 0.5642112362655479
000750 46 01 29 04 c6 58 f2 bf 34 81 f7 18 36 54 d7 3f
       -1.1466732180125105 0.3645148509804301
000760 30 14 3d 54 2b 7c f2 bf 54 c2 78 59 21 17 e6 3f
       -1.155314759308805 0.690323519467777
000770 06 83 cb 33 13 ac db 3f d5 de f1 06 4d f7 ed 3f
       0.4323776250658259 0.9364380965843916
000780 e8 15 5e 0a 26 5c f1 bf d8 da f4 c9 14 69 f1 3f
       -1.0849972157460517 1.0881545914577853
000790 52 68 ce d3 48 c4 e5 bf 83 5b 77 44 42 8d f3 bf
       -0.6802105080453293 -1.2219870256865029
0007a0 54 58 c1 14 9d 61 df 3f cd 48 4f 75 a4 34 d2 3f
       0.49033286120300557 0.2844630380251488
0007b0 b5 5c 98 07 83 d3 e4 3f 4e ae f8 f6 cc 92 e1 bf
       0.6508193157523211 -0.5491700004253717
0007c0 2d 4f 77 8c f8 c3 e6 3f 63 75 06 75 4a e0 d7 3f
       0.7114222281911445 0.3730646269630908

b2 f8 [1, 10]
000000 1f 49 1a a7 91 8b ab 3f ab 97 d9 69 3e a2 bb bf
       0.05379920162990203 -0.10794439396121784
000010 e5 d7 4e c6 db ef ae 3f 1a 19 34 76 e1 af a5 3f
       0.060423725087659176 0.04235748832620541
000020 28 50 f4 b0 c6 8c b8 bf 90 6a 36 b0 cc 19 ce 3f
       -0.09589807338881029 0.23516234020356253
000030 1d 04 73 17 f6 91 a6 3f 35 d3 96 b2 14 1c a8 bf
       0.04408234630819428 -0.04708923988383732
000040 bf 49 cf 34 5e 98 c5 bf d0 3c f4 00 c0 91 90 bf
       -0.16871240213965952 -0.016180992181998033
