experiments/exp_batch_20250114_143214/exp_h100_lr0.01_run3/model/weights.npz (npz, 637046 bytes, 4 tensors)

W1 f8 [784, 100]
-0.0031152037653996035 0.0018610204205575288 0.005484461612696829 -0.013810357145904397 -0.016632471143926925 -0.009301454758208528 -0.01144208910962858 0.013366789228286269
0.007499423029550288 0.0015162462704223071 -0.01905435669806376 0.008169297762726825 0.0008844587145112156 0.004743561284842336 -0.001266990722570122 0.010507767855057368
0.009466650029081335 -0.003852907755912678 -0.007640944058980053 0.006684006542173021 0.004105009677349666 -0.005776697781017294 -0.011613397671942827 0.005172210026236607
0.006427604221118045 -0.004942608857849652 0.0009824932639723425 -0.012817912032928883 0.003389917245782611 -0.014735977866124352 0.0029082005973224763 -0.002568840127271273
0.0006329416185569575 -0.004606638521481367 0.009261022214448345 0.006994732127707407 -0.005745933839526854 -0.007458187654086339 0.018168663017744946 0.011729885556203195
0.0027185272889028505 -0.012023415244585292 -0.0015804586672344024 -0.007879996623520824 0.0033845639447287095 -0.008647171697453977 -0.0014568893069565768 0.0036776657963692038
0.008023818381095347 -0.0006505449141618037 0.0058894518024334 0.0032830365565731123 -0.0060477729054998295 -0.022652132507531775 -0.00692554728530256 -0.0009280136923737664
-0.006662861583975662 -0.014591718072514795 -0.0020138819159537325 0.0016814640526889748 -0.002889058685693066 0.00339817985483995 0.004950043000942716 0.005174231433396769
-0.00972726013832788 -0.007010032238847191 -0.009769427664763127 0.008594889489839993 -0.005053733696227278 0.008870777050668221 -0.00559939248498717 -0.008093266472435722
0.01665210476399853 -0.012075305866981615 -0.00044604564551301105 -0.0006500520159325651 -0.0029817573304278828 -0.025755509921266743 -0.001464189773932435 0.013944467858086595
-0.01192893524650329 -0.017377880555800907 -0.00695809370939812 0.019058108127915318 -0.012177699518465968 0.005293055273998954 0.017039866901857072 -0.008131187994652704
0.0071653403171969025 0.006309229716111461 0.0013161679259519649 0.005574438961369292 0.008144419191084072 0.0018739985848631206 -0.005552933538355108 0.0021167420571493894
-0.0010628766115963664 0.012109569027892954 0.0009630507141066185 -0.008089000542132239 0.00653976533894071 -0.0011191420333347619 -0.008052852568849266 -0.0003841041722283893
0.018860956550881866 -0.002166154789309884 -0.01062552458439157 0.009799021615202836 0.009682182948871224 0.0009820442639492841 0.0008366116603852542 -0.002600397208540907
0.006644625337423793 -0.0008027071589128493 -0.004956807316365652 -0.0052266986208530505 0.0018652992706234325 -0.011149366448349313 -0.007584748944014734 0.011353886266538223
0.0038721113647413 0.005313194975114878 -0.01095158030407245 0.0035419484033406864 0.0035958538904181108 -0.007645703915928474 -0.018297667792625254 0.0048169582917639685
-0.004103079953850891 0.0012897667721568458 0.0032491442261040277 0.0032196931877782925 0.0021208133874862124 -0.0017085821661193404 -0.003330724774598021 -0.014448497985692635
0.007868996189788601 0.013331822465349896 0.004325413084198071 0.00931633722707004 -0.006463540581405726 0.012488320356540485 -0.003710859074333808 -0.006457138538973316
0.004193302868126631 0.014242294360957435 -0.004530136258753474 -0.007818449990426857 -0.0025478804442553753 0.012168168018931232 -0.0023902730526574813 -0.016994148438793405
0.012063206378963545 0.004852942548147626 0.006619430042054456 0.004585771236418086 -0.009982869566965275 0.009622991919970654 -0.003910639998470378 -0.015245491286608973
-0.0045641789645161895 -0.0007420533041564307 -0.0019512744819457726 0.008919168762379496 0.011800038314286639 0.00023859812679591922 0.0008051266606313167 -0.0016854631168596393
-0.010130555338549636 0.015878777639912512 -0.0029120751555781793 -0.00750127192740753 -0.008657529800260183 -0.010230548513662504 0.011504565062138273 0.016131759429563762
0.008575025676433862 -0.0017940850420789722 -0.0009268551150455156 0.0034644723723045085 0.0073873004331413165 0.0028260972231902077 -0.010556638241946078 -0.0089272617301321
-0.02608939982158093 -0.016060621073052332 0.009543491140367743 0.0017363060764932845 0.011426248550080348 -0.016990751294213777 0.00315438035352638 0.011134603912848326
-0.0025630331142308675 0.007107027498011279 0.01165787951552241 -0.0004053353457575789 0.002155137589215448 0.009210968307485275 0.013625793758017693 -0.004302299533544659
0.0037683139601021143 -0.009362615432478363 -0.0161911300461088 0.0059753118134532116 0.013337326440184465 -0.0011766433583587153 -0.008326646837592145 0.01888759438237123
4.2862246034152955e-05 -0.00044319084406902186 0.01366530730360773 -0.009427201015294153 0.004762757020865287 0.007682735401551189 0.024259614294657405 -0.003717769297695586
-0.0039037666715438352 0.021482663430825763 0.008750294189021714 0.017066066344067703 0.0008832270462887488 0.010164551851138393 -0.018859780543323434 0.0007346476152502629
0.0038830631615048685 -0.000938175635318492 -0.013235504183362206 0.004428117158205418 0.005261153739856126 -0.0018869663821184945 0.00910840179715026 -0.0066537367753301815
-0.02188490421980504 -0.0025182388618671444 0.014809248769810584 0.004901723067836242 0.0033190430357986776 -4.5137090789578294e-05 0.008478861891531554 0.014095275161091853
-0.0034551875115572807 0.0053578077177785215 -0.019997600212405126 0.01564028298202659 0.0052516938085343 -0.005184997823970574 -0.004488443756640874 0.005618125930062835
0.009598016163596356 0.002642147561008001 0.007216322529902595 0.01690861875911761 -0.0013939149277714608 -0.008998642413854428 -0.009211645839706665 0.0021040193739043076
00000000: a459 5e49 0e85 69bf 159f fb75 af7d 5e3f
00000010: 3b05 34f4 df76 763f 414a 4dc2 9a48 8cbf
00000020: f595 753e 1a08 91bf ba0f ef1f a40c 83bf
00000030: a4af 3034 f36e 87bf 0041 b414 0c60 8b3f
00000040: 65a0 690a b7b7 7e3f 3aaf 3909 99d7 583f
00000050: 1e40 753b fc82 93bf 940f c795 10bb 803f
00000060: 634a 72a0 60fb 4c3f 0e09 5c09 fc6d 733f
00000070: b502 f0ed 24c2 54bf 05da 54ba 1885 853f
00000080: cc7c 3842 4063 833f 76fa cb19 2290 6fbf
00000090: 5f8d 804d 1c4c 7fbf 6000 1458 b060 7b3f
000000a0: 3c10 0625 6ad0 703f 7505 c680 4ea9 77bf
000000b0: 8d4d 92d9 c3c8 87bf 2059 928e 742f 753f
000000c0: 41c8 bdde d453 7a3f ce11 6c76 b33e 74bf
000000d0: 75bf fc1b e018 503f 281f e007 4740 8abf
000000e0: c5f6 9df6 2bc5 6b3f c1a0 1378 e52d 8ebf
000000f0: 5128 954e f0d2 673f 91a2 ba8a 3f0b 65bf
00000100: 2443 a7c6 7fbd 443f 0f46 b51c 69de 72bf
00000110: ba05 4f5c 71f7 823f 847b b91b 82a6 7c3f
00000120: aadc cf5e 0c89 77bf 78da fc00 7a8c 7ebf
00000130: 109e e455 ce9a 923f a337 cc96 d605 883f
00000140: ce66 9239 2a45 663f 8801 187a bb9f 88bf
00000150: 4dfd 7592 ece4 59bf 932c 533e 6323 80bf
00000160: aac7 85ee f1b9 6b3f 37cf 25bd 9bb5 81bf
00000170: cc66 58fb a2de 57bf 21d3 45ca 9f20 6e3f
00000180: c56a 49ac ca6e 803f f776 c190 2a51 45bf
00000190: 8e07 20ae 891f 783f c5b4 8bd4 06e5 6a3f
000001a0: 6aee 7bad 8cc5 78bf cdd0 37e1 1e32 97bf
000001b0: 5c71 8e71 f65d 7cbf b309 c03a be68 4ebf
000001c0: fc7d 9d49 844a 7bbf 7bac 4f3f 43e2 8dbf
000001d0: d2e2 f19e 6a7f 60bf ce9b 6747 928c 5b3f
000001e0: 93e5 4792 cbaa 67bf 4076 f5ea 7fd6 6b3f
000001f0: 8c71 d80c 7f46 743f 652e 9d2c 9331 753f
00000200: a9f2 63c1 e2eb 83bf 6027 5b33 8db6 7cbf
00000210: 1efd 9062 fe01 84bf fe3a 2c8a 329a 813f
00000220: e3f6 2a4f 39b3 74bf 13f2 948a d72a 823f
00000230: 6099 9b79 63ef 76bf d30f 89d6 3393 80bf
00000240: 8fd7 7bd5 3f0d 913f 9595 4d1e f0ba 88bf
00000250: 10aa c275 673b 3dbf b8aa 1613 084d 45bf
00000260: 8460 00c7 326d 68bf 81ee 3603 a75f 9abf
00000270: 3867 6dcc 41fd 57bf 53eb 48cb ea8e 8c3f
00000280: 7f23 1496 326e 88bf 7dd2 a4d2 81cb 91bf
00000290: 5e36 ca0e 1780 7cbf 8338 88fc f783 933f
000002a0: 9aec 6029 9ff0 88bf 2191 c3b4 2bae 753f
000002b0: 9763 491c e672 913f af06 1e94 15a7 80bf
000002c0: c3ae 3b65 6759 7d3f 70ca b2f4 b4d7 793f
000002d0: 1229 ac8c 6890 553f 51a6 8510 39d5 763f
000002e0: aca1 9070 05ae 803f 8c89 9fa8 1eb4 5e3f
000002f0: 3205 1b3f acbe 76bf e5d2 1a3d 2157 613f
00000300: d8d8 5512 076a 51bf 0132 8cd7 e6cc 883f
00000310: a82b 26a9 a78e 4f3f 3f49 4946 f790 80bf
00000320: de77 11e4 70c9 7a3f 5f34 b29b 0556 52bf
00000330: 8cb9 6193 037e 80bf a173 a4db 322c 39bf
00000340: acb0 3a5e 4950 933f 9e15 4d7f c1be 61bf
00000350: f610 bec4 d5c2 85bf 77f3 f56a 8211 843f
00000360: b54e f498 40d4 833f 51fd ccff fd16 503f
00000370: be66 43dc 016a 4b3f 3710 f49e 6d4d 65bf
00000380: 5a66 4b08 6537 7b3f 4d3c 767f 984d 4abf
00000390: b3d3 0fd5 964d 74bf af23 483a 9768 75bf
000003a0: 9848 55d7 a18f 5e3f 8a5d 22a2 7ad5 86bf
000003b0: 854b 9b8a 2f11 7fbf 440a 94d1 b440 873f
000003c0: f673 b2f5 67b8 6f3f 287a 7cea 49c3 753f
000003d0: 60cd f639 c86d 86bf 4795 ce11 0104 6d3f
000003e0: 818b 895b 0d75 6d3f 9e88 6104 1a51 7fbf
000003f0: 0eb2 0cb3 9fbc 92bf 6ee7 4465 f2ba 733f
00000400: 3a42 6f23 64ce 70bf acc1 c686 ac21 553f
00000410: 3286 1d06 f39d 6a3f 49ab 3a9e 2f60 6a3f
00000420: 884a 7c04 ab5f 613f bf2b aa21 50fe 5bbf
00000430: a7f2 523f 0949 6bbf 5b56 9992 2c97 8dbf
00000440: e6c7 4cca 9e1d 803f b3c7 e0eb b64d 8b3f
00000450: e729 d03b 86b7 713f 4291 ab9d 7114 833f
00000460: e8b8 9d76 8379 7abf 8e43 1bfc 7993 893f
00000470: 5394 a84b 3c66 6ebf e52f 9ced cc72 7abf
00000480: baaa e42a ff2c 713f 69a6 0064 102b 8d3f
00000490: b88b 3e31 318e 72bf a046 1d98 1e03 80bf
000004a0: 2a8a d4e5 4adf 64bf 2460 8cdd 9feb 883f
000004b0: f19b de12 c494 63bf 386b 12ff e966 91bf
000004c0: ce74 0f27 98b4 883f 13e0 89d8 ade0 733f
000004d0: 84d1 c7b8 f91c 7b3f d532 cc97 87c8 723f
000004e0: 8a98 7b12 e671 84bf 9104 b01c 38b5 833f
000004f0: 5ad3 656e 9a04 70bf 2846 e633 0739 8fbf
00000500: 5ec7 2b76 e3b1 72bf 93bf 2c56 cb50 48bf
00000510: 2872 7805 3df8 5fbf 6fa9 2291 3644 823f
00000520: 7115 3655 9e2a 883f ce2c 8e4d 0646 2f3f
00000530: ff29 9956 e461 4a3f 252f cb3d 589d 5bbf
00000540: 2a82 f41e 54bf 84bf 3dd0 a7ba 8642 903f
00000550: 8981 d071 10db 67bf 50b5 b459 a7b9 7ebf
00000560: 5da0 d9fa 09bb 81bf 1e63 4afa c0f3 84bf
00000570: c79c 9295 b48f 873f 7629 b50c d884 903f
00000580: fdbb bd76 c88f 813f 5c07 3f25 f064 5dbf
00000590: 61cb 2034 065f 4ebf eda3 2e71 8661 6c3f
000005a0: 23d1 415c 2542 7e3f 6df0 c364 c126 673f
000005b0: bef4 0900 b89e 85bf e8d6 63c9 7448 82bf
000005c0: f119 06fc 2db7 9abf 4e80 0c09 3272 90bf
000005d0: e64a b3b2 898b 833f 23e1 1e74 9872 5c3f
000005e0: 4360 b51e a566 873f 7c8d 9204 0666 91bf
000005f0: 702c a40e 37d7 693f e5da 463d bdcd 863f
00000600: c118 efec 11ff 64bf 77cb cf2a 421c 7d3f
00000610: 6f3a 141a 16e0 873f c71e cf0d 6690 3abf
00000620: ae95 d9ae a6a7 613f 1140 293d 33dd 823f
00000630: dbf1 9414 d7e7 8b3f fceb b4bc 499f 71bf
00000640: d7c5 0727 bade 6e3f 683d b3f8 b42c 83bf
00000650: b51e 2258 6894 90bf 68aa 278d 9179 783f
00000660: b66a 03a7 9950 8b3f 1eb1 902f 3347 53bf
00000670: da88 d29e 8f0d 81bf 0989 b000 4557 933f
00000680: 3ed6 418f df78 063f 33b4 602e 820b 3dbf
00000690: 8c97 ab7f 8efc 8b3f c194 6d80 914e 83bf
000006a0: 1f69 4bda 1c82 733f 0e1c b294 ee77 7f3f
000006b0: c358 0928 83d7 983f a08e 8631 ba74 6ebf
000006c0: 5b94 efc5 cafa 6fbf 2c2a 7723 8dff 953f
000006d0: 3452 fa9a aceb 813f decb 4653 c479 913f
000006e0: 6c2c aea3 0bf1 4c3f 7aab 3b0e 27d1 843f
000006f0: 30c0 9272 fa4f 93bf a98d a4bd ab12 483f
00000700: dad2 2ea9 5fcf 6f3f 83e3 f6d5 fcbd 4ebf
00000710: 56ad e84c 371b 8bbf d29e 09a6 3723 723f
00000720: f1d2 0734 b88c 753f 0526 97b9 82ea 5ebf
00000730: 5561 b3fe 6ca7 823f 5f2e 8add f240 7bbf
00000740: 3ec2 990f ff68 96bf 8c7d c431 21a1 64bf
00000750: f645 28b9 4f54 8e3f aa94 5344 d413 743f
00000760: 2163 5ea9 8930 6b3f 3b44 56a1 32aa 07bf
00000770: b45d 4094 5d5d 813f f094 c2ce fbdd 8c3f
00000780: 1f51 a3ab 0d4e 6cbf 1e5e d18e 11f2 753f
00000790: f89e a43b 407a 94bf 04c8 a19f 0104 903f
000007a0: 040b 80d2 cc82 753f b62e 5741 dd3c 75bf
000007b0: 45b9 5072 7962 72bf 819f 2632 0803 773f
000007c0: 46a6 3bec 1fa8 833f ff1a b42b fca4 653f
000007d0: a48e 36d4 dc8e 7d3f f61f 5d32 7e50 913f
000007e0: e4c6 cdc1 80d6 56bf 92d9 0157 e16d 82bf
000007f0: f5b1 fd2c 8edd 82bf 7d8f d5cc 723c 613f

b1 f8 [1, 100]
-0.056060804307514756 0.08914210373819986 -0.045795129381958614 -0.0017362764831938677 0.06085510613491658 0.038759282491727845 -0.03575563920264975 0.027022161122184536
-0.070224549274738 0.03668356524879631 -0.0282810470771083 -0.022953805684496932 0.02798329848660406 0.033564879956365 0.02667276762809178 0.07267509283054557
-0.023802719914419023 0.015822256508500884 0.041593675449841355 0.06744777497677194 0.06257449280796104 0.06693051354504921 0.0020707052027299356 -0.05597403158230904
-0.06606758998815362 -0.00023058769900811206 -0.036020414772278735 0.03116992204863324 0.03350413805976013 0.008049894563651776 -0.019818195372372754 -0.03748616128665952
0.06437291917037566 -0.04219378411726477 -0.03712482562297793 0.03918786216266862 -0.07827891432397063 -0.042067074906231315 0.08496580884768207 0.007688356758043487
-0.02459692938115803 0.020859621847574037 0.037145577685921985 0.049249733782011605 0.04782525821623897 -0.03020191294733021 0.02962928604353404 -0.014810570909536977
-0.04563193479809188 -0.02200259669104291 -0.04516064539672922 0.04757317916380695 -0.01998763128232673 0.0056680201140189715 -0.013594791628404936 0.00039484487647481193
-0.008193143820421446 -0.016648582057211644 0.013399913081607949 0.028272094160860232 -0.00620513118871506 -0.024638219054901548 -0.010588610929509606 0.05578852391182264
0.07726355879376638 -0.032928895859205304 -0.032519399316066684 -0.010262435398385629 -0.007993910433947652 -0.030785603981507315 0.01327532625033484 0.016512955620126772
-0.031596680560012566 -0.01619055629818924 -0.01184954191473616 -0.04175866081125371 0.02289123931113373 0.08181699531695726 -0.038338044859719374 -0.0053134370191743234
0.03870034495134432 0.006964171029887575 -0.06360501069768659 -0.0050060485824177025 -0.025767962452777998 3.3260442323680684e-05 0.053711283925634484 -0.028660341830939625
-0.001419878945945608 -0.03464497462630886 0.007139163368208066 0.02704317210435137 -0.008716431246477434 -0.0766760780053153 0.020619635287083722 -0.030629763470205806
0.043427996886144814 0.023455701586531676 0.06240231386274792 0.04809111911248036
00000000: b82c 2d72 00b4 acbf b090 4054 04d2 b63f
00000010: 8ff0 058e 7572 a7bf 3b90 93ad 7872 5cbf
00000020: 49c4 4985 6628 af3f aad1 6fb5 41d8 a33f
00000030: eac0 0b2a 904e a2bf f2e9 2589 b2ab 9b3f
00000040: 31e7 826e 3cfa b1bf 8ba9 1632 30c8 a23f
00000050: 19d8 2bf1 b4f5 9cbf ca42 efd2 3381 97bf
00000060: da30 565f a7a7 9c3f 9bdb 697b 6a2f a13f
00000070: 7e37 a022 1b50 9b3f 94e2 f0ba d59a b23f
00000080: 7365 5a7e bd5f 98bf 3f01 03a9 b533 903f
00000090: 5c15 8e27 c44b a53f 7394 b6e3 4144 b13f
000000a0: f289 2cc8 e104 b03f f9cc c7ae 5b22 b13f
000000b0: 5f21 0364 95f6 603f ec7f 24d6 a0a8 acbf
000000c0: b61c 533a cee9 b0bf ea24 9040 3d39 2ebf
000000d0: a7de de8e 4471 a2bf 0460 450f 02eb 9f3f
000000e0: 2ca3 7e52 7427 a13f f6d8 188f 767c 803f
000000f0: 68d7 f593 384b 94bf c4bc 8ed9 6231 a3bf
00000100: 6eb6 955e be7a b03f 199b c175 6c9a a5bf
00000110: c23d d76f 0602 a3bf 1813 c774 6e10 a43f
00000120: 12e3 fc40 160a b4bf c3d9 ebcd d089 a5bf
00000130: 5c6b 47ba 51c0 b53f 1558 5f8d d37d 7f3f
00000140: 6dac 18fd ef2f 99bf f9ab 9186 395c 953f
00000150: 8241 b4c2 be04 a33f 7363 dcd7 4237 a93f
00000160: f249 ec5f 8d7c a83f 20ac 8a11 40ed 9ebf
00000170: 6f44 3eba 2357 9e3f 854b 882d 0155 8ebf
00000180: 2cd6 38a7 115d a7bf 0a45 dc44 d987 96bf
00000190: 1a25 17ce 4b1f a7bf dac0 5901 835b a83f
000001a0: 6278 ba3a a377 94bf 5150 5d90 5937 773f
000001b0: 01fc 840b 96d7 8bbf cd11 dad4 65e0 393f
000001c0: 74c1 1426 91c7 80bf 5f8c d76d 530c 91bf
000001d0: 4c53 a3e3 6971 8b3f 6ec6 3d1f 5cf3 9c3f
000001e0: 30e2 5d38 8d6a 79bf d139 4ae4 c23a 99bf
000001f0: 50ef 374d 7baf 85bf 4e04 633b 5090 ac3f
00000200: cb19 316a 8bc7 b33f dc0a 9e65 0edc a0bf
00000210: c99c 18f9 61a6 a0bf a799 4ec3 7804 85bf
00000220: e233 0c7f 1c5f 80bf 0019 27e9 4286 9fbf
00000230: e01a b620 1830 8b3f 1e1d 65b1 c5e8 903f
00000240: 26b7 55ab 702d a0bf 8615 38d7 4194 90bf
00000250: 6c92 f897 9244 88bf a5a7 0425 6461 a5bf
00000260: ae2d d310 cd70 973f 65b0 2467 f5f1 b43f
00000270: 31eb ba51 0ba1 a3bf 159a a0e3 8ac3 75bf
00000280: fee3 d117 88d0 a33f 16ea 126d 7686 7c3f
00000290: 5cec ce00 6b48 b0bf f746 19ef 3881 74bf
000002a0: fbb2 13b0 ea62 9abf 988d a318 2470 013f
000002b0: cc06 c69f 0b80 ab3f af9c 6cfb 2259 9dbf
000002c0: 697f c668 6743 57bf 1c43 fb71 fcbc a1bf
000002d0: f1fe fe92 f43d 7d3f 41ba 128f 34b1 9b3f
000002e0: 29b2 2199 ebd9 81bf 911a 6b1f 0ba1 b3bf
000002f0: 7298 da4c 501d 953f 5314 8ea1 685d 9fbf
00000300: 1bac b6c4 313c a63f 6724 e07c c504 983f
00000310: 0970 7832 32f3 af3f 96dd a12f 669f a83f

W2 f8 [100, 10]
-0.47414549886009166 0.3073228465266499 0.5693629661713974 -0.42603874323117646 -0.23604584330021366 -0.7242530942791344 0.08802903726415508 0.16812186638316406
0.4159270127018602 0.3358574738378342 -0.07820549638828671 0.5951850383717195 -0.13907280616725903 -0.23713059393688618 -0.15919461712585778 0.2760275864156544
-0.12814529546160416 0.45040117168090676 -0.31136716512898005 -0.2700972509922828 0.3538254151053011 -0.09414924997254073 0.5055750335890632 0.2501345932505495
-0.350535553035523 0.22207863572960937 -0.04138919929022224 -0.42026854622025744 0.18114099955384416 -0.6420711624856539 0.10562315003004426 -0.39390767743444355
0.11535736037155338 -0.6191989158633947 0.5257258640951196 -0.310986671594065 0.5294278051776873 0.04368016991606708 -0.2720818085588193 0.25120598279984235
-0.16463813584933956 0.1558228188515163 0.04912105803619133 -0.3757451328881457 0.12503816149990335 -0.221647608391713 0.15971590710821235 0.4660080888784304
-0.28410095317584383 0.11618760036117548 0.504323252740758 -0.09862957726986936 -0.1024925847356487 -0.1671157721220325 -0.2657992176174678 0.44748342112450956
0.6567987336510881 -0.22312753697236798 -0.3197887812085497 -0.46596506149622335 0.23194280867477451 -0.5849180790168953 -0.19307924477267258 0.3363358000771236
0.07443411028526371 0.13159149529355296 -0.5538261187760493 0.043454217658304206 0.2125181642232354 0.2934171737218409 -0.14201199016061128 -0.019538031820685146
-0.29904510025747544 -0.25871152258572555 0.329996212709524 0.20782987722704147 0.25694154074779674 -0.030257271010650347 -0.12128571050987559 0.06818707258958388
-0.3472173603772771 -0.22778579701684165 0.24280345226253858 0.2384406313520042 0.17998321011213542 -0.13235299734532086 0.2415364114645119 -0.5885064764233066
0.21606082876901622 0.14036860861012007 -0.43822164495808424 0.6919608688356711 0.43579923168096857 -0.4289616618110223 -0.11180586524219441 -0.3408528869923226
-0.045641584081117646 0.45794895331313656 -0.2237377783802733 -0.00034394513935824696 -0.3148191828283785 0.41037355687579696 0.5177914169092304 0.18424032714690564
-0.41764560657131544 -0.26353207266472084 0.5668836579086773 -0.26540856444255534 -0.07608424967113647 -0.3959661484975429 0.24316695312458123 -0.45859911351883825
0.12109433634267902 0.06387083206819004 -0.03399969881147645 -0.09170094975687955 -0.3608432875589602 0.28988013478666885 0.04447166446693523 0.15069520590515664
0.2684563996085134 -0.7912739089026309 -0.4302709665139834 0.008762405355630847 0.2649159404235438 0.1793041343021711 0.09724020333468626 0.20361588896317637
-0.20092225297954733 0.3719729647895227 0.12759327160698747 -0.20353592868022635 0.11406611993191737 0.31965051897481916 -0.21836193739098403 -0.2993546465426304
-0.1489485165960884 0.5320720711631739 -0.4910288951998792 0.2627466191319818 -0.4577588637554092 0.49924274121265 -0.2060663138482247 0.25639738400688217
-0.18816873845171253 0.13863503570678223 0.045792329615244105 -0.0623969219810934 0.02199535626137507 -0.0659076645762531 -0.2635077674544824 0.5210205513986452
-0.15928860740968884 0.17063852670453974 -0.14074858162591233 0.08077298432598866 -0.15735693185993538 0.4245236491365544 -0.2883798236704951 -0.16901852137760842
-0.5401106706260417 -0.15770236247558017 -0.14859452563463915 -0.2819530020376915 0.5044221192153 -0.14378783919565796 0.22160170881258656 0.02885131823352246
0.1872817602269507 0.2569842275166393 0.47887621705575406 -0.2710367074169325 -0.4531788778049413 -0.1776485115615158 0.054374816864264076 0.49203198614015425
0.24852025529941943 -0.08860292509234426 -0.20560822571048126 -0.09810711600053476 -0.4549266744696456 0.02603553230897527 0.10463370203513188 -0.020954664786624652
0.13329027068674656 0.07173640749740083 0.05348249357814605 0.38191505220493505 -0.20827515280666836 -0.09554223580908909 -0.3397164360798873 0.21528754450483592
0.17182985559079367 -0.10364613961737164 0.3282560267792619 -0.21470744405480052 0.07888869998551955 0.3148096998636366 -0.4425454294156403 -0.042584435219823184
0.12747297064948204 0.1801739615473441 -0.12013218041362081 -0.2056660912230801 -0.037856462848001024 -0.04432460496281806 0.08807947441550613 0.3727494210845499
-0.3801529322058818 0.06297445213256182 0.06589975932144497 0.16747302585351395 0.22589403412007183 0.6361192769178523 -0.4343537017708667 -0.3665899097065755
-0.4222981573912664 0.9105865108056708 -0.5579327007545974 -0.25537742342121134 0.036227248707071266 0.1450769460153212 0.38066297444603026 0.07719742801336382
-0.2840196110685789 -0.20101518728420906 0.8026903235954749 -0.23787127414329876 -0.43862076984390075 -0.2528050179081089 -0.3812719455950926 0.1416165215156431
0.3010531866156831 0.2784290972455959 -0.3632193366574875 -0.46681001352865736 -0.25841417574073416 0.16951781750927297 0.2668001199476892 0.2981059189388954
0.26310977278701264 -0.23675277752729468 0.49603341466459294 0.33113110853998284 -0.45674943262620793 -0.031076528430427058 0.2571009817252541 -0.38909820178358917
0.10237462304330852 -0.33111400389067275 0.42282864900708517 -0.3090644787977692 -0.6317310421505772 0.037905024186129455 0.03330195575974717 0.26411435988524895
00000000: ab94 c95c 6658 debf 5251 c971 2dab d33f
00000010: 834f e8ae 3838 e23f 2370 4001 3844 dbbf
00000020: 6663 aa0c c036 cebf fd94 3ed3 142d e7bf
00000030: 85dd 252c 1289 b63f 90d8 ed6e 0485 c53f
00000040: 35f5 4455 8c9e da3f 090b 9058 b07e d53f
00000050: 4bea 5a81 4605 b4bf 5500 5c7e c10b e33f
00000060: 682b 2041 23cd c1bf 8884 eb98 4b5a cebf
00000070: 4f9d 203d 7d60 c4bf 3abd 1c9c 6faa d13f
00000080: 9569 92a6 1067 c0bf dac5 9c6f 5fd3 dc3f
00000090: a9bd d18b 70ed d3bf 4116 f0fa 4549 d1bf
000000a0: b4bc 975a 13a5 d63f a232 934d 2a1a b8bf
000000b0: 560d 5eb1 ab2d e03f f5ff 6686 3402 d03f
000000c0: b0dc 17ac 2c6f d6bf 07ab cc9e 126d cc3f
000000d0: 02e0 b712 f730 a5bf 0e6c 630b aee5 dabf
000000e0: 9e35 86d6 a02f c73f 2894 92d2 d88b e4bf
000000f0: d55c 1467 1e0a bb3f 265a 0e8c c835 d9bf
00000100: bd11 265a 0f88 bd3f 0f43 ab3e 7ad0 e3bf
00000110: 6965 1e0c bfd2 e03f f841 ffa3 34e7 d3bf
00000120: 6899 9a94 12f1 e03f f5e4 8b4a 3f5d a63f
00000130: b52f 66d1 c969 d1bf c5d4 2b42 c213 d03f
00000140: 56db 92c8 dc12 c5bf a909 788b 00f2 c33f
00000150: 79e7 9e33 6526 a93f 4ab0 5850 350c d8bf
00000160: 4570 321f 4001 c03f 02b7 a3e6 f25e ccbf
00000170: af22 d722 9271 c43f 61e0 5997 13d3 dd3f
00000180: 74c5 a9c3 b52e d2bf e080 c077 78be bd3f
00000190: e448 a484 6a23 e03f 53da cab8 c93f b9bf
000001a0: a8a9 853b f43c babf 3278 f4b3 0c64 c5bf
000001b0: d50a beb8 da02 d1bf 80d8 ce80 91a3 dc3f
000001c0: 8cbd 22c7 7e04 e53f a811 1171 718f ccbf
000001d0: 66c7 3a5d 6b77 d4bf 371d 0d1f 5fd2 ddbf
000001e0: 2678 e64c 4db0 cd3f 48ef 861e a6b7 e2bf
000001f0: 88e1 ea18 d2b6 c8bf 0e89 7397 8686 d53f
00000200: 01cf 6125 1d0e b33f 9cd8 5b78 fdd7 c03f
00000210: 2f0a 7a8d f1b8 e1bf e86d 6e97 a13f a63f
00000220: 4787 9292 cb33 cb3f 6b15 4ed3 58c7 d23f
00000230: fc99 b0ea 722d c2bf a1cd ca1e c701 94bf
00000240: 2ca2 680f 8e23 d3bf dda8 26c6 ba8e d0bf
00000250: 7d0a 596f a81e d53f ff31 e95e 2b9a ca3f
00000260: 8ab8 9fee ba71 d03f 41eb d315 c3fb 9ebf
00000270: 99ae 1c90 940c bfbf ef40 c83e b574 b13f
00000280: 6120 db29 cf38 d6bf dc1e 57c2 1528 cdbf
00000290: 7668 69fb 2e14 cf3f bfe3 d8fc 3885 ce3f
000002a0: 365f a198 b009 c73f da17 9069 f1f0 c0bf
000002b0: 7542 0446 aaea ce3f 0e1d b788 0bd5 e2bf
000002c0: f039 c198 e1a7 cb3f 5ec8 ae3b 99f7 c13f
000002d0: 88a2 5fcc d20b dcbf ba59 b81e 8b24 e63f
000002e0: 9a44 ec75 22e4 db3f 73d5 2d9d 1b74 dbbf
000002f0: 6a59 b726 4f9f bcbf f744 98a0 88d0 d5bf
00000300: 139c ee6d 555e a7bf 1ae9 6d20 094f dd3f
00000310: acf0 8284 70a3 ccbf 1c9b 0a20 718a 36bf
00000320: 66af 995b ff25 d4bf 012f 7b73 8f43 da3f
00000330: e6c9 384e bf91 e03f 74a3 d9e1 2f95 c73f
00000340: 34ae 62a3 b4ba dabf 4db1 62a0 b5dd d0bf
00000350: 0e59 6b32 e923 e23f 3afb 1634 74fc d0bf
00000360: e006 14e4 417a b3bf 83ae 8766 8257 d9bf
00000370: 57ab 913f 1820 cf3f 9f6e a218 b059 ddbf
00000380: ec97 52d6 0900 bf3f 03b4 e6be d659 b03f
00000390: 4e33 f094 6868 a1bf b5ca 37a4 b679 b7bf
000003a0: b8ff c271 0e18 d7bf dccd aa68 658d d23f
000003b0: 67e5 f770 fdc4 a63f bd68 8302 fb49 c33f
000003c0: 381c 2ec0 632e d13f b946 1da9 1d52 e9bf
000003d0: bb22 663c 8f89 dbbf 296c 7e23 06f2 813f
000003e0: a2b9 13fd 61f4 d03f f9c5 6e18 70f3 c63f
000003f0: 45ca 2de5 bbe4 b83f cb7a 05e0 1510 ca3f
00000400: 4ffb ca04 d2b7 c9bf 2419 b1b1 67ce d73f
00000410: 9aee 5ef0 f954 c03f 3a0c 9f1e 770d cabf
00000420: 566f b0ee 6f33 bd3f 955c 4973 2775 d43f
00000430: 7a8a e4b1 48f3 cbbf 6399 3364 a028 d3bf
00000440: 5fb1 c8b7 be10 c3bf 9c58 1802 bc06 e13f
00000450: 4991 9175 046d dfbf 8b9c 1332 d7d0 d03f
00000460: 8a26 52d5 eb4b ddbf ae84 91d3 97f3 df3f
00000470: e487 6487 6160 cabf 92ba c592 d068 d03f
00000480: a7cc e3c8 e915 c8bf bf5f 38f8 cabe c13f
00000490: 09d3 359c 1772 a73f c549 8f46 7df2 afbf
000004a0: 85d4 395f f385 963f 9226 e91f 53df b0bf
000004b0: d95f ddae 4fdd d0bf 5aa2 994a 33ac e03f
000004c0: 7f99 b9af 9163 c4bf 7d1a d1b5 7bd7 c53f
000004d0: c555 85ad 0c04 c2bf d797 14ce 89ad b43f
000004e0: cc93 119e 4524 c4bf 96e2 5a3d 652b db3f
000004f0: ec6c dfa5 d074 d2bf ec17 de1e 66a2 c5bf
00000500: 3ce7 512c 9648 e1bf aed2 aa4c 972f c4bf
00000510: 8492 fb39 2505 c3bf b1b2 b09a 840b d2bf
00000520: 4a14 2ddb 3924 e03f b034 74d1 a367 c2bf
00000530: 303c 0bde 715d cc3f d6b1 0931 338b 9d3f
00000540: cef1 a745 d9f8 c73f fe64 31f9 6d72 d03f
00000550: db8b c56e e8a5 de3f 7dc2 9758 aa58 d1bf
00000560: c540 dafa e100 ddbf 2e7e abb9 2fbd c6bf
00000570: d5e5 5018 04d7 ab3f 6fb4 43ba 737d df3f
00000580: 2fc9 7300 83cf cf3f 99ff 9969 aeae b6bf
00000590: 8288 9bce 5e51 cabf 2628 ba46 8c1d b9bf
000005a0: eb35 3bc5 841d ddbf 6239 34ff 0ea9 9a3f
000005b0: 77e0 4c38 46c9 ba3f 1c2b d4bf 2375 95bf
000005c0: 83be bcd4 a70f c13f 0745 2234 515d b23f
000005d0: f040 a7b1 0e62 ab3f 4480 c4d4 4b71 d83f
000005e0: a6e0 ef9c c2a8 cabf 5bcf 2fba 7475 b8bf
000005f0: 551d b801 eabd d5bf 8134 71d1 8a8e cb3f
00000600: 0493 1e4d 85fe c53f 1565 03ac 8d88 babf
00000610: 4ed6 ee90 2502 d53f ba28 3695 887b cbbf
00000620: 0b36 76c2 0c32 b43f 6e2f 5895 d725 d43f
00000630: a767 9510 aa52 dcbf 57f0 2c89 a0cd a5bf
00000640: 8c20 08c8 0851 c03f a8e2 37bc f00f c73f
00000650: 3edc 128a fbc0 bebf 1082 d937 4453 cabf
00000660: ceb1 bf1b ec61 a3bf 7b64 72f1 b6b1 a6bf
00000670: 693f 105e 608c b63f 0c4f 4a63 20db d73f
00000680: 8b60 d3f6 6c54 d8bf 2993 64fc 171f b03f
00000690: 8f91 197f cede b03f 7762 8090 c16f c53f
000006a0: ad1f 7480 18ea cc3f 7af4 56d0 165b e43f
000006b0: 7b27 0078 73cc dbbf f5ee 4e86 3576 d7bf
000006c0: ea04 cad9 ee06 dbbf f6d9 8252 8623 ed3f
000006d0: b784 e3ad 95da e1bf 33c6 6e8c 1a58 d0bf
000006e0: 0e84 d7c0 608c a23f d109 45a1 e191 c23f
000006f0: 5acd 823c c85c d83f 2018 a7ec 35c3 b33f
00000700: 7594 3d97 602d d2bf 7347 b19b ddba c9bf
00000710: 2710 159e a3af e93f 8b39 8ddf 9072 cebf
00000720: 7edb 74d9 5c12 dcbf 7b85 0b19 f52d d0bf
00000730: 4ca5 4d72 c266 d8bf e1d1 3d7c 7d20 c23f
00000740: 8bbd b795 7444 d33f 452d bb46 c8d1 d13f
00000750: 8eff 0d51 fc3e d7bf f641 631b 37e0 ddbf
00000760: a145 689c db89 d0bf ec53 2585 c2b2 c53f
00000770: 03a1 6fcf 4013 d13f 928a 25d9 2a14 d33f
00000780: 9834 585f cad6 d03f 32c3 5b3e ea4d cebf
00000790: de49 6def 02bf df3f 5884 7788 4031 d53f
000007a0: ce26 e6f8 613b ddbf fba9 2085 86d2 9fbf
000007b0: ace2 11ad 5774 d03f 79f2 e524 fce6 d8bf
000007c0: 744d e929 3935 ba3f cb50 7dca f830 d5bf
000007d0: dc06 d3e4 9f0f db3f 48ab 3261 b6c7 d3bf
000007e0: 85f3 bc04 2437 e4bf 488f 778e 4968 a33f
000007f0: 430c c335 f40c a13f 911c 87ea 3fe7 d03f

b2 f8 [1, 10]
-0.019333756149974242 -0.01864231512499968 0.0025232175100293563 -0.006785904603869516 0.010424582307782076 0.0565882272012832 0.019613903562305635 0.03097344007762917
-0.07356720715007253 -0.0017941876301137112
00000000: 02ee 7d69 3acc 93bf fb67 2297 f816 93bf
00000010: d7ed f515 92ab 643f 7cee 8e65 89cb 7bbf
00000020: 36ea b0c0 7b59 853f 0015 56d2 21f9 ac3f
00000030: 2054 63c9 aa15 943f 474e b660 80b7 9f3f
00000040: ac82 c4ec 4cd5 b2bf 7433 6e4c 5e65 5dbf
