experiments/exp_batch_20250114_141918/exp_h25_lr0.5_run3/model/weights.npz (npz, 160046 bytes, 4 tensors)

W1 f8 [784, 25]
00000000: 7057 8b36 211f 8a3f a814 eeef b1ff 68bf
00000010: e1b5 b1a5 31d6 4cbf 3c54 7df2 a2cd 633f
00000020: bb7b 6fe4 c978 973f 3252 98cc 0bb5 553f
00000030: 533b 3aee 4f3b 82bf 5136 2692 9f4d 3d3f
00000040: 840d 3418 5e6f 793f 1c2f 5cf8 f395 673f
00000050: 00d0 29f3 d40a 943f 2ee9 7a1c c4cf 723f
00000060: 124a e654 94a3 5dbf c1e1 3716 a663 423f
00000070: 0d59 27d9 2284 78bf ae19 2f44 a95c 98bf
00000080: 85f3 eaa8 6fd7 77bf e794 8adb 4788 50bf
00000090: 1eda bf6f ff7f 803f 954c 27f8 6554 75bf
000000a0: 4670 ea13 343b 733f 1ad1 b8d0 606c 693f
000000b0: eecf 1428 4667 5dbf 4efa c383 391b 843f
000000c0: ed12 4a59 1827 423f 8af4 d44c 3c37 85bf
000000d0: a032 97ea 1a09 5d3f 98fc cee3 5e7e 8dbf
000000e0: fe48 6c40 d145 82bf 6017 e53b 5469 79bf
000000f0: 9110 bc04 d466 693f 4966 54ba c983 763f
00000100: fdec f639 c557 913f aa0b 7e33 cfe1 60bf
00000110: 0ecc e4e4 bf6d 68bf 0ff9 2bbd 82cf 943f
00000120: 0914 7b24 8d60 873f e1e2 62cc 1ff4 6a3f
00000130: d6d1 a26d 35d4 7cbf 4766 32c9 0038 6a3f
00000140: 2084 7e71 5cf6 7b3f 084e 3975 4a67 78bf
00000150: 63e1 d593 13d5 61bf 0c6b be12 fff2 6e3f
00000160: 5c83 78a1 c845 76bf 802d 4bd9 85b4 39bf
00000170: 4da0 27e3 3ca4 79bf 8054 f623 a588 673f
00000180: 1b48 ec80 4574 8cbf e77b 4f09 0d18 873f
00000190: 51d2 2c34 18b4 8a3f 8804 ddcd 404f 633f
000001a0: d3d5 54c6 7567 7b3f e4b7 feba 8437 893f
000001b0: c91e 4da3 968d 8fbf 0c69 c860 76cf 443f
000001c0: fe33 14b7 f61c 703f a925 cb6d 78d3 493f
000001d0: 7e6e 0078 9c01 503f 0cc1 681d 80f3 923f
000001e0: 95d8 d5cf b00a 8f3f bedb a48c a4ba 76bf
000001f0: fcef 25f4 b50b 81bf 5a1a d606 bec4 7c3f
00000200: 482d 47e3 9b0e 4dbf c8ba 0383 0416 93bf
00000210: 6a4b 4db6 5812 7e3f b591 917e 479c 6a3f
00000220: 2386 b97d ec8b 763f 40db 7424 82e5 713f
00000230: 6a47 f5f1 e78b 633f adcc 8ac3 f2b6 75bf
00000240: df47 0e35 fc47 69bf 41f5 30f5 f81b 82bf
00000250: d975 12c1 84d5 71bf 3572 b539 e5bb 973f
00000260: 6775 4fc1 8e1d 493f 5368 e670 6b1c 6bbf
00000270: 7fe8 8b43 204f 8cbf 562a 8c8a 132c 6c3f
00000280: 082f 8b12 abff 83bf e3b3 fbe0 a7f7 94bf
00000290: 2a69 93ff e94f 72bf aa55 baef 92fb 82bf
000002a0: 768f 83f0 d5d3 75bf ca03 d492 3e89 913f
000002b0: 8e5d 6c17 d9a4 933f 3e2c be4a b7b4 64bf
000002c0: a362 2db4 73b5 5fbf b834 d1e9 912f 923f
000002d0: 78c6 5430 2a4c 723f 8e3f 469a 373e 873f
000002e0: 18fb 0868 fe3a 46bf 4a5e 5afe cd90 5cbf
000002f0: b229 2f18 c6ec 65bf 11b6 7941 6a5b 6e3f
00000300: a399 2a67 4c43 543f b1f2 eefc 0f8c 693f
00000310: 13e9 c323 bb4e 88bf 9af6 ad2f 5fc8 85bf
00000320: b60f 049d 5ea1 78bf 755f fb09 8fa2 86bf
00000330: 7826 1fc2 ede8 68bf 2b83 20d4 8168 93bf
00000340: 2e07 429a 888e 833f af97 a884 cead 35bf
00000350: bf5f 1eb9 099d 8bbf 7cb8 a2a1 ee3f 11bf
00000360: bf58 0d57 0f68 613f 8c72 60ad 53cf 6e3f
00000370: e32f b58f a08b 873f 3c3e a7c6 0681 8bbf
00000380: 815c 8c71 682c 783f aa3d 067f feb0 87bf
00000390: 125a 777a 12a3 66bf acd6 96f7 9edf 8c3f
000003a0: aa60 140e 5857 54bf f552 86c2 f962 7cbf
000003b0: bc3e 65cc be87 82bf 6dd6 fcc6 8c6e 713f
000003c0: bc76 ad06 7d41 6d3f 709b 3835 577b 92bf
000003d0: 673b a883 cba7 503f d33f 33a5 b489 88bf
000003e0: 5adf ef5d c9a0 99bf 4cfe 1547 01e6 703f
000003f0: 122c 3451 d60e 7dbf 0457 cf0d d6d4 723f
00000400: 97eb 2925 30ef 83bf 25f2 92aa cf31 7abf
00000410: 4025 5cda 00c8 973f a8c6 f2c2 5215 7b3f
00000420: d6fc c13e 61e9 903f c9e8 4a81 5be8 e63e
00000430: 88f1 79ed 2e1d 8c3f c66b 4106 5e63 90bf
00000440: 4923 a0df fac8 6a3f 6a3e 2e67 8745 6c3f
00000450: 6ebe 0c85 09ad 76bf a9ba a0ef a8b2 7abf
00000460: bcd4 c7e4 f1c0 473f 935a 1c4a e362 92bf
00000470: 43fb 5b1c e95f 813f a0d3 c255 a663 863f
00000480: ce66 1dae 3224 88bf 8752 f5e7 73da 62bf
00000490: 0f4d f451 57f4 70bf 7b0a c154 5643 7dbf
000004a0: 0e66 2a1f 1e04 933f 0ab4 bde0 5974 63bf
000004b0: c838 0cda d498 51bf ed6c 8c44 7708 8cbf
000004c0: 872c c3bc 3486 693f 8331 03fb 4b31 66bf
000004d0: 0d8e 0288 dca3 2fbf 328f 575b ae16 7e3f
000004e0: 437f 3b29 025c 713f 580f 271f dfcb 753f
000004f0: ef1b 1462 27d9 56bf 208e 8c81 c426 95bf
00000500: 6e7f c56a 278a 943f ef22 9448 c1d5 83bf
00000510: 5334 15eb 8161 6c3f 6e85 0229 5401 853f
00000520: 6d44 2bbe fe2c 83bf 2a03 4117 1c70 91bf
00000530: d342 0c30 af39 933f b2bc b56c 5be7 8f3f
00000540: 2ce3 4001 d878 83bf cc67 63d6 c870 8b3f
00000550: 942c 7bc3 bd81 80bf a21e c1f8 beb0 703f
00000560: 4b59 1707 2748 f43e c59f b4f6 153c 8e3f
00000570: 25df 3b76 7518 7e3f d5fa 5525 bf99 8ebf
00000580: 8876 2824 b045 3fbf 0711 4f57 e948 803f
00000590: 21bd 6780 4162 6e3f 729d 030f e069 71bf
000005a0: 03af 9b81 3a0d 8f3f 44c0 dfad d50d 8dbf
000005b0: 2717 6b2a c381 873f b415 b52f 7240 823f
000005c0: a819 fe18 a18f 15bf 0044 5ed1 e991 79bf
000005d0: f258 dbf9 3f4f 6abf 9245 3869 a951 86bf
000005e0: 8210 6947 1670 31bf d259 973e 4ebf 6dbf
000005f0: b0a3 9297 9ad3 483f 71a5 0382 a6b2 7f3f
00000600: f871 bb3c f04c 88bf cc33 dc3c 0c58 2e3f
00000610: 0e7a 41fe ac2d 913f 22d1 79c6 ff4f 633f
00000620: 9175 603f 22d1 3abf 2116 15c5 2daf 593f
00000630: 65a7 389c 633b 4fbf 91a0 1940 0974 72bf
00000640: eeba 7870 ae2b 75bf 9fca def5 1b99 80bf
00000650: 0ede 6871 3f3f 913f ef40 685d 8f77 913f
00000660: 11e3 70ef f32b 8bbf 5f46 3571 edf7 8c3f
00000670: 7097 cf18 f219 58bf 4806 7725 950f 93bf
00000680: 3a6e 53f0 51fa 65bf 132e c298 f61e 77bf
00000690: 4104 fb9b 3b47 8a3f 7e56 5f56 d257 733f
000006a0: 6c46 a7fd 5b33 923f 894b 9e1f 856d 693f
000006b0: 9a88 a3b8 e0d2 843f f58b 8be8 7ad8 833f
000006c0: edc5 9311 fc63 89bf 7b8f e3b6 134b 8abf
000006d0: a0db 368b f18a 5fbf 2720 c842 5029 6ebf
000006e0: 529d 95fb 9a33 883f 84c3 79ca ddb2 8bbf
000006f0: ea26 124c 0d10 56bf f0e0 1246 73eb 793f
00000700: 4eec 5d89 fc16 883f 0223 d5df 120e 813f
00000710: a4c0 0c23 b2e2 843f 3747 73ed 8c6e 973f
00000720: 8a0e 2aa3 8839 553f 5c8d 194a cedb 90bf
00000730: cce1 548a a3f0 713f 003e efa4 60f1 843f
00000740: e339 2778 edae 923f 89dc 1266 e570 21bf
00000750: a132 3bf5 89bd 803f 0eeb 3930 b991 81bf
00000760: 49ea 39a3 2bb5 893f 3d48 e932 62e0 833f
00000770: 7e1a 8920 8d27 91bf a7ed 01fc f771 95bf
00000780: e561 3cfb 71f9 90bf a799 c206 d0b9 9bbf
00000790: c8f4 27a7 1815 5f3f 1c37 f270 b330 80bf
000007a0: ae9f dc8b c45d 6d3f 16eb 3c7b a473 8c3f
000007b0: ce7e 202f e667 9abf 0f69 6cb1 363b 813f
000007c0: 2a38 af04 7ed5 753f 3e1d cef8 8ca3 59bf
000007d0: 7854 4c47 5e34 723f 417b 8182 562f 16bf
000007e0: 0516 4043 65dc 52bf ca47 1dc0 8f64 843f
000007f0: d1ba 69ce 823b 753f ab10 88d3 1f14 613f
0.012754687764225031 -0.0030516124092537407 -0.0008800260942629056 0.0024173910677896242 0.022921709601970024 0.001324903032927993 -0.008902191598534925 0.0004471315934545294
0.0062097240036139735 0.0028791203539010445 0.01957257017279801 0.004592672404834892 -0.0018090199042474259 0.0005611954661040517 -0.005985389829638044 -0.023790974413509573
-0.005820690318327664 -0.0010090543493473326 0.008056636426755633 -0.005207441633007144 0.004695132664576168 0.003103436558172257 -0.0017946419832925958 0.009817551931061843
0.0005539769068297597 -0.010359259695741824 0.0017721903662845442 -0.014401189162411662 -0.008922228601964562 -0.006203965224193059 0.0031007901178573068 0.005496776580253001
0.016936380064845647 -0.0020607993027978626 -0.002982020180888784 0.020322840496185764 0.011414625812344441 0.003290235620707058 -0.00703831549087793 0.003200532469759296
0.006826745135101425 -0.005957880831903413 -0.0021767980930997174 0.0037779790781774566 -0.005437644685600453 -0.00039222972672511153 -0.006260145035845777 0.0028727746391248865
-0.013893645283619851 0.011276342245706018 0.01303881558633538 0.0023571267801406094 0.006690464074656305 0.012312924343714067 -0.015406777247008023 0.0006350830095158979
0.003933871966421696 0.0007881486922879838 0.000976946641464332 0.018507005496020176 0.015157109587317566 -0.0055490901670997555 -0.0083231177456966 0.007023565570654167
-0.0008867512865945804 -0.01863867807054012 0.007341715366083837 0.003248347890393267 0.005504535478026126 0.004369266861707299 0.002386048333996739 -0.005301426216351474
-0.003086083023341665 -0.00884241579307832 -0.004354017802282916 0.02317770161367801 0.0007664629980543126 -0.0033094500024164835 -0.013822795926433649 0.003438985983284663
-0.009764992240341566 -0.020475981814275356 -0.004470743232753352 -0.009268901768602362 -0.0053289753925332885 0.01712510844390972 0.019183532766957216 -0.002527578346364772
-0.0019353513641446128 0.017759590049810398 0.0044671676635502575 0.011349138637143399 -0.0006784193247496321 -0.0017435084968492492 -0.0026763791115389174 0.003705699473178788
0.001236748325632677 0.0031185447946583057 -0.011868917492837505 -0.010636085169376575 -0.006013269027111015 -0.011052243702053247 -0.0030407565800246138 -0.018953350612835578
0.009549205024316967 -0.00033079425762349684 -0.013483119928238694 -6.580251684582152e-05 0.002124814950018011 0.0037609705277773017 0.011496786485302784 -0.013429692208688164
0.0059017257524579545 -0.011568058253742592 -0.0027633057504588077 0.014098398142645983 -0.0012415275489896884 -0.006930328010999122 -0.009047976124434746 0.004255819236097841
0.0035712663570127406 -0.01804863226257275 0.0010165679401585527 -0.011981402675161157 -0.025027414663753113 0.004125599852499894 -0.007094227959224335 0.004597507618162803
-0.00973355878271835 -0.006395159908774183 0.023223889663346542 0.006612132346320777 0.016515273528509088 1.0923216941950344e-05 0.013727537748530208 -0.016004056102570073
0.0032696628450178717 0.003451122721749124 -0.005536114870480098 -0.006518039614134588 0.0007249051209884598 -0.01795535220943607 0.008483716180760608 0.010932254307002343
-0.011787792147220168 -0.002301432017399133 -0.004139271826051129 -0.007144295912498873 0.01857039513797614 -0.002374816458476041 -0.0010740355139123182 -0.013688022403178535
0.003115752222674187 -0.0027090534204942686 -0.00024139468223892437 0.007345849114674329 0.004238136712700516 0.005321380204296698 -0.0013945469475531399 -0.02065569916443455
0.02005826558286066 -0.009685049083161227 0.0034644639460226583 0.010256440640946631 -0.009363165071962077 -0.017029227179821728 0.018774735744105108 0.015577997450888812
-0.009507834947827108 0.013398713152515195 -0.008059961822615848 0.004074808104696766 1.934227515739657e-05 0.01476304206023816 0.007347544513087977 -0.014941685988330825
-0.0004771761925058478 0.007951567627863655 0.0037089614227096145 -0.00425136111173373 0.015161950187994494 -0.014186543816293924 0.011477970821384865 0.008911983567155037
-8.224888574490683e-05 -0.006242669440227111 -0.0032116174250901236 -0.010897944949678249 -0.000266080321498892 -0.003631260701449459 0.0007576470226427958 0.0077387336934661025
-0.01186549840297689 0.00023150586496747808 0.016775801676312034 0.0023574824916129536 -0.00040919386026579916 0.0015676447840901125 -0.0009531246545908366 -0.004505191931095124
-0.005168610957794624 -0.008104532662263351 0.016842833802199357 0.017057647777677095 -0.013267427200945233 0.014144759194695654 -0.0014710296848021408 -0.01861413041274876
-0.002682838474908936 -0.005644763248834578 0.012831178376815912 0.00472242510837406 0.017774045330787677 0.0031039810246026906 0.010167842516640758 0.009690246793473615
-0.012397736822523842 -0.012838510531260052 -0.00192521656286513 -0.0036818091959993807 0.011817179491756011 -0.013524754277769231 -0.0013466005187034399 0.0063280585174469856
0.011762593214134889 0.008327624755695155 0.010198013014445735 0.02288265418321275 0.0012954553937171453 -0.01646349265355461 0.004379881696245435 0.010226016076472
0.01824542089325999 -0.00013306427266510473 0.00817401675831181 -0.00857872656273664 0.012552586478013288 0.009705321482361135 -0.01675243865090658 -0.020942568546599507
-0.016576558074207787 -0.027076006329161875 0.0018971195937631958 -0.007905389675467549 0.0035847510142907523 0.013892445574688089 -0.025786968828582606 0.008413722314390996
0.005330555209139868 -0.0015648724249518044 0.004444473529266017 -8.462872995227984e-05 -0.001151179208137677 0.009957430887570857 0.005183707201111346 0.0020847913367579483

b1 f8 [1, 25]
00000000: 5ccd 03da c333 1540 5881 4025 ca33 1540
00000010: cb82 c6d6 f133 1540 0c31 bd32 f733 1540
00000020: 25f9 8c21 4c34 1540 4038 bbe8 2834 1540
00000030: e950 301e 9f34 1540 72cc 4d83 2e34 1540
00000040: 3153 2f7d 8f33 1540 3335 0819 3234 1540
00000050: 68e7 13af f533 1540 772f dee6 7033 1540
00000060: 6e4b 5b1b f333 1540 deb1 9d29 dd33 1540
00000070: 7a7a 72dc b233 1540 85bd 47ce 6734 1540
00000080: 5420 1646 db33 1540 fa8b f998 4a34 1540
00000090: 7da7 4677 7d33 1540 0d10 6f47 e133 1540
000000a0: 12ac b899 0934 1540 8b86 f58c b033 1540
000000b0: 8463 af1b bd33 1540 9918 addb b433 1540
000000c0: 28b7 ee53 a933 1540
5.300551802141253 5.30057581144532 5.300727229944367 5.300747673795069 5.301071666936228 5.300937305857644 5.301388236712435 5.3009586826548105
5.300352054608809 5.3009723578700685 5.300741897191848 5.300235373793718 5.300732066580947 5.300648355722357 5.300486988532265 5.301177237633401
5.3006411505703745 5.301065817099692 5.300283302009004 5.30066405883191 5.300817872902387 5.300478174672786 5.300526077823523 5.300494606437632
5.300450622029338

W2 f8 [25, 10]
00000000: 6473 306b 968e 98bf 805c fd29 bcb7 a4bf
00000010: b191 d662 1517 9b3f fa90 c846 0e2d 853f
00000020: 2ed9 d68f 5caa aa3f 30dd dbf3 a636 7bbf
00000030: b8b1 8010 9b9d 913f 1b99 ec2f 2ac4 a6bf
00000040: 089a 5e02 e81b 853f 5883 20f4 7c0d 913f
00000050: e2af 9cfc d516 aabf 6a9f caac 6a18 9cbf
00000060: 1ad9 3e3c 26ec a83f 1065 8718 2743 923f
00000070: 64fe 309c 5a2e 9f3f 522e d1ba fb5f 90bf
00000080: c63b 765c c29b 963f 826e c92b 0530 a2bf
00000090: d056 e4fd 28a1 58bf 8c78 b710 e716 913f
000000a0: b201 9778 3c53 93bf c932 14d1 2679 a1bf
000000b0: 9864 7046 6d9e a73f e691 ae87 6c63 7dbf
000000c0: 032f 8d7c 0db2 a73f 2a94 6d0c d94f 96bf
000000d0: c944 67a8 578d a43f 1781 86c1 02b5 a1bf
000000e0: ac23 8cee b1aa 91bf a46f 7a06 1a23 62bf
000000f0: 8026 1abe ffec 9abf d7a7 34b7 9731 a1bf
00000100: fbf5 01fc f1c7 a43f 0c7f 3c2f f6cf 8cbf
00000110: 6e1b 5f49 9465 a33f f862 0afe 5fd2 87bf
00000120: 3fa4 0b0c 134e a33f 083d e7c0 af20 a0bf
00000130: 4cfd 7a02 4d18 94bf afd9 5128 4deb 903f
00000140: cdcd d98a 7eab a4bf ccb0 046e 13c6 9cbf
00000150: 003d 7044 13ee 803f 439c 5749 5034 87bf
00000160: 6c3c f7e9 9ef8 833f e8ab bbec b009 8ebf
00000170: bb68 d7aa 5b23 993f 1089 003f 2e66 78bf
00000180: e0a3 1aff 2c87 8ebf dc73 c7df dff4 563f
00000190: 53fe 250b d7c3 a6bf 26db fbb2 8a2e 98bf
000001a0: 82ab 44a1 d2b6 9e3f 0897 038f a913 683f
000001b0: 045e 9130 2f2c 903f 082f 194b 203b 9ebf
000001c0: 13ea 7ce9 c1fa a13f 14cf 69db 36e0 a1bf
000001d0: abab ef06 974e 7e3f b8c6 b4ae 93e2 76bf
000001e0: 923f 07e9 20c5 a2bf e017 90eb 3f3f 553f
000001f0: 2ac8 85ed 8f0f 9a3f 4056 934b d3f2 85bf
00000200: f4d7 a84f e972 8d3f d09d 2d28 3e88 80bf
00000210: f43f f928 639f a13f b889 bae2 5bd0 91bf
00000220: 9380 e9a9 fe83 87bf 281b 5dcf e7e7 70bf
00000230: 8a80 436a 2d8d 95bf c9fe d743 ad2d a8bf
00000240: 2036 8a19 6182 6a3f 3e28 cd30 59c4 75bf
00000250: 67a0 c05d 0787 a13f 6ce7 e93b 7817 83bf
00000260: 574e bade 34d2 9f3f c0d2 9345 f931 84bf
00000270: fa19 f7c4 6609 9cbf 4067 cd83 86c0 853f
00000280: b6cb 8b43 6bb7 9cbf cf02 8d35 4de0 a3bf
00000290: befe 5e49 eba3 a83f 761a 80d1 2f7c 9a3f
000002a0: 3e4f f8a0 76e8 9c3f ce64 18c3 b75c 94bf
000002b0: 8e7e 9945 285c 9d3f 8665 36ab f56c 95bf
000002c0: 9c13 fb14 69b4 77bf 78ff 1d86 240e 4e3f
000002d0: 4a40 480b 7c93 a7bf c894 7c79 5e7e 82bf
000002e0: 8aab 03ba db1b 963f fc6d 5dd0 e816 953f
000002f0: 40d7 18c0 3ff9 573f 2c55 b5aa af72 99bf
00000300: 8c58 e6af 138d 8e3f 3ce0 051e c6ba 92bf
00000310: beb5 bc16 ea12 693f 43f8 aa4e 2120 71bf
00000320: d8be cc9c f853 a8bf c835 d874 a723 a4bf
00000330: febe ca4f 4cc0 a53f 5476 e053 64aa 81bf
00000340: a44e 8c5f f664 a33f f8bf bbeb d68a 72bf
00000350: 9f7a eba1 7883 993f 00f2 6d45 1230 77bf
00000360: 0668 6feb 6258 99bf 8037 0fe8 d537 83bf
00000370: 94de 3dfc d1a1 8dbf 6d19 3bd6 2b63 aebf
00000380: 735f bbd0 0308 9d3f 5fef be4c 4bdf 973f
00000390: 90aa 3440 1f36 a23f 9623 5b20 3b43 97bf
000003a0: a04b 58cd d039 a33f 4ea7 c01f 41db acbf
000003b0: 8e8a f795 35dc 5fbf 972f 6a1f 3540 973f
000003c0: 7e8c 6a42 f8aa abbf 8c36 4003 4e55 95bf
000003d0: 6cca 0d70 8d26 9d3f e82d 9239 3783 68bf
000003e0: b0b0 a6fb ae77 a43f 28ee b3e4 86c1 8dbf
000003f0: b2c5 dba1 fd09 a33f ca25 ff31 519d 93bf
00000400: e6ad 5333 e2a8 6abf 8e80 8872 711f 763f
00000410: 7fcb 029d 78f4 a7bf 8e8c 7ca7 39a7 a7bf
00000420: 10e7 2373 9e9f 9b3f 8a5e ea85 39e5 7dbf
00000430: 634a 2dfe b219 a63f 0286 138a 98d2 98bf
00000440: 0e5d ae0f 3058 a03f ba73 5bde 641b 95bf
00000450: c650 e672 6a9b 93bf 2147 2f98 6903 7bbf
00000460: 3384 58da 773e 9dbf 17c7 47bc 477d abbf
00000470: d8ac 9b7a 88a1 a03f 5869 9333 4f6d 66bf
00000480: 2034 40fe 3e66 903f 56e7 0a2b fc43 95bf
00000490: a63f cdb2 b9ef 9d3f 9ac5 0348 d1d1 92bf
000004a0: 0781 7cbe 9de4 89bf 5ba9 6deb 2ad2 823f
000004b0: ac0c dd66 5f36 b1bf 1844 9a55 f3d0 703f
000004c0: 027e d18b 0567 953f 0c3a 20d6 c7eb 64bf
000004d0: 88f8 9f4e c311 9c3f fc79 0891 7edb 8cbf
000004e0: 852a e2bc 9898 ab3f 8ab1 1fa0 475c 93bf
000004f0: b80c ddaa 067a 79bf e4ca 26b9 e6cc 553f
00000500: 20bf b8dc 1f7b 8abf ce48 09d0 e877 a8bf
00000510: 8420 0c56 3a20 8b3f 3863 44e3 d30a 683f
00000520: 5008 3752 25a1 9d3f 5ccf bd66 10c8 93bf
00000530: f612 3215 e62d a13f e0be 2685 5f0f 8fbf
00000540: 90d9 182b 5bcc 4fbf f1de d31d 592f 7dbf
00000550: 79a3 283c 12a9 acbf c880 f266 5072 793f
00000560: 26ec 5e10 ddc8 973f 65b5 a6ae ca2c 87bf
00000570: 9458 fbdb 99e3 943f 2c01 7904 b6a1 8fbf
00000580: 5408 6758 3e12 863f 88f1 bccb 2e59 96bf
00000590: d660 7829 8ddd 8cbf d03f 21b2 1159 843f
000005a0: 9168 ca21 547e a5bf 34b3 1e5f 3a63 a2bf
000005b0: 15b1 94cc 2d19 9f3f 849f b3a9 2720 833f
000005c0: 72c2 c33c a258 a03f 0058 66f9 2e35 62bf
000005d0: ea30 fbdf d388 a13f 806f 3eaa 75d4 41bf
000005e0: ce6c ba68 f6f5 89bf 061b c1e0 e25e 973f
000005f0: fdf2 8108 f1ff a1bf 2cef e961 ff57 88bf
00000600: e26f edc8 1671 ac3f b8e7 620b 35bc 9cbf
00000610: eab7 3743 2fff 9d3f fa82 6368 58ca 9cbf
00000620: 130d 01f8 aa88 a83f 00aa f9ba 5d49 8fbf
00000630: 0911 a51a 263a 88bf dd8b 270a bc97 943f
00000640: a3b2 37ab 16f3 a5bf b6c6 44fb b695 a6bf
00000650: fe19 bd70 2618 923f e277 d41c 8003 893f
00000660: 1e96 3988 2b13 9e3f a876 cd65 638b 8cbf
00000670: ac1f 7b07 f252 a83f d810 b2ec 7d49 92bf
00000680: c864 42a5 b61a 86bf 04c2 a8ec c81a 803f
00000690: acdc 3452 d99a a0bf 96ad b8b4 61f2 9ebf
000006a0: 42d3 522d 0bd2 ad3f 0057 6ed3 99aa 21bf
000006b0: 5b78 90fe 9ca9 a23f 00a0 71f0 d26a 183f
000006c0: 162c 8b09 29ac a23f aa43 7899 c9dc 98bf
000006d0: 58be 23df c200 98bf 5a8c 53b6 a307 883f
000006e0: ee2a 569d f686 683f f807 7881 9226 a4bf
000006f0: b057 e5f2 325f a73f d435 053e 2dbd 723f
00000700: e0b6 1cb8 b58b 903f c045 e41f 16e3 91bf
00000710: f6c0 83e5 0cd3 a23f 1b28 b548 b575 a9bf
00000720: a09a d9f6 83dc 95bf e15f 811e f25c 8bbf
00000730: bcd5 e5dc 8376 96bf 66a4 0df0 5a45 a5bf
00000740: 86d3 d829 4b4a 963f fb64 62d9 ed59 903f
00000750: 52a8 0efa f73f a43f 8254 f0b0 c41a 91bf
00000760: 1e75 3259 bb38 983f 3737 2a64 1652 a1bf
00000770: 7e3f ea09 b443 8cbf 4efb 941d 2153 823f
00000780: 84b8 af88 d319 96bf 22ed 074d 253f 9fbf
00000790: 30f1 8143 6a33 9e3f fc51 5180 29d3 953f
000007a0: e476 6d00 7971 8a3f d8c8 89ca 9111 91bf
000007b0: 4b64 f153 cf7f 9a3f e2b0 0204 e936 a1bf
000007c0: 2c8b ecbc 7d5f 92bf 3285 e3f5 6e33 703f
-0.02398142842513397 -0.040464286924071224 0.026455244214632582 0.010339843306674801 0.05208100562906491 -0.006643917234888705 0.017202780611272422 -0.044465368604777754
0.010307133266747051 0.01665301551850304 -0.0509554739822702 -0.027436892315250296 0.04867667661112503 0.017834292289852505 0.03045026377026118 -0.0159911473058812
0.02207854928343147 -0.035522615046571296 -0.0015032673177918683 0.016688928981118553 -0.018872208461972746 -0.034127438566519404 0.04613057598926068 -0.007174896188108159
0.04628030915645633 -0.021788970359370698 0.04014085703568921 -0.03458412754412359 -0.017252712425974856 -0.002214003401446578 -0.026294704416193415 -0.03358148681066069
0.04058796120896698 -0.014068530384576693 0.037884363132937846 -0.011631727161601088 0.03770503541984071 -0.03149937848831469 -0.01962395026816681 0.016522603593750847
-0.04037089772182476 -0.028099349584565655 0.008266592527461203 -0.011330249059893776 0.009751550211971792 -0.01466692182972014 0.02454894285424623 -0.00595682206042826
-0.014906264815481352 0.001401156069838586 -0.04446289073075307 -0.02361504285269258 0.029994288533241605 0.002939063233600051 0.01579354986128402 -0.02952242334713076
0.03511625266260778 -0.03491374424348073 0.007399167966449942 -0.005587174305490876 -0.0366602215250388 0.0012968181820283073 0.025449990150669212 -0.010717058891184128
0.014379332297817606 -0.008072362519398718 0.0344191539303437 -0.01739638873426383 -0.011482228813463535 -0.004127412326687709 -0.021046361552067107 -0.047223486453729153
0.003235997817973027 -0.0053142055520059555 0.03423331279219682 -0.00932210858194412 0.031075311750625136 -0.009860942302546305 -0.027379613658718306 0.010621119401253432
-0.02804343795555627 -0.038820660387960275 0.048125603395872116 0.025864360010042074 0.028230527472330673 -0.019884940416976353 0.028671864746114432 -0.02092346055505836
-0.00578728721274482 0.0009172132815677822 -0.046047092797494374 -0.009030092318037211 0.021590646007932736 0.02059520503767763 0.00146323419211343 -0.02485155562802281
0.01491752033761553 -0.018290610868888488 0.0030607769057471026 -0.0041810322824727434 -0.04751564897594357 -0.03933451939893079 0.042482743015510124 -0.008625778016774145
0.03787965694769227 -0.004526938948160357 0.024915585406115267 -0.0056610788077446905 -0.02475122987730318 -0.009383841652290448 -0.014468803892426586 -0.05935036649821055
0.028350886931405705 0.023312737044519746 0.03556916865121196 -0.022717403268675072 0.03755047327663097 -0.05636027824978261 -0.001944591836825413 0.02270586971512464
-0.05403877077812867 -0.02083322424737459 0.02846737858221575 -0.0029922560320920673 0.03997561284936191 -0.014529279570061851 0.037185598381153 -0.019154804874949062
-0.003254358098833998 0.005401080278289906 -0.04678704182278803 -0.04619770211709194 0.02697608545074731 -0.007298683833731121 0.04316481926675377 -0.024240859439379044
0.031922819055745774 -0.020612312385185773 -0.019147551787299454 -0.0065950512680091064 -0.028558609678047197 -0.053690187200016996 0.03248239990883811 -0.002737669649474455
0.016015037792431852 -0.020767154814826348 0.029234792268937014 -0.01837851526301435 -0.012643082023317221 0.009189925489142927 -0.06723591100039766 0.004105520749036827
0.020900808962663227 -0.0025538352065333 0.02741151015651913 -0.014090527344760233 0.053898594910681864 -0.01890670695131428 -0.006219888729734162 0.0013305905491562348
-0.012930153773680397 -0.04778983630662169 0.013245063544232723 0.002934850543294589 0.028935034888270927 -0.01931787135204331 0.03355330475554823 -0.015166040659863211
-0.0009704060705136176 -0.007125232802756663 -0.05597741112098382 0.006212534018374245 0.023227171062654282 -0.011315902190143399 0.02039947896158674 -0.015445158015723402
0.010776984284238157 -0.02182458036917148 -0.014094450786658202 0.009935510872452286 -0.0419794360397684 -0.03591329966670856 0.03036948739206576 0.00933867441786141
0.031926221768917254 -0.0022226254906838605 0.034247037021119045 -0.0005441259895522105 -0.012676167555858344 0.022822899787821725 -0.0351558039555808 -0.011886592078773704
0.05555030062416201 -0.028061703510253472 0.029293764569892668 -0.028115636226064368 0.04791769292253369 -0.015276653545886809 -0.011829660118231293 0.020110071296482224
-0.04287024345453474 -0.04411098305935239 0.0176702505407551 0.012213707809276945 0.029370002927313725 -0.013937737030285405 0.04750782338447776 -0.017858474323035306
-0.010793139379801878 0.007863588068262047 -0.032431403431865874 -0.03022148767028695 0.0582431309534628 -0.0001347840095290917 0.03645029647326289 9.314453574094106e-05
0.036469728865618986 -0.024279737464954522 -0.023440403813707128 0.011733321191462465 0.002994043034680308 -0.03935678320341646 0.045648185873388925 0.0045749442363791255
0.016157950746836458 -0.017467828461183776 0.03676643659298577 -0.049726166844792107 -0.0213490123191159 -0.0133608737525463 -0.02193647418740395 -0.04154476337755213
0.02176778262056047 0.015968052285278294 0.03955054213959443 -0.016703675555693305 0.023653914755972776 -0.03382940266338468 -0.013801008751471274 0.008947619166631473
-0.021582894532848687 -0.03051431925449067 0.029493008013092126 0.021313332039726504 0.012911744428204704 -0.016668584811164816 0.02587818097922349 -0.03362205671268882
-0.017942394882207655 0.003955300750221812

b2 f8 [1, 10]
00000000: 3d41 4808 4fe4 a1bf 40aa 7a2f da91 7cbf
00000010: 9261 27e1 7272 9e3f 74ac 60ed e3f5 793f
00000020: 7c72 aadb dc2d a03f 389e 584e 14ca 96bf
00000030: ba89 c562 dc85 a03f 04b2 dfbd f410 94bf
00000040: 5fea 52aa 41d9 94bf 9599 6be6 0328 713f
-0.0349449823007739 -0.006975033080076687 0.029733462326335287 0.006338014927716452 0.03159990483729744 -0.022255246431227088 0.03227127748211296 -0.01959593209169165
-0.020360017796273385 0.004188552126583996
