experiments/exp_h100_lr0.01_run2/model/weights.npz (npz, 637046 bytes, 4 tensors)

W1 f8 [784, 100]
-0.003707664810810381 -0.004185560501714714 0.004068047245545186 0.015706494709130936 -0.010840037864417599 -0.0014070742600901002 0.010825287664560642 -0.0012682002311446422
-0.005871221511606867 -0.003044787210043878 0.011472465697107932 0.0037847590796326607 0.0036039357626834402 -0.017387694141466195 -0.001118167606277461 -0.0067081256588389
-0.0012092753103401632 -0.02495930492565639 -0.01387059047243078 -0.006546246057099449 0.004499232969786725 -0.007187720782657603 -0.001761124371925307 -0.0012073600670301694
-0.015350112097403674 0.004574622265894986 0.005739847816521948 0.001678123115030057 0.007732290566973195 0.00867888812472708 0.002222049464226139 -0.0032343159576249804
-0.005858247744497706 -0.004510967131293102 0.011939065349916343 0.0066085677976782334 -0.0003213552711108778 -0.004242814404582705 0.010015462073862657 -0.002535452889452457
0.009412636060844989 0.00436057023959247 -0.015227778583314198 -0.0019860951177792926 0.001954626994475316 0.0032009833782244645 -0.004456529143744033 0.020569825126252383
-0.023452622555748353 -0.00979662814848711 0.0042571254861076225 -0.001276915822541017 -0.000276854439930918 -0.007866449264505219 0.003938037125006938 -3.6874666701330915e-05
-0.0005964684551782212 0.015609660603387383 0.005232486310885226 0.005551300405890045 0.025883696133989356 0.0025733866327385764 0.01980161538198771 -0.0057511941051729765
-0.014928271482468756 -0.00840254871772075 -0.008507104939974213 0.0007768880553052271 -0.007112015873999712 0.012407696666155212 0.018113592179337727 -0.007917810226557352
0.004454668281707576 0.010165805402811208 -0.008087393920078989 0.006581401274772056 -0.00913885458630138 -0.0019521802267331541 0.008944220093674507 0.0005946297431870372
-0.008997760161061167 0.015281147904218112 -7.681767287217163e-05 0.021038005534527632 0.013407105773330687 0.007130855619697462 0.004975796659353324 -0.0021877570853562098
0.0073676809871869075 0.009225786477107185 -0.007075645233413175 -0.00689926921228697 -0.004028987891118795 -0.010509388967564162 -0.016428342176853263 -0.0003938940657910787
0.0022376417344592233 0.005671992088101321 -0.010290938286888686 0.013910604860903402 -0.014131803208463418 0.000418291832260833 -0.009224852483974753 -0.007543193395409154
0.013698839772233061 0.005469284870862733 0.00445474335835151 0.019917530694043634 0.009291835818279876 0.01535288761570735 0.005082030158619953 -0.01499660937348934
-0.006269436136602886 0.0049518725790595524 0.014757061557312627 0.004100027056757809 0.0007108980705774284 0.012149450900014496 0.0003763448970840572 -0.00011090251566315767
0.0050091728758088015 0.004855667651962275 -0.010660892074706557 -0.004505910596705875 -0.005002624241459427 0.012989030594911697 -0.0030205276594842895 -0.021306883511278768
0.013777440757052483 -0.010725915502153648 0.00951285891548003 0.009972398973491671 -0.0034765983444777888 -0.0021431139815838362 -0.018257022907309992 0.011494556551534817
-0.0010665185847346032 -0.006873767515853446 -0.009421734046904256 -0.01419210865655946 -0.001911849557006343 -0.013014687248869778 -0.005131391702638979 0.01235411408374388
-0.006919390975868023 -0.004002970348498194 -0.0018741485471054466 -0.014764178790183807 -0.00946254741248321 -0.014810038324472426 -0.014072930048337883 0.0016220966630987551
-0.016566507365338677 0.002503096260753633 -0.00471726149469635 0.0004060848534604753 -0.004992565509760494 0.0044824820075177714 -0.022547593442234018 0.0034307287140977697
-0.0016509491199028562 0.002198604805815579 0.004975311842662639 -0.009321625516721499 0.006915061458729794 -0.0005243844535397491 -0.019494242705449184 -0.003353192280918719
3.858901563044796e-05 0.006204150512562876 -0.010932428160862125 0.005074567286594977 0.004379207555725163 -0.005494693820327372 -0.008234282269184157 -0.007958542926458128
0.002139112579709497 -0.0028073688617728655 0.0013480118407467882 -0.005318607742992638 -0.011454564844672343 0.0069399471770902315 0.011357813803827681 0.006765742909683387
-0.008303791991946745 -0.009745835790666197 -0.0018191022644295117 0.019651220344853858 0.005113885602229676 -0.00587335280042321 0.025575265196571308 0.012534454618665479
-0.015146766471971692 -0.008337055278686062 -0.021137067525105958 -0.001277260801329095 -0.005946452253381531 0.0019749092750992506 0.009281258446869318 0.026478739671110956
-0.002632760085666936 0.006401023658872404 -0.013073362940064292 -0.021737534812789845 0.0034649669358129335 -0.001035650024705561 0.007786792977666152 -0.020512101097135676
0.011238119235635302 -0.005567606724456622 0.0024495166586402974 0.008519155288139174 0.013999878053066902 0.010668784461878357 -0.018862349386583366 -0.0004056233632021039
-0.0056506650081117145 -0.0007357799340460436 -0.0037010171445588783 0.006835453270154112 0.020788162733579054 0.0044945255876414555 -0.00576376608013129 0.014333616044310452
-0.003554221939616273 -0.006132267641315578 -0.0064333458374310586 0.030794346662704062 -0.005637468389051516 -0.026179194995381405 -0.0033033648582062322 -0.00030970692968560853
0.011468578182667593 -0.0016904540324614052 0.008117125909395962 0.011622544948716255 0.015877379074279177 0.0006609165249622503 -0.00661126686105609 -0.004862495340938131
0.01250532120892511 -0.0015212702442496493 0.007783453569854083 0.004192445897215889 -0.022323844914368705 -0.002828877398154982 0.0013915825830231592 -0.0013084580012661033
-0.0036332213617571397 -0.007709099093730094 -0.014804484177623412 0.015089919009550224 0.000163837535878712 -0.02167692051935206 0.01983194913116604 -0.0057317149174145494
00000000: aa38 6c63 895f 6ebf 0d53 86d7 e024 71bf
00000010: df1a 0d1e a8a9 703f b02a 7104 5d15 903f
00000020: 95ac eb40 4d33 86bf 9141 877b b20d 57bf
00000030: dea2 e983 912b 863f c078 1fa1 37c7 54bf
00000040: 542a 1406 6c0c 78bf 1f80 b1af 61f1 68bf
00000050: 0ada c947 e07e 873f 8161 0c0f 3701 6f3f
00000060: b180 9a47 0086 6d3f d404 c366 14ce 91bf
00000070: bbe3 3953 ef51 52bf 559d 27c5 fa79 7bbf
00000080: 33b1 397a 11d0 53bf 2ddd 8b99 ee8e 99bf
00000090: 0274 a423 2f68 8cbf a804 a18b 3cd0 7abf
000000a0: 8ba8 65a7 c96d 723f f3d3 1b1b df70 7dbf
000000b0: a50f 39e5 b0da 5cbf 5a2c 2700 09c8 53bf
000000c0: 4415 962b e16f 8fbf 6f8d 60d0 d6bc 723f
000000d0: 9ae3 7eaa aa82 773f b92c 74f9 8e7e 5b3f
000000e0: e2ac bbf1 e4ab 7f3f 8d6f 4aa5 3cc6 813f
000000f0: 4d1f edb8 f933 623f 9fec 6928 da7e 6abf
00000100: eb7b 9767 d1fe 77bf 2bf4 d584 177a 72bf
00000110: 9f15 c839 8273 883f 5ae4 07e9 9511 7b3f
00000120: e7c7 3b61 720f 35bf d858 c5d1 e960 71bf
00000130: 9917 7e90 fc82 843f 1133 b4e7 3ac5 64bf
00000140: cb61 67a0 ee46 833f 86a7 22a9 63dc 713f
00000150: 1f6b 0cd8 bd2f 8fbf 5ec2 7bb2 2445 60bf
00000160: b17e 8c60 2603 603f b39d 95dd f238 6a3f
00000170: 621b d16e 0241 72bf a088 ce98 4110 953f
00000180: 4b8c 87db f603 98bf ee12 122c 4110 84bf
00000190: bb07 ce6b eb6f 713f dccc a4ec c5eb 54bf
000001a0: ffcb e7c3 d824 32bf 4f11 9df2 481c 80bf
000001b0: 6df0 98ca 5421 703f 38c3 77e6 3b55 03bf
000001c0: 24f7 0841 8a8b 43bf aa7d 582e f5f7 8f3f
000001d0: edf3 4fd9 a86e 753f 17dc 18db f5bc 763f
000001e0: 6791 9471 4181 9a3f 56b3 ae6d c814 653f
000001f0: 6ff9 e4e9 df46 943f 69c0 8369 908e 77bf
00000200: f291 6cae b692 8ebf ceb4 90ff 5a35 81bf
00000210: c9b2 014c 2c6c 81bf aee9 2465 0275 493f
00000220: 283e 6639 7d21 7dbf 61d7 32db 3469 893f
00000230: a1e5 1798 5e8c 923f fffc d47f 3637 80bf
00000240: 68f5 59e9 0e3f 723f c4ca f04d cfd1 843f
00000250: 1341 2ca3 1f90 80bf 24bf ca73 19f5 7a3f
00000260: 068a 914c 64b7 82bf efad b38e 09fc 5fbf
00000270: 1b10 53e6 5851 823f 7084 6da6 1d7c 433f
00000280: 1536 08ed 6a6d 82bf 109f f3f3 b84b 8f3f
00000290: 2ca5 2a92 2523 14bf 45b7 f9a6 fc8a 953f
000002a0: 74cc a446 2f75 8b3f 4c96 dd7a 3e35 7d3f
000002b0: fd86 c63e 8061 743f c726 4324 0fec 61bf
000002c0: a57f 32ce 922d 7e3f d7a9 9719 f8e4 823f
000002d0: 677d 020e 5afb 7cbf 5510 217a 6842 7cbf
000002e0: d842 a733 b380 70bf c842 554f f285 85bf
000002f0: d721 8261 97d2 90bf 6d02 7321 72d0 39bf
00000300: 75b6 3ac2 ac54 623f 8355 58c8 833b 773f
00000310: 5446 195b 6a13 85bf 63af 8fc7 297d 8c3f
00000320: 842e e984 22f1 8cbf 27e0 5fbd c569 3b3f
00000330: 3f30 d5bd 7ae4 82bf 410c 0d8f 9ce5 7ebf
00000340: 79e2 8426 230e 8c3f 7f20 72fa f566 763f
00000350: 0d3f 9410 233f 723f d5be cadb 4265 943f
00000360: 8aac ac17 9907 833f 5d44 abb1 5571 8f3f
00000370: 71c6 4115 e5d0 743f bded 7ad6 8ab6 8ebf
00000380: e1b3 bcf2 faad 79bf c70e 7f2c 6a48 743f
00000390: 4f92 3046 f338 8e3f 6c9f f1a1 30cb 703f
000003a0: 4ab7 61fb 714b 473f b646 3db2 cfe1 883f
000003b0: c3e8 6506 05aa 383f 0ac3 15b6 8a12 1dbf
000003c0: eade e79a 7f84 743f 462c 3f5c 89e3 733f
000003d0: c3d6 74b6 60d5 85bf 59c1 6c2a ca74 72bf
000003e0: 490f 2eb8 a17d 74bf 2526 e52c fe99 8a3f
000003f0: 72e7 7370 81be 68bf 6847 71bf 78d1 95bf
00000400: 53fe cacb 5837 8c3f 4c49 6902 78f7 85bf
00000410: fbb3 774f 7a7b 833f 8167 a1bb 686c 843f
00000420: 1b86 1b86 f47a 6cbf eed2 cc8e 6f8e 61bf
00000430: f9a3 3c11 f8b1 92bf a654 c443 758a 873f
00000440: dfe9 499c 4d79 51bf 00f5 e4ea aa27 7cbf
00000450: f612 d3bc b34b 83bf 6361 5494 c010 8dbf
00000460: db28 9fd4 e052 5fbf bd00 d0c0 71a7 8abf
00000470: f698 bb78 a704 75bf c494 af1f 1d4d 893f
00000480: 0086 31df 8157 7cbf 9c0f bd2b 6b65 70bf
00000490: 2f34 eead bfb4 5ebf 96f7 7288 ae3c 8ebf
000004a0: 8541 639d 1961 83bf 6486 0cb2 b954 8ebf
000004b0: c634 88b2 44d2 8cbf ea09 9d07 9193 5a3f
000004c0: 764e 5f7d cff6 90bf 1685 8492 5f81 643f
000004d0: acdb 8a3d 6852 73bf 6256 3e2a f99c 3a3f
000004e0: 27a4 6699 1573 74bf fdff 081a 395c 723f
000004f0: a468 c061 b716 97bf f4a7 1c74 c21a 6c3f
00000500: 9bc8 8c1e 950c 5bbf 0c1c 9cf7 ce02 623f
00000510: 7a1b 6d1a fe60 743f 2045 eb65 3717 83bf
00000520: 948b 0aad f752 7c3f f6c3 0b0a db2e 41bf
00000530: bd50 857b 4cf6 93bf 553e e165 2778 6bbf
00000540: 99f0 1e7b 543b 043f a490 d0f8 8569 793f
00000550: b18c 55ab bd63 86bf a6af 98c8 11c9 743f
00000560: e86d bf93 eeef 713f 524d 28a4 9a81 76bf
00000570: a0dc 6aa8 22dd 80bf 765c be8c 914c 80bf
00000580: 7666 5052 0b86 613f 9f37 5fae 7aff 66bf
00000590: 02f9 51b1 f815 563f 7bff 0fe5 f6c8 75bf
000005a0: c6a6 2eab 7d75 87bf 7eca 95e2 0f6d 7c3f
000005b0: e962 bbf6 c342 873f add6 7b48 65b6 7b3f
000005c0: bc3a 4e18 9401 81bf 2add f1ef 9ff5 83bf
000005d0: 4ca6 f62e decd 5dbf d69e d412 731f 943f
000005e0: ea48 ac36 4cf2 743f 6d89 2123 a80e 78bf
000005f0: 0a57 6cfe 6630 9a3f 1f6d 4805 aaab 893f
00000600: d11f 1995 4405 8fbf e39c 229e 0413 81bf
00000610: 0dc3 0397 f4a4 95bf 9de2 b057 38ed 54bf
00000620: 82b9 499f 4e5b 78bf 0bc7 f857 af2d 603f
00000630: f7d0 f56b 0d02 833f ebf5 b423 3e1d 9b3f
00000640: 0ebb ea4e 4c91 65bf 7d97 69b4 f537 7a3f
00000650: 66e4 3512 35c6 8abf 6264 7744 5d42 96bf
00000660: 6f24 79f5 8f62 6c3f d718 1ebf d4f7 50bf
00000670: 7a74 e052 0be5 7f3f 8bab 89cd 1f01 95bf
00000680: 2d50 afd4 0204 873f 50c8 c60c 0fce 76bf
00000690: 8864 133e 0211 643f 7d1b d1aa 7d72 813f
000006a0: 3e58 16d3 f7ab 8c3f c191 d002 84d9 853f
000006b0: 3de3 f6d6 a650 93bf 339c 5614 3b95 3abf
000006c0: 6b5f 91d6 2625 77bf 9ae3 7b60 2b1c 48bf
000006d0: 5d4e 2173 9851 6ebf 7f76 fa03 7eff 7b3f
000006e0: f7ad 56fc 7d49 953f 382d 8f06 da68 723f
000006f0: fb29 0e2d bf9b 77bf 285e 2661 f15a 8d3f
00000700: c7bf c95f be1d 6dbf fd2c 840f 261e 79bf
00000710: 0c28 9c1f da59 7abf f9a1 459f 8d88 9f3f
00000720: 5cb5 cf65 5017 77bf d0f2 5c09 b8ce 9abf
00000730: c24c 0c81 a80f 6bbf ac62 6422 054c 34bf
00000740: 9635 cf81 d67c 873f 8c60 3a32 47b2 5bbf
00000750: 8705 8c32 b69f 803f afb3 9b93 8fcd 873f
00000760: f41b 7bdf 2842 903f f3b7 176e 2ba8 453f
00000770: 1efb 406f 6a14 7bbf bde3 7527 b2ea 73bf
00000780: be4b f2cc 639c 893f 2db2 a27c abec 58bf
00000790: 68f2 84e8 8ae1 7f3f 71f8 4c20 192c 713f
000007a0: e910 50df 0fdc 96bf 315f 1afd 952c 67bf
000007b0: 7dd9 c26b b8cc 563f de4f b614 1270 55bf
000007c0: f627 b1dd 6ac3 6dbf 14bd d387 9393 7fbf
000007d0: 9a2e 043b d051 8ebf ad96 29a5 76e7 8e3f
000007e0: 5d95 87b7 7979 253f 739d d582 7932 96bf
000007f0: 81b7 bc93 d34e 943f 14b6 ec81 237a 77bf

b1 f8 [1, 100]
0.003376513200246712 0.0033455640141984632 0.003360288752351469 0.003300158250839227 0.003336701441331572 0.003337684721920832 0.00331944172275933 0.003367816922491337
0.0033377543312470646 0.0033283450789073467 0.0033474768179942425 0.0033225101261364735 0.003347487508961359 0.003328697090945357 0.0032836466483221216 0.003314996572012947
0.003353621923370563 0.003343733910696325 0.0033229666815968823 0.0033459953615950417 0.0033154427615444113 0.003335132571515203 0.0033223456688516355 0.0033454566267105985
0.00332799758819894 0.0033707885163037545 0.0033508649857747776 0.0033575181892034605 0.00337460810656502 0.003348927549390555 0.003352441090816698 0.0032905739230455725
0.003337029464568182 0.0033323679531222154 0.003317904038996594 0.0033216169001656108 0.0033530071917751343 0.0033395202467163786 0.0033359523481085117 0.0033267517044767254
0.003285623351420778 0.0033457689962566265 0.003326949492124463 0.003344521490237019 0.003368240112940632 0.0033014654874010214 0.003313356567047029 0.0032864065975306022
0.0033114785046722546 0.003329322583193769 0.003291147732167835 0.0033202567616067553 0.00333252900782564 0.0032999394547844957 0.003288469872976108 0.003351540985985532
0.0033398247598004716 0.003347346868368778 0.003298896583276718 0.003326611874532921 0.003311751815990985 0.003314632907872311 0.003353481807792558 0.003337531173238319
0.003328061990534362 0.0033075974324891684 0.0033343756076328044 0.0033449557480357277 0.003317068365643915 0.0033190386357785082 0.003328099305196675 0.00333503124301619
0.003329041584919715 0.0033734842131692643 0.0033055167827173272 0.0033220778146808997 0.003284889540123959 0.003357992608114788 0.003323839535855648 0.003284668986641211
0.0033468354234692087 0.003338468723397508 0.0033252021548960987 0.003345076667149189 0.0033175453850012946 0.0033316724257974038 0.003304856736436256 0.0033084612333582346
0.0033013580276003746 0.0033446684240889465 0.0033560757525229103 0.0033224823330365778 0.0033267601135537708 0.0033048164563144115 0.003349852107178386 0.00329289625278693
0.0033812153373190277 0.003343930084128758 0.0032926570470638056 0.0033336009578986726
00000000: 4e55 a0b8 0fa9 6b3f ae90 e200 2868 6b3f
00000010: b0a6 7c49 0987 6b3f 6c8e 49f8 ee08 6b3f
00000020: ee26 25f2 9155 6b3f b745 33d7 a157 6b3f
00000030: fec1 7cb4 5f31 6b3f 1200 50f1 d296 6b3f
00000040: 14b5 3b36 c757 6b3f 1a4f 70a8 0b44 6b3f
00000050: 7d0c a3ee 2a6c 6b3f d8e5 a20a cf37 6b3f
00000060: 8803 feab 306c 6b3f 87d5 9aa4 c844 6b3f
00000070: c5cf ea5e 4ee6 6a3f f6e7 9e3b 0d28 6b3f
00000080: 6322 7d0f 0e79 6b3f 1ffc 5f79 5164 6b3f
00000090: 9618 2427 c438 6b3f addd d194 0f69 6b3f
000000a0: 3d67 71c7 fc28 6b3f 25c6 51aa 4752 6b3f
000000b0: 6a98 ccbf 7637 6b3f 043c a959 ee67 6b3f
000000c0: 50ed ad19 5143 6b3f ac64 0e4e 0e9d 6b3f
000000d0: 43f0 def0 4573 6b3f bcf4 2fda 3981 6b3f
000000e0: 5c5f 8bee 10a5 6b3f 2f4c a4c9 356f 6b3f
000000f0: 3e2f 191b 9476 6b3f 393e 4e6c d5f4 6a3f
00000100: 43c3 500d 4256 6b3f 2f8d 0f6c 7b4c 6b3f
00000110: 4018 d72a 262e 6b3f c6fa 977e ef35 6b3f
00000120: 2df2 6b07 c477 6b3f 38a8 ce47 7b5b 6b3f
00000130: 7376 8ec7 ff53 6b3f 1677 b938 b440 6b3f
00000140: d524 ec9a 73ea 6a3f 3492 670d 9668 6b3f
00000150: 63a8 7368 1e41 6b3f 1c98 7b4d f865 6b3f
00000160: 933b 2a24 b697 6b3f 9627 83c9 ac0b 6b3f
00000170: 2cf5 0dc3 9c24 6b3f 85b5 721b 18ec 6a3f
00000180: bf8e 207c ac20 6b3f 45d7 9a73 1846 6b3f
00000190: a1e8 077c 09f6 6a3f 1bd5 9246 1533 6b3f
000001a0: d829 40e3 d14c 6b3f 4ec1 2f81 7908 6b3f
000001b0: 9bb4 ddd1 6bf0 6a3f c6e2 a1dd b074 6b3f
000001c0: 5250 c4c3 1e5c 6b3f da12 7f2a e56b 6b3f
000001d0: a995 049e 4906 6b3f 76b1 a426 6940 6b3f
000001e0: 21b1 bf37 3f21 6b3f 7277 00fe 4927 6b3f
000001f0: 9a80 26d6 c278 6b3f 044b a167 4f57 6b3f
00000200: eea8 11ad 7343 6b3f a8c3 a0d9 8818 6b3f
00000210: bde0 fe45 b150 6b3f 0191 6b71 e166 6b3f
00000220: cbe8 c484 652c 6b3f bd70 a24c 8730 6b3f
00000230: 819f 8eb5 8743 6b3f 5a29 d643 1152 6b3f
00000240: a102 7f97 8145 6b3f b3f2 cf8b b5a2 6b3f
00000250: 5a01 4dcf 2b14 6b3f 62c9 33f2 e636 6b3f
00000260: 016f aaa4 e9e8 6a3f 4775 d38d 3882 6b3f
00000270: a31d 51c3 983a 6b3f 91a1 063c 73e8 6a3f
00000280: 9c6c 0b96 d26a 6b3f 25f2 8abf 4659 6b3f
00000290: 4873 4050 743d 6b3f a8a5 6a5c 2267 6b3f
000002a0: 1479 cf9d 652d 6b3f 7d5b 8303 064b 6b3f
000002b0: 640e 3b73 c912 6b3f c1f3 8399 581a 6b3f
000002c0: 498b 5918 730b 6b3f b0e9 ea2f 4766 6b3f
000002d0: ac12 3373 337e 6b3f 2d21 c81e c037 6b3f
000002e0: 958f 75bc b840 6b3f ef42 2cd3 b312 6b3f
000002f0: b385 e527 2671 6b3f d7f9 df36 b4f9 6a3f
00000300: c2b2 6c29 ecb2 6b3f 8806 3fcb ba64 6b3f
00000310: c9ce b0ca 33f9 6a3f c864 f262 114f 6b3f

W2 f8 [100, 10]
-0.012927071687238275 -0.007379599937554207 -0.009881396729370379 0.0036729407629731603 0.01803943006439431 -0.00954280880690825 -0.01186733964630695 -0.004445668418328981
0.02413246241043053 -0.00024190682901591875 -0.002832517679607184 -0.009327321016209082 -0.00022343291299491347 -0.004767181094056223 -0.0059808118982401706 -0.012111301208776366
0.011107521324369447 0.004746437734376359 0.015507842153937629 -0.008221677183748345 0.02527072098398248 -0.012489063008878965 -0.012447857222488456 -0.004657699594907839
0.0011854105653867418 0.004143083726748108 -0.0032000694784592933 0.0004109985112574864 -0.005413469270553287 -0.01392430513848204 -0.0027915665138397105 0.01432207682930938
-0.007781008853583506 0.0058237143731179756 -3.8725402023774466e-05 -0.0054998584274006355 0.004732593266350119 0.018014606993970072 -0.013090480705970466 -0.001228658632559842
0.012088587092575879 -1.1082042645117106e-05 0.0017962494604344308 0.022276565972213443 -0.0029221824958145354 0.008694910014502007 -0.021053185810105703 0.005803818973885264
0.0025012803870196024 -0.005604397472741999 -0.0017150283827337372 0.000144880993461901 -0.0022681715934412547 -0.0008281553714860026 -0.004984824114729675 -0.008230721187093162
-0.019740857837948645 -0.0002767277671940536 -0.000891246070281181 0.005356101057111166 -0.0027438486363225226 -0.0060053768927637715 -0.012516107748582781 0.011540247142914592
0.005151183598918406 0.00013237064413936525 0.030157975829436152 -0.020652520878462838 -0.004702631449976779 0.011119273450441251 -0.008768361313539634 -0.011839461955511443
-0.006795359327848406 -0.0007685027815339691 -0.0007330219307015074 -0.01416833150550141 -0.010402348756485838 -0.008796515368481231 0.01874174093533889 -0.00014500326888862889
-0.003921121289237846 0.008982821008732912 0.002157600483301118 0.006323391846713001 -0.005010107242383206 0.000498577212736559 -0.0025339664891981207 0.016503394791869408
0.026424518563528676 0.017884503925851548 -0.0018789553500658618 0.0028382862550920783 -0.008026142697626993 0.010938917257557067 0.01012894780362976 0.0029281423619532863
0.007679187878126723 -0.0032253618810243203 0.001416322325122689 0.01195535934363991 -0.002027851128835763 -0.0015816891016180892 0.004092757028101054 0.008436534977733386
0.014761924972635206 -0.01363010592770536 -0.015406995574593846 -0.0031914984965608216 0.002912857615537969 0.0056973122245946705 -0.001608155414584203 -0.006737732307479839
-0.014300878077582374 -0.001438754942943192 -0.004762751111873838 0.0026594567598191626 -0.005738278983313041 0.003490591307004064 -0.012187693318900766 -0.009543472663848274
0.014470077697135994 -0.004806872398609458 0.008479717338526581 0.016496016165745808 0.013133201396323492 -0.024600577062556715 0.002261664974922899 0.010431813118712602
-0.005409555968696711 -0.02160452619154992 -0.009805617619614022 -0.014293545071803984 -0.006896342792301685 -0.0032232991568552417 -0.0026833310463959025 0.016870318984374
-0.01681391914963019 -0.012486022627772831 0.001977752830478013 -0.005459125475347907 -0.005036554616890558 0.00021297547172991404 0.014737904065931945 0.010179714880113683
-0.02060920427556921 -0.006038526726020668 -0.004998122771014884 0.008886741343261064 -0.008869670744574787 0.001892939332944067 -0.0017978821443627555 0.004368062454499261
-0.0014571685985267117 0.019943863041578042 0.0006661519189274013 -0.004139672662639719 0.006252668135726155 0.0011702102195907964 0.00047962803057538745 -0.018937084293499773
0.0007946952080469101 0.002802821444788562 -0.02186281423826871 -0.00018092937649375788 0.009962174294386504 0.008256876684838543 -0.01471603379797049 0.007472634129751358
0.003586118079522056 0.0015286678149135017 0.0035180109573089437 0.0006753135403707203 0.004373048465280355 0.0014101745971557564 0.013908122919024863 0.0013438731409721755
-0.005377177700283729 -0.010625978849302501 -0.0001684924432946838 -0.020712786322634298 -0.009875809789396377 -0.0014833394476094523 -0.0004251871547898544 -0.0038462868610995
-0.016835090566435385 0.0038214887431661957 -0.009635974636265848 -0.003927754412714758 0.009796203832876783 -0.00022468214898803236 0.02074794738046984 0.004764501159748623
-0.0033958555932549596 -0.0005010859561614191 -0.006009927186710709 -0.008675377692168326 0.019354198781312885 -0.0028177405978615034 0.003176579521656336 -0.025080296091563693
-0.0017213584215404548 0.006203201749961217 -0.005535846892362382 -0.006641819017093663 0.007333594009546147 -0.0009394091370256384 0.010086877764889837 -0.011911997599180707
-0.005918383438498003 0.01276811534207639 -0.004300287356395485 -0.008305416693641465 -0.008520388275881474 -0.0017391210785915703 0.019167431593891063 -0.001047140891312024
-0.003307135477994415 0.02790555042852647 -0.007432252726436793 -0.004529267956149545 -0.004364522400035958 0.018238793555631096 0.008358534011565767 0.0021911383878694853
-0.00570901820013345 -0.005045430665756961 -0.010836308986114833 -0.011508270455841938 0.005802805976131667 -0.009092027180304836 -0.014764904563552724 -0.034106248831147004
-0.00019077301026051066 -0.01084516572755857 0.0075660135242514685 0.02612272128863723 0.014758143723947537 -0.001972548914987223 0.02307797651090583 0.014921153763442009
-0.008936620299680063 -0.0056264448417568565 0.00439317513833356 -0.0172028782451488 -0.009601136355409984 -0.004783798817263709 -0.0021163520935828265 0.00139864944839523
0.004293460699401392 -0.0010602809711248292 0.01219001753068651 -0.006635937010237324 -0.005785304029700038 0.0015088152787865795 0.025719873678823776 -0.005563710344670408
00000000: feb2 0931 8279 8abf 76d0 3a46 123a 7ebf
00000010: 3de2 549e b23c 84bf a9af a00e b716 6e3f
00000020: 9603 a9a8 ed78 923f f1b5 e61d 2e8b 83bf
00000030: 8c0d 5f5d e74d 88bf 2e07 7307 9f35 72bf
00000040: dc8a 4c23 2eb6 983f 0acf aed6 0bb5 2fbf
00000050: 837e 9359 3834 67bf 1c92 cad5 331a 83bf
00000060: 4c46 bb1b 2a49 2dbf 480f 4a6e c086 73bf
00000070: 767f 1af8 557f 78bf 8a60 d454 cfcd 88bf
00000080: 0a50 9f46 8abf 863f a262 772d 0071 733f
00000090: fdc0 0f57 93c2 8f3f c7d0 fad4 86d6 80bf
000000a0: d1af b060 91e0 993f fa50 72a9 dd93 89bf
000000b0: 132c 681d 437e 89bf a79e f4b6 f313 73bf
000000c0: 1e33 15e7 f86b 533f 8c8b c691 56f8 703f
000000d0: f139 2838 0837 6abf b650 202a 69ef 3a3f
000000e0: 6a4d 9917 6f2c 76bf 66b2 8399 5884 8cbf
000000f0: f3a8 35dc 56de 66bf abd0 bd9c e454 8d3f
00000100: 357d e5a8 fade 7fbf 516e 616c 9bda 773f
00000110: 8c05 86ae a24d 04bf fcc7 4001 0587 76bf
00000120: 842e ded4 7b62 733f 63bd 8ecf 6b72 923f
00000130: a122 2b94 2ecf 8abf 3148 4429 5e21 54bf
00000140: 425c bdb1 e6c1 883f 501b ee57 a03d e7be
00000150: d493 082c 046e 5d3f af78 4509 abcf 963f
00000160: db35 14c8 42f0 67bf 9e49 3b11 a3ce 813f
00000170: 77c2 1f62 f78e 95bf 7db3 f4ca bec5 773f
00000180: 3965 bbae 907d 643f 0455 bffd a2f4 76bf
00000190: ef05 32b4 5919 5cbf b502 e941 66fd 223f
000001a0: c2f4 185a b394 62bf e3e9 461e 1223 4bbf
000001b0: 0704 c988 f76a 74bf 9b87 91b2 44db 80bf
000001c0: dd63 3c8b f236 94bf 5923 c2b5 b822 32bf
000001d0: f7ed bd5c 5034 4dbf 9164 fd6d 47f0 753f
000001e0: 50ce 0f85 447a 66bf 4f56 ac15 1899 78bf
000001f0: 3283 a08b 0ba2 89bf cb58 88c0 69a2 873f
00000200: f21d 7d51 6819 753f d09a d02c 9f59 213f
00000210: 459c 9a7f bbe1 9e3f a806 0337 ef25 95bf
00000220: 3250 8604 1143 73bf ef72 999e b3c5 863f
00000230: 7c39 a688 25f5 81bf 4092 35af 493f 88bf
00000240: b52a 3e61 73d5 7bbf 952c 2328 ab2e 49bf
00000250: af4d 1c9c 0805 48bf e8de a343 4904 8dbf
00000260: c87f af9d d34d 85bf 7571 9c4e e803 82bf
00000270: a6ae 8cf1 0831 933f a7ca 6a98 8001 23bf
00000280: 15fe 36fb 970f 70bf b4a8 aad3 9565 823f
00000290: a282 6ff0 d0ac 613f 4e1e e792 8ee6 793f
000002a0: 3b7b 166c 7a85 74bf 4dbe 5f69 5e56 403f
000002b0: f693 68e6 1cc2 64bf d0c0 9d13 44e6 903f
000002c0: 20ee 2b6c 070f 9b3f cdea ddbd 5050 923f
000002d0: a909 def1 e8c8 5ebf f8c6 8d54 5140 673f
000002e0: add7 31a3 0270 80bf 59b5 ff9e 2467 863f
000002f0: 18d1 795c 7cbe 843f 2b09 d875 c2fc 673f
00000300: 8a07 be4c 3674 7f3f 4318 7ff9 126c 6abf
00000310: 3aac 4984 7c34 573f 8a94 242b 0d7c 883f
00000320: 2ab7 f148 b69c 60bf ce5c b0bd 15ea 59bf
00000330: e3f1 6019 91c3 703f 1e41 918e 2c47 813f
00000340: 9127 de07 803b 8e3f 20a5 9ad9 19ea 8bbf
00000350: dddf faf0 b38d 8fbf a1f1 5fb5 0e25 6abf
00000360: 38e0 4a86 b4dc 673f ee31 e09a 1056 773f
00000370: 0ccd 66ba 1759 5abf 5ba8 8e3e 0699 7bbf
00000380: 70ab 2d5d c749 8dbf ad51 525b 9392 57bf
00000390: 6f55 3b44 1b82 73bf 0ea3 dff9 48c9 653f
000003a0: 8f34 1989 0581 77bf 64ac 3bf0 4c98 6c3f
000003b0: b031 bf81 dcf5 88bf cd1b da37 878b 83bf
000003c0: e595 d6f3 7ca2 8d3f 141b f8fb 5eb0 73bf
000003d0: b9b5 2f65 d05d 813f a0df c8e7 54e4 903f
000003e0: 1474 e973 94e5 8a3f 661f c9c7 e430 99bf
000003f0: 57f7 4123 0e87 623f 5d7c 7641 465d 853f
00000400: 5afe 8a9f 5428 76bf 16cd c035 7f1f 96bf
00000410: a453 f2b7 f714 84bf e8b5 0425 ef45 8dbf
00000420: 133d 14ec 563f 7cbf cd69 d88e bf67 6abf
00000430: 8ae8 d562 5afb 65bf 0a70 3ef1 7346 913f
00000440: 0b04 7603 ab37 91bf a748 bf96 4592 89bf
00000450: 7247 3ff7 a533 603f 9e21 1ad6 4e5c 76bf
00000460: 7833 d3d5 35a1 74bf b03c 325f 45ea 2b3f
00000470: 9d50 ccff e72e 8e3f f008 f133 1ad9 843f
00000480: fbcb 7049 941a 95bf 7655 deac dabb 78bf
00000490: 9f86 7c5d e978 74bf 41a0 7f3b 3633 823f
000004a0: 00a3 310e 432a 82bf 6cc7 cf21 9003 5f3f
000004b0: b240 c640 dd74 5dbf ed2d 39d6 3ee4 713f
000004c0: 8c73 6dde cedf 57bf c5f2 13fe 296c 943f
000004d0: afec 5c5a 16d4 453f 1124 3ceb c2f4 70bf
000004e0: b0af 7dd2 659c 793f 0779 d8a7 372c 533f
000004f0: 28fc 9fb4 d26e 3f3f 5082 e336 3e64 93bf
00000500: 7789 e4f6 620a 4a3f 9bff 234e f1f5 663f
00000510: 5688 9ba0 3463 96bf 41b5 8582 fbb6 27bf
00000520: 7fdf 5466 0c67 843f 80bd a03a fbe8 803f
00000530: c3e7 1c9f 7023 8ebf 4470 3cf3 9f9b 7e3f
00000540: 4364 e07b a260 6d3f de46 6091 b20b 593f
00000550: c38b 46c0 cdd1 6c3f 9c1e 04c9 f020 463f
00000560: ba75 4642 79e9 713f 0418 b171 b31a 573f
00000570: b70b b0a8 dc7b 8c3f 084e 30cc 9c04 563f
00000580: be46 e125 6106 76bf c27a 2abd 12c3 85bf
00000590: d695 3011 ab15 26bf 2281 758f bb35 95bf
000005a0: b629 89c0 c439 84bf 8c77 a59a 934d 58bf
000005b0: f424 acec 74dd 3bbf 7c4f f188 3f82 6fbf
000005c0: bdd4 a1cd 373d 91bf a6d7 9025 3e4e 6f3f
000005d0: 363b 6c9f 06bc 83bf 0141 fd8b 8c16 70bf
000005e0: a77e b238 0810 843f c169 bbf6 1473 2dbf
000005f0: a83e d52d f33e 953f 3222 9b0a f183 733f
00000600: 1a06 e116 a0d1 6bbf 3f49 a8e5 696b 40bf
00000610: 2a02 7e8b dd9d 78bf cb19 bf7b 65c4 81bf
00000620: ce5d 394b 96d1 933f 92f7 ecf6 3a15 67bf
00000630: 72b8 1325 c505 6a3f fdf4 f22d a6ae 99bf
00000640: a172 0388 e633 5cbf 585d 584a 8768 793f
00000650: 58d7 bb95 c1ac 76bf 4b0d 6eb7 7334 7bbf
00000660: 8826 eea6 d409 7e3f d608 b3c2 55c8 4ebf
00000670: ce9c f3d0 6da8 843f 3db6 f240 5165 88bf
00000680: 523f 04f5 df3d 78bf 5f2f 9b6e 2b26 8a3f
00000690: c328 f298 2d9d 71bf 3378 a128 6e02 81bf
000006a0: e0fb f327 2373 81bf af64 010a 677e 5cbf
000006b0: 5156 608f a0a0 933f f6b4 7af8 0628 51bf
000006c0: caee 15d7 9017 6bbf 199e dec9 4593 9c3f
000006d0: 1898 5426 4871 7ebf 3898 f11b 488d 72bf
000006e0: 2074 888f 88e0 71bf e716 5cb7 30ad 923f
000006f0: 9a05 c771 471e 813f 68ec f076 26f3 613f
00000700: 63b4 63e7 5662 77bf b932 427b 84aa 74bf
00000710: 2941 a3c5 5831 86bf 5250 eee9 a591 87bf
00000720: ddc1 47de aec4 773f a467 263b d79e 82bf
00000730: 7e08 d5f1 0f3d 8ebf e255 a3ce 5f76 a1bf
00000740: ad32 18ae 4701 29bf 06de f480 fd35 86bf
00000750: 0c33 5d4a 8afd 7e3f 7d08 7826 eabf 9a3f
00000760: 2df5 2685 8439 8e3f 1155 8c22 bc28 60bf
00000770: 2421 7dc9 c0a1 973f a7e7 755b fb8e 8e3f
00000780: 5f23 64df 5c4d 82bf d4d4 6849 c10b 77bf
00000790: 5944 b7f8 93fe 713f 0906 d79d a19d 91bf
000007a0: dd16 35b5 c2a9 83bf 425c 8837 2d98 73bf
000007b0: c698 ebe0 4f56 61bf d55a ec68 5cea 563f
000007c0: fa41 a614 0596 713f 3c87 1d06 245f 51bf
000007d0: ca43 0e75 14f7 883f e51e ffc6 482e 7bbf
000007e0: 1ffe adb9 54b2 77bf 9a48 cc11 6eb8 583f
000007f0: bf2f 3b81 4f56 9a3f 06af 981f f9c9 76bf

b2 f8 [1, 10]
0.004246459067430704 -0.0027508642822908947 -0.002731429969971058 -0.001414011278086313 0.0027265033481090376 -0.0027286752625988488 -0.0017999821724827868 -0.0004803380907841478
0.005361398696790912 -0.0004290600561167337
00000000: fc3c 182d bc64 713f 2900 1a04 fb88 66bf
00000010: 860c 8e4c 3960 66bf cbfc 830c cb2a 57bf
00000020: 8b50 cd56 e455 663f 88de 7460 725a 66bf
00000030: 0fcc 1b24 ac7d 5dbf 7fb5 1464 bc7a 3fbf
00000040: 373c 0481 d5f5 753f 2dee b6e8 6e1e 3cbf
