experiments/exp_batch_20250114_141918/exp_h25_lr0.01_run3/model/weights.npz (npz, 160046 bytes, 4 tensors)

W1 f8 [784, 25]
0	0xbf59339fd1c1ea55	-0.0015381870971668172
1	0xbf72dea42855d40a	-0.004606858482806517
2	0x3f852b92f87b9664	0.01033701725777831
3	0x3f6dc00621e6db8e	0.0036316032194138653
4	0xbf743ada5ac0acc4	-0.004938939044261296
5	0x3f9a509c43290811	0.025698129271639007
6	0xbf830bffcb6145c1	-0.009300230402149336
7	0x3f9a3150a48d47ed	0.025578746837091094
8	0x3f6d039bf3663a04	0.003541760054935896
9	0xbf67954eeaceebe8	-0.0028788129188490504
10	0x3f72f9c210b952b5	0.004632719104468099
11	0x3f8de706aad2740c	0.014600803459240218
12	0xbf33ed8c2213c3c1	-0.00030407592028241717
13	0xbf60bb2c11af3ce6	-0.00204237563364239
14	0x3f8c3e99051a6a3f	0.013791270702587897
15	0xbf92b5ce0b04c767	-0.018271655485654927
16	0x3f92bf534b89bb57	0.018307973371004618
17	0x3f5e1b3710bbfff8	0.001837543272756646
18	0x3f74870a54253ff3	0.005011597010096114
19	0x3f70bb9cc434523f	0.004085171097604034
20	0x3f8cccf9ecb5881c	0.014062836204804134
21	0xbf6d0114a4ee2628	-0.0035405543525868395
22	0x3f86607b9c9c7f1e	0.010926213948152571
23	0xbf82366747eaee38	-0.008892828829053831
24	0xbf567d8724e4f8f6	-0.0013727016226564004
25	0x3f81eb978f42f2a3	0.008750137385839912
26	0xbf54d239067d2cf7	-0.001270824135604807
27	0xbf4948c201910ef7	-0.0007716128631120857
28	0xbf815f383e0a9007	-0.008482398408268933
29	0x3f696c353666491c	0.003103355341587689
30	0xbf817df150a1d76c	-0.008540997765731105
31	0x3f8df97d7583cc88	0.014636020802276897
32	0x3f800706ce920346	0.007825902155902075
33	0x3f8a1fa7d018731c	0.012755690610953212
34	0xbf5c8a3faaf6614d	-0.0017419454341958851
35	0x3f7171bacc4f5fbc	0.004258851699852014
36	0x3f8bbe0912e894c4	0.013546057595770107
37	0xbf8879dbc5e4b593	-0.011951176621176873
38	0x3f37fe39fbbfdb8c	0.00036610522852192277
39	0x3f8461729bc71615	0.00995149171729807
40	0xbf737cd8708f1104	-0.0047577337908857355
41	0x3f855f1ecc34ebe9	0.010435333830732989
42	0x3f91bbeebc8cf971	0.017318468340130126
43	0xbf8c4dd94ea60947	-0.013820359909691006
44	0x3f52ba1e85014729	0.0011430070917594715
45	0xbf87906c19f8ca16	-0.011505932371709309
46	0x3f75231ed28c608a	0.005160446548664885
47	0xbf63d38a45ddbbad	-0.0024202061312545626
48	0xbf84d4aeb4455c81	-0.010171284557755069
49	0x3f892b2d284fea53	0.012289383690576338
50	0x3f75d20c203d25ac	0.005327269904065995
51	0xbf8406640ea48c3d	-0.009777814576017113
52	0x3f82e2bd2dc85e31	0.009221532783200011
53	0x3f8d9f30fe8f73c8	0.01446378971916741
54	0xbf7a3b3e81515ef0	-0.006404155884488935
55	0x3f8202db719f15ae	0.008794512181235028
56	0x3f738e7ec205196f	0.0047745658378687125
57	0xbf8bc0ae95b81fe0	-0.013551105445927136
58	0x3f590ac3518518a7	0.0015284449965107612
59	0xbf97197dabf7fc5e	-0.022558177586685317
60	0xbf9ad0096bf5acf8	-0.02618422242578064
61	0x3f6cf744ad76bf3c	0.00353587545006198
62	0xbf7ce0bb91656472	-0.007050259291952009
63	0xbf82259f74c0d90e	-0.00886082243969757
64	0x3f8958485a5a8918	0.012375417001127917
65	0xbf7f436096cb7680	-0.007632615376420682
66	0xbf639b2c46308252	-0.002393328164103794
67	0xbf65cef83912a41a	-0.0026621673683462467
68	0xbf73aa884062489a	-0.004801304085179004
69	0x3f6aecd95d8abfaa	0.0032867665689408536
70	0x3f8e33d853157635	0.014747324023740219
71	0xbf80fbc742f775af	-0.008292729121360446
72	0x3f89ac49a3a428aa	0.01253564386981439
73	0xbf7414a2c77044dc	-0.004902492385569359
74	0xbf780d8bbb64c850	-0.005872293308401735
75	0xbf746d346f338e1c	-0.004986958333776961
76	0xbf83c347c7d13e71	-0.009649811540071359
77	0x3f88e8afb8a1ecc4	0.012162564107930492
78	0xbf7093ea9efb6d5b	-0.004047314155936145
79	0x3f88ba3d91810b04	0.012073975565845448
80	0x3f94d10955369627	0.020328660799029088
81	0xbf40198cbfeabe26	-0.0004913270239139164
82	0xbf740638243ae635	-0.004888743689372134
83	0xbf9a0f718d1fc2a9	-0.025449537504700945
84	0x3f88c57a4103b4b2	0.012095408543667172
85	0xbf5013fa85654e47	-0.0009813257689374065
86	0xbf74dedbf153b62d	-0.005095347548587576
87	0xbf93097482018b7a	-0.018590755877436284
88	0x3f58a36d42a2863f	0.0015038077349703997
89	0xbf7a9d152c7d536d	-0.006497461996180271
90	0x3f85c33f1f23d4b8	0.010626309526268293
91	0xbf613d008732567b	-0.0021042833628353553
92	0xbf89173c49200664	-0.012251349431610943
93	0xbf66288fec0ef3f2	-0.0027048884371354493
94	0xbf6d31cbed030a2e	-0.003563783924705597
95	0xbf513e2f4359b72a	-0.0010524236253348176
96	0x3f7bc871272fb708	0.006782953266321952
97	0x3f79bbed17002912	0.006282735950671874
98	0xbf82c7f240c9d3af	-0.009170429804024353
99	0xbf8ddfe0970597c0	-0.014587168320485122
100	0x3f83c4b3871622f8	0.00965252166749185
101	0xbf4cc0a45f39b336	-0.0008774569127588453
102	0xbf8ec95dff5bdb20	-0.015032514911110406
103	0x3f63e4a8690911ee	0.0024283684981887188
104	0xbf99e5f6fbf9c033	-0.025291308526391453
105	0x3f78c346d101348c	0.006045605303438905
106	0xbf880632d932bea5	-0.011730572942126935
107	0x3f6874a7742dbf5b	0.002985312517402789
108	0x3f8012b395bbb710	0.007848170287128947
109	0x3f7d674c0dada009	0.007178589900696871
110	0xbf6302e4a6e6f77e	-0.002320715509283865
111	0xbf7d4ef1a4b4b6d8	-0.007155364913428129
112	0xbf3835d723f4c527	-0.000369420074963394
113	0xbf9e3b612c5da8de	-0.029523390133740494
114	0x3f3eb36e118f8188	0.00046845853063184244
115	0xbf67ad867555fa20	-0.002890360464049793
116	0x3f435231cbead192	0.0005896323344445778
117	0xbf851fa60b392755	-0.010314271180636029
118	0x3f83aac8e26d67a7	0.00960308972360109
119	0xbf68ba96f0ee4bf5	-0.003018660361200793
120	0xbf743bee12780395	-0.004939966172515482
121	0x3ef983c1fba53347	2.4332693763273805e-05
122	0xbf60f8c41afd0093	-0.0020717458900492785
123	0xbf0c201fcee48980	-5.3645106037575156e-05
124	0xbf30bff704336d0e	-0.00025558262514176276
125	0x3f8f6ee4f65bccc4	0.015348233001964202
126	0xbf950c016b96a73a	-0.02055361003082299
127	0xbf493e2078dc180e	-0.0007703455500809324
128	0xbf70762b16d38158	-0.004018944088983588
129	0x3f697d4f9013f3e5	0.0031115106545471665
130	0xbf4416c237efe80a	-0.0006130646069089096
131	0xbf72adde3c0069c3	-0.004560344794322937
132	0xbf79dc12f0850c1a	-0.006313394529857264
133	0xbf90368e4d63cb58	-0.015833114121913766
134	0xbf867ad35317b495	-0.010976458524021996
135	0xbf4026f65a36259f	-0.000492925919773391
136	0xbf53329ef2dfc419	-0.001171736930242645
137	0xbf932ee31c18d26e	-0.018733547773268126
138	0x3f8a73c491a91f15	0.01291612214585273
139	0xbf50ec32d7dc7cb1	-0.0010328766360954528
140	0x3f8d6db607046c68	0.014369413460874905
141	0x3f7b18c6af875358	0.006615425220350378
142	0xbf93eff4d064d594	-0.019470048159936207
143	0x3f79216aa8b0f8e7	0.006135384212994511
144	0x3f5652c40bb0bf01	0.001362506342740433
145	0x3f6e8570b9e03e67	0.003725738685723279
146	0xbf73fad206d2d576	-0.004877872864360247
147	0xbf7589afb9f99c0e	-0.005258261138442867
148	0x3f6770c66bddcad6	0.0028613925377894795
149	0xbf6c68f846313c0d	-0.003468022261166498
150	0x3f8547bf5835e0da	0.010390753631086037
151	0x3f7d4d89a48e05b1	0.007154023806721297
152	0xbf555ed1a59d88c5	-0.001304344876608841
153	0xbf5231d33abebe68	-0.0011105120456526233
154	0x3f92d124da7e0a77	0.01837594588824706
155	0x3f5541ea2453add6	0.0012974535505304494
156	0x3f826a7f9744744d	0.008992192081274686
157	0x3f89f8252798f293	0.012680330534857098
158	0x3f1bf231e22b645b	0.00010660581078116139
159	0xbf7b9440c6324aac	-0.006733181976545193
160	0xbf77339a07e0e61e	-0.005664445574490111
161	0x3f9e2f8e819a5e3f	0.029478289280261413
162	0x3f905a969d3b46b8	0.01597056708016595
163	0x3f756699ff01553a	0.005224801585503253
164	0x3f41154cc8e976de	0.0005213379789201463
165	0x3f8a5de0cad8bfa8	0.012874370756520495
166	0xbf4ce1f88ce01c75	-0.0008814300178991002
167	0xbf90104ced210d35	-0.01568718144723143
168	0xbf7a13c94464dbbb	-0.006366525840625077
169	0x3f84631a30ded914	0.0099546476520627
170	0x3f710e7c49968f60	0.004164205072274857
171	0x3f80956893f6331a	0.008097474112923875
172	0xbf1a191e5b8b4c90	-9.955642498065049e-05
173	0xbf9f35d440f2c2e3	-0.030478779281739043
174	0x3f87f3b2dbda218c	0.011695287069657188
175	0x3f64a6f1b0e01a4a	0.002521011402680605
176	0x3f989491a3678303	0.024004245375070187
177	0x3f776011f4feedea	0.0057068540044684455
178	0xbf8e93c344844a32	-0.01493027260633992
179	0xbf69ff5e312ddd36	-0.003173526734311284
180	0xbf99f16eac268baa	-0.02533505368922887
181	0xbf6286e36d7d1c9c	-0.002261585421283364
182	0xbf7391fd7793ba8d	-0.0047778988893997345
183	0xbf73c97eb6dba242	-0.004830832460108571
184	0x3f82d2034044ba0e	0.009189629935090895
185	0x3f78423e83404168	0.005922550382834714
186	0x3f82c4c61e48e633	0.009164378928392036
187	0x3f81526f0364b9ef	0.00845801095109963
188	0xbf82224fa624a52e	-0.008854505784784718
189	0x3f86d9dcbe6fab9e	0.011157726823474875
190	0x3f2e4e963f700f07	0.00023122390823015362
191	0xbf69c1ecd726e168	-0.0031442285337243588
192	0x3f722429981d7735	0.004429018475858905
193	0x3f864d9e6b38a86c	0.010890233657011993
194	0xbf432e29f8915bae	-0.0005853371559493192
195	0xbf6e2046e9f214e1	-0.003677500251401442
196	0x3f8527b8b7a2417b	0.010329669097956842
197	0x3f2eae47e6fe91de	0.0002340758105649062
198	0xbf639ce742daff63	-0.0023941532916466487
199	0x3f670c7a82cac044	0.0028135674277436646
200	0xbf7b874e83665d29	-0.006720835392477733
201	0xbf84389e3868b43a	-0.009873615356889787
202	0xbf9d0eca86b636a4	-0.02837673613753701
203	0xbf8773360c1e3eef	-0.01145021652681019
204	0xbf714b01da7b5431	-0.004221923103348722
205	0x3f7a070b7450a924	0.006354374641015324
206	0x3f47d68e328c8c8f	0.0007274813006897962
207	0xbf936f359cb2386b	-0.018978917778945375
208	0x3fa166d4b4f77a73	0.03398766240183173
209	0x3f60012ca96b909f	0.001953685026238785
210	0xbf7868def1df32b1	-0.005959387663051417
211	0x3f6b158b772d2028	0.003306171792619512
212	0x3f8b005e50dbf91c	0.013184296457890592
213	0xbf8a053d6aa2e6e9	-0.012705306832106316
214	0xbf693d5f4add152c	-0.0030810223751439793
215	0xbf59efde87123bbf	-0.001583068191653089
216	0xbf81ab1fd1a1edc3	-0.008627174935319176
217	0xbf77736c6ac602a4	-0.00572531080649755
218	0x3f7f9bbc421198a8	0.007716880210045719
219	0xbf8016b4d05b2c46	-0.00785580883839122
220	0xbf61a84f0bf04d8b	-0.0021554511909102673
221	0xbf972e3c49be64c4	-0.022637311936340124
222	0xbf7b341718873ce8	-0.0066414739780633406
223	0xbf7ea969082d0098	-0.007485780983927402
224	0x3f7e67f90ae890c5	0.0074233749606131315
225	0x3f89ab5e802f0e7b	0.012533891951427059
226	0x3f83fdf569367809	0.009761731408442402
227	0xbf885f01eec55ff2	-0.011899962519848348
228	0xbf1d1db76d982751	-0.0001110690312985639
229	0x3f90f1b09d841e84	0.016546973814028934
230	0x3f883c63e7844e5b	0.01183393526347414
231	0x3f7921b06956870e	0.006135644061403557
232	0xbf5ac46163463c5a	-0.0016337348034516559
233	0x3f4378e236797f2a	0.0005942444376607393
234	0x3f83f0787a409b56	0.009736005049558887
235	0xbf7ae2233c305a25	-0.006563317906531673
236	0x3f631ec0e1d4a686	0.0023340003232490995
237	0xbf6d6a16486f6cbc	-0.0035906253064986442
238	0xbf7df15a95057136	-0.007310251079925492
239	0xbf85ca6019824341	-0.010639906671970347
240	0x3f672a7b434f0af1	0.0028278739432335766
241	0x3f84cc2ccd838da9	0.010155057927881144
242	0x3f7bd12253f1842a	0.006791242688536628
243	0x3f7f5e92dd391483	0.007658551872343658
244	0xbf8c89cea4b389db	-0.013934721375737638
245	0xbf70040e1a094e5f	-0.003910117230208592
246	0xbf6accfc57fe9fd1	-0.0032715729320962135
247	0xbf79774b7f19f0ca	-0.006217284114992514
248	0x3f771772f3a1ed28	0.005637597112691219
249	0x3f91ca4acdf5f90e	0.017373246022082837
250	0xbf759813a3cde5a0	-0.005271984785275491
251	0x3f861c4edba3e904	0.010796180799378614
252	0x3f5fa6ca409eac67	0.0019318556901264607
253	0xbf60a3533f33a924	-0.002031004516188111
254	0x3f8dc706e07223dc	0.014539769863647516
255	0x3f894f55c3079eec	0.012358350767456248

b1 f8 [1, 25]
0	0x3f6a476da8f9bb62	0.0032078878210123766
1	0x3f6be1bff5dd49c0	0.0034035443522182074
2	0x3f6b6f566a7ba855	0.0033489883243094467
3	0x3f6adbb694631db6	0.003278595543722419
4	0x3f6b02b562da62f3	0.0032971899698391815
5	0x3f6a6154f58fc496	0.003220239578233984
6	0x3f6a92eaa55770e1	0.0032438834120808034
7	0x3f6b344e140fa81c	0.0033208394020123443
8	0x3f6ba69510e17942	0.003375331062712623
9	0x3f6a79fec20ea50a	0.003231999944962487
10	0x3f6ae487eb017e17	0.0032828001640579185
11	0x3f6ba4e25b9bf161	0.003374521355793345
12	0x3f6b300c251df36a	0.0033188092428972265
13	0x3f6c0af6c5e64cf6	0.0034231967721979296
14	0x3f6b75aeaeb425d6	0.003352013756402465
15	0x3f6bf8e4a5c5376a	0.003414579941966635
16	0x3f6ae5886239f8ac	0.003283277868660303
17	0x3f6bb8970c06c65d	0.0033839178215309532
18	0x3f6d2cb0a1455dfd	0.0035613488964079108
19	0x3f6c40be0ce1f692	0.0034488403244371047
20	0x3f6af06b9f735155	0.0032884695061545046
21	0x3f6b9ab68188d1ed	0.0033696713037676324
22	0x3f6bf97c19dccdc5	0.003414862046065644
23	0x3f6bd51945e595d2	0.0033975118268922766
24	0x3f6b0ab5cb0be2e5	0.003301005425211267

W2 f8 [25, 10]
0	0xbf821fc6f5b6e462	-0.008849672673806267
1	0xbf770d681c10cf6f	-0.005628019979713502
2	0xbf82e89724650457	-0.00923269347970483
3	0x3f5a921395baa16a	0.0016217414148887673
4	0x3f91ffdbbd818eb6	0.017577584687741697
5	0xbf7949bcb9ebca26	-0.006173836910181174
6	0xbf74675aee5705f9	-0.004981379699019233
7	0xbf7763054a5594bb	-0.005709667840482153
8	0xbf8bf2922ef25d0c	-0.013646261270237513
9	0x3f822b156c823c4b	0.008871238111423227
10	0x3f80d643a7349759	0.008221176662640483
11	0x3f90d0d1852a4d07	0.016421579125176524
12	0x3f703d4b16c1505e	0.003964703861203926
13	0x3f7ac2fb48bf116d	0.006533605173846585
14	0x3f8df64ef114d7c1	0.014629952175351126
15	0xbf6ff485b4325bcb	-0.0039007769970100573
16	0x3f693014302ed297	0.003074683599573479
17	0x3f8ded39386a5273	0.014612624200972512
18	0xbf8c3478ad8b0af6	-0.013771956249347888
19	0xbf716108330e71b1	-0.004242927578982523
20	0xbf8f29d71981570b	-0.01521652266107367
21	0x3f856b1970fd1a0c	0.010458182106629209
22	0xbf5f4dd25b99448a	-0.0019106439853156265
23	0x3f5b277a1da3fbd0	0.0016573612725207972
24	0xbf81f8f958d54772	-0.008775661490890239
25	0xbf946321e956e224	-0.019909410349756254
26	0x3f77f985bb785de5	0.005853197471445058
27	0x3f50277a5da63ea8	0.000985974786633573
28	0xbf71aa0a5ca42db9	-0.004312553859800721
29	0xbf61ce87e65c648d	-0.002173676900281202
30	0x3f714d86718d3efe	0.004224324388658605
31	0x3f8644fe554a3496	0.010873782136764636
32	0x3f8af4f0cb9bcc78	0.013162499631539357
33	0x3f858cd86b4dcb0f	0.010522547506956607
34	0x3f86b526fbb0fada	0.011087708049783474
35	0xbf54cb1fb6d427bc	-0.00126913163268448
36	0xbf77ae095236a930	-0.005781208430031534
37	0xbf92853fed05f981	-0.018086432306057446
38	0xbf72782fcf23d2a5	-0.004509150270895522
39	0x3f72befd8496e621	0.00457667379799312
40	0xbf8fbaaf7e1c7ca8	-0.015492793117628814
41	0x3f851060bf4c54d7	0.010285144651371798
42	0xbf3d6a1eb59adb2c	-0.00044883012524670157
43	0x3f7692643f79d8b6	0.005510703652921991
44	0x3f617f7e4e8ef510	0.002135988896468384
45	0x3f802e3c0e06a851	0.007900685480155685
46	0x3f82c8eea15ab0bd	0.009172310160771574
47	0x3f7f6d7e3d261338	0.007672780151897034
48	0xbf68841de732f93f	-0.0029926857037871064
49	0x3f851975538d02ca	0.010302464115399163
50	0x3f518b7b162fc87f	0.0010708524721363686
51	0xbf60e2e210e881fe	-0.002061311278581223
52	0x3f8abf56e50467c8	0.013060263504076533
53	0xbf6e39400b8b2962	-0.0036894083862978747
54	0x3f6dcaa99e891fcf	0.00363667610898586
55	0x3f8418e235d543cd	0.009813086765150825
56	0xbf7460332b7e2212	-0.004974555857082412
57	0x3f67c4db3b22a6a6	0.002901485620061833
58	0xbf6f89fe9162a5ea	-0.0038499805478593345
59	0x3f90acc7f2737302	0.016284107373269137
60	0x3f58238d2fbad1f7	0.0014733198903914538
61	0xbf77eccf3224f98d	-0.0058410733784611925
62	0xbf939233f200ebd5	-0.019112407346465538
63	0x3f806fea9a485e19	0.008025963624318998
64	0xbf88af5007467daf	-0.012053132268930648
65	0xbf51124dfbe7da30	-0.0010419618189395734
66	0xbf86bb1cd1d414e6	-0.011099076417404107
67	0x3f96bd3ffb671b9b	0.022206306189925234
68	0x3f65eb5c2109d3b6	0.002675704898417365
69	0xbf61901a469a1319	-0.0021439088057512265
70	0x3f7d933e8c539464	0.0072205012595293085
71	0x3f7fdc667a04e76b	0.007778549479832235
72	0xbf0d9642e04fe8b6	-5.6432643795249605e-05
73	0x3f69c1695f7b46d4	0.0031439836564935795
74	0x3f78c716e669b981	0.0060492414983016616
75	0xbf99c0c7ca7b15b8	-0.025149461492011332
76	0x3f7800a8edc751d9	0.005860004308904065
77	0xbf81088cd030b6fe	-0.008317089179481037
78	0xbf804628f5068f04	-0.007946319558704847
79	0xbf91af5272c8f7e9	-0.017270363098070538
80	0xbf72af29fcba23fe	-0.004561580669936836
81	0xbf757d8626148d1f	-0.005246662157591757
82	0x3f6391b9357f414d	0.0023888223040346213
83	0xbf7cd8efec05b1b5	-0.007042824931300752
84	0x3f96652176f20caf	0.021870158085687205
85	0xbf9dc762de3b6f95	-0.029080910505271246
86	0x3f7061dc6281fe87	0.003999577406034078
87	0x3f9a8295d392ef49	0.02588876823277467
88	0xbf9d5d3d5c384e0c	-0.028675993684443
89	0x3f80f579d1e2fbac	0.008280708043796846
90	0x3f615e6be7a2fa64	0.002120218993780386
91	0x3f60dc3092aa5f72	0.0020581196489039494
92	0x3f8c231479b85dd1	0.013738784756283902
93	0x3f861c98473d7952	0.010796727823330219
94	0x3f709f7fb99b751d	0.00405836002911755
95	0x3f736f5cc5b29283	0.004744875327706513
96	0x3f7eb2957530be83	0.007494529551919651
97	0xbf655c3f7fe4e030	-0.0026074638582507456
98	0x3f5ee1a795ad4be9	0.0018848549431893463
99	0xbf80c22a59f67df6	-0.008182841177414506
100	0xbf7c98198b161706	-0.006980991152323096
101	0x3f8964a59d2a47f3	0.012399000033187923
102	0x3f50303d6d102881	0.0009880637992432386
103	0xbf73ad3fe24e0688	-0.004803895518195163
104	0xbf91d6b6994d80ca	-0.01742062864957531
105	0x3f72308af120feb9	0.004440825216135807
106	0xbf7ce99cdf14984f	-0.007058728007257
107	0xbf728c5546270e1c	-0.0045283633248263365
108	0x3f4f6d9869293697	0.000959109706238431
109	0x3f9581e9a3f1787d	0.02100338996057659
110	0x3f8509634e77d18b	0.010271812278894973
111	0x3f86ad9f50833daf	0.011073345799018279
112	0xbf8887eb672820d6	-0.011977995954126557
113	0x3f8763e1cf68c29d	0.011420978681685507
114	0x3f819dca2af6be50	0.008601741253044498
115	0x3f8bc7ef29f1fc93	0.013564938037460094
116	0xbf301f4f948f3ed9	-0.00024600689772301187
117	0x3f9472f32c9fee58	0.01996974906795254
118	0xbf8e9a9e8c329c1a	-0.014943350461477368
119	0xbf7fedc4334912ce	-0.0077951110911882015
120	0xbf910c90b601f51d	-0.01664949522863878
121	0x3f828e324c4a6128	0.009060280755236308
122	0xbf8120d76182de69	-0.008363421119027952
123	0xbf6fe5cc8d297e18	-0.0038937564034282716
124	0x3f7ba2bb80ddd616	0.006746990618798706
125	0xbf6a47bb3c2581e0	-0.003208032315498807
126	0x3f85e419aa87ec2c	0.010688972965899955
127	0x3f80b9a90bb33ff1	0.008166618985711667
128	0xbf7fe972d5f5b18b	-0.007790993287340685
129	0x3f504159b0ff5721	0.000992143239263617
130	0xbf88809d917e7617	-0.011964064600586117
131	0x3f9c9b5fed3a22b9	0.02793645749491944
132	0xbf9aaed3359cc7f8	-0.02605752958988458
133	0xbf8d7303589901ff	-0.014379526273047281
134	0xbf79fc87e5dbecec	-0.006344347811814571
135	0xbf9172cafc866546	-0.01703946272173098
136	0xbf930bd3d0e1b9de	-0.018599805473451407
137	0x3f5e2996d1a6e765	0.001840970310338774
138	0x3f20e0bef5f8f27c	0.0001287682634813109
139	0x3f61ba7ea96235d6	0.0021641229496427257
140	0xbf5c9c7e6e48a7fc	-0.0017462954211944206
141	0x3f861198fd4da424	0.01077575228710443
142	0x3f6bf14ac82d398c	0.003410955484844885
143	0xbf750a4d99fd4688	-0.00513677895635712
144	0xbf8b0d666f610a21	-0.01320915248300475
145	0xbf83964038d299f8	-0.009563924535837195
146	0x3f82a34f2d9c8902	0.009100550250483955
147	0x3f90c5d2d7b5a14a	0.016379637161123818
148	0x3f764322743d8e71	0.00543511828059061
149	0xbf8a5428cc498dd1	-0.012855833753923658
150	0x3f935985422241a2	0.018896181260574026
151	0x3f9599a37db6827c	0.02109389738837074
152	0xbf85c9f58d529071	-0.010639112830468119
153	0xbf61e86d9bda35a9	-0.0021860256954997115
154	0xbf3ec0711c88738a	-0.000469234099485232
155	0xbf73b1a53baeff35	-0.004808087770413573
156	0x3f7c11c1896fb47f	0.006852870944368593
157	0xbf66aea6b0331565	-0.0027688270216425386
158	0xbf956a7eb0e0face	-0.020914058252169458
159	0xbf885ea6ffbf9487	-0.011899285011120376
160	0xbf73343ba9dad8ed	-0.00468848520329444
161	0x3f86e63eb281c792	0.011181344816779935
162	0x3f75bc7b759b6855	0.005306703818599064
163	0xbf60e76be4729210	-0.0020634753487505167
164	0xbf8da17775e9debe	-0.01446812943070996
165	0x3f77966e1ac9edba	0.005758695694221877
166	0x3f8d4f4088e79471	0.014311317613598913
167	0xbf485a99eda0848a	-0.0007432223894775641
168	0x3f7a07d0c67ab7f6	0.006355109718851884
169	0xbf8f2ef154fa5195	-0.015226254850212931
170	0xbf92b5a9c0a996b6	-0.01827111471575079
171	0x3f8fdaccdb7be70b	0.015554047058219852
172	0xbf6dcff2570b8a1c	-0.0036391957477104452
173	0x3f7d6beed2a57b61	0.00718301096125526
174	0xbf73ba35a7a0cf72	-0.004816255177548233
175	0x3f81fd8a9c2be433	0.008784373179411364
176	0xbf688c620288d3f3	-0.002996627259813861
177	0x3f8c083634ddd729	0.013687537659034259
178	0xbf6b30335998aa4e	-0.003318882267895596
179	0x3f523ac53812c734	0.0011126447646287565
180	0x3f712f91276bc82f	0.00419575405861576
181	0x3fa6951bffcda65b	0.0441063642272865
182	0x3f7f11b6c5f0417f	0.00758525272159749
183	0xbf67a4ea7e744a6f	-0.002886255260486074
184	0x3f5f709447f49311	0.0019189308221225258
185	0xbf88cacb22582794	-0.012105547891241554
186	0xbf5908322d904702	-0.0015278329867708944
187	0xbf406f13937fb734	-0.0005015225970035121
188	0xbf8c89e0ce465b35	-0.01393485669613668
189	0x3f88776c52ab971f	0.011946531556030813
190	0x3f6b0300d0748917	0.0032973304656859314
191	0x3f950c694b155a1f	0.020555157859542313
192	0x3f9019af454bc4b5	0.015722979168405888
193	0x3f961e00a0bac25a	0.02159882527365862
194	0x3f95e2cc3ec66813	0.021372977572902196
195	0xbf67a5267ae34283	-0.0028863669932451277
196	0x3f613404f59283d5	0.0021000000820809808
197	0x3f85aef178da136b	0.010587584019285242
198	0xbf93b681a7bc6e69	-0.019250894415661444
199	0x3f75a727ec8f2900	0.00528636546455119
200	0xbf91a74af5f44c49	-0.017239733945711575
201	0x3f7617121ecbcbdd	0.005393095762644654
202	0x3f75a7058e2fa8e0	0.005286237431372437
203	0x3f7dd14046b2c19c	0.007279635504503192
204	0x3f7d800488a97250	0.007202165327353585
205	0xbf90ca8dadd6ac72	-0.01639768003012105
206	0x3f900bdd73e80362	0.015670261573180418
207	0xbf950e22bea6a00d	-0.020561735998541098
208	0xbf851c9170860efe	-0.01030839562077501
209	0xbf921e14e84c7b0a	-0.01769287746275964
210	0xbf697bae27a7c5bd	-0.0031107331717456763
211	0x3f7d233c97ea211d	0.007113682454140039
212	0x3f8fd75a45d68192	0.015547471290859236
213	0x3f8737c1a10926d8	0.011336815573617029
214	0xbf94b41db3564955	-0.020218338080277693
215	0xbf627a553d8d14e1	-0.0022555985309816594
216	0xbf91c9d1893ecdff	-0.017371438981809813
217	0x3f6b1992fff42f70	0.003308093174956221
218	0xbf619d6c21550d1f	-0.002150260154537911
219	0xbf2c20779e91fc62	-0.0002145906467241081
220	0x3f7c6ff3f18a6978	0.006942704109543001
221	0x3f9066b27f16f013	0.01601675892537464
222	0x3f7a2c0f2d06dab5	0.0063896744545021604
223	0x3f7cafbfd6ef9939	0.007003545163547558
224	0x3f85e72a0fbf90a6	0.010694817166900638
225	0x3f5139604d1ef3ca	0.001051277202790179
226	0xbf75346f1c005e80	-0.005176958104150864
227	0x3f874a21effabec1	0.011371865402309724
228	0xbf79a4d96f4b4bc4	-0.006260728220428061
229	0xbf993fcf0fc099fe	-0.024657473885008933
230	0xbf3bea249d9d6ea5	-0.00042594331681809267
231	0x3f942682f93248d8	0.0196781601521899
232	0x3f6146dc8b25f577	0.0021089847079440133
233	0xbf8b1fb5ac5b3880	-0.013244075128934663
234	0xbf683dbd456fa02a	-0.002959127111797262
235	0xbf72b4569b4cc918	-0.004566515261830405
236	0xbf7f356ec49c8e15	-0.007619316756776869
237	0x3f31a21464cf572c	0.000269060114815078
238	0xbf7a1d1c9b8d85ab	-0.006375419376895601
239	0xbf891c148303e9da	-0.01226058983637739
240	0xbf244a0f1dc2f7ba	-0.0001547950222455222
241	0x3f8fbb9c88764465	0.01549455920647542
242	0x3f91c12fcc2c3cfc	0.01733851131126317
243	0x3f670814e29ca42a	0.002811470786487043
244	0xbf9381d1471feb12	-0.019049901929956432
245	0x3f74314bd0678360	0.004929824970958702
246	0xbf654d31193129dc	-0.0026002844765902044
247	0x3f71c0a0b5cc9af3	0.004334094785724873
248	0x3f8b856caa67383b	0.013438080740254424
249	0x3f840cd827fb6fa0	0.009790123672637041

b2 f8 [1, 10]
0	0xbf70f46c0d8972ea	-0.004139349061543321
1	0x3f996962c8bed81a	0.02481607771161274
2	0x3f73cd8a2a4fc09e	0.004834689815638308
3	0x3f68137a862509d0	0.0029389756247450785
4	0xbf73d60e815f3d98	-0.004842812215385982
5	0xbf751319fc5281ab	-0.00514516974104177
6	0xbf78aa8981ed811c	-0.0060220118892575746
7	0x3f8593a9c4309157	0.0105355513570166
8	0xbf9168eecb2ca21c	-0.017001849318292725
9	0xbf78784cdee38b1d	-0.005974102283490959
