experiments/exp_batch_20250114_143214/exp_h50_lr0.5_run2/model/weights.npz (npz, 319046 bytes, 4 tensors)

W1 f8 [784, 50]
0.014912458400483037 -0.011102445079615005 -0.0026994693163219915 -0.0056468146627292135 0.003301483519156 -0.006319030017834586 -0.008892191712303483 0.001077984040260354
0.004010751669344919 0.005661492577485282 -0.002478742050123061 -0.0064532707066680154 -0.002674324090897745 0.023321666729573955 0.007522739524517075 0.00848205412929409
0.0017487234232527096 -0.0013715584573030424 -0.004402215966324391 -0.0013334419909635377 -0.011442912616885329 0.006766675565766132 -0.016566846262779045 -0.00755589133142364
-0.007856609590255527 0.017792099434506995 -0.004660209490462524 -0.006583931082125138 -0.00041273285647839837 -0.006740422528516949 -0.004595656046009093 0.002566759710554579
0.013208447046380956 -0.005027757986053444 -0.006880268300748008 0.003239365587205355 0.002071070811992889 0.0013317775628917264 -0.000980117613203056 0.015154995855907342
8.0283913460119e-05 0.009046843176505268 -0.008800326165449074 -0.010287481310914191 -0.00011817581071697845 0.015265958462728695 0.006236502423505403 -0.01744983635172035
0.004840564120887384 -0.01334221403370774 0.004631984199746771 -0.000555305057495043 0.02463250250441831 -0.013408144727999316 -0.000959068093726857 -0.007960071327142952
-0.002563618368263582 -0.003973334564349849 0.002671110894130952 0.034208349263560305 -0.014757369306384228 -0.005073563346476172 -0.01335430814282136 -0.013645665787133212
-0.011486738618118601 -0.02338656368884173 -0.006123275026042218 -0.01860287165983326 0.0026722174260773975 -0.008567523086124039 0.00742990141184685 0.016442296323663255
0.008594499208569101 -0.003207721264241581 0.0069179436155191835 0.003873903495449068 -0.0021232613502844065 0.0005925299445776406 0.006028990176461686 0.007861304213606998
0.017631630568511622 -0.008370157853562335 0.017978453434963487 -0.004505386752801563 -0.0008326975515201869 -0.009999453456184791 0.0022536711400199167 -0.001342052906086095
-0.0013256452735348231 -0.0075898919217780945 -0.015686882922321673 -0.00396981328346829 0.005216200873393408 0.006612434892024102 -0.011368446911306338 -0.002900407027458486
0.005721115872665026 0.0016909983372101892 0.003729841148019646 -0.006845036870842622 0.0021669451334769617 0.00490277661331622 -6.494412666098051e-06 -0.014366392521589702
0.006154624112682666 -0.012705033584222487 -0.014539008892073655 -0.012722633805879478 -0.008938020496559774 -0.006997209903625439 -0.004857107897240366 -0.01747720017211856
-0.003323190506934993 -0.008402680036768086 -0.005914277984802281 0.014049371435347763 -0.000320604548732986 -0.0071299196655645715 0.00468774832144698 0.004740333814555514
-0.006811613447267689 -0.005028051762940439 -0.005342644397059363 -0.006963409338992295 0.0007774135818700835 0.021460312101891015 0.0007824361501073873 -0.009307684441240263
-0.009159752733212217 -0.00024202664741502762 -0.009494168368510065 0.0076677273759856 -0.0008226163082247791 0.014249639954350142 -0.0031958447195497438 0.01055060247625407
-0.008770413690723575 0.0042508122573590304 -0.0022171675507365023 0.0029425862849332797 -0.0027056747755495655 -0.002659554515961464 -0.010162337210241752 0.0021540410288452246
0.009640127556916131 0.002934398642763042 -8.439411105315531e-05 -0.014729127986522508 -0.0021448482334567877 -0.0021532733619186607 0.011595068388481811 0.004321626325427966
0.029217682425504547 0.012030088653061915 0.013780266130176959 0.009282053899293386 -0.0014072116457413092 -0.0095618342476455 0.004251157331766218 -0.019302903679139824
-0.011030411727324774 -0.00045028361460942504 0.008898105652047862 0.00514590194187379 0.00723126089656996 -0.014754387038784731 0.0015852263644759055 0.005816749491722608
0.012325142292291176 -0.011123005645627357 -0.005177577785472123 -0.006554930518821284 -0.013382074875047856 0.0013638675229405935 0.0007817639199542205 -0.013388933055612666
-0.009346938953401933 -0.005652196750152046 0.00031411889016883285 -0.006441815030603045 0.010010639930610077 0.02056856273279347 -0.010178901728774307 -0.006229663133908109
-0.009402547476947054 0.0050087785442046295 -0.0015066172134073665 0.0018939689152773446 0.014665231239147125 0.009332858232301289 0.007963253831265272 -0.013625784349939727
-0.0012049337932178818 0.0017910992341413376 0.014518026412641343 -0.010016999720946834 -0.015013382276134486 0.014826188137819057 0.01680042983966261 0.012102298523923208
-0.0017238508662191113 0.010692717432618739 0.003630749399748568 -0.014535706377222029 0.01193030309087626 -0.0008000433840971121 -0.007592292536293755 0.031232459938956292
-0.019214958483566476 -0.01158583226431517 0.0021190134863628115 0.0032501373752863243 0.007141972150966985 -0.0018634922990659586 -0.0026246080439337603 0.009968026450660054
-0.013739319168251534 0.014790016705458917 0.026363403084444213 -0.0037089229257407 -0.013199022422379412 0.008294371369389363 0.0032684151003864073 0.0052932485290819445
0.014057564306669665 -0.013594426325924074 -0.009039968555575933 -0.013656614191536734 0.013582584060652457 -0.008349015480734988 -0.00903615154412334 -0.002146920590812868
0.003670610675323113 0.007777018698012322 0.009604573305018857 0.01954361416174478 0.0013371806807818253 -0.006405480841587914 -0.006043274323332971 0.015342786017439908
0.0034311719019221136 0.012128549583282624 0.0077577705631271315 -0.011811600400505369 0.008791012844139993 -0.01883450277580344 -0.003265168667911541 -0.0031258855319637826
-0.011847809108278658 0.0021201931469628007 0.0012013916788550132 -0.005211720898822689 -0.006028055231295816 0.013381015061907194 -0.00447003338323683 0.002857132436453588
00000000: b774 1049 6c8a 8e3f c43f 2ef4 e0bc 86bf
00000010: 9edb c38d 321d 66bf 8a11 d944 1d21 77bf
00000020: 9721 c777 b60b 6b3f d2fe 4db4 fbe1 79bf
00000030: 7dba c0c4 1136 82bf 7daf b48c 64a9 513f
00000040: 5f11 09f4 936d 703f 8c33 7857 8130 773f
00000050: 98c3 4b81 4c4e 64bf 03af 32aa be6e 7abf
00000060: 0d46 4cd0 76e8 65bf 0a22 918f a2e1 973f
00000070: 67fc be03 2ad0 7e3f 9fac b408 0a5f 813f
00000080: d85b 687a ada6 5c3f 56ab fead bb78 56bf
00000090: fa46 afd9 0e08 72bf 3ede 816f dcd8 55bf
000000a0: f51e afbb 616f 87bf 6429 1fa4 5fb7 7b3f
000000b0: 0003 963b e6f6 90bf 77cb 9122 edf2 7ebf
000000c0: 210f fb49 2017 80bf 2126 cb94 1738 923f
000000d0: 792b aa75 9516 73bf cc5b d48a c0f7 7abf
000000e0: cefa dc1e 820c 3bbf a1a4 2365 d89b 7bbf
000000f0: 8589 bd06 e5d2 72bf 69c6 6ea0 e206 653f
00000100: 1ae0 c2c0 070d 8b3f 53f3 f481 fc97 74bf
00000110: c441 6ef5 7b2e 7cbf b1fd 3728 7189 6a3f
00000120: 2c7a f7ac 59f7 603f 44ae 0045 e1d1 553f
00000130: 2c82 1346 e90e 50bf dcbc 931c 9509 8f3f
00000140: 93b5 7d21 c30b 153f 38de 99bc 2687 823f
00000150: a30f 99c8 e705 82bf 0c07 4f5e 9a11 85bf
00000160: 304c 05f8 a4fa 1ebf 3653 b742 c243 8f3f
00000170: 21c2 345f 728b 793f fa04 ceb1 5ede 91bf
00000180: 6a93 7e09 b3d3 733f cab3 72a7 2953 8bbf
00000190: 95bd 74ca fcf8 723f 05dd d687 3c32 42bf
000001a0: 4751 b342 4339 993f b3b5 dab8 ba75 8bbf
000001b0: a4d9 700c 3f6d 4fbf c9f5 30b0 5e4d 80bf
000001c0: 0ec0 a221 4c00 65bf 4bc0 28e0 5746 70bf
000001d0: dba2 e5bd b9e1 653f 3f9d acba c183 a13f
000001e0: 6708 5e94 1c39 8ebf b256 5b4a 04c8 74bf
000001f0: 877c dfe5 8059 8bbf bb95 4d42 42f2 8bbf
00000200: 9cc2 9ef5 5b86 87bf ff6b d6b8 a5f2 97bf
00000210: cc42 b31f b814 79bf 8f0b 9095 a10c 93bf
00000220: 3a5e 7dce 0be4 653f 2c76 b37b d98b 81bf
00000230: ffe0 38f9 d06e 7e3f 47d3 ecd3 3fd6 903f
00000240: eadd 3528 fe99 813f 9a55 963d 1447 6abf
00000250: 4cfe 5859 fd55 7c3f 5f1b 441a 2abc 6f3f
00000260: 0f3e ee41 cd64 61bf c82d ef5d 806a 433f
00000270: 3b45 2cba dab1 783f 4bc3 0264 9619 803f
00000280: ccea aab2 060e 923f c87f f291 5f24 81bf
00000290: d8af 2496 f168 923f 1755 258c 3d74 72bf
000002a0: 1b95 2860 2c49 4bbf 39d7 93ec 977a 84bf
000002b0: ad52 f47a 4a76 623f 5143 d555 fafc 55bf
000002c0: 8eb3 23c6 28b8 55bf 2aee 5819 9416 7fbf
000002d0: 1f9d 82e4 3810 90bf 3c5e 94a3 a642 70bf
000002e0: 35c8 9142 955d 753f 6913 bbf9 a315 7b3f
000002f0: 3fe2 851d 5748 87bf 9c29 7f2a 98c2 67bf
00000300: a495 1d59 066f 773f bfff 93a3 8fb4 5b3f
00000310: d728 0038 0b8e 6e3f 23c0 0098 8a09 7cbf
00000320: 4f56 60cf 69c0 613f b6ab 6b13 ef14 743f
00000330: 1e1e 7c8f 523d dbbe d574 5590 206c 8dbf
00000340: 20c3 8754 9735 793f 0419 e9bd 1805 8abf
00000350: 9f63 a9bd a0c6 8dbf 0c01 ec00 530e 8abf
00000360: 3a24 cacd 184e 82bf ac68 303b 1ba9 7cbf
00000370: 010e 26f9 0be5 73bf 2eda a80c 8be5 91bf
00000380: 3513 7651 3c39 6bbf 2143 a79f 6c35 81bf
00000390: 1509 63e8 9139 78bf f0de c0b6 eac5 8c3f
000003a0: 97f2 3f0d da02 35bf 2d5a 963c 4334 7dbf
000003b0: 4a4b b8db 7533 733f fa4b 4aab 996a 733f
000003c0: a0fa d28f 7ee6 7bbf 209a 265e 4b98 74bf
000003d0: 9e39 5a2f 2be2 75bf eef9 12f6 a985 7cbf
000003e0: f7b6 6df4 6a79 493f bbec 8e2a b1f9 953f
000003f0: ae86 84d6 8ca3 493f e881 3642 e80f 83bf
00000400: 36c2 6d33 59c2 82bf 9001 2112 11b9 2fbf
00000410: 57eb 29b5 ad71 83bf 4d33 08e5 3168 7f3f
00000420: 11b0 0b12 9bf4 4abf 846f ab4c ea2e 8d3f
00000430: 63c4 b611 2c2e 6abf 0878 b5e4 8d9b 853f
00000440: e5d9 caff 38f6 81bf 1158 07ba 4c69 713f
00000450: bc65 d8c3 bc29 62bf 1a96 80fb 0c1b 683f
00000460: 8c4d 9615 362a 66bf 231f 6075 7dc9 65bf
00000470: 0a55 c0cf fdcf 84bf 3a80 bdf8 59a5 613f
00000480: c595 b004 34be 833f 40f0 8746 e109 683f
00000490: 4ad0 acc9 971f 16bf 8e75 0118 4e2a 8ebf
000004a0: 8304 90a0 1292 61bf 64b7 66d5 bda3 61bf
000004b0: 0df3 2fbc 27bf 873f ea5f bbbb 8db3 713f
000004c0: f108 ee79 3deb 9d3f d6bd a92a 3ba3 883f
000004d0: 9cd1 df02 d438 8c3f 4755 7f2f 7802 833f
000004e0: eeff ceff 450e 57bf 5c39 11ab 2795 83bf
000004f0: b183 5c5b a969 713f ac37 14f0 23c4 93bf
00000500: 80cd 0acd 1c97 86bf bf60 0f66 8182 3dbf
00000510: 07d9 2c86 2b39 823f eac3 c788 de13 753f
00000520: 502b f4d0 869e 7d3f 7fcf 6e4e 8c37 8ebf
00000530: 4c7e 19d9 ebf8 593f 7625 60cd 4dd3 773f
00000540: 71f1 8298 ec3d 893f a57b d98b a8c7 86bf
00000550: 0376 2d74 1535 75bf 0753 4bc3 57d9 7abf
00000560: cd12 87af 0f68 8bbf ea07 0e9a 7958 563f
00000570: 352c 153c e99d 493f dc48 d12c a86b 8bbf
00000580: dc05 fbe8 7c24 83bf 7c51 1403 c226 77bf
00000590: 3ba6 3e5c 0a96 343f 8915 228e bb62 7abf
000005a0: e079 e958 7580 843f d662 0de1 ec0f 953f
000005b0: 6f36 4610 add8 84bf 47c0 cd76 4684 79bf
000005c0: 13f4 4c8f a441 83bf 4eed a4c0 1584 743f
000005d0: 90ed 2fea 35af 58bf 6899 3fa3 e107 5f3f
000005e0: 93ba 7b04 ce08 8e3f e066 1607 1b1d 833f
000005f0: 7a43 33d6 094f 803f a59d 52d1 d5e7 8bbf
00000600: aff8 15cf dbbd 53bf 091a 9c28 6a58 5d3f
00000610: 4977 2885 a0bb 8d3f 43e1 a4f1 ca83 84bf
00000620: 0ad9 060f 56bf 8ebf 6303 6949 315d 8e3f
00000630: 2c60 e1c2 2134 913f 88f5 ee02 17c9 883f
00000640: c96a fdc5 5a3e 5cbf e17f 6d3d 10e6 853f
00000650: 9b0e d2bd 3bbe 6d3f 098c 1d7c e5c4 8dbf
00000660: b37b da2c ea6e 883f e11f c515 4037 4abf
00000670: 5a1c 5282 1819 7fbf e0b8 0be8 66fb 9f3f
00000680: 62a8 1f09 16ad 93bf 6f9d 6015 50ba 87bf
00000690: 3a71 f5b3 e45b 613f d3e4 7f37 08a0 6a3f
000006a0: 60d9 138d e640 7d3f f604 c69e 0d88 5ebf
000006b0: 611b d5b6 3380 65bf efd5 e3dc 1d6a 843f
000006c0: f6be f933 5c23 8cbf 183a 7570 3a4a 8e3f
000006d0: 495e 3c08 02ff 9a3f 6a0f 6cd5 2c62 6ebf
000006e0: 5f75 25cd 1608 8bbf 39e3 2dae a3fc 803f
000006f0: a7c0 e8fe 5cc6 6a3f dff0 2695 5fae 753f
00000700: 2523 ab57 36ca 8c3f a961 d203 65d7 8bbf
00000710: 63ae 6c0a 8c83 82bf bb29 9dba fff7 8bbf
00000720: 6c75 af92 2fd1 8b3f 4c66 8ce3 4919 81bf
00000730: 9ae0 e8ba 8b81 82bf c155 3037 6b96 61bf
00000740: acce d119 d411 6e3f ac55 7e8f cbda 7f3f
00000750: c58f e501 90ab 833f a36c aebe 3d03 943f
00000760: 3840 bdd2 8ae8 553f 2e28 ad2b a23c 7abf
00000770: 0e84 4519 d5c0 78bf d03b 65e1 096c 8f3f
00000780: 18f9 6163 b01b 6c3f 1b04 775e dad6 883f
00000790: 276d bcad 9cc6 7f3f 97fe 772b ae30 88bf
000007a0: 0f7b 50c5 0501 823f 3c80 d515 5a49 93bf
000007b0: 7898 a014 8ebf 6abf d5b5 2f04 759b 69bf
000007c0: 44c8 3105 aa43 88bf 4cee 4607 5e5e 613f
000007d0: cf85 1a7e 00af 533f e3a8 0fad e258 75bf
000007e0: 9bf8 3ac1 dfb0 78bf 1e1a a070 8167 8b3f
000007f0: 11a7 1673 2b4f 72bf 1341 ff4b d767 673f

b1 f8 [1, 50]
0.3565979643587292 0.31961847956763223 0.36491125229803745 0.3256211200101552 0.3601169255954434 0.3491583991868923 0.32831505819483875 0.312452948425453
0.26798292075704044 0.3432510219957268 0.3344826220392145 0.2981992623303425 1.1083415511757346 0.19071814911323318 0.246265825376791 0.923807722982028
0.3609664852947153 0.34391304334255524 -0.3824354670250551 0.3779471959523456 0.2745951023108858 -0.5244605801962609 0.338053356917279 0.35274396300253846
-0.3106464458723329 0.08320534075805555 0.3312481073253468 0.3474131818879961 0.3625252988891881 0.3198854238672083 -2.4881220667235904 0.36200053421614153
0.2683949758942339 -0.6165876546953138 0.05098878900700633 0.3670788939117029 0.37562887604787293 0.34196213018821414 0.3156923894809411 0.3666107679830305
0.11644049916732671 0.23736689046229703 0.276488926259018 0.34441091680321545 0.3390363302313365 0.3137706216016851 0.3352639619017616 2.5000720635634672
0.34988512341648065 0.7246640718964553
00000000: 296b af44 80d2 d63f a42c 3c11 a174 d43f
00000010: 9aff a3b9 b45a d73f 0a27 55f7 f9d6 d43f
00000020: 9ec8 8adc 270c d73f 1c69 6878 9c58 d63f
00000030: 7acb 6e29 1d03 d53f 8cab c1a6 3aff d33f
00000040: 626f 22d6 a126 d13f 0593 7222 d3f7 d53f
00000050: c447 afcc 2968 d53f fd9b d95b b215 d33f
00000060: 2490 b159 c4bb f13f 5df5 98ca 7369 c83f
00000070: 5dd1 0e79 a385 cf3f 4f00 c036 d58f ed3f
00000080: 56be 522c 131a d73f 24be 74da ab02 d63f
00000090: 8fff ec9b d279 d8bf 0ebc 8e6f 4930 d83f
000000a0: 324a 0456 f792 d13f f57d ff8d 61c8 e0bf
000000b0: 8cd0 108c aaa2 d53f 0145 3d6a 5b93 d63f
000000c0: befa 68a1 a1e1 d3bf e28b 68f9 f14c b53f
000000d0: b8c0 f442 2b33 d53f a620 9a7f 043c d63f
000000e0: 75e8 ac4f 9d33 d73f 3283 7eb6 0079 d43f
000000f0: 1f45 c88a ace7 03c0 5ef1 e549 042b d73f
00000100: a417 f81e 622d d13f 2f14 8108 16bb e3bf
00000110: 52d7 7eda 331b aa3f 7cc4 1979 387e d73f
00000120: 3bc4 83b2 4d0a d83f 793f 6821 b5e2 d53f
00000130: cfab 1ada 4d34 d43f ce4e b602 8d76 d73f
00000140: 7284 da67 0bcf bd3f f229 d8cb 0962 ce3f
00000150: d845 ff9b feb1 d13f 3088 0316 d40a d63f
00000160: eef6 9f6f c5b2 d53f 9863 8e5f d114 d43f
00000170: 274f f9f9 f674 d53f c52f 35c8 2500 0440
00000180: b990 9b92 8464 d63f fd34 2cb5 7230 e73f

W2 f8 [50, 10]
0.1283770198173999 0.5385760759079604 0.03437731076338578 -0.2199007229157174 -0.2648360679499067 0.1832942184623178 -0.027778425617595276 -0.048236250740248135
-0.19528523079337587 -0.1092016912016848 0.1747394274127834 0.2709355607985582 0.09978138004183548 -0.1347390813056613 -0.24470136221360236 0.1956747653577053
-0.036746951204292354 -0.05219764761825998 -0.15444192569664889 -0.12179084727596931 0.06978756027214579 0.6331459354044465 0.057029770960243094 -0.19870312802481263
-0.28422915413675925 0.08153953694460525 -0.06084302701138909 0.009721020403697133 -0.20526845460859106 -0.0798942505871225 0.1629526790102314 0.3969785055855673
0.07380752344640487 -0.2100926419821562 -0.21641144441260776 0.1749240072477818 -0.008771967428831158 -0.1319478182116511 -0.18687110126911186 -0.10439081897294948
0.2102338193821361 0.4688880065980184 0.031381053745389194 -0.19044389632829373 -0.4422688844194855 0.17566227797849532 0.011281614271256898 0.0446731382131981
-0.18199055461026736 -0.10080219539115952 0.14608453633101856 0.28739511513876315 0.038580817610903824 -0.19483183586819275 -0.2709602768656408 0.13747615102898153
-0.06449237893252392 0.20100395550160596 -0.2005533087441617 -0.08567069064843592 0.13893345912068938 0.3718053542942317 0.08466597826379933 -0.2395028010342058
-0.2370477773903344 0.14690162202077253 0.08532021126410991 -0.06920929201712495 -0.17650782219708497 -0.11356619130027631 0.11378938216558433 0.12368082218985627
0.019477192902310852 -0.23121743857987787 -0.1413868745864401 0.1573856213131565 -0.0357838752049241 0.18486518866788737 -0.15286273003213205 -0.06110513299965283
0.2764933781809386 -0.09323595046386936 -0.02958024119503075 -0.16634743887014342 -0.19828955485229977 0.23759601392315227 -0.04385849114919198 0.2170522890785158
-0.0834131426539997 -0.11047354665968406 0.0893070501473942 0.34168476752694243 0.015189476409566504 -0.19045915477710035 -0.16355125837534346 0.20858219415768572
-0.068366325367939 0.05710295625005902 -0.20268689968010903 -0.1082694402244501 0.15734867265287183 0.4502891667415235 0.0991834138150099 -0.16340886246386144
-0.25950795691399475 0.12783246509259602 0.016331718354921414 -0.12950415258677922 -0.19344389438330595 -0.1151627581583332 0.1901019682345473 0.09926378856254406
0.07552111123106275 -0.24260298991440504 -0.18321394082032869 0.11017641854394376 -0.0017318003609798982 0.17548338422616955 -0.12577710511420712 -0.07754419080331852
0.8597945076026006 -6.76852684610204 1.4094448317321444 1.8095862610216258 -0.8011556587994777 2.2381021070339626 0.8702916237485165 0.533280352368145
0.4891010621199214 -0.6173648244194142 0.16193263677743755 -0.09616732784665835 0.053639346068880024 -0.5253468736358156 -0.08657239004997429 0.04203278175712589
0.11818783853430641 0.23363930648179537 0.05769569593561708 -0.0027975086129447893 0.2092967483080118 -0.11788685994684388 0.04748424657901683 -0.17342109891969917
-0.1525258240311526 0.08830002989263738 0.03263209131538517 0.17565590179786422 -0.053091041112884596 -0.09019550628190365 1.4726641663502735 -3.9430623778287717
-3.569231277025284 0.7348254952431079 2.7779745562419143 -0.1508871701794398 -5.390172833413459 2.946246801809779 0.7899744056925279 4.363740248759735
0.16571791051432266 0.5641452119278371 0.0751815276100174 -0.15255269934618904 -0.3212242227981523 0.2204251833294512 -0.04925327176814777 -0.10099237258393097
-0.1872102029676022 -0.1342295868478501 0.15943715357787536 0.25844548412376517 0.011871774604056222 -0.21444204884116572 -0.23808435178945822 0.14506398878508536
-0.10931256218360953 0.2262472253450312 -0.2065228834994115 -0.07284891872279078 0.9638092858617915 -0.5023467718615684 0.8169628104823445 2.5214297803997128
-3.1231613322709117 -2.6862827913417333 0.6290837213147381 -1.1930764546058272 3.781324662027562 -1.1424983138955351 0.004534961432082197 0.5505624045419639
0.058054039648084206 -0.17185476160958416 -0.24241248215843467 0.2049861580076028 -0.09274013781995379 0.05597322322118765 -0.23150325664313287 -0.11245983357450902
0.19627806712944199 0.02732303771745191 0.14992480176546993 -0.23294202945463402 -0.15481451394109005 0.11873953203702277 0.11308298076561164 0.059521346415195055
-0.11220366488213473 -0.10523309023608012 -0.6490165201258365 -3.1769267643568697 4.818940860553831 2.1564118035352076 -1.374573544188418 -3.1809186137934806
0.22208658782562574 -0.08071963378160892 2.268377882459214 -0.987515627032746 0.0700787041150362 0.441575616056207 0.08602187547250828 -0.17266779812922045
-0.22406923068904708 0.17046233296309 0.034391654172613466 -0.08106751022170904 -0.2031621935213814 -0.10872217590787392 0.08893382250529275 0.33573908206947345
-0.027204225494834006 -0.14902788400636832 -0.23277933013592914 0.17564129746822554 -0.10656704425088391 0.14713108175894077 -0.21550375621350243 -0.07591659488195227
-3.2124390058031045 -0.2689422678107185 -0.692610552215834 -2.2396043318822554 4.032054332009767 0.9546982843643153 2.179468660336548 -3.8447316337604422
1.8513962474534746 1.2340531799128365 0.054234103515766366 -1.2674494718831042 -0.8817826135408114 -2.243493164911156 4.421655765650322 0.9621376236076208
00000000: 083b d67e a86e c03f b5d8 0de5 033c e13f
00000010: fe05 e822 e799 a13f fd16 a5f6 b425 ccbf
00000020: 6d59 a9fa 12f3 d0bf 66b7 eb58 2f76 c73f
00000030: 486d 3f96 f271 9cbf 6a71 d2fe 6bb2 a8bf
00000040: 471e d33f 1bff c8bf 7a0e 615c a4f4 bbbf
00000050: 49a3 078f dc5d c63f ac01 3d1b 0257 d13f
00000060: c288 07c4 458b b93f 1ab7 d955 213f c1bf
00000070: c33d ffcd 5f52 cfbf 9791 eee6 de0b c93f
00000080: 9bdf 4c13 7fd0 a2bf 83a9 e56a a6b9 aabf
00000090: 8eca ffc5 c0c4 c3bf 869e 005a af2d bfbf
000000a0: bd57 09f9 98dd b13f a309 c543 bb42 e43f
000000b0: f160 5892 0133 ad3f 515f 3da6 1a6f c9bf
000000c0: 7193 657a cf30 d2bf 7010 826c c6df b43f
000000d0: 1e39 6836 d126 afbf b3b3 bd45 9de8 833f
000000e0: c2e0 b899 3c46 cabf 9ffd 6819 f373 b4bf
000000f0: f17f 9225 a2db c43f 251e ad88 1868 d93f
00000100: 02ac 66c3 0ce5 b23f cdc7 38d1 50e4 cabf
00000110: 19bb 1dc6 5eb3 cbbf 000e 35ed e863 c63f
00000120: 11c7 d389 09f7 81bf 2fb1 ff85 aae3 c0bf
00000130: f358 426a 64eb c7bf 43d1 7d51 5bb9 babf
00000140: 8235 6119 f1e8 ca3f c9ce 74d7 4202 de3f
00000150: 89d6 196f 2d11 a03f 88f6 3931 7760 c8bf
00000160: 9faf a726 224e dcbf e07c 87fd 197c c63f
00000170: 1ea5 baa2 d01a 873f b44f 45c7 65df a63f
00000180: 30b2 1d6c 774b c7bf 9fed 9134 2cce b9bf
00000190: 371c ffe8 e5b2 c23f ea45 237b ae64 d23f
000001a0: 7196 c86b ddc0 a33f f402 a3e5 3ff0 c8bf
000001b0: 49cb e9c5 6957 d1bf 9a20 538a d198 c13f
000001c0: f93e 5b92 9282 b0bf 237e 9f63 7fba c93f
000001d0: f593 1417 bbab c9bf 518e 8fae 83ee b5bf
000001e0: 762b 9f53 92c8 c13f 85f8 4aaf a8cb d73f
000001f0: d313 ba67 abac b53f fa03 df1c 07a8 cebf
00000200: 9290 bde1 9457 cebf 457f 271f accd c23f
00000210: 9631 119d 8bd7 b53f 3cf9 ca3d b3b7 b1bf
00000220: 8d8e e9ed ce97 c6bf 2ee3 9085 ac12 bdbf
00000230: c981 080b 4d21 bd3f 94a4 72de 8ba9 bf3f
00000240: 9b1b 224a d4f1 933f 5494 7b74 8898 cdbf
00000250: 5559 3711 f718 c2bf 6d48 3348 3625 c43f
00000260: 1066 759b 4352 a2bf 50ac bf99 a9a9 c73f
00000270: d5f4 2185 0191 c3bf a3d5 b307 2c49 afbf
00000280: 9340 3648 11b2 d13f 81c5 0dae 4fde b7bf
00000290: 786b 2962 484a 9ebf 723d dc74 df4a c5bf
000002a0: b650 9d58 8d61 c9bf fedd bad2 8b69 ce3f
000002b0: a67e 46c2 9e74 a6bf e79c 8e91 5ec8 cb3f
000002c0: 3169 c14f 905a b5bf 24fa f98d fe47 bcbf
000002d0: 2c6f afab d3dc b63f 0274 84c9 29de d53f
000002e0: 532e 6103 a91b 8f3f c6e7 7e30 f760 c8bf
000002f0: 248b f864 3fef c4bf 0fb4 3743 d2b2 ca3f
00000300: c35d 9a9b 7480 b1bf f1a5 3243 993c ad3f
00000310: e112 baf2 a4f1 c9bf db94 ebc8 8bb7 bbbf
00000320: de79 8e55 0024 c43f c277 39a7 89d1 dc3f
00000330: 451f a48e 1564 b93f 1855 14e4 94ea c4bf
00000340: 26d5 ff42 c79b d0bf 1b4a 7870 d05c c03f
00000350: fe31 e310 43b9 903f 7638 0792 9793 c0bf
00000360: d25b feff c4c2 c8bf bfd7 0178 4e7b bdbf
00000370: 897e 3ce4 4255 c83f 929d 8d05 5a69 b93f
00000380: 401e e5fe 5955 b33f 560e cc61 9d0d cfbf
00000390: c34e ffed 8d73 c7bf 0fc8 6f92 8534 bc3f
000003a0: a494 787a b25f 5cbf 1614 1f52 3d76 c63f
000003b0: 9789 86d4 7619 c0bf bfba 7ea3 efd9 b3bf
000003c0: fedf 6dc5 6f83 eb3f d66c 98b3 f812 1bc0
000003d0: 7de4 1c06 168d f63f 930f 26b9 10f4 fc3f
000003e0: 2892 3131 11a3 e9bf 768e d613 a2e7 0140
000003f0: 9671 bfd1 6dd9 eb3f 41a8 20f5 a110 e13f
00000400: 7f9c 8f8a 6e4d df3f 1ba1 52e0 73c1 e3bf
00000410: 2d9c 8e69 35ba c43f 2e8c 0b08 6c9e b8bf
00000420: a511 4aca 9d76 ab3f 244b 2a3f a4cf e0bf
00000430: 574e 00b0 9b29 b6bf 3176 031e 5285 a53f
00000440: ab2e 4ae5 8e41 be3f 9620 338e e4e7 cd3f
00000450: d1ad 534e 4a8a ad3f d08f 1700 cdea 66bf
00000460: d32e 9260 3cca ca3f 3f8e 1950 d52d bebf
00000470: 9e9f 43ec da4f a83f 59f3 259e a932 c6bf
00000480: 262f 0159 f785 c3bf 56ec 9fac d49a b63f
00000490: 15d4 ff49 27b5 a03f 8e1d c980 e47b c63f
000004a0: 58b3 94ba bf2e abbf a818 ba7d 0d17 b7bf
000004b0: ce72 074d 0890 f73f 8be6 b649 648b 0fc0
000004c0: a678 b520 c98d 0cc0 c2c1 cac1 b083 e73f
000004d0: de6e 61b9 4a39 0640 4e41 a752 4550 c3bf
000004e0: a031 9d77 898f 15c0 a2bd ddd7 e991 0740
000004f0: d30b a467 7847 e93f dba5 e252 7874 1140
00000500: c69e 0297 3e36 c53f 019a 6d42 7a0d e23f
00000510: 302d 59ba 183f b33f 22e0 4dcb d886 c3bf
00000520: 2078 e60a f08e d4bf aeb1 ce74 e436 cc3f
00000530: 022e ee8e b937 a9bf ddb7 64d9 a2da b9bf
00000540: 8297 9c01 81f6 c7bf cb63 d562 6f2e c1bf
00000550: e030 31c8 6f68 c43f c111 87ed 5e8a d03f
00000560: 0ff7 5b9d 3a50 883f 3d7c 5449 d672 cbbf
00000570: b102 504c 8c79 cebf 6262 d4ef 7491 c23f
00000580: a1dd 9e77 e8fb bbbf 9975 d548 abf5 cc3f
00000590: 30b7 4083 576f cabf 029e 760b 3aa6 b2bf
000005a0: b870 4b92 86d7 ee3f 06b1 8c89 3913 e0bf
000005b0: c03c 2231 8f24 ea3f 5dd1 6f60 e32b 0440
000005c0: 02e2 3102 3cfc 08c0 73f6 04d5 817d 05c0
000005d0: d7c4 2f2f 7421 e43f f48d 2256 d716 f3bf
000005e0: a9bb f724 2740 0e40 d8a9 de4f ac47 f2bf
000005f0: f470 a170 4093 723f 8246 3d0c 359e e13f
00000600: 01e0 6053 42b9 ad3f 8534 633a 56ff c5bf
00000610: db9e 8149 5f07 cfbf 6d3e 6386 fc3c ca3f
00000620: 8596 f652 d1bd b7bf 4998 5fb6 85a8 ac3f
00000630: 6c91 1912 e6a1 cdbf 2ded 50eb 2aca bcbf
00000640: 211c 9fc3 a31f c93f 9b00 b205 92fa 9b3f
00000650: af92 3864 bc30 c33f 078e 2f5f 0bd1 cdbf
00000660: ed5b 2945 f6d0 c3bf 2d63 d7c6 b665 be3f
00000670: 195c 1f98 01f3 bc3f d5c7 88f8 9479 ae3f
00000680: 20fd 281f 61b9 bcbf 035f 0549 8ef0 babf
00000690: 5b22 104b bec4 e4bf 4d99 5594 586a 09c0
000006a0: 49bf d56e 9846 1340 0223 e7d4 5440 0140
000006b0: edc6 23d4 40fe f5bf 61d8 4b75 8572 09c0
000006c0: 88af cb53 556d cc3f 0db3 3cbb 0aaa b4bf
000006d0: 730e a14d a325 0240 61a0 4c5f ba99 efbf
000006e0: c4f4 518e adf0 b13f 9c09 6b5f c642 dc3f
000006f0: 381f e595 8705 b63f 4ac7 0479 fa19 c6bf
00000700: 11b7 ecf0 4cae ccbf ec5e a3b0 b5d1 c53f
00000710: 9f7a da6b c89b a13f 6b9e 2b21 d7c0 b4bf
00000720: 4f9e 7a00 3801 cabf a8d0 df6d 37d5 bbbf
00000730: e422 2bf3 5dc4 b63f 848e 5ec6 bf7c d53f
00000740: 58d7 40ab 6cdb 9bbf 6fed ff7f 5813 c3bf
00000750: 612e 0f8d b6cb cdbf 18fd 39fe 697b c63f
00000760: ff90 e351 fa47 bbbf bd9b 30f8 30d5 c23f
00000770: 3e13 8d88 a095 cbbf d2dd 3d1c 456f b3bf
00000780: 7e8d b238 13b3 09c0 4095 30a1 5936 d1bf
00000790: 4f35 d49a dd29 e6bf 5150 0bad b5ea 01c0
000007a0: 53b5 ced9 d220 1040 9c8b 9c6a e38c ee3f
000007b0: 546b d643 8d6f 0140 972e a7a8 02c2 0ec0
000007c0: 2bff ebab 519f fd3f ca01 148c aebe f33f
000007d0: 4a2f db89 92c4 ab3f 6020 f118 7947 f4bf
000007e0: a9da ea2b 9037 ecbf 5cbe 608b acf2 01c0
000007f0: 498d 6e87 c6af 1140 1fab 74d7 d4c9 ee3f

b2 f8 [1, 10]
-0.08108837018879343 0.868804609029713 -0.004908329502051008 -0.28962191490774125 -0.25467535122311585 0.39954730697622387 -0.15487061935441532 0.2553969659064906
-0.5566860673605277 -0.1818982293757828
00000000: affb 0b1a 35c2 b4bf a2b1 cc52 3fcd eb3f
00000010: 8860 07ab c11a 74bf 04f4 2e5b 2a89 d2bf
00000020: 2b70 26d8 994c d0bf 7cbc 2ade 2e92 d93f
00000030: 7686 9eea ccd2 c3bf 6939 0484 6c58 d03f
00000040: 6779 ae4c 5fd0 e1bf 0345 2ff1 7048 c7bf
