experiments/exp_batch_20250114_143214/exp_h25_lr0.01_run1/model/weights.npz (npz, 160046 bytes, 4 tensors)

W1 f8 [784, 25]
000000 d8 4a 42 c9 f6 54 69 bf 47 a3 7c 70 c7 52 93 3f
       -0.003092271808847396 0.018870464554456203
000010 a5 f5 a4 51 07 28 86 3f d7 5f ce e2 15 90 59 3f
       0.010818535975540675 0.0015602315645306586
000020 31 6e ff 36 b3 35 7d bf a8 a2 1e 26 77 d8 56 3f
       -0.0071312904910559175 0.0013943828166508663
000030 72 b8 e4 ac 90 6a 8f bf c8 54 5e 69 c2 ff 87 bf
       -0.01533997562054543 -0.011718291130629402
000040 77 1e 07 c6 17 44 83 3f 3e 76 3b 9a 8e 37 7f bf
       0.009407220583752747 -0.007621342697999687
000050 5a cc 85 5c e3 9f 72 3f 47 fc 58 48 32 12 5c bf
       0.0045470124535880955 -0.0017133227387515924
000060 2a de d6 38 09 69 80 bf ed 38 c5 f5 13 24 82 bf
       -0.008012840315912834 -0.00885787576467264
000070 76 cd 40 b5 a6 14 87 3f 64 80 de e3 bc d8 55 bf
       0.011269857794195853 -0.0013334126119630913
000080 45 ca a9 7c 8f 3a 80 bf 64 12 b0 1c 9b fe 55 3f
       -0.007924195281906363 0.0013424410597064002
000090 e7 70 57 0c 06 7f 6d 3f 80 da d0 58 f8 9b 89 3f
       0.003600608647259407 0.01250452061695495
0000a0 9c 7c ad a9 84 c0 79 3f 0c de 3b 72 7a 0f 46 3f
       0.006287115301204651 0.0006732318765604885
0000b0 5e d3 a2 75 0d d0 87 bf 63 b0 5e 05 20 2c 71 3f
       -0.011627297546832057 0.004192471582353449
0000c0 ed c0 36 75 80 25 97 3f c9 92 7d 16 83 5f 7f 3f
       0.022603995470206795 0.0076594467753678475
0000d0 d6 e6 05 5c 72 91 76 bf 40 ae 5d 76 88 d6 85 bf
       -0.005509802548084605 -0.010663095581285309
0000e0 29 e0 b1 97 24 86 91 3f 7c b4 aa bb fb d0 53 bf
       0.01711327720519776 -0.0012094934778972546
0000f0 70 59 5b 37 c0 b4 7d 3f b1 52 ad 63 af 3a 85 bf
       0.0072524555632383775 -0.010365839223291347
000100 95 ff d2 e7 8c d2 7a 3f 57 90 cc 24 68 19 8f bf
       0.0065484527705733835 -0.015185178397196504
000110 13 c5 f7 a5 8e e9 73 3f db 66 fa 22 66 5f 6a bf
       0.004861409397095134 -0.003219317899333924
000120 83 0e d6 3c c7 d2 70 3f 30 31 04 23 c7 65 88 3f
       0.004107263824497334 0.011912875896563507
000130 70 76 31 6f 93 8a 90 bf 21 08 96 45 f8 44 6f 3f
       -0.01615362516564861 0.003817067056560056
000140 f6 1a 6d ac 64 ad 6c bf 11 f7 00 83 64 32 85 3f
       -0.003500649097449733 0.010350022552411827
000150 f3 3e aa a3 98 0c 7f 3f 28 b6 aa f0 53 7d 76 bf
       0.007580372092561782 -0.005490615740809036
000160 55 03 33 65 9e e1 79 3f 11 39 81 b4 77 77 8b bf
       0.0063186824147017555 -0.013411460109776148
000170 81 bf 8b 33 f9 5f 88 bf 57 7d 15 eb a8 f8 6f 3f
       -0.01190180481486869 0.0039027499375802565
000180 ff 27 49 98 2e 4c 97 3f f0 b6 f1 b4 bc d4 4d bf
       0.022751548809800678 -0.0009103700084673576
000190 92 6e 78 4b 04 86 65 bf f3 6f 17 fa f5 34 6c bf
       -0.0026273807413995176 -0.003443222449943656
0001a0 e5 b1 b9 8c 45 6e 92 3f b0 10 8f 31 43 a0 70 bf
       0.017998778070635785 -0.004059088206251157
0001b0 e1 5a 34 92 6b 9e 88 bf 72 eb 53 77 0c 0d 6f 3f
       -0.012020912551219566 0.003790401790522529
0001c0 04 30 2f 5e 31 b8 8b 3f 43 d8 9e 45 b9 a0 70 3f
       0.013534913718011417 0.004059528082441646
0001d0 b0 0c eb 03 d4 70 7d 3f d6 ba 3b c7 1e 38 88 bf
       0.00718767946699754 -0.011825790839308164
0001e0 be e4 9f 00 81 98 73 bf a4 b7 4c f9 f0 c8 48 bf
       -0.004784110942631146 -0.0007563759450925811
0001f0 51 78 f3 15 76 bd 65 bf 9c c3 48 a0 c2 ad 52 3f
       -0.002653818737242943 0.0011400604863746949
000200 ce 2d bb 6a 21 c5 1d bf 2b 34 ec 55 e9 75 82 bf
       -0.00011356369457898101 -0.009013960775996996
000210 38 6e ba 40 d3 44 77 bf 08 a4 c9 5e c5 3d 90 3f
       -0.0056808712066885245 0.015860637579326237
000220 33 99 82 b9 cd 68 99 bf f3 d4 52 ad 24 fd 60 bf
       -0.024813856551781654 -0.0020738331173456525
000230 ac 5b f2 e6 a1 34 76 bf 1a 13 04 5b a7 c4 64 bf
       -0.0054212879469081425 -0.0025351780569756845
000240 bf e5 d8 7b e2 3c 5b bf 83 51 02 70 60 84 7e 3f
       -0.0016624652629516482 0.007450463017580569
000250 e5 7e 11 5f 13 1d 67 3f 23 28 29 1c 61 37 90 3f
       0.0028214815470589565 0.015836255401417653
000260 04 96 b9 f1 dd df 6c bf de 7a 60 d8 c9 23 81 3f
       -0.0035247168396377333 0.008369042316244298
000270 5e 1a 7a a2 36 0c 46 bf 68 d7 19 ee 49 89 73 3f
       -0.0006728426714780013 0.004769600667364184
000280 b8 3c db 3e df ef 7d 3f 8e 70 25 9f 88 52 6d 3f
       0.007308837941038586 0.0035793941871543116
000290 fc c9 4a 10 5d 78 61 bf ee bc 73 dc 56 1f 5d bf
       -0.0021325891160242066 -0.001777491402943639
0002a0 f3 c0 14 23 f7 af 6e bf a3 36 4b b5 a8 d1 76 3f
       -0.0037460162062857793 0.005571040169071092
0002b0 ba a0 4a 8a fc ef 67 bf 87 dc 3b 4d f0 4f 8a 3f
       -0.0029220516610913546 0.012847783429135852
0002c0 3b 75 2f b8 0a 5d 4b 3f 9c 4b 1a 61 ce 9d 6d bf
       0.0008350660649473549 -0.0036152869077538796
0002d0 ae 4e 89 22 80 d6 73 3f 8a e1 25 c1 2d 2f 74 bf
       0.004843235518439277 -0.00492780564160745
0002e0 29 23 11 bd 1b bc 5d bf 15 2f 5d be 6a 02 79 bf
       -0.0018148680576521392 -0.006105820624565235
0002f0 3b 3d 70 73 9f 9e 8b bf 9a b6 2b 0e 22 41 91 3f
       -0.013486142835999906 0.01685002528659272
000300 9a 97 1b 88 75 3b 68 3f 69 c0 02 bc 2c 56 38 bf
       0.0029580398121308972 -0.00037134735249378395
000310 d0 18 07 9f e0 2f 28 3f 3b 40 92 68 0b 76 71 bf
       0.00018453232725174637 -0.0042629666942418055
000320 f1 9d 44 c4 c2 11 87 3f ee 34 5b 96 b2 58 64 3f
       0.01126434480154523 0.002483700564744332
000330 21 43 41 eb 75 e8 70 bf 9a 74 2a 98 6f 55 7d bf
       -0.0041279417237809765 -0.00716155616342209
000340 45 8b 19 24 0c 6f 95 3f f6 e0 93 bd 16 1e 8b bf
       0.020931424811702532 -0.013240983639193332
000350 39 c1 67 60 f7 47 83 3f 96 8a 43 f0 7b 38 83 bf
       0.009414608602100404 -0.009385078687448794
000360 cc 7f e9 c6 d5 da 91 bf 5c d7 5e b7 29 bb 71 bf
       -0.017436352029448973 -0.004328883127461793
000370 f5 5e df 56 77 08 94 3f 09 45 dc 6f 69 9f 87 3f
       0.019563545872954575 0.011534522749146807
000380 78 9f 3f 6d 30 81 43 bf b6 1a 6f 56 2a 6f 77 bf
       -0.0005952345331907546 -0.005721249944093889
000390 7c 9c dd 62 b7 15 94 3f af b9 8f 82 8b 75 60 bf
       0.019614091309815937 -0.002009174805144918
0003a0 e7 1d 06 af 0f 49 84 bf eb 25 d3 ff 50 18 93 bf
       -0.009904978302769997 -0.018647447218233564
0003b0 21 39 10 6f af 96 94 bf 4f 9e a3 6d 3a b5 64 bf
       -0.020106068757791754 -0.0025278226067831154
0003c0 18 43 a8 d6 51 1d 9b 3f a7 2b d6 1d e3 b0 83 bf
       0.02647903320945763 -0.009614729259529954
0003d0 1e 46 f6 25 ff 9d 58 bf 12 4d e8 cf 5c 23 77 3f
       -0.0015025130922804507 0.005648958728232916
0003e0 4d ed ba 2e ad 93 83 3f 73 36 7b 3c 24 f0 62 bf
       0.00955901430949404 -0.0023117740382534945
0003f0 15 f8 35 a4 de b8 8f 3f a8 f4 25 8c 81 e7 94 bf
       0.015489329706493785 -0.020414375475856034
000400 1b 42 fd f0 66 b2 9e 3f ff 9e 53 79 a1 ab 68 3f
       0.029977425059145895 0.003011527422689286
000410 05 c3 9a a5 c1 cb 35 3f 61 b3 e3 66 56 b5 80 bf
       0.00033257940013257963 -0.008158373846947677
000420 b5 0f e2 b5 ad 82 7f bf 08 ef c4 3c ff 9b 76 bf
       -0.007692984158101203 -0.005519864102378376
000430 45 f0 36 b7 0c a9 7b bf a5 44 ad ec c5 8a 7c bf
       -0.00675301520407962 -0.006968281881954007
000440 08 d6 a0 ac 0f 6a 76 bf ca 7c 49 eb df f3 32 bf
       -0.00547224161896543 -0.00028919426703128955
000450 a7 6a 90 24 f8 b3 94 3f f5 88 18 40 a6 36 88 3f
       0.020217778426835278 0.011822985487985419
000460 60 5b d2 b8 e9 d5 49 3f 7f 98 4d 28 9e eb 76 3f
       0.0007884398670679853 0.005595796396710039
000470 c0 26 02 e9 4d e8 6e 3f c0 8d 95 57 23 b9 9d bf
       0.0037728807147388854 -0.029026558132853486
000480 a9 9c 7f ae ba ad 98 3f 63 64 bd e7 63 57 82 3f
       0.02410022440008378 0.008955746183050011
000490 3e 1b 15 7f 4f f8 35 bf 2c d4 26 6e 41 68 59 bf
       -0.0003352350314184577 -0.0015507353751733717
0004a0 31 e1 3b 7d 13 ba 6f 3f b7 a3 19 72 88 fd 87 3f
       0.0038729077003802005 0.011714044553814291
0004b0 37 f1 f5 e5 ae 4a 94 3f 07 58 5a 51 68 97 7d bf
       0.01981614378517912 -0.007224471560808971
0004c0 65 db f1 d0 4c 87 73 3f 61 d8 db 4b 8a 92 7b bf
       0.004767704070323874 -0.006731548519146897
0004d0 64 65 26 6a 1e 80 4d bf 37 e5 c0 9e 50 55 94 3f
       -0.0009002827176118164 0.019856700601143387
0004e0 aa 05 5c bc 0c b7 75 3f 9a ab 11 5c 99 52 61 3f
       0.0053015229693768404 0.0021145816140708098
0004f0 13 e0 31 e3 9d c9 81 3f e5 92 a0 d5 8a c9 74 3f
       0.008685334678588707 0.005075018236344352
000500 23 7e cb 29 0c c8 70 3f 23 65 dd 59 cc 70 89 bf
       0.004097030174960578 -0.012422176830727388
000510 f1 b3 e4 6b c9 87 72 bf f3 56 0b 82 bc b7 51 3f
       -0.0045240276361200185 0.0010814038179680046
000520 10 00 66 47 da 92 6f 3f ea 49 05 57 55 02 84 bf
       0.0038542044887322005 -0.009770075529250872
000530 ff 31 7d 0b 66 2c 79 bf 4c d6 e2 e6 da 76 98 bf
       -0.006145857441719914 -0.023890896169822803
000540 f1 65 77 9f c7 36 98 3f 28 ff 9a 21 02 3c 59 bf
       0.02364646826558742 -0.0015401860058971793
000550 c1 99 40 46 68 5f 81 3f 97 aa c9 da 9a e9 9a bf
       0.008482756275111638 -0.02628175697683818
000560 9e c2 98 7f 0a 2c 83 3f 07 b2 05 17 24 25 71 3f
       0.009361345309203014 0.004185811020175573
000570 b1 0d c7 8a c0 91 81 bf 80 7c 93 78 54 1e 90 3f
       -0.008578781352190786 0.01574069963396285
000580 ac 3d dc 70 5b 5e 60 3f 5f 61 25 b0 25 95 81 3f
       0.0019981180147465496 0.008585256994294964
000590 63 1a 6e 1e 62 cf 8d 3f b2 bd 6f f0 74 89 8c bf
       0.01455570845952287 -0.013934053027667346
0005a0 c0 95 42 b0 38 38 72 3f 0f 79 32 e2 5c 52 55 bf
       0.004448148192897461 -0.001301375109313666
0005b0 a0 4f c5 72 6d b6 47 3f b5 dd 5b 69 56 4d 8a 3f
       0.00072365135342033 0.012842822161004056
0005c0 94 13 f4 3a b9 e1 92 bf 4f a1 2e 84 0c 50 77 3f
       -0.018439192031127385 0.005691574947299507
0005d0 56 d5 06 de 47 66 68 3f 28 e3 26 ec 20 d1 68 bf
       0.00297845875339912 -0.00302940778894047
0005e0 4f b0 96 1e c8 9c 76 3f b7 52 8e 59 a5 aa 71 3f
       0.0055206124465421854 0.004313131234898896
0005f0 2e f1 7d ab bd e9 86 bf 1a c4 88 37 a2 07 29 3f
       -0.0111880128822511 0.0001909623640741494
000600 4e 1f 6e 7d e3 47 6b 3f 0e c2 7d d8 4e 0a 96 bf
       0.0033301776088058626 -0.021523696864678192
000610 e1 fb b2 2c 42 7b 71 3f 57 fb 24 4b c2 20 48 bf
       0.004267939085535994 -0.0007363270472423394
000620 fc f3 a8 c9 70 87 6b bf 93 fd 67 ed 88 55 72 3f
       -0.003360481537383551 0.004476103661090208
000630 65 12 8d 07 81 e3 8c bf 3f 10 f8 0d a6 a5 79 3f
       -0.014105804484310267 0.006261490488672249
000640 54 f8 68 4c 6f 19 84 3f e1 3c 51 d5 ce c2 7e 3f
       0.009814137954091397 0.007510002081360074
000650 ea 16 bf 7d 68 2d 85 3f 96 39 3b 0a 22 37 16 3f
       0.010340515458561812 8.474488509622175e-05
000660 1a 1f 79 74 cb 80 7f 3f 2b a4 95 08 a9 56 73 3f
       0.007691187616337714 0.004721317565192821
000670 5f 8c 59 bd be 8e 84 bf 4c 57 c9 64 d3 f0 82 bf
       -0.010037889626977213 -0.009248401177653819
000680 71 a1 68 04 06 1d 53 bf 31 b0 d4 84 16 75 8b bf
       -0.001166587711518199 -0.01340692131869767
000690 d7 6d 25 96 3b cb 43 3f b4 7d e9 92 d4 df 61 bf
       0.0006040612172841198 -0.0021819259484769597
0006a0 7e 4c 4e 67 60 61 81 bf 51 e8 cd 0f 79 43 82 3f
       -0.008486512329716197 0.008917756838617093
0006b0 25 a3 25 2a c8 c1 87 bf e9 ce 3e a9 24 f3 8a 3f
       -0.01160007837889194 0.013159071364362744
0006c0 02 2b 8e f6 34 56 70 bf c8 ba 38 03 07 ef 6d bf
       -0.003988463294158919 -0.003654016205266817
0006d0 e4 25 53 32 a2 82 65 3f 7e f9 b3 a4 c2 97 81 bf
       0.002625767507741671 -0.008590241099679426
0006e0 15 a6 d3 fb cf b2 83 3f 06 57 b7 4e 4c 1e 80 3f
       0.009618401405947311 0.007870288994051854
0006f0 ba 2c d3 db db 5d 88 3f 09 38 22 a0 6a 92 78 3f
       0.011897771497748944 0.0059990086612185045
000700 68 f2 c1 30 33 8b 65 3f 9f 04 cc 8c 29 5f 80 bf
       0.002629852277151113 -0.007994007691652092
000710 d8 36 1f 91 23 1e 58 bf b8 ff ed b8 f7 a9 88 3f
       -0.0014720294316136664 0.0120429375945149
000720 c7 bc 05 df 9a d6 82 bf 38 bf 28 9c 64 95 8b 3f
       -0.009198388987640261 0.013468538299178698
000730 57 54 23 e1 7d b3 6b 3f d8 22 97 bb e1 f9 72 bf
       0.0033814867575566 -0.004632837074901551
000740 f6 0c f6 97 e8 0a 90 3f 4c c3 8d 46 5d 03 91 3f
       0.015666612887355456 0.016614396506557313
000750 20 99 6f da 99 13 42 3f 52 f1 1d 29 ca 7b 86 bf
       0.0005516530262610654 -0.010978297595777651
000760 56 19 2c 08 36 b6 76 3f b7 38 d1 c3 bc 79 76 3f
       0.005544863760184112 0.005487191546377604
000770 7a 5f 79 99 8a 82 7b bf 31 41 92 45 d4 15 89 bf
       -0.006716290859536284 -0.012248667119167141
000780 a4 d2 2d 8d c8 50 6f bf 58 29 38 2c b2 5e 8e bf
       -0.0038227002163984825 -0.01482905576178399
000790 33 9d 10 0c 2f 2a 94 3f a0 12 af 63 34 d5 85 3f
       0.01969216834200189 0.010660561840162786
0007a0 0a ea 34 d9 68 d9 70 bf 52 7e e8 34 64 36 95 bf
       -0.004113587917624626 -0.02071529934812439
0007b0 53 2b de 0a e2 61 60 bf 8e 5e 2d 49 d6 2b 5a 3f
       -0.001999799241223435 0.0015973656306495251
0007c0 44 56 01 b5 11 f4 48 bf 4a aa 26 12 e6 2b 92 3f
       -0.0007615171871388567 0.017745585306025803
0007d0 95 4b 7e f3 97 70 85 3f 8a ff 44 f7 1c f3 70 bf
       0.010468661421134043 -0.004138100765260231
0007e0 0e 31 0a 98 02 de 78 bf 0e fe 4c ed c8 24 75 3f
       -0.006071100361293226 0.005162033911630738
0007f0 cc 80 6d 94 99 c1 72 bf 71 5e 9b 60 93 b3 70 bf
       -0.004579162522390056 -0.004077506726126155

b1 f8 [1, 25]
000000 2a a1 69 ba 20 38 c2 bf cb 8f 1e fc 5f f4 c0 3f
       -0.1423378858774041 0.13245773134724312
000010 2a a9 c3 f2 ee eb c3 3f 89 67 cf 83 f9 1e c6 bf
       0.15563761571622453 -0.17282027183574325
000020 a5 33 06 3f c9 9d c4 3f 80 3d d0 f2 5c 08 b4 3f
       0.1610652501807667 0.07825261047422849
000030 f3 b6 8b f1 2e a6 a0 3f 71 7d d7 50 f9 07 ad bf
       0.03251787851864476 -0.05670146095121254
000040 a1 8f ba db a3 b3 c7 3f fb 76 d0 1f 38 fd 7a 3f
       0.18516967991774627 0.006589144931266717
000050 a4 b7 da 64 78 d7 9b bf 81 7c 66 70 50 23 c0 bf
       -0.027189141421949295 -0.1260777043180248
000060 2b 13 69 fa 3b 0a 9a bf 77 42 04 4e 2e 17 a4 3f
       -0.025429665716973176 0.03923935606338074
000070 74 99 37 e0 18 20 c7 bf a1 5d 8a bd 98 7a 66 bf
       -0.18066702793221234 -0.0027440055094520442
000080 78 ba 44 17 8b 6b 98 3f bb 5d 31 03 cc 63 bb bf
       0.02384774522323105 -0.10699153020811185
000090 3d 33 1f d4 11 aa b1 3f b3 b7 3f 99 37 95 c0 bf
       0.06900130680805901 -0.12955374701362884
0000a0 ea 07 cc f3 16 73 a4 3f 1d 50 90 7f f6 7b b3 3f
       0.039940564403892 0.07611027349804585
0000b0 66 7f fa d5 14 e6 c2 3f 99 67 86 9f 4d 13 a3 bf
       0.14764652679604778 -0.037256646846073944
0000c0 2c 14 39 40 e2 ff b4 bf
       -0.0820294768137308

W2 f8 [25, 10]
000000 81 11 f7 ea c9 47 eb 3f b6 b6 4c 5b 56 8b f1 bf
       0.8525132741129228 -1.0965179029839596
000010 37 4a 95 d2 fa e0 ef 3f 3d 86 0a 41 39 82 c1 bf
       0.9962133515312591 -0.13678661037288178
000020 d9 23 9f 82 6f 89 d7 3f 1b ba e1 4c be 73 85 bf
       0.36776340251941303 -0.010474669190640154
000030 98 6c e0 83 36 41 ee 3f 21 a7 66 97 4a 47 ef bf
       0.9454605651584584 -0.9774525601435223
000040 14 e5 c6 cc 39 73 9a bf 51 9c f8 41 46 44 ed bf
       -0.0258301764713212 -0.9145842827318892
000050 12 ff dc d6 37 9d e3 3f 5e 4f 04 62 a1 bb e1 bf
       0.6129416653202233 -0.5541541017905549
000060 c5 b4 df 36 66 86 e6 bf da 8d 1a 9f df 3a e4 bf
       -0.7039061614756511 -0.6321867091650646
000070 9e 5c 10 2e d5 ba ef 3f 33 ed f6 55 5a 8c bf 3f
       0.9915567302404218 0.1232353649019629
000080 b0 e9 fc 48 9d b1 da bf 43 15 c6 62 91 63 da 3f
       -0.4170907223484859 0.412327143152954
000090 13 1d 44 27 1d d3 e5 bf ef cd fa 20 c0 cf ea 3f
       -0.6820207373538402 0.8378601688513622
0000a0 26 07 58 b3 97 20 e5 bf 9b 91 1e 88 c1 fb f8 3f
       -0.6602285864648578 1.5614638631023812
0000b0 69 b7 8a a8 6a 1b e0 bf f9 56 71 2f f9 00 e2 bf
       -0.5033467571099496 -0.5626188208213697
0000c0 cd 5d 48 b1 44 d3 cc 3f fc 1a fe 9d 79 01 c3 3f
       0.22519739776974604 0.1484825154731978
0000d0 3c d0 5f f2 7f a6 e5 3f 34 48 c7 b5 f5 e3 b6 bf
       0.6765746816513523 -0.08941589057874993
0000e0 c0 4c d6 40 be 51 e3 bf ff 03 b8 cd 7e 22 cb bf
       -0.6037284151410844 -0.21199021382201974
0000f0 f4 e1 7e 98 31 48 e3 3f d9 82 ad 8b ce ed f4 bf
       0.6025627115660073 -1.3080583053744503
000100 d9 4b 0b 73 5f 68 e1 3f d5 4e 06 01 aa 8e cf 3f
       0.5439908263164127 0.246541262150109
000110 6a c6 73 1c 1a 73 7f bf e9 25 50 43 91 6e ce 3f
       -0.007678129192969155 0.23774925028582963
000120 d0 7c c2 5b 8f db e1 3f 8b 28 eb bf b1 b2 f1 bf
       0.5580517570669148 -1.1061265465564556
000130 10 69 3d 10 a0 92 d9 3f 9e f5 6a be 99 93 cb bf
       0.3995742949097272 -0.21544191167587895
000140 04 f4 e0 0e 54 8c ea bf 6a 40 dc 94 bd c4 f3 3f
       -0.829629925785071 1.2355323614938478
000150 c9 40 ab ad d3 c3 c5 bf b5 ba cb b0 73 2d dd bf
       -0.17003866176538043 -0.4558991648217828
000160 2b 82 17 18 fd 6b d8 3f 55 52 2d e1 2a bb e1 bf
       0.3815911040565278 -0.5540975950230612
000170 df e8 c7 fb b4 c0 d4 bf 1d 75 a0 03 c2 dd e1 3f
       -0.3242618998334716 0.5583200522266086
000180 f8 ec 9e fc 66 34 e2 bf 2b dd fe a2 44 c4 e7 3f
       -0.5688967641830507 0.7427085097796512
000190 b5 b0 8b 45 1d 24 c2 3f 30 c4 27 95 f0 6a a5 3f
       0.1417271222666209 0.041831510741652145
0001a0 c7 4e 4c be c6 37 d2 bf 9e 2c b1 7f b6 0f ef 3f
       -0.28465431770130717 0.9706680768953395
0001b0 b7 d6 17 e1 a2 2c ee bf e8 4f 1e ac 04 c4 c8 bf
       -0.9429487606382371 -0.19348200229853707
0001c0 78 c4 c2 32 50 01 ed bf aa ac b2 2b 07 97 fb 3f
       -0.9064103118345335 1.7243720728827534
0001d0 28 73 b1 f7 e7 42 e5 bf 57 7e b3 68 9d 63 bd 3f
       -0.6644172513730142 0.11480125242405258
0001e0 71 be a6 3b 5c 5f ef 3f bc 83 98 2e cb 0a d5 bf
       0.9803906598153401 -0.3287837939297409
0001f0 0b 52 96 d2 e6 8d e4 bf 38 ed 4b b3 60 56 f5 3f
       -0.6423219788580935 1.3335883144162164
000200 bf 0b cd 96 b9 2a e8 bf 11 3b 59 86 df 9c f1 3f
       -0.7552154488879451 1.1007991073599366
000210 ea e6 9f 77 b9 53 ee bf a0 2f aa b6 a3 68 d0 3f
       -0.9477202736299806 0.2563866885982353
000220 41 a1 9f 03 47 2b df bf 74 8a c6 7a 18 06 e0 bf
       -0.4870164428125641 -0.5007440946540798
000230 1e 25 85 4f 38 8c de bf a7 ce b1 75 bf ce ea 3f
       -0.47730834737429173 0.8377377794954172
000240 72 cf 30 6c 2c 62 e4 3f 35 ed 5e c8 cd f7 eb 3f
       0.636984072980779 0.8739994920246433
000250 64 1b d9 b6 50 9d eb bf f2 5e de 3e 3e d7 dc 3f
       -0.8629535266162347 0.4506373990966345
000260 9a f0 14 92 f4 0f f4 bf 9f 9d fd d1 1c 1a cd bf
       -1.2538953501053016 -0.22735939267589075
000270 4e 36 e4 fc 92 1e e4 3f 72 06 69 b2 a6 df e3 bf
       0.628732198647137 -0.621051166970757
000280 ac 62 83 1a c5 9b e3 3f 71 f5 02 30 68 12 ec bf
       0.6127648847423948 -0.8772469461179481
000290 24 b3 35 f5 28 4b f0 bf a1 85 51 80 29 94 ef bf
       -1.0183496073252138 -0.986836195585216
0002a0 25 54 1f 65 14 08 e2 3f 5d e7 02 06 42 bd e3 3f
       0.5634862875982704 0.61685277151194
0002b0 e6 2f 31 87 ee 84 f0 3f 97 b9 b9 6d cb 2b d3 3f
       1.0324540406172615 0.2995480128801317
0002c0 3c 0a 9a 29 78 8c e2 bf b9 93 c1 67 14 1e d7 3f
       -0.5796471416982238 0.3612109196895364
0002d0 79 eb 7c f4 dd c1 e1 bf eb c3 02 8f 8f b8 eb 3f
       -0.5549154067187906 0.8662793915919996
0002e0 a9 55 6e 15 fb 0a a9 3f 37 e8 08 f5 61 65 d5 3f
       0.04891190182312794 0.33431290558985743
0002f0 da 49 74 f4 61 78 ee bf 3a 44 26 3b 17 e4 ee 3f
       -0.9521951460358722 0.965343108679128
000300 c9 23 81 d7 0b ca e9 3f 90 83 d1 e9 8e 6c ed bf
       0.8059138497420629 -0.919501740147199
000310 e9 5a ad 0a fd 06 d9 3f 72 b5 be ad a6 d4 ed bf
       0.3910515407819007 -0.9322083848434615
000320 12 eb b9 3d c9 01 e1 3f 29 c5 d7 c6 c8 1c ef bf
       0.5314680295553862 -0.9722637065553147
000330 b8 1d 27 4f 0e ff ed bf 7d 0d a1 5b 29 cb f4 bf
       -0.9373847528412886 -1.2995999888670149
000340 9f a8 c4 7e 80 90 e6 3f a0 aa 6f 2b 24 0b e4 3f
       0.705139396280419 0.6263600204814175
000350 9d dc 3b 67 d5 ac e9 bf 58 9a 62 2e 76 07 e0 3f
       -0.8023478523526993 0.5009108453712754
000360 8e b2 f6 0d 6d 1b ee 3f b1 79 8e 80 23 c6 e5 3f
       0.9408478996970915 0.6804368506307609
000370 f7 bc 7c 9b e6 09 e2 3f a2 83 4b 16 fa c0 f1 bf
       0.5637085949764743 -1.1096135016343642
000380 1d 5e 58 57 8c bd d3 3f 79 b8 db d3 de ca dd 3f
       0.3084441044788678 0.46550722779546266
000390 a7 6f 30 a9 af 32 d7 3f 50 ce 22 ac 87 5c d5 3f
       0.36246863863356754 0.3337725811972847
0003a0 01 5d 74 1d e6 b2 db 3f 0a 8f c0 92 00 97 f5 bf
       0.43279412151737523 -1.3493657810694821
0003b0 54 4f 3d 3c 3a a6 c5 3f 4f 89 34 90 63 37 c7 bf
       0.1691353601587432 -0.18137783566732898
0003c0 4b 75 24 8b 6b f6 f2 bf 18 98 06 ea af 15 ca 3f
       -1.1851611552477432 0.20378683974303224
0003d0 15 08 ed 8a 7f 13 f1 bf df 59 fe 8e cb 41 c4 3f
       -1.067260306052508 0.1582579086504685
0003e0 e4 db a3 78 b5 5d e0 3f be 1b 9d 1f 95 9a d7 3f
       0.5114390712977834 0.36880996787334286
0003f0 71 b9 4d 38 e3 93 ee bf 42 24 92 38 e3 0c dc 3f
       -0.9555526828460598 0.4382865955781804
000400 aa 59 9e 6e a3 50 f0 3f 07 6d 72 7d d4 41 e0 3f
       1.0196871109998065 0.5080358934532406
000410 27 a4 b7 73 fb 76 f2 bf 02 17 3b 95 50 d1 e0 3f
       -1.1540483970841338 0.5255511202492189
000420 45 0d b2 0a f3 91 e0 3f 16 f1 07 50 ae 10 eb bf
       0.5178160866638924 -0.8457862437349231
000430 1f 2c 20 aa a1 a8 e0 3f 22 d7 34 39 e3 71 ed bf
       0.5205849001662307 -0.9201522939026499
000440 9c 75 a5 7d 58 5d e0 3f 0c 52 85 08 64 1d b9 3f
       0.5113947347669412 0.09810471733118947
000450 f5 9d 19 de 82 19 c4 3f e6 f6 f6 0e 90 74 e3 3f
       0.15702854008416947 0.6079788486747162
000460 f2 d5 8b 10 78 35 f3 bf 8a 89 67 44 47 be ca 3f
       -1.2005539556824911 0.20893183555660882
000470 3c 95 75 8a fe 9b d8 3f 20 76 4f 67 7f 5b b7 bf
       0.38452113648812136 -0.09123989364840002
000480 46 12 93 5c 84 51 d3 3f 08 87 72 4d 84 e8 f1 bf
       0.30185040512541084 -1.1192667985237126
000490 2a 7d 3a 71 bd 52 f1 bf 1f 38 95 6e 2e 59 e1 3f
       -1.0827001975047303 0.5421363982984565
0004a0 f9 0e 0a 3a 73 d8 f2 3f a2 17 8d a9 64 27 ec 3f
       1.1778442637595943 0.8798087417169322
0004b0 9e 4d 8d b0 46 02 e1 bf 8e fb 2b 01 5e ba d1 bf
       -0.5315278480797365 -0.276999951500266
0004c0 d4 6f ed 6a 7d a7 e7 bf 97 b7 d2 c3 9e 64 f6 3f
       -0.7391955460002415 1.3995654725399385
0004d0 40 8c 40 a7 5f 1c c2 bf f3 03 6f cb e2 2d e7 3f
       -0.14149089495285416 0.7243513081849627
0004e0 94 1c 8b 2d 01 fd e8 bf 90 f3 fe 90 5a 40 d2 3f
       -0.7808843507308603 0.28517784271007773
0004f0 03 1d 82 41 0c e3 db bf 60 aa 0b 60 e1 7a df 3f
       -0.4357329025010161 0.49187502269220396
000500 ed bb 5d ce e6 e3 eb bf 1b 3d 95 90 01 63 df bf
       -0.8715700178707927 -0.49041785354070705
000510 0d fd 2a 18 03 6e bc 3f 6b 33 ba 55 9b 68 ee 3f
       0.11105365123784257 0.9502693819391487
000520 90 4f aa 94 f3 0d ed 3f 9d 61 b1 28 81 1f e6 bf
       0.9079530624025995 -0.691345767477333
000530 a2 39 93 48 91 65 e6 bf e2 a3 6a 1e 72 f6 e9 3f
       -0.699898378132094 0.811333712966299
000540 e2 4e b5 91 fd ac e8 bf d1 5c 5d b2 09 4c e8 3f
       -0.7711170049537623 0.7592819675145625
000550 f6 ea 2b a9 34 38 f0 bf 2b 26 4a a9 12 38 f4 3f
       -1.013722096277602 1.263689671790767
000560 80 9c 5d 11 17 a7 e7 3f 09 c6 d0 89 0f bc e4 3f
       0.7391467417882183 0.6479566280087862
000570 f4 19 ae 4b 11 86 e4 bf 6a 0e 63 4f a5 b6 ca bf
       -0.6413656690718299 -0.20869890571894995
000580 9f c7 df 24 d9 96 d6 bf 7a 76 1c a8 9b ef d6 bf
       -0.3529570446108838 -0.35837451378925034
000590 c1 82 ad e7 dd cb db 3f 21 ba 29 d8 6b 1c e1 bf
       0.43431804299147464 -0.5347193929608843
0005a0 80 f7 70 b7 2f 3d ee bf ef 19 63 18 df ec c9 3f
       -0.9449690420949395 0.20254124346520494
0005b0 75 09 a8 ea fe dd e6 3f 57 15 e2 f8 67 46 e7 bf
       0.7145990927822782 -0.7273444996832649
0005c0 64 ec b5 a4 76 fe fb 3f 0e c4 73 91 67 cc c8 bf
       1.7496248659142788 -0.19373793222578722
0005d0 c7 cc e6 b6 da 1e f8 3f 05 08 af d3 c6 83 ec bf
       1.5075328011123916 -0.8910860189864712
0005e0 22 57 70 e5 26 68 e5 bf cb 6f ae a0 4c b6 e8 bf
       -0.6689638596751346 -0.7722533357914413
0005f0 29 8e fa 3e 48 90 d5 bf 65 c1 a7 1d a8 69 d9 3f
       -0.33693128729120986 0.3970737733461845
000600 2f 7f 66 42 30 f0 f2 bf aa cc c8 17 36 3a ba 3f
       -1.183639773727872 0.10245073395417373
000610 a6 4b d3 cf c0 75 d7 bf 4e 33 0b c9 27 e8 ec 3f
       -0.366562083200899 0.9033392836223386
000620 d8 11 5f ff d3 f2 cf 3f 49 d6 8a f4 d0 98 f3 bf
       0.24959802598290426 -1.2248086502489903
000630 d9 78 49 00 e0 30 f1 3f 38 9f 6c 9f de 35 d5 3f
       1.0744323741160342 0.33141294068126426
000640 73 a8 89 8d b9 c0 f1 3f 51 d9 5a 6f fd 28 d1 3f
       1.1095519570176549 0.2681268298578248
000650 b3 8f 3a ea 6f 06 f0 3f 3d ec 30 2e bf 43 d8 bf
       1.0015715741692304 -0.37913493643617696
000660 a1 0e 67 39 fd 25 ee bf 11 a2 23 dc ac ad b4 bf
       -0.9421373482841383 -0.08077507376186356
000670 65 80 30 fd e8 f2 d8 bf 19 54 d3 6e ee a5 db 3f
       -0.3898260567239105 0.432002647617368
000680 7a 4c 8e 75 d6 4d d2 bf 56 9c bf ce f5 b7 e7 bf
       -0.28600083808959875 -0.7412060773903117
000690 d1 02 0d 19 9d 75 f2 3f fd 10 0a ed b6 37 ce bf
       1.1537142733142682 -0.23607527326760894
0006a0 1c dc 5e cd a6 33 da bf 8a 05 3a 26 a0 69 e0 bf
       -0.4094025617191066 -0.5128937479604911
0006b0 63 22 80 21 b1 d8 e6 bf 90 a3 a5 8c 3e 31 da 3f
       -0.7139516500765918 0.4092556355959056
0006c0 8a 9c fa 6f a4 99 e0 bf ab 83 7b 15 2e 6d f5 3f
       -0.5187551676834954 1.339155277172021
0006d0 f9 6d 49 0d 36 e8 db bf b1 fc b2 38 37 73 a3 bf
       -0.4360480432276002 -0.037988401099476994
0006e0 3f 8c 0b d1 79 44 e1 bf f5 b8 0c 9d f6 85 d9 3f
       -0.5396088679230003 0.39880147301563734
0006f0 44 22 6b 8a f8 47 b0 bf 71 8e 7f 1c d2 14 d1 bf
       -0.06359818820340829 -0.26689579756769094
000700 8c 19 3a 78 5c 71 ce bf 42 56 fb b3 b4 91 c1 bf
       -0.23783450956780106 -0.1372590903107938
000710 c3 d3 d6 18 ed 8f d2 bf df 97 16 54 41 44 f3 3f
       -0.29003455568027564 1.2041638645837265
000720 92 54 b2 ad ee 1f e6 bf e3 df ae 27 37 7c e5 3f
       -0.6913979904662872 0.6714130187092419
000730 53 16 85 68 55 92 cb 3f 04 b9 57 01 89 94 f0 bf
       0.2154032478667199 -1.0362634708831715
000740 cf ab 4e 8e 53 79 bc 3f 11 01 5a c4 62 cb ea bf
       0.11122629379558123 -0.8373273692123196
000750 0f 0c 52 c8 df 15 d2 3f 4b b3 75 d3 87 89 cc bf
       0.2825850921873902 -0.2229470999258417
000760 d7 10 9e fc 41 cb ec 3f f3 a4 0c 37 17 fa 93 3f
       0.8998117383894407 0.019508707747410047
000770 1e e9 5f 10 8c 25 c2 bf 53 3a 21 30 0e ad e5 3f
       -0.1417708473162031 0.6773749294314463
000780 cf e5 07 d8 ba d5 ea 3f 94 11 07 ca 50 d4 d4 3f
       0.8385900706627413 0.32545871476420385
000790 1a ca da 01 80 06 f1 3f 62 6c 98 53 7b 8c df 3f
       1.064086920971596 0.4929493252145162
0007a0 86 9a 77 df 7d eb f5 bf 5a 87 f5 c8 85 34 e4 bf
       -1.369993088644749 -0.6314114499075274
0007b0 1b 90 e5 19 f5 e2 be 3f 5c ff 58 9d 40 0c a7 bf
       0.12065059549564731 -0.045015353400684716
0007c0 f4 bb 15 11 27 2d c1 3f 6c b1 b6 86 f8 15 ee bf
       0.13419044813369363 -0.9401819831014513

b2 f8 [1, 10]
000000 24 64 1b d9 61 63 9d bf b1 6c ac 95 96 c0 c2 bf
       -0.02869942557922313 -0.1465023260906029
000010 6a 06 6e b9 ef 02 b1 3f fe 65 4d 12 26 1f 98 3f
       0.0664510562619626 0.023556322924695998
000020 b7 44 12 d0 a3 46 b8 bf ac 0a f4 39 fb 57 c5 3f
       -0.0948278792368623 0.16674747781515487
000030 2e cd 4a 23 e1 a2 bd 3f 7d 32 fb 1c cc 7e 97 3f
       0.11576659309030354 0.022944630879282436
000040 f0 b4 7c c8 1b c3 be bf 4c 28 46 24 ea 97 75 bf
       -0.12016461987214533 -0.005271830192564119
